fc0_bias.npy (npy, 608 bytes, 1 tensors)

array f4 [120]
0	0xbdf5e9d0	-0.12007487
1	0x3e3fc8ed	0.18728991
2	0x3e265998	0.16245115
3	0x3eb5a2ab	0.35475668
4	0xbe1ed75e	-0.15511844
5	0xbe918815	-0.28424135
6	0xbd54100f	-0.051773127
7	0x3ea97e54	0.33104193
8	0xbd707d53	-0.05871327
9	0x3e7db45d	0.24775834
10	0x3e0b0b4c	0.13578528
11	0xbe609319	-0.21931113
12	0xbcd0062c	-0.025393568
13	0xbdd4b6a0	-0.103863955
14	0xbe4f6c67	-0.20256196
15	0x3e19fb7e	0.15037343
16	0xbdfd4246	-0.12366156
17	0x3ea9cc1c	0.33163536
18	0xbe13cd65	-0.1443382
19	0xbe76c854	-0.24099857
20	0x3c9609b6	0.018315177
21	0xbd76d06a	-0.060257353
22	0xbdb62526	-0.08893804
23	0x3d945273	0.072422884
24	0xbe1d614f	-0.15369152
25	0x3dda9de3	0.10674646
26	0xbe37a41f	-0.17933701
27	0xbcce8c93	-0.025213515
28	0x3c7aa104	0.015297178
29	0x3dfdae28	0.12386733
30	0xbd5a2ce7	-0.05326548
31	0xbe49a7c6	-0.19692907
32	0x3c5020b0	0.012703106
33	0x3d3dd5b5	0.046346385
34	0xbd6bb8b0	-0.05754918
35	0x3d3bf0ae	0.045883827
36	0x3dde11b4	0.1084322
37	0x3e4a9cc0	0.19786358
38	0x3e5f3c0e	0.21800253
39	0x3e43c679	0.1911868
40	0x3c519747	0.012792415
41	0x3df63d78	0.12023443
42	0xbb488afc	-0.003060042
43	0xbe7dc9bb	-0.24783985
44	0x3dad54bb	0.08463427
45	0x3ea6be6d	0.32567158
46	0x3c664500	0.014054537
47	0x3e2227ae	0.15835449
48	0x3e3f4ab2	0.18680838
49	0x3e278ad6	0.16361555
50	0x3e65d3da	0.22444096
51	0x3e59fec6	0.21288595
52	0x3d17f70b	0.037100833
53	0x3c22c407	0.009934432
54	0x3e6d11fb	0.2315139
55	0x3e22067a	0.15822783
56	0xbcfa7ae4	-0.030576177
57	0xbe09def2	-0.13463953
58	0x3e990443	0.29886064
59	0x3d145ffc	0.03622435
60	0x3eb9a12b	0.36255774
61	0x3e887b5b	0.26656613
62	0x3e5fd499	0.21858443
63	0xbc8b8cce	-0.017034914
64	0xbe763dba	-0.24046984
65	0x3e0d9d82	0.13829616
66	0x3e5e46cd	0.21706696
67	0x3e03c71b	0.12868921
68	0x3e1927c8	0.14956582
69	0xbe0bd249	-0.13654436
70	0x3e6df6a6	0.2323862
71	0xbdcc1656	-0.09965198
72	0xbe749852	-0.2388623
73	0xbe812bdc	-0.25228775
74	0x3e889eda	0.26683694
75	0xbd55b58f	-0.0521751
76	0x3d426294	0.047457293
77	0x3e472be6	0.1945034
78	0xbe03655d	-0.12831636
79	0x3e132b09	0.14371885
80	0xbe76491f	-0.24051331
81	0x3e397be4	0.18113667
82	0xbea235f0	-0.31681776
83	0x3e426479	0.1898364
84	0x3dbffc53	0.09374299
85	0x3da00eb8	0.078153074
86	0xbb1d204a	-0.0023975545
87	0x3df1c65b	0.118054114
88	0x3d644213	0.055727076
89	0x3de3bf40	0.111204624
90	0x3c5ede5a	0.013602817
91	0x3d22b5e2	0.03972424
92	0x3da24694	0.07923618
93	0xbe03536f	-0.12824796
94	0x3e94e9f4	0.29084742
95	0xbe31b8b1	-0.1735561
96	0xbe7655c1	-0.2405615
97	0x3e5c7194	0.21527702
98	0x3e2c1f86	0.168089
99	0xbe5e8c76	-0.21733269
100	0x3d349ecd	0.044096757
101	0x3ce1338b	0.027490398
102	0xbcae9f7b	-0.02131628
103	0x3da81076	0.08206265
104	0x3e1da33f	0.15394305
105	0xbc9c1866	-0.019054603
106	0xb997927c	-0.00028910104
107	0x3e03a1c9	0.12854685
108	0x3e57cead	0.21074934
109	0x3e0d85e3	0.13820605
110	0x3ea35914	0.319039
111	0x3e188f22	0.14898351
112	0x3de33189	0.110934325
113	0x3df4a931	0.11946333
114	0xbd84a39e	-0.0647652
115	0x3e54da2c	0.20786351
116	0xbd134add	-0.035960067
117	0xbd92200b	-0.07135018
118	0xbe210f52	-0.157285
119	0xbe076eb2	-0.1322582
