fc1_bias.npy (npy, 608 bytes, 1 tensors)

array f4 [120]
0.038432103 0.009131023 0.0266111 0.004412897 0.04242404 0.097361125 -0.012999422 0.08679473
0.0744796 0.05834038 0.071836114 0.04341775 -0.013330642 -0.04855746 -0.048747715 0.13184488
0.025727611 0.10374861 0.04681614 -0.04168972 -0.17230172 -0.0073131854 -0.07959811 0.0075097946
-0.03047386 0.08121349 0.005447307 0.041861825 -0.03838067 -0.06309226 -0.09210531 0.06994847
0.00033817353 -0.101343706 -0.0819091 0.16181366 0.032081146 -0.06730483 0.093142785 0.06782164
-0.070447795 0.022311356 -0.052732546 -0.021190668 0.06587261 0.010609073 0.0805509 -0.08481205
0.08397414 -0.101392165 0.09366062 0.058804072 0.024233485 0.08996604 0.050200425 -0.06395274
-0.033489835 0.012051278 0.0856137 -0.0035651575 0.06362411 -0.023105133 0.08232124 0.0033120515
0.082387455 -0.059734564 -0.011925944 -0.009112644 0.020938616 -0.11690216 -0.023358991 0.017538097
0.07564848 -0.005122796 -0.005752177 -0.09063223 -0.14029495 0.09542517 -0.048393358 -0.051194154
0.058917634 0.03336532 -0.040424973 0.051356826 0.09420344 0.03065043 0.08879621 -0.082957976
0.046876367 0.0588724 0.024876846 -0.072669886 0.009365218 -0.041092347 -0.04035951 0.07337048
0.05433574 0.106004104 0.07013803 0.12946685 -0.07352999 -0.04129855 -0.12947805 -0.057427336
0.043625176 0.02637407 -0.042558983 -0.07537808 0.060249865 0.13677095 -0.012868362 0.009348909
-0.06129279 0.017260594 0.06162334 -0.15160024 -0.012223845 0.042533446 0.02970899 0.0645427
00000000: fb6a 1d3d 499a 153c 86ff d93c 109a 903b
00000010: d5c4 2d3d 4565 c73d 87fb 54bc 6fc1 b13d
00000020: c388 983d 53f6 6e3d d01e 933d d0d6 313d
00000030: c468 5abc 30e4 46bd afab 47bd 5802 073e
00000040: b6c2 d23c 277a d43d 48c2 3f3d d7c2 2abd
00000050: dd6f 30be 72a3 efbb 5504 a3bd b914 f63b
00000060: 51a4 f9bc 4253 a63d 537f b23b 4e77 2b3d
00000070: 0d35 1dbd 8436 81bd b5a1 bcbd 2541 8f3d
00000080: e24c b139 4a8d cfbd f5bf a7bd 7bb2 253e
00000090: 8567 033d 1dd7 89bd a5c1 be3d 12e6 8a3d
000000a0: ef46 90bd 4ec6 b63c 15fe 57bd 0d98 adbc
000000b0: 38e8 863d add1 2d3c dff7 a43d f1b1 adbd
000000c0: a2fa ab3d b2a6 cfbd 24d1 bf3d 8adc 703d
000000d0: 4d85 c63c 1d40 b83d f69e 4d3d a7f9 82bd
000000e0: a32c 09bd b972 453c 3c56 af3d 6ba5 69bb
000000f0: 5b4d 823d fa46 bdbc 0a98 a83d 010f 593b
00000100: c1ba a83d 3bac 74bd 0965 43bc 334d 15bc
00000110: 7687 ab3c 666a efbd 5b5b bfbc 0eac 8f3c
00000120: 97ed 9a3d 21dd a7bb c27c bcbb 649d b9bd
00000130: 7ba9 0fbe 466e c33d 1d38 46bd f6b0 51bd
00000140: 9e53 713d 13aa 083d a894 25bd 895b 523d
00000150: bced c03d 9c16 fb3c cada b53d dfe5 a9bd
00000160: 6f01 403d 3024 713d 87ca cb3c f3d3 94bd
00000170: 9270 193c 7350 28bd 0350 25bd 4343 963d
00000180: 278f 5e3d ae18 d93d 87a4 8f3d f592 043e
00000190: e496 96bd ab28 29bd e595 04be ed38 6bbd
000001a0: 50b0 323d 6f0e d83c 5452 2ebd d35f 9abd
000001b0: 90c8 763d af0d 0c3e d2d5 52bc 2b2c 193c
000001c0: 260e 7bbd 1766 8d3c c168 7c3d 183d 1bbe
000001d0: 8646 48bc 8d37 2e3d 4560 f33c f72e 843d
