fc2_bias.npy (npy, 608 bytes, 1 tensors)

array f4 [120]
-0.092379145 0.04073239 0.057006743 0.0046222014 0.07010534 0.053904604 0.02904126 -0.006062336
0.009653977 0.044840835 0.1046006 0.034466937 0.047921743 -0.05561363 -0.103726916 -0.03841277
-0.13084285 0.10286823 -0.057761855 0.0018840798 -0.07733042 0.032443196 0.0064291684 0.04299132
-0.0077110063 -0.09797503 -0.0581905 -0.0057626646 0.036180917 -0.07053725 0.13214801 0.12650296
-0.072500244 -0.006032882 0.03261815 0.022600899 0.10944576 -0.06472428 0.09662877 -0.04438463
0.0020515462 -0.060634244 0.020408753 0.13965085 -0.06128934 0.130703 -0.02332877 -0.0150950095
0.069217406 0.040213596 -0.00033137875 -0.022763008 -0.045006797 0.03477328 0.021906687 -0.04781493
-0.002252492 0.040139798 -0.027064497 -0.03820724 -0.2150543 -0.0132751325 0.06934881 0.003226148
0.07078255 0.064236306 -0.031129949 0.05710226 -0.090288505 -0.08984364 0.019559812 0.08456296
-0.033632547 -0.03643911 0.071579196 0.089627534 0.023879154 0.03909349 0.028788654 0.061060943
0.03582354 0.10860597 0.01482353 0.06561913 -0.054832973 0.07647749 0.040894948 -0.017456582
-0.027247332 0.084649704 0.07558831 -0.11846863 -0.10533941 0.021079164 -0.08046651 0.09416631
-0.036025237 0.023830447 -0.041860234 0.02111435 0.049018256 -0.08034569 0.028209576 0.082733005
0.0598629 0.04428368 0.04645999 0.047168598 0.08277976 -0.012184466 -0.044747192 0.02993753
0.05628292 0.0082561 -0.05681307 0.04085946 0.061223675 -0.059157997 -0.02734852 -0.054615617
00000000: 4731 bdbd 02d7 263d e77f 693d d675 973b
00000010: 6393 8f3d 13cb 5c3d f0e7 ed3c 8fa6 c6bb
00000020: b72b 1e3c 06ab 373d d738 d63d 342d 0d3d
00000030: 9749 443d 1ecb 63bd c76e d4bd b556 1dbd
00000040: abfb 05be 94ac d23d b297 6cbd 3af3 f63a
00000050: 695f 9ebd 28e3 043d c6ab d23b ab17 303d
00000060: 9cac fcbb 22a7 c8bd 2959 6ebd bcd4 bcbb
00000070: 7132 143d d575 90bd cf51 073e fe89 013e
00000080: 027b 94bd 7baf c5bb 9c9a 053d 8525 b93c
00000090: 1925 e03d 2a8e 84bd 4ee5 c53d a8cc 35bd
000000a0: 3c73 063b 9d5b 78bd 4230 a73c a200 0f3e
000000b0: 880a 7bbd 02d7 053e fa1b bfbc 0f51 77bc
000000c0: dbc1 8d3d 03b7 243d e7bc adb9 7d79 babc
000000d0: 0c59 38bd 6d6e 0e3d a775 b33c 97d9 43bd
000000e0: 8b9e 13bb a169 243d 5db6 ddbc 327f 1cbd
000000f0: 3237 5cbe f17f 59bc c006 8e3d c86d 533b
00000100: 71f6 903d 538e 833d 3c04 ffbc 0fe4 693d
00000110: 2ee9 b8bd f1ff b7bd e63b a03c 582f ad3d
00000120: 48c2 09bd 2d41 15bd 1d98 923d a48e b73d
00000130: 379e c33c 7f20 203d 2fd6 eb3c 0a1b 7a3d
00000140: b4bb 123d cf6c de3d 64de 723c 5363 863d
00000150: 8a98 60bd 3ba0 9c3d 7681 273d 1b01 8fbc
00000160: cc35 dfbc d35c ad3d 0bce 9a3d ae9f f2bd
00000170: 30bc d7bd 36ae ac3c a0cb a4bd 44da c03d
00000180: 338f 13bd 1238 c33c a375 2bbd 00f8 ac3c
00000190: 5ec7 483d 488c a4bd c517 e73c ec6f a93d
000001a0: cd32 753d ce62 353d d54c 3e3d dc33 413d
000001b0: 6f88 a93d 5ba1 47bc d548 37bd 8d3f f53c
000001c0: eb88 663d 9844 073c d2b4 68bd 405c 273d
000001d0: adc5 7a3d a84f 72bd 010a e0bc a0b4 5fbd
