neural_networks/Baseline_fp_sd.pt (torch, 129839 bytes, 8 tensors)

1.weight f4 [120, 16]
000000 6e a4 2b 3e 00 ca 42 be c9 50 3d be ed a7 b1 bd
       0.16761944 -0.1902237 -0.18487848 -0.086746074
000010 77 90 f9 3d 88 ee fe 3c 5f dc 62 3d b0 8b e1 bd
       0.121857576 0.0311196 0.055385944 -0.110129714
000020 7a 4b 5b bc 16 89 1d 3e 99 93 a5 3d 8f 0e 13 be
       -0.013384694 0.15384325 0.08084793 -0.14361022
000030 2a b5 6d be 33 78 34 3e 85 27 5d be 43 a8 a8 3e
       -0.2321364 0.17623977 -0.21597107 0.32940874
000040 60 51 7c be 46 1f f9 be 13 3b 26 3e 3b f6 85 3e
       -0.24640417 -0.48656672 0.16233473 0.2616442
000050 86 bb 2c 3e 0a 8e f9 bd f6 41 84 3e 3d 93 63 bd
       0.1686841 -0.12185295 0.25831574 -0.05556034
000060 c5 af 34 3e 71 b5 98 bd af f7 b7 3d 1a 86 86 3d
       0.17645176 -0.07456482 0.08982789 0.065685466
000070 b7 81 b2 3d bc 35 81 be aa 8b 02 be 91 6a 6c 3e
       0.087161474 -0.2523631 -0.1274859 0.23087527
000080 a9 a0 f9 bb 0b 66 ce 3d 4c 83 aa 37 b7 20 be 3d
       -0.007618029 0.10078057 2.032672e-05 0.092835836
000090 2f fd 20 be d3 e3 8b bd 94 1d 44 be 23 4c 00 be
       -0.15721582 -0.068305634 -0.19151908 -0.12529044
0000a0 70 a3 35 3e f6 06 ef bd 88 e5 a5 bc 04 15 4b 3e
       0.17738128 -0.116712496 -0.02025105 0.19832236
0000b0 df d8 2c bd 9c 2c c6 3c c6 00 f9 bd c2 10 a7 be
       -0.042199012 0.024191193 -0.12158351 -0.32629973
0000c0 ba 93 6e 3e 92 ec 4f 3e 4c c0 99 3c ad ee d1 be
       0.2329854 0.20305088 0.018768452 -0.41002408
0000d0 44 9c 58 bb 1b 16 3b bc 43 d7 67 3e eb af a6 bd
       -0.0033052126 -0.011418845 0.2264071 -0.081390224
0000e0 e8 66 d4 3d 2e 72 7a 3d 45 da 3e be fd 17 10 3c
       0.1037119 0.061144046 -0.1863795 0.008794782
0000f0 d6 96 cd 3d 0f 31 70 be 13 4f 79 bd e7 ea 15 3e
       0.10038535 -0.23456214 -0.060866427 0.1464039
000100 b3 db 12 be a7 ce c6 be cf 6b d2 3d c4 e3 99 3e
       -0.14341621 -0.38829538 0.10274469 0.30056584
000110 35 ce 33 be 69 61 1f bd 26 a7 b2 be 26 18 dd bd
       -0.1755913 -0.038911257 -0.3489315 -0.107956216
000120 92 56 5b 3e 3b 3e be 3d ef cc 5b 3d 8c 98 3b 3e
       0.21419743 0.09289213 0.053662237 0.18319911
000130 f0 52 7d bd 55 70 06 be 34 7f c9 bd f1 38 ad bd
       -0.061846673 -0.13128789 -0.09838715 -0.08458126
000140 18 cd 99 be 71 c5 ae 3e d7 76 ea 3d 8e 50 4b bd
       -0.30039287 0.3413501 0.11448448 -0.04963737
000150 09 e3 eb bd 5f 92 57 3e 05 a6 d7 bd 95 6c 87 be
       -0.11517913 0.2105193 -0.105297126 -0.2645003
000160 b1 28 1b 3e 30 fe 77 3e 75 a4 87 3e 25 40 a3 3c
       0.15152241 0.24218059 0.26492658 0.019928047
000170 8e a8 2f bc 52 05 98 3a a0 eb c3 bd 72 aa 0c be
       -0.010721339 0.0011598265 -0.09566426 -0.13736895
000180 55 5e 9d 3e a4 35 e6 bd 98 3a b9 3e 96 d7 64 3d
       0.30736032 -0.112407 0.36177516 0.05586966
000190 c8 c5 dd 3c b9 9c 0a be 3b 23 fa bd ac d6 58 bd
       0.027071849 -0.13536347 -0.12213751 -0.052939102
0001a0 7d 29 3e be 0a bc 87 3e e1 3f 1c 3e 0c cc 73 bd
       -0.18570514 0.2651065 0.15258743 -0.059520766
0001b0 9d e3 8b bb 52 00 33 be 46 2e e4 bc 50 b5 20 bd
       -0.004269077 -0.17480591 -0.027854096 -0.039235413
0001c0 ef 81 17 be 70 35 93 3d 11 2d 04 3e c8 5f 0c be
       -0.1479566 0.07187927 0.12907816 -0.13708413
0001d0 1e c5 b2 3e 47 95 4e be f8 26 f3 3b dc 2a af be
       0.34916013 -0.20174132 0.007420417 -0.34212387
0001e0 7b 33 dc 3d ef e8 9d 3c 77 8b 4a bd cd cc 38 be
       0.107520066 0.01927611 -0.04944941 -0.18046875
0001f0 c3 49 46 3e 9b 76 8c 3c 7f 11 2f 3e 71 f6 b5 bd
       0.19364075 0.0171464 0.17096518 -0.088848956
000200 e4 4a d5 3d 0f be 4f 3e 79 38 de bd 24 38 17 bd
       0.10414675 0.20287345 -0.10850615 -0.036918774
000210 b7 3d ab 3d 20 48 3d be bc b8 12 3e d6 59 bd 3d
       0.083613805 -0.18484545 0.14328283 0.092456505
000220 46 a0 d7 bd c7 3c 6c 3c a9 1f 47 3e d4 ee 4e be
       -0.105286166 0.014418787 0.19445671 -0.20208293
000230 c4 20 81 3e 91 d8 3f 3e 38 39 3f be cd ed 1c 3e
       0.2522031 0.18734957 -0.18674171 0.15325089
000240 57 1c 25 3d c4 8f fd 3d b6 2c 97 3d f7 0f 56 be
       0.04031023 0.12380937 0.07381575 -0.20904528
000250 21 a6 54 3e fb 2f 1e 3e d4 4d 93 3e cd dd 02 be
       0.20766498 0.1544799 0.28770316 -0.12779923
000260 04 ff 83 bd cb 9a 65 3e e4 bf 05 3d f8 9d 01 3d
       -0.06445125 0.2242233 0.032653704 0.03164479
000270 e9 60 4a 3d 49 6c 26 3d dd 06 bc bb ff 7d b8 bd
       0.049408827 0.040630613 -0.005738123 -0.09008407
000280 97 9b 70 3e 7e 28 1c 3e d7 e3 a0 3e 58 85 97 be
       0.23496853 0.15249822 0.31423828 -0.2959392
000290 d1 55 88 3d 23 c3 13 3d a0 78 34 be 60 2a 56 be
       0.06656993 0.03607477 -0.1762414 -0.20914602
0002a0 75 38 f6 bc 4c 63 00 bc 53 44 f6 3c 3f 94 e6 3d
       -0.030056218 -0.007836174 0.030061876 0.112587444
0002b0 eb a8 4d 3c 47 45 6a 3e 56 3d a8 bc 41 02 f4 bd
       0.01255248 0.2287799 -0.02053706 -0.119144924
0002c0 5c 10 43 bd de 80 e5 be 8e 07 75 3e 14 9f d6 3d
       -0.047623023 -0.4482488 0.23928663 0.104795605
0002d0 e4 de 93 3d d0 45 c3 bd f6 75 8f 3d 02 be 1c 3e
       0.072202474 -0.095348 0.07004921 0.15306857
0002e0 52 68 f3 bd 9c 37 92 bd 60 cb 3b be 1c a5 2d bd
       -0.11885132 -0.07139513 -0.183393 -0.04239379
0002f0 62 12 d6 3d 80 86 18 be 6f 0b 87 be c4 ba 09 be
       0.10452725 -0.14895058 -0.2637591 -0.13450152
000300 82 41 06 be 9a f5 9b 3e 98 21 31 3e e2 a0 e3 bd
       -0.13110927 0.30460817 0.17297971 -0.1111467
000310 ee 7f 0e bc 5c 71 12 3b f4 90 7f bd 56 3b 40 bd
       -0.008697493 0.00223454 -0.062394097 -0.046931587
000320 93 7b 37 be a6 7c 81 bb b3 0b 72 be 5f 4e 30 3d
       -0.17918234 -0.003951627 -0.23637275 0.04304349
000330 cd 66 00 3e d7 02 df bd ff d5 77 be e9 6b 89 bd
       0.12539215 -0.108892135 -0.24202727 -0.06710035
000340 30 0f f1 bd 3a 95 94 3e 84 42 a0 3d 94 0f 89 3e
       -0.11770475 0.290201 0.07825187 0.26769698
000350 a3 b2 0d 3e 0a 8f ac 39 93 81 c3 bd 1a a8 82 be
       0.13837676 0.0003291297 -0.09546199 -0.25518876
000360 91 d1 00 be 5b 16 28 bb 71 a9 a9 3e ad 0e 05 3c
       -0.12579943 -0.002564809 0.33137086 0.008121175
000370 7e 12 b5 bd 21 37 24 be 17 2e 2c 3d 03 bb 67 3e
       -0.08841418 -0.16036655 0.042036142 0.22629933
000380 7b 80 2d be 68 1e 6d be 34 bb 40 be 45 d7 41 3e
       -0.16943543 -0.2315613 -0.18821412 0.18929775
000390 aa fb 2a bc e3 f5 11 be c4 fe 4a be d0 15 30 be
       -0.010435978 -0.14253955 -0.19823748 -0.17195821
0003a0 e4 82 75 be 8c 47 0b 3e 2a f4 31 be 7c 63 60 be
       -0.23975712 0.13601512 -0.17378297 -0.2191295
0003b0 3a 3c b2 bd 53 91 ef 3c c5 3a c6 3d 5a 1c 25 be
       -0.087028936 0.0292441 0.09679178 -0.16124097
0003c0 f0 af 2b be 41 59 c0 be fb c7 2f 3e 90 69 24 be
       -0.16766334 -0.37568095 0.1716613 -0.16055894
0003d0 4e dc e8 3d e8 e1 13 3e c9 15 74 bd 8b 58 60 3d
       0.11370145 0.14441645 -0.05959109 0.05477194
0003e0 e3 ad 5b be 87 d6 ab be be 13 59 3e 1c 93 8e 3d
       -0.21453051 -0.3356211 0.21198937 0.06961653
0003f0 79 13 d6 3b f1 7b 16 be 44 1b 38 3d a5 f3 6e 3e
       0.006533083 -0.14695717 0.044947878 0.2333513

1.bias f4 [120]
000000 d0 e9 f5 bd ed c8 3f 3e 98 59 26 3e ab a2 b5 3e
       -0.12007487 0.18728991 0.16245115 0.35475668
000010 5e d7 1e be 15 88 91 be 0f 10 54 bd 54 7e a9 3e
       -0.15511844 -0.28424135 -0.051773127 0.33104193
000020 53 7d 70 bd 5d b4 7d 3e 4c 0b 0b 3e 19 93 60 be
       -0.05871327 0.24775834 0.13578528 -0.21931113
000030 2c 06 d0 bc a0 b6 d4 bd 67 6c 4f be 7e fb 19 3e
       -0.025393568 -0.103863955 -0.20256196 0.15037343
000040 46 42 fd bd 1c cc a9 3e 65 cd 13 be 54 c8 76 be
       -0.12366156 0.33163536 -0.1443382 -0.24099857
000050 b6 09 96 3c 6a d0 76 bd 26 25 b6 bd 73 52 94 3d
       0.018315177 -0.060257353 -0.08893804 0.072422884
000060 4f 61 1d be e3 9d da 3d 1f a4 37 be 93 8c ce bc
       -0.15369152 0.10674646 -0.17933701 -0.025213515
000070 04 a1 7a 3c 28 ae fd 3d e7 2c 5a bd c6 a7 49 be
       0.015297178 0.12386733 -0.05326548 -0.19692907
000080 b0 20 50 3c b5 d5 3d 3d b0 b8 6b bd ae f0 3b 3d
       0.012703106 0.046346385 -0.05754918 0.045883827
000090 b4 11 de 3d c0 9c 4a 3e 0e 3c 5f 3e 79 c6 43 3e
       0.1084322 0.19786358 0.21800253 0.1911868
0000a0 47 97 51 3c 78 3d f6 3d fc 8a 48 bb bb c9 7d be
       0.012792415 0.12023443 -0.003060042 -0.24783985
0000b0 bb 54 ad 3d 6d be a6 3e 00 45 66 3c ae 27 22 3e
       0.08463427 0.32567158 0.014054537 0.15835449
0000c0 b2 4a 3f 3e d6 8a 27 3e da d3 65 3e c6 fe 59 3e
       0.18680838 0.16361555 0.22444096 0.21288595
0000d0 0b f7 17 3d 07 c4 22 3c fb 11 6d 3e 7a 06 22 3e
       0.037100833 0.009934432 0.2315139 0.15822783
0000e0 e4 7a fa bc f2 de 09 be 43 04 99 3e fc 5f 14 3d
       -0.030576177 -0.13463953 0.29886064 0.03622435
0000f0 2b a1 b9 3e 5b 7b 88 3e 99 d4 5f 3e ce 8c 8b bc
       0.36255774 0.26656613 0.21858443 -0.017034914
000100 ba 3d 76 be 82 9d 0d 3e cd 46 5e 3e 1b c7 03 3e
       -0.24046984 0.13829616 0.21706696 0.12868921
000110 c8 27 19 3e 49 d2 0b be a6 f6 6d 3e 56 16 cc bd
       0.14956582 -0.13654436 0.2323862 -0.09965198
000120 52 98 74 be dc 2b 81 be da 9e 88 3e 8f b5 55 bd
       -0.2388623 -0.25228775 0.26683694 -0.0521751
000130 94 62 42 3d e6 2b 47 3e 5d 65 03 be 09 2b 13 3e
       0.047457293 0.1945034 -0.12831636 0.14371885
000140 1f 49 76 be e4 7b 39 3e f0 35 a2 be 79 64 42 3e
       -0.24051331 0.18113667 -0.31681776 0.1898364
000150 53 fc bf 3d b8 0e a0 3d 4a 20 1d bb 5b c6 f1 3d
       0.09374299 0.078153074 -0.0023975545 0.118054114
000160 13 42 64 3d 40 bf e3 3d 5a de 5e 3c e2 b5 22 3d
       0.055727076 0.111204624 0.013602817 0.03972424
000170 94 46 a2 3d 6f 53 03 be f4 e9 94 3e b1 b8 31 be
       0.07923618 -0.12824796 0.29084742 -0.1735561
000180 c1 55 76 be 94 71 5c 3e 86 1f 2c 3e 76 8c 5e be
       -0.2405615 0.21527702 0.168089 -0.21733269
000190 cd 9e 34 3d 8b 33 e1 3c 7b 9f ae bc 76 10 a8 3d
       0.044096757 0.027490398 -0.02131628 0.08206265
0001a0 3f a3 1d 3e 66 18 9c bc 7c 92 97 b9 c9 a1 03 3e
       0.15394305 -0.019054603 -0.00028910104 0.12854685
0001b0 ad ce 57 3e e3 85 0d 3e 14 59 a3 3e 22 8f 18 3e
       0.21074934 0.13820605 0.319039 0.14898351
0001c0 89 31 e3 3d 31 a9 f4 3d 9e a3 84 bd 2c da 54 3e
       0.110934325 0.11946333 -0.0647652 0.20786351
0001d0 dd 4a 13 bd 0b 20 92 bd 52 0f 21 be b2 6e 07 be
       -0.035960067 -0.07135018 -0.157285 -0.1322582

3.weight f4 [120, 120]
000000 e7 b9 da 3d 79 72 de 3c cd d4 c3 3c fb 79 c0 3d
       0.10679989 0.027154194 0.023905182 0.09398266
000010 d1 0f eb bc ae a4 5e ba f4 0e a0 3d 5b 13 7b bd
       -0.028694065 -0.0008493167 0.07815352 -0.061297756
000020 81 6e c8 ba ec 22 1e 3c 62 a5 92 3b cb df 94 bc
       -0.0015291722 0.009651881 0.0044752816 -0.018173119
000030 e8 1a f8 3c 6f b1 be 3c 6c cd 75 3c 54 e6 88 bd
       0.030286267 0.023277966 0.01500259 -0.066845566
000040 ed 4d 49 3d 57 af 61 bd 95 18 d3 3d 95 25 a9 3c
       0.04914658 -0.055098858 0.10307423 0.020647803
000050 59 28 46 3b 17 d8 4d 3c 65 4f 7c bd 07 02 16 3e
       0.0030236451 0.012563727 -0.061599154 0.14649211
000060 cf eb b7 3d 9e 75 29 3d 87 73 d7 ba 29 b3 65 3c
       0.08980524 0.041371934 -0.0016437628 0.014019766
000070 28 ee b1 bc e8 d4 45 3d 8e a0 2f 3d a0 36 3c bd
       -0.021720007 0.048298746 0.042877726 -0.045950532
000080 51 76 80 3d eb 7e ed 3c f6 84 8f 3c 3a e1 0c 3e
       0.06272567 0.028991183 0.017519455 0.13757792
000090 7c 9c 4a 3d a3 be 01 3b d2 09 3d 3d 7a e2 94 3c
       0.04946564 0.0019797466 0.046151944 0.018174399
0000a0 f1 b3 e4 3c bc cc bb 3c d8 6b 23 be 64 fb d2 bd
       0.027917834 0.022924773 -0.15959108 -0.10301855
0000b0 be 94 4b 3b 4f 5a 16 be 3b df 55 3d 95 6a 5a 3d
       0.0031064 -0.14682887 0.052214842 0.0533243
0000c0 c0 1c d8 bc 7f 5b ba 3b f5 cc c5 bc 96 05 53 3c
       -0.026380897 0.0056871767 -0.024145583 0.01287975
0000d0 dc 78 40 bd 76 79 61 3d 57 95 ba 3d 05 c5 2d bd
       -0.04699026 0.055047475 0.091105156 -0.04242422
0000e0 46 1c 2e bd 30 1e d2 bd 70 3a 9f 3d 71 15 45 bc
       -0.042507432 -0.10259664 0.07774818 -0.012029038
0000f0 0e 6a 71 bd 9d ae 9c bd dd 0f 32 bd d3 15 15 bd
       -0.058939032 -0.07650492 -0.04347216 -0.036397766
000100 a9 1d dd 3d ff 3c 9b 3c 36 6b 9a bd f3 d0 8d bc
       0.10796673 0.018949984 -0.0753998 -0.017311549
000110 5e c1 9c bc 7f 6f 04 ba 45 a8 33 bd 64 ec af 3d
       -0.019135173 -0.00050520146 -0.043861646 0.0859001
000120 81 0e 1f 3e 30 ed 33 bd e1 b6 08 bd 4b ae 32 bd
       0.15532877 -0.04392737 -0.033377532 -0.04362325
000130 96 d2 04 bd 3b e3 ba 3d 28 5c 22 bd be bd 2f bc
       -0.032427393 0.09125372 -0.03963867 -0.01072639
000140 eb f9 04 3e 2f 22 e3 bc d3 1c 19 be 1c 87 7d 3d
       0.12985961 -0.027726261 -0.14952402 0.06189643
000150 0f ab 56 3d ce dc 8f 3d 0b c0 01 bd 62 fd 00 3c
       0.052409228 0.07024537 -0.031677287 0.007872911
000160 1c b8 a1 3d aa a4 bb bd 77 38 e8 3c 89 1e 5b 3c
       0.07896444 -0.091622666 0.028347237 0.013373979
000170 43 63 c7 bc f1 30 ab 3d 36 64 00 bd 4c 16 f8 3c
       -0.024339324 0.08358944 -0.03134557 0.03028407
000180 7e a5 a0 bc ad 8f ac bd c3 30 b2 3d 4e ae 9c bc
       -0.019610163 -0.084258415 0.08700707 -0.019126084
000190 f5 a9 5c 3d e1 34 b0 bd 75 3f 14 bc 4b 71 45 bd
       0.05387302 -0.08603836 -0.009048332 -0.048203748
0001a0 83 ea 9a 3d 95 2d 82 bd 2c a0 b5 bc 2b f5 03 3d
       0.07564261 -0.0635635 -0.022171102 0.032216232
0001b0 be 0c ab 3d 01 7a c8 bd 36 4f 09 3d d5 83 2a bc
       0.0835204 -0.097888954 0.033522807 -0.010407408
0001c0 6e 35 55 bd f5 de a5 3d a6 a0 ae bd 85 3f 2a bd
       -0.052052908 0.08099166 -0.08526735 -0.041564483
0001d0 2b 43 35 bb 80 70 d7 3d dd 15 89 3c 8b 57 34 3d
       -0.0027658443 0.105195045 0.016734058 0.0440288
0001e0 1e 36 9f 3d 2b e8 ab bd eb 09 ae 3d e7 06 d6 3d
       0.07773994 -0.08393892 0.084979855 0.10450535
0001f0 d6 84 05 3d 93 0f 7c 3d 7a f0 85 bd 56 1f bb 3c
       0.032597385 0.06153829 -0.06540008 0.02284209
000200 93 ec 6a bc 79 7a 0d 3d f8 08 f2 3d 7e 32 c4 3a
       -0.01433863 0.034540627 0.11818117 0.0014968661
000210 78 20 0d bd 01 55 4a bc 18 14 e2 bb be e2 8f bc
       -0.034454793 -0.012349368 -0.006899368 -0.017564174
000220 c8 19 9a bc bd 4e 86 3d 91 14 22 3c a6 3e a8 bd
       -0.018811122 0.06557987 0.009892599 -0.08215074
000230 f3 4e 9e bc 31 cf 2d 3d 62 1e 6b bd b4 35 7e bc
       -0.019324755 0.04243392 -0.057402022 -0.0155157335
000240 fb 2c 78 3d e9 57 b1 bd 39 ea df bd 51 87 89 3d
       0.06058977 -0.08659346 -0.10933346 0.06715263
000250 d7 fa 3f 3d c3 8c 6f bd f2 cb e1 3d b2 ea a5 3c
       0.04687008 -0.05848385 0.110252276 0.020253513
000260 61 ff ab 3d 64 5b 1c 3d 26 3c 2b bc f7 98 be 3d
       0.08398319 0.038173094 -0.010451352 0.093065195
000270 6b 55 0b 3e ed a2 97 3a df 67 2f 3d 20 e7 36 bd
       0.13606803 0.0011568941 0.04282367 -0.04465401
000280 96 bb 88 3c 5a 8a b8 3d bd 95 1a 3e df 77 58 bc
       0.01669101 0.090107635 0.15096183 -0.013212173
000290 fd 26 f9 bd b3 a7 0e bd e4 74 ad bd b5 2a 00 bd
       -0.121656395 -0.0348279 -0.08469561 -0.03129073
0002a0 1a bb 8d 3d 45 d2 81 bd cd 8a 9c 3c e3 64 e4 3b
       0.069204524 -0.06338934 0.019109154 0.0069700344
0002b0 59 58 e7 3d c5 71 a8 bd 07 6a 2a bd 98 44 0e be
       0.11296148 -0.08224825 -0.04160502 -0.13893354
0002c0 f6 8c 94 bd e0 31 2f bb fb ae cb bd ca 40 b8 3d
       -0.07253449 -0.0026732609 -0.09945484 0.089967325
0002d0 50 a1 74 bd 10 30 3b 3d 8e 4a 35 bb b1 ec 72 bc
       -0.059724152 0.045700133 -0.0027662846 -0.014826939
0002e0 7e 5e a5 3d a5 6b ce bd 1d e7 a8 bc a5 55 77 ba
       0.080746636 -0.10079125 -0.020618016 -0.0009435064
0002f0 69 36 99 3d fc 4b d0 bd 3e 48 ca bb 5a be ae 3c
       0.07481081 -0.10170743 -0.0061731627 0.021331001
000300 9f 64 6c 3d 24 fa bc bd 23 2f 22 3d 46 a3 a7 3d
       0.057713147 -0.09227398 0.039595734 0.08185439
000310 ef 9e 83 3d bf ae 08 be 50 75 f0 bc 44 3b e9 bc
       0.064267986 -0.1334791 -0.029352814 -0.028470643
000320 93 3f 86 3b ab 89 5b bb 79 ce f1 3b 8c d8 1b 3e
       0.004096934 -0.0033498805 0.00737935 0.15219325
000330 7a 97 24 3e 2b 50 33 3b 81 33 ea bc f3 8c c4 bc
       0.16073409 0.0027361016 -0.028589012 -0.023992991
000340 c1 ef 17 bc bb d2 e1 bc 76 41 ed 3c cf 84 98 3d
       -0.00927347 -0.027566304 0.028961878 0.07447206
000350 1d 92 a9 bc 95 f4 1d 3d 26 c0 58 bd fb fc a6 bd
       -0.020699555 0.03856333 -0.052917622 -0.08153721
000360 f2 c2 a0 3d 0a 93 9e 3d 38 e6 aa 3c 14 ef ae bc
       0.07849683 0.07742889 0.02086173 -0.021354236
000370 8d f1 1d 3d 24 7f 2e 3d f2 2c 7c bc d7 55 d1 3d
       0.03856044 0.04260172 -0.015391575 0.10221451
000380 0a b9 bc bc ec d2 33 bd bc e5 07 3e cc c0 25 3d
       -0.023037452 -0.043902323 0.1327123 0.04046707
000390 9a c8 e4 3d 96 39 5e bd f8 df 95 bc 4b f7 01 3d
       0.11171074 -0.054254137 -0.018295273 0.031729978
0003a0 da c3 d3 3d d2 bb 28 bd 3f 24 4e 3d 95 2f 1f 3a
       0.1034009 -0.041194744 0.050327536 0.0006072459
0003b0 12 1b 0c 3d 34 93 ee 3c 23 c3 7d bd fb d4 e1 3d
       0.034205504 0.029122926 -0.061953675 0.11026951
0003c0 c2 e4 59 3c 0e 0a cd 3d e5 c2 0b bd 26 54 15 bc
       0.013299169 0.100116834 -0.034121413 -0.009114301
0003d0 4d ca b7 bc 05 fb 4b bc e0 90 85 3b f8 e9 8a bd
       -0.022435332 -0.012449984 0.0040761083 -0.06782907
0003e0 36 d9 55 3d 21 4b 60 bd c5 c7 23 bd 23 6a dc bc
       0.0522091 -0.05475915 -0.039985437 -0.026906079
0003f0 ff f5 6a bd 81 ce 25 3d 98 e9 68 3c be 23 e8 3d
       -0.057363506 0.04048014 0.014215849 0.11334942

3.bias f4 [120]
000000 fb 6a 1d 3d 49 9a 15 3c 86 ff d9 3c 10 9a 90 3b
       0.038432103 0.009131023 0.0266111 0.004412897
000010 d5 c4 2d 3d 45 65 c7 3d 87 fb 54 bc 6f c1 b1 3d
       0.04242404 0.097361125 -0.012999422 0.08679473
000020 c3 88 98 3d 53 f6 6e 3d d0 1e 93 3d d0 d6 31 3d
       0.0744796 0.05834038 0.071836114 0.04341775
000030 c4 68 5a bc 30 e4 46 bd af ab 47 bd 58 02 07 3e
       -0.013330642 -0.04855746 -0.048747715 0.13184488
000040 b6 c2 d2 3c 27 7a d4 3d 48 c2 3f 3d d7 c2 2a bd
       0.025727611 0.10374861 0.04681614 -0.04168972
000050 dd 6f 30 be 72 a3 ef bb 55 04 a3 bd b9 14 f6 3b
       -0.17230172 -0.0073131854 -0.07959811 0.0075097946
000060 51 a4 f9 bc 42 53 a6 3d 53 7f b2 3b 4e 77 2b 3d
       -0.03047386 0.08121349 0.005447307 0.041861825
000070 0d 35 1d bd 84 36 81 bd b5 a1 bc bd 25 41 8f 3d
       -0.03838067 -0.06309226 -0.09210531 0.06994847
000080 e2 4c b1 39 4a 8d cf bd f5 bf a7 bd 7b b2 25 3e
       0.00033817353 -0.101343706 -0.0819091 0.16181366
000090 85 67 03 3d 1d d7 89 bd a5 c1 be 3d 12 e6 8a 3d
       0.032081146 -0.06730483 0.093142785 0.06782164
0000a0 ef 46 90 bd 4e c6 b6 3c 15 fe 57 bd 0d 98 ad bc
       -0.070447795 0.022311356 -0.052732546 -0.021190668
0000b0 38 e8 86 3d ad d1 2d 3c df f7 a4 3d f1 b1 ad bd
       0.06587261 0.010609073 0.0805509 -0.08481205
0000c0 a2 fa ab 3d b2 a6 cf bd 24 d1 bf 3d 8a dc 70 3d
       0.08397414 -0.101392165 0.09366062 0.058804072
0000d0 4d 85 c6 3c 1d 40 b8 3d f6 9e 4d 3d a7 f9 82 bd
       0.024233485 0.08996604 0.050200425 -0.06395274
0000e0 a3 2c 09 bd b9 72 45 3c 3c 56 af 3d 6b a5 69 bb
       -0.033489835 0.012051278 0.0856137 -0.0035651575
0000f0 5b 4d 82 3d fa 46 bd bc 0a 98 a8 3d 01 0f 59 3b
       0.06362411 -0.023105133 0.08232124 0.0033120515
000100 c1 ba a8 3d 3b ac 74 bd 09 65 43 bc 33 4d 15 bc
       0.082387455 -0.059734564 -0.011925944 -0.009112644
000110 76 87 ab 3c 66 6a ef bd 5b 5b bf bc 0e ac 8f 3c
       0.020938616 -0.11690216 -0.023358991 0.017538097
000120 97 ed 9a 3d 21 dd a7 bb c2 7c bc bb 64 9d b9 bd
       0.07564848 -0.005122796 -0.005752177 -0.09063223
000130 7b a9 0f be 46 6e c3 3d 1d 38 46 bd f6 b0 51 bd
       -0.14029495 0.09542517 -0.048393358 -0.051194154
000140 9e 53 71 3d 13 aa 08 3d a8 94 25 bd 89 5b 52 3d
       0.058917634 0.03336532 -0.040424973 0.051356826
000150 bc ed c0 3d 9c 16 fb 3c ca da b5 3d df e5 a9 bd
       0.09420344 0.03065043 0.08879621 -0.082957976
000160 6f 01 40 3d 30 24 71 3d 87 ca cb 3c f3 d3 94 bd
       0.046876367 0.0588724 0.024876846 -0.072669886
000170 92 70 19 3c 73 50 28 bd 03 50 25 bd 43 43 96 3d
       0.009365218 -0.041092347 -0.04035951 0.07337048
000180 27 8f 5e 3d ae 18 d9 3d 87 a4 8f 3d f5 92 04 3e
       0.05433574 0.106004104 0.07013803 0.12946685
000190 e4 96 96 bd ab 28 29 bd e5 95 04 be ed 38 6b bd
       -0.07352999 -0.04129855 -0.12947805 -0.057427336
0001a0 50 b0 32 3d 6f 0e d8 3c 54 52 2e bd d3 5f 9a bd
       0.043625176 0.02637407 -0.042558983 -0.07537808
0001b0 90 c8 76 3d af 0d 0c 3e d2 d5 52 bc 2b 2c 19 3c
       0.060249865 0.13677095 -0.012868362 0.009348909
0001c0 26 0e 7b bd 17 66 8d 3c c1 68 7c 3d 18 3d 1b be
       -0.06129279 0.017260594 0.06162334 -0.15160024
0001d0 86 46 48 bc 8d 37 2e 3d 45 60 f3 3c f7 2e 84 3d
       -0.012223845 0.042533446 0.02970899 0.0645427

5.weight f4 [120, 120]
000000 40 77 f2 bc ea fe 71 3b 8b 06 ac 3b d2 37 5b 3d
       -0.029597878 0.0036925622 0.0052498034 0.05352003
000010 32 f1 28 3d ee 0b da bd 0f 5a 6d bd 56 83 b0 3c
       0.041245647 -0.10646807 -0.057947215 0.021547
000020 a2 fb de 3d ed 09 72 3c 2a 8f 3d be 0a 18 13 be
       0.10887839 0.014772874 -0.18511644 -0.14364639
000030 c1 3f f6 bc 24 01 1a be 44 c3 dc bd 65 fd cf 3d
       -0.030059697 -0.15039498 -0.107794315 0.10155753
000040 47 a2 6e bb 74 7b 32 3d fe 7b b3 3d 12 fe d1 bd
       -0.0036412643 0.043574765 0.08763884 -0.10253538
000050 fa 4b e4 bc cf 84 61 be 3c 42 61 bc e7 31 92 bc
       -0.02786826 -0.22023319 -0.013748702 -0.01784606
000060 20 cf d7 3a 56 2e 3a 3d bb 8b b1 bc 62 eb 39 3d
       0.0016464926 0.045454346 -0.021673074 0.045390494
000070 7f 3a 3a 3d e8 71 5c 3d c5 4a 53 bc f8 b1 17 3e
       0.045465942 0.053819567 -0.012896244 0.14813983
000080 65 e7 4c bd 25 ce 20 3e 73 76 4e be db 1c c9 bd
       -0.050025363 0.15703638 -0.20162372 -0.09819957
000090 c7 e4 03 3e ee 3b 91 3d 98 1d ce bd b2 53 06 3c
       0.1288024 0.07091509 -0.10064238 0.008198665
0000a0 96 7d a8 3d 1c 69 ba 3b 80 1a a8 3d b9 70 05 be
       0.082270786 0.0056887995 0.082081795 -0.13031282
0000b0 16 f0 5d bd cc a3 04 3c 18 00 a6 3b 91 67 dc 3d
       -0.054184042 0.008095693 0.005065929 0.10761941
0000c0 36 e4 e8 3d b6 15 c0 3d b4 6d 5c bd e9 eb 3b be
       0.11371653 0.09379141 -0.05381556 -0.18351711
0000d0 71 25 09 3d 2d 2c 01 3d 5c c6 48 ba 8f 5c 13 3e
       0.033482973 0.03153627 -0.00076589524 0.14390777
0000e0 71 c1 0e 3d c0 9c ac bd 4e 5c 2f 3e 52 1e 9f 3c
       0.03485245 -0.08428335 0.17125055 0.019423638
0000f0 cb 52 0f 3d f7 95 d5 bc c5 8e 27 be 8a c8 f7 bd
       0.034991067 -0.026072485 -0.16363056 -0.12098797
000100 f2 aa 1a 3d e7 a3 cd 3d 2f 56 e0 3d 0e 74 15 bd
       0.037760682 0.100410275 0.10953938 -0.03648763
000110 4d d9 81 bd 8d 7f 20 3e 70 1c ff bd 25 5d 83 bd
       -0.06340275 0.15673657 -0.12456596 -0.0641425
000120 3c 74 36 bb 43 47 1b 3d 16 9b 54 3e f4 5a f0 3c
       -0.0027840277 0.037909757 0.20762286 0.029340245
000130 fa e6 81 3d d9 ae 3b bb 8e 58 38 3d 8f 2c 11 be
       0.063428834 -0.0028638153 0.045006327 -0.14177154
000140 b6 62 83 bd 0b 80 21 bd 4f 2a cb 3d f7 ba 04 bd
       -0.06415312 -0.039428752 0.09920179 -0.032404866
000150 ae 27 c2 bd 74 ef a5 3c a3 bd d8 3d 18 1c 3a bd
       -0.094802245 0.020255782 0.10583045 -0.04543695
000160 c1 50 25 3d 38 43 84 bd c0 1b b2 bc 07 3a 1a bc
       0.040360216 -0.064581335 -0.021741748 -0.009413249
000170 e2 ce fb 3d 6c d8 67 3d 2c 1b 2c 3b 30 ba 96 3c
       0.12295319 0.05660288 0.0026261313 0.018399328
000180 34 0a 9f bd 1f 7e 8d 3d 21 ce 01 bd 55 cc 7d bc
       -0.07765618 0.06908821 -0.03169072 -0.015490611
000190 93 38 2c bc 17 a5 60 bd 65 60 fd 3d 66 17 62 bd
       -0.010511535 -0.054844942 0.123719014 -0.055198096
0001a0 c1 f6 33 3d 10 85 5f 3d 12 df cb 3d a5 d8 99 3d
       0.043936495 0.054570258 0.09954657 0.07512025
0001b0 b0 ef 3f bd b5 52 ad bc d7 77 4b bd 68 19 ff bd
       -0.046859443 -0.021157602 -0.049674835 -0.12456018
0001c0 69 c5 8b 3d 4a 67 1e bc 5c 14 7a be d7 84 3a 3e
       0.068247624 -0.009668181 -0.24421829 0.18214737
0001d0 a5 72 c9 3d 4e c6 f7 3c 9c 92 dd bc f1 d4 df 3d
       0.0983632 0.030245926 -0.027047448 0.10929287
0001e0 59 38 cc bc 06 87 bb 3d b5 64 5a 3d 15 69 96 3d
       -0.024929212 0.09156613 0.053318698 0.073442616
0001f0 a8 52 8b bd 15 f8 cd 3d 8d 66 8f 3c 9d 2f 5d 3d
       -0.06802875 0.100570835 0.017504955 0.054000486
000200 fd 60 b8 3c 39 00 b9 bd 31 1d 51 be 22 98 2a 3c
       0.022507185 -0.090332456 -0.20421292 0.010412248
000210 3b d1 cf bb 95 1b 3e 3b f7 8a 07 bd 17 8d 3f bd
       -0.006342081 0.002900814 -0.03309151 -0.046765413
000220 7f d6 1f 3d 91 49 df 3c 24 42 19 be 73 d3 9d 3c
       0.03902292 0.027256759 -0.14966637 0.019265866
000230 8e ca b1 bd d6 ba 9b bd bf 6a 09 bd bf 3a 0e 3d
       -0.08681212 -0.076039955 -0.033549067 0.034723993
000240 30 4d 42 bc ef a7 4a 3d 48 59 c8 3b df 7d ad bd
       -0.011859223 0.04947656 0.006114159 -0.08471274
000250 58 2e ee 3d a6 8f f8 3d f9 a9 98 3c c5 36 15 3c
       0.11629933 0.12136774 0.018635737 0.009107296
000260 05 e8 f2 bc 63 dc 18 3d c1 d2 20 3e ce 88 dd bd
       -0.029651651 0.037319552 0.15705396 -0.10817109
000270 20 19 1d 3d 2a 39 8e bd 9c 89 d3 bc 91 d8 be 3d
       0.03835404 -0.06944497 -0.025822453 0.093186505
000280 f0 3c 1d 3e 27 1f 7a 3d b4 38 8d 3b f3 c5 88 3d
       0.15355277 0.061064865 0.004309738 0.06678381
000290 a3 ef 06 bd 32 3d ab bd d5 02 ca 3d 7b ed c9 3d
       -0.03294338 -0.083612815 0.098638214 0.09859749
0002a0 df 6b e0 3b 66 a8 b2 bd e2 e7 81 bc 8a e6 2a 3b
       0.0068487967 -0.08723526 -0.01585764 0.0026077353
0002b0 c2 45 fd 3d 1f 77 fc 3b 2a a3 1e 3d 5a 7e 7e 3d
       0.12366821 0.00770463 0.038729824 0.062132217
0002c0 2b 3f 59 bd b1 6e c5 bd 60 6d 06 3d df 65 1b be
       -0.053038757 -0.09640253 0.032819152 -0.1517558
0002d0 54 c6 b5 3d 7b 66 88 bd 8a 09 4d bd 6b 5a 74 3d
       0.08875719 -0.066601716 -0.050057925 0.05965654
0002e0 62 32 35 3e 3e 63 07 3e b3 fb 05 3e f9 5c 89 3d
       0.17695001 0.13221452 0.13084297 0.06707186
0002f0 cf 50 d5 3a 48 09 22 3e b3 06 78 bc 6f 75 aa 3c
       0.0016274693 0.15823853 -0.015138316 0.02080795
000300 64 10 97 bd d1 df ea 3c be 0c 08 be bd ce e0 3c
       -0.07376173 0.028671177 -0.13286111 0.02744233
000310 5a 53 61 3d 3b fa ce bb 72 b5 4a 3c b3 e0 96 bd
       0.05501113 -0.006316451 0.0123723615 -0.07367077
000320 65 33 9f 3d 2f c2 9b 3d 10 97 ed 3d ec 51 8f bd
       0.077734746 0.07605397 0.116010785 -0.06998047
000330 09 b5 fb 3c 1e f9 58 bd 23 bd f7 3d 3b fb 80 bd
       0.030725973 -0.05297195 0.12096622 -0.062979184
000340 8c 5a 05 3e ba 8c 84 bd 54 79 ca 3d e2 e0 8d bd
       0.13022822 -0.06472154 0.09886423 -0.069276586
000350 cb 9d 7c 3d 23 e1 af bd df 21 76 3d 46 22 90 3b
       0.06167392 -0.08587863 0.060090896 0.004398617
000360 21 28 ea bd 28 a6 18 3e 21 9d ee 3c 67 cb c3 3d
       -0.11433435 0.14907134 0.02912766 0.0956028
000370 2a 44 18 be 4b 78 a7 bc 3e 2f ec bd 16 51 50 3d
       -0.14869753 -0.020443102 -0.11532448 0.05085858
000380 12 9a f9 3c d0 23 5f 3d 91 c0 98 bd 50 55 62 bd
       0.030468974 0.054477513 -0.07458604 -0.05525714
000390 ae d0 0f 3e cb 7c b4 bd 61 6c 74 3d 03 df d7 bd
       0.14044449 -0.08812865 0.05967367 -0.10540583
0003a0 76 fa 3b 3c fb 18 ee 3c 52 59 9b 3d ac 4d 3d 3e
       0.011473289 0.029064646 0.07585396 0.1848666
0003b0 e4 37 68 3d de f3 d3 3d 69 03 f2 bd 0d b1 36 bd
       0.056693926 0.10349248 -0.11817057 -0.044602443
0003c0 ac 2f fb bc 4c 8f 85 bd 05 fc bf bd 39 34 52 3d
       -0.03066238 -0.06521472 -0.09374241 0.051319335
0003d0 7e 00 4c 3d 1b de 52 bd 09 84 b2 bc 03 4f a3 bd
       0.049805157 -0.051481348 -0.021791475 -0.07974055
0003e0 a6 ae 50 bd 3d 3b bb bd e3 13 22 3d 61 cc 11 3d
       -0.050947808 -0.09142158 0.039569747 0.0355953
0003f0 fb 87 d3 bc dd e6 19 bd c3 b8 70 bd df 51 a5 bd
       -0.025821676 -0.037573684 -0.058769953 -0.08072256

5.bias f4 [120]
000000 47 31 bd bd 02 d7 26 3d e7 7f 69 3d d6 75 97 3b
       -0.092379145 0.04073239 0.057006743 0.0046222014
000010 63 93 8f 3d 13 cb 5c 3d f0 e7 ed 3c 8f a6 c6 bb
       0.07010534 0.053904604 0.02904126 -0.006062336
000020 b7 2b 1e 3c 06 ab 37 3d d7 38 d6 3d 34 2d 0d 3d
       0.009653977 0.044840835 0.1046006 0.034466937
000030 97 49 44 3d 1e cb 63 bd c7 6e d4 bd b5 56 1d bd
       0.047921743 -0.05561363 -0.103726916 -0.03841277
000040 ab fb 05 be 94 ac d2 3d b2 97 6c bd 3a f3 f6 3a
       -0.13084285 0.10286823 -0.057761855 0.0018840798
000050 69 5f 9e bd 28 e3 04 3d c6 ab d2 3b ab 17 30 3d
       -0.07733042 0.032443196 0.0064291684 0.04299132
000060 9c ac fc bb 22 a7 c8 bd 29 59 6e bd bc d4 bc bb
       -0.0077110063 -0.09797503 -0.0581905 -0.0057626646
000070 71 32 14 3d d5 75 90 bd cf 51 07 3e fe 89 01 3e
       0.036180917 -0.07053725 0.13214801 0.12650296
000080 02 7b 94 bd 7b af c5 bb 9c 9a 05 3d 85 25 b9 3c
       -0.072500244 -0.006032882 0.03261815 0.022600899
000090 19 25 e0 3d 2a 8e 84 bd 4e e5 c5 3d a8 cc 35 bd
       0.10944576 -0.06472428 0.09662877 -0.04438463
0000a0 3c 73 06 3b 9d 5b 78 bd 42 30 a7 3c a2 00 0f 3e
       0.0020515462 -0.060634244 0.020408753 0.13965085
0000b0 88 0a 7b bd 02 d7 05 3e fa 1b bf bc 0f 51 77 bc
       -0.06128934 0.130703 -0.02332877 -0.0150950095
0000c0 db c1 8d 3d 03 b7 24 3d e7 bc ad b9 7d 79 ba bc
       0.069217406 0.040213596 -0.00033137875 -0.022763008
0000d0 0c 59 38 bd 6d 6e 0e 3d a7 75 b3 3c 97 d9 43 bd
       -0.045006797 0.03477328 0.021906687 -0.04781493
0000e0 8b 9e 13 bb a1 69 24 3d 5d b6 dd bc 32 7f 1c bd
       -0.002252492 0.040139798 -0.027064497 -0.03820724
0000f0 32 37 5c be f1 7f 59 bc c0 06 8e 3d c8 6d 53 3b
       -0.2150543 -0.0132751325 0.06934881 0.003226148
000100 71 f6 90 3d 53 8e 83 3d 3c 04 ff bc 0f e4 69 3d
       0.07078255 0.064236306 -0.031129949 0.05710226
000110 2e e9 b8 bd f1 ff b7 bd e6 3b a0 3c 58 2f ad 3d
       -0.090288505 -0.08984364 0.019559812 0.08456296
000120 48 c2 09 bd 2d 41 15 bd 1d 98 92 3d a4 8e b7 3d
       -0.033632547 -0.03643911 0.071579196 0.089627534
000130 37 9e c3 3c 7f 20 20 3d 2f d6 eb 3c 0a 1b 7a 3d
       0.023879154 0.03909349 0.028788654 0.061060943
000140 b4 bb 12 3d cf 6c de 3d 64 de 72 3c 53 63 86 3d
       0.03582354 0.10860597 0.01482353 0.06561913
000150 8a 98 60 bd 3b a0 9c 3d 76 81 27 3d 1b 01 8f bc
       -0.054832973 0.07647749 0.040894948 -0.017456582
000160 cc 35 df bc d3 5c ad 3d 0b ce 9a 3d ae 9f f2 bd
       -0.027247332 0.084649704 0.07558831 -0.11846863
000170 30 bc d7 bd 36 ae ac 3c a0 cb a4 bd 44 da c0 3d
       -0.10533941 0.021079164 -0.08046651 0.09416631
000180 33 8f 13 bd 12 38 c3 3c a3 75 2b bd 00 f8 ac 3c
       -0.036025237 0.023830447 -0.041860234 0.02111435
000190 5e c7 48 3d 48 8c a4 bd c5 17 e7 3c ec 6f a9 3d
       0.049018256 -0.08034569 0.028209576 0.082733005
0001a0 cd 32 75 3d ce 62 35 3d d5 4c 3e 3d dc 33 41 3d
       0.0598629 0.04428368 0.04645999 0.047168598
0001b0 6f 88 a9 3d 5b a1 47 bc d5 48 37 bd 8d 3f f5 3c
       0.08277976 -0.012184466 -0.044747192 0.02993753
0001c0 eb 88 66 3d 98 44 07 3c d2 b4 68 bd 40 5c 27 3d
       0.05628292 0.0082561 -0.05681307 0.04085946
0001d0 ad c5 7a 3d a8 4f 72 bd 01 0a e0 bc a0 b4 5f bd
       0.061223675 -0.059157997 -0.02734852 -0.054615617

7.weight f4 [4, 120]
000000 f8 b7 c5 3e cb f1 12 3e eb 2d 54 3d 3b c3 56 3a
       0.3861692 0.14350049 0.051801603 0.0008192544
000010 e7 06 00 3e ae ee ff 3c 6e 36 1f be 8b 58 f2 3d
       0.12502633 0.031241741 -0.15548107 0.118332945
000020 f0 d5 8c 3e 57 02 f3 3e 90 5f 7e bc 5b e0 d8 3d
       0.2750697 0.47462723 -0.015525714 0.105896674
000030 e7 d6 33 be e8 0a 61 bd 13 b9 72 3d db 47 28 3d
       -0.17562447 -0.05494204 0.05925853 0.04108415
000040 26 9a 93 3e 52 3a f0 bd 6b d8 3b bd 3a f2 f1 bd
       0.28828543 -0.11729874 -0.04586069 -0.11813779
000050 aa 5c c3 bd 95 d2 17 3e 25 98 84 3c 5c e3 14 bd
       -0.09539159 0.14826424 0.01618583 -0.03634964
000060 c5 a2 eb bc c7 7f cd bc 26 a5 32 3e 9d 9c 4f 3e
       -0.028764138 -0.025085343 0.17445812 0.20274587
000070 aa d1 5b 3e 71 1e 23 3e a7 50 ad 3d 92 00 47 3e
       0.21466699 0.15929581 0.08462649 0.19433811
000080 8e 1c 81 be b3 41 1c 3d e6 76 7a be 46 ca ec bd
       -0.25217098 0.038148593 -0.24459419 -0.11562018
000090 f3 77 83 3d af 6b ca 3d 74 d6 b8 3d d4 00 7c bd
       0.06419363 0.0988382 0.09025279 -0.061524227
0000a0 36 19 aa 3d d9 34 74 bd ff b2 0a 3e 52 29 5d 3d
       0.0830559 -0.059620712 0.13544844 0.053994484
0000b0 00 41 f2 3d f1 37 0a 3e 72 4c 3f 3c b0 49 f6 3d
       0.11828804 0.13497902 0.011675941 0.120257735
0000c0 1f b0 f0 bd b4 41 ca bd a7 6a 13 3e ee a1 ae bd
       -0.117523424 -0.09875813 0.14396153 -0.085269794
0000d0 d8 b9 f0 3c 92 8f b7 3d 0d 4d 01 be 13 80 9f bd
       0.029385492 0.08962931 -0.12627049 -0.077881
0000e0 ca 03 17 be 3a 63 35 3e df a8 07 bd 10 49 cd bd
       -0.14747539 0.17713633 -0.033120032 -0.10023701
0000f0 3e 77 86 3e 4c df d9 ba 42 ef 04 bf 98 aa 20 3e
       0.2626285 -0.0016622334 -0.5192758 0.15690076
000100 66 74 f4 3d e4 5f d3 bc e0 ff 44 3d 5d f2 a8 3d
       0.11936264 -0.02580256 0.048095584 0.08249352
000110 24 a4 a9 bd d7 87 c2 bd a7 67 1b be 29 fd 38 3b
       -0.082832605 -0.09498566 -0.15176259 0.0028227067
000120 d8 06 1b be fd 7e 55 3d 9f 26 4e bd ec 33 3b 3d
       -0.1513933 0.05212306 -0.0503298 0.045703813
000130 6c da 6d bd f2 e1 49 3d 36 6f 17 3e 9e 49 19 3e
       -0.05806963 0.049287744 0.14788517 0.14969489
000140 27 ae 51 bd c9 c6 0e bd cc d7 18 3e 8b 8c 16 3e
       -0.051191475 -0.034857545 0.1492607 0.1470205
000150 7d 46 1a bc 52 e1 c1 3d bf 4e 3d 3e fb 94 0f be
       -0.00941622 0.094668046 0.1848707 -0.14021675
000160 2c e8 21 3e d0 19 db 3d e7 66 ac bd 87 67 23 bd
       0.15811223 0.10698283 -0.084180646 -0.039893653
000170 a6 f9 e7 3d de ef 34 be c3 cd 0d be 81 96 94 bd
       0.113269135 -0.17669627 -0.13848023 -0.07255269
000180 9c b9 01 bd 34 27 15 be 3c 8a 5d 3b ea 5b 0b bc
       -0.03167115 -0.14565736 0.0033804318 -0.008505801
000190 1f c4 ca bd 00 6b 59 bb 83 2a b1 3d 27 ac 24 3e
       -0.099006884 -0.003317535 0.086506866 0.16081296
0001a0 19 3b b8 3b 24 7c 68 3d 13 1b 2d bc b7 b5 c0 3d
       0.0056222794 0.056759015 -0.010565537 0.09409659
0001b0 e1 35 c8 bd e7 7b dd bb 1e 95 51 3e 36 77 9f bc
       -0.097759016 -0.006759155 0.2046704 -0.019466024
0001c0 b8 18 0c 3e f2 88 e3 3d 56 2d f0 3c 35 50 f3 bc
       0.13681304 0.111101046 0.029318493 -0.029701332
0001d0 59 cc a7 3d 4a e8 6b 3b d0 f5 1f 3d 23 9d 32 be
       0.08193273 0.003599661 0.039052784 -0.17442755
0001e0 e6 88 19 3e 87 30 c5 bd 77 8e 8a bd 7e 49 c6 bd
       0.14993629 -0.096283965 -0.06765454 -0.09681986
0001f0 15 d1 a2 bc 9a bc e0 ba 83 ba 2e 3e c9 b3 0f 3e
       -0.019875089 -0.0017146051 0.17063336 0.14033426
000200 ac c9 bf 3e cd 4d d5 bd e0 b7 06 3e 55 6a 96 3d
       0.3745855 -0.1041523 0.1315608 0.073445
000210 09 5f de bd 5d 35 b9 3d f5 b5 96 be 22 b2 8a 3d
       -0.1085797 0.09043381 -0.29435697 0.067722574
000220 a3 d7 c5 3d ea 9f b0 3d d7 7f bf bc 4b 37 85 3d
       0.0966027 0.08624251 -0.023376388 0.06504687
000230 d5 e5 9d bb 18 4b c3 bc 50 2d e9 3c 4d 03 e1 bd
       -0.004818658 -0.023839518 0.02846399 -0.10986958
000240 86 aa ca bc 5c b4 13 be 36 1f 8e 3e c5 b2 51 be
       -0.024739515 -0.1442427 0.27758187 -0.20478351
000250 ad b0 39 3e 21 78 47 be a2 ac 09 bd 39 db f1 3d
       0.18133803 -0.1947942 -0.0336119 0.118093915
000260 af 82 de bc ac 05 23 3e bc b0 17 bd 10 fb 1b 3d
       -0.027161924 0.15920132 -0.03703378 0.03808123
000270 68 ae cc bd 97 cf 82 3c 83 93 13 be ae b3 94 bd
       -0.09994203 0.015968127 -0.1441174 -0.07260834
000280 a5 19 f1 3d 1b 79 b6 bd 34 49 00 be 53 fc 86 3d
       0.117724694 -0.08909818 -0.12527925 0.06591096
000290 fa 5d b6 bd 22 46 7f 3d e7 ea 63 3d ff 57 66 3d
       -0.08904643 0.062322743 0.055643942 0.056236263
0002a0 8c 9a ea 3d d7 52 83 3d 9a 4d 14 3e 89 fe 81 3d
       0.11455259 0.06412285 0.14482728 0.06347377
0002b0 ad c5 22 bd fe 6e 3e be ab 8b 18 be d0 ce e6 be
       -0.0397393 -0.18597028 -0.14897029 -0.4507966
0002c0 ff f1 28 3e de c3 cf bb 19 cb 18 3d 2d 58 c3 bd
       0.16498564 -0.006340488 0.037303064 -0.095383026
0002d0 51 75 a3 3e 01 5f 9b bc 79 8b 05 be 43 5e 27 3e
       0.31925443 -0.0189662 -0.13041486 0.16344552
0002e0 4e 04 06 3e ca fb a4 3d 00 d2 96 bd 03 4d 9e 3c
       0.1308758 0.080558375 -0.07364273 0.019323831
0002f0 cb 76 59 bd 70 7c 25 be 07 27 6e bd 83 db df 3d
       -0.053091805 -0.1616075 -0.058142688 0.109305404
000300 33 2e 4d 3e 2b 7d 33 3e bd 93 86 bb fe 5a 00 be
       0.20037155 0.17528217 -0.0041069672 -0.12534711
000310 19 6e 91 3c 0a 67 65 be 4d d7 33 be b9 ca 90 3d
       0.017752694 -0.22402588 -0.175626 0.07069916
000320 23 d7 10 be fb f7 b5 3c 09 e7 98 3c f1 60 aa 3c
       -0.14144568 0.022212973 0.018664854 0.020798178
000330 08 c2 d6 bd 30 a1 c0 3c 80 81 5e 3e f2 e8 f9 3d
       -0.10486227 0.02351436 0.21729088 0.12202634
000340 bb e1 0a bd a7 10 c7 bd 78 f8 b8 3d 70 b7 09 be
       -0.03390668 -0.09719973 0.09031767 -0.13448882
000350 98 b6 f1 bd 84 03 c0 3c 55 27 29 be d3 39 eb bd
       -0.11802405 0.023439176 -0.1651891 -0.114856385
000360 de e7 5c bd e5 82 03 3e 58 79 57 3c f8 33 b0 bd
       -0.053932063 0.12842901 0.013151489 -0.08603662
000370 fb 77 9d bd 6e a2 ed bd bf 6f aa bd d1 d7 70 3d
       -0.076889 -0.11603247 -0.08322095 0.05879957
000380 aa 75 0e 3e 42 f2 ca bd 4c b2 11 3e 21 d9 ed bc
       0.13912073 -0.09909488 0.14228171 -0.0290342
000390 d8 69 fd 3d f3 4c 26 be c0 28 80 bd 9e 3c c5 3c
       0.12373704 -0.16240291 -0.062577724 0.024076756
0003a0 8b 5f 11 3e f8 52 38 3e 66 5e 8e be 03 17 fc 3d
       0.14196603 0.180004 -0.27806395 0.12309077
0003b0 d5 71 1e 3d 99 5a 16 be 26 60 8a 3c cd b8 2a be
       0.038682777 -0.14682998 0.01689155 -0.16672058
0003c0 0d 51 82 be 53 97 e3 3c 56 29 87 bc 55 a2 fd 3c
       -0.25452462 0.027782118 -0.016499203 0.030961195
0003d0 dc 08 2d be 52 97 13 3e 34 e2 28 3e 0f cc 42 3d
       -0.16897911 0.14413193 0.1649254 0.047557887
0003e0 7e 09 8b be 44 79 a4 be a1 74 be 3b a2 3e fe 3b
       -0.2715568 -0.32123768 0.005812243 0.0077589313
0003f0 43 1a 5b bd f1 15 79 3d 86 88 a9 bd a2 d4 3a bd
       -0.053491842 0.06081194 -0.08277993 -0.04561294

7.bias f4 [4]
000000 0f f2 ac bc c3 e2 08 bd ce b0 50 3d 92 3d 4f bc
       -0.021111516 -0.03341938 0.050949864 -0.012648957
