neural_networks/Baseline_fp_normlize.pt (torch, 144201 bytes, 24 tensors)

weight f4 [120, 16]
-0.2508337 0.08647788 1.0284386 0.052505814 0.01612313 -0.67877775 0.24016209 0.19589682
0.37733912 0.37111193 -0.17549123 -0.19475731 -0.11230273 0.13885418 -0.15120867 -0.13045341
-0.31663045 -0.11631801 -0.46442908 -0.020668322 0.6542402 0.4888914 0.39117953 -0.57598734
-0.44116244 0.5308519 -0.85420495 0.31018737 0.09297977 0.013512717 0.1802462 -0.084822714
-0.35181975 -0.5328351 0.75235057 -0.40739983 -0.6651017 -0.7152201 -0.004064964 0.21201177
-0.21698615 0.21479957 -0.78590107 -0.46739638 -0.080703385 0.060533635 -0.025457703 -0.12803136
-0.1135409 0.53487355 1.2567892 0.05567912 -0.04044088 -0.19025593 -0.47527498 -0.7578341
0.104671516 -0.4466146 -0.24983557 -0.06770307 0.18810327 0.08551892 0.21816784 0.23201713
0.25325376 -0.1718519 -0.89768535 0.096905895 0.19732386 0.31482255 0.36175227 0.32515275
-0.33445135 0.61396706 0.52225846 -0.045342445 0.13634038 0.14680202 -0.098931484 0.15046391
0.0149351135 -0.18295999 -0.86929303 -0.322662 0.5015926 0.31784174 0.43048617 0.7895947
-0.011764275 0.1594706 0.05448725 0.15794004 0.0011674758 -0.0045790267 -0.0044094487 -0.11070648
-0.040323842 -0.46135598 -0.29659954 -0.2315067 0.08509601 0.45774537 1.1654418 0.13550755
0.38248727 0.8686278 0.101443954 -0.16183056 0.07022753 0.23351215 0.121960364 -0.15801904
-0.13321021 -0.26328793 -0.80819434 -0.24548988 0.08759088 0.92780876 -0.26931906 0.64847445
-0.24601482 -0.31371528 0.09595446 0.07806122 0.07959978 -0.010849747 0.08640528 0.17229764
0.016032873 0.5473665 0.6093876 -0.22228767 -0.038866818 -0.3113339 -1.133392 -0.07089525
-0.2171935 -0.45917806 0.15884174 0.49241668 0.01957178 -0.02741826 -0.042593595 -0.06847783
0.05638145 -0.47495732 -0.9684188 0.03793479 -0.2054057 0.51932955 -0.14143336 0.07399467
-0.5282761 0.4588795 0.5248981 0.09178242 0.017458897 0.066821456 -0.013070349 0.08246339
0.13564658 0.33681667 0.040209334 0.029592864 0.20743532 0.18243918 -0.13328607 -0.18074708
-0.4143479 -0.3573212 0.11561018 -0.603365 -0.23075669 -0.14384717 -0.11765386 0.19061425
-0.057618078 -0.35866207 -0.6320003 -0.3555131 -0.024931842 0.5570328 0.11094316 -0.049015958
-0.2818701 0.073407896 0.33544436 -0.12779032 0.21335095 0.10845152 -0.12969998 0.22660515
-0.16297907 -0.4035794 0.11126868 -0.7072054 -0.111751705 0.28735813 0.27287504 0.30975547
0.32125306 0.35759503 0.32621077 0.31172425 -0.029274436 -0.015811551 0.18857817 -0.067472406
-0.30532 0.38595846 0.7155355 -0.02363608 -0.2985807 -0.67476916 -0.2496441 -0.37055033
-0.18150361 0.4000991 -1.0477266 0.37335074 -0.059114344 0.2344887 0.17864989 0.13864836
0.21951301 -0.22173056 0.026363129 0.34149536 -0.29656756 0.5315293 -0.119280554 -0.62931895
-0.072300896 -0.913721 -0.5819479 0.5850463 -0.066286325 -0.19366217 0.0027749636 0.0050540846
0.42823198 0.06297741 -1.1113845 -0.19829081 0.19615988 0.21380126 0.27170542 0.67848706
-0.16838935 -0.5623093 0.47846586 -0.16150877 -0.20577133 0.097347654 0.22107163 0.14882155
00000000: 466d 80be 511b b13d e0a3 833f 5610 573d
00000010: a814 843c 61c4 2dbf 0ded 753e 2d99 483e
00000020: 9832 c13e 6202 be3e f9b3 33be 766e 47be
00000030: f9fe e5bd ca2f 0e3e 72d6 1abe 9495 05be
00000040: 631d a2be 2338 eebd a6c9 edbe 9d50 a9bc
00000050: 497c 273f f94f fa3e af48 c83e e873 13bf
00000060: 0be0 e1be e9e5 073f 2dad 5abf e1d0 9e3e
00000070: 2d6c be3d 7164 5d3c 7692 383e 88b7 adbd
00000080: b821 b4be e267 08bf 0c9a 403f b696 d0be
00000090: 1b44 2abf aa18 37bf 6433 85bb 9d19 593e
000000a0: 9e31 5ebe 6bf4 5b3e d030 49bf 944e efbe
000000b0: d147 a5bd 1ef2 773d ac8c d0bc a71a 03be
000000c0: 2288 e8bd 79ed 083f 78de a03f ca0f 643d
000000d0: 56a5 25bd 73d2 42be 3e57 f3be 6a01 42bf
000000e0: 055e d63d abaa e4be e5d4 7fbe e8a7 8abd
000000f0: 259e 403e 8b24 af3d 6467 5f3e e695 6d3e
00000100: 7aaa 813e f2f9 2fbe b5ce 65bf 9976 c63d
00000110: 440f 4a3e 6c30 a13e 9837 b93e 6c7a a63e
00000120: 353d abbe f22c 1d3f bbb2 053f 00b9 39bd
00000130: d09c 0b3e 4553 163e 979c cabd 3613 1a3e
00000140: 68b2 743c dd59 3bbe fd89 5ebf f433 a5be
00000150: 5f68 003f 27bc a23e af68 dc3e e122 4a3f
00000160: f2be 40bc 434c 233e 062e 5f3d 09bb 213e
00000170: fd05 993a a90b 96bb 237d 90bb 14ba e2bd
00000180: 9d2a 25bd da36 ecbe e5db 97be 1810 6dbe
00000190: d146 ae3d 9a5d ea3e 322d 953f 7ec2 0a3e
000001a0: 5fd5 c33e 645e 5e3f d9c1 cf3d e9b6 25be
000001b0: 74d3 8f3d cf1d 6f3e 5bc6 f93d becf 21be
000001c0: 4268 08be adcd 86be d3e5 4ebf b361 7bbe
000001d0: d962 b33d e084 6d3f 30e4 89be 6c02 263f
000001e0: 4feb 7bbe 4a9f a0be c683 c43d 90de 9f3d
000001f0: 3605 a33d 23c3 31bc 40f5 b03d cb6e 303e
00000200: 5f57 833c 3620 0c3f d300 1c3f 619f 63be
00000210: d032 1fbd 2867 9fbe fd12 91bf 8731 91bd
00000220: f967 5ebe 6319 ebbe 69a7 223e 0a1e fc3e
00000230: ff54 a03c 429c e0bc 9f76 2ebd 1b3e 8cbd
00000240: 3cf0 663d 9b2d f3be 4bea 77bf 8361 1b3d
00000250: df55 52be c8f2 043f e8d3 10be 848a 973d
00000260: 1a3d 07bf 41f2 ea3e b95f 063f 6cf8 bb3d
00000270: f605 8f3c b0d9 883d 0425 56bc 91e2 a83d
00000280: f0e6 0a3e 3c73 ac3e 8bb2 243d bc6c f23c
00000290: ed69 543e 56d1 3a3e 257c 08be c315 39be
000002a0: 6825 d4be cef2 b6be 08c5 ec3d 2176 1abf
000002b0: 7b4b 6cbe ac4c 13be 82f4 f0bd 6230 433e
000002c0: ef00 6cbd 8ea2 b7be c6ca 21bf d005 b6be
000002d0: dd3d ccbc b499 0e3f 2b36 e33d f5c4 48bd
000002e0: 4751 90be e156 963d 5dbf ab3e 77db 02be
000002f0: ac78 5a3e d51b de3d 12d0 04be 2e0b 683e
00000300: fce3 26be f6a1 cebe d5e0 e33d 6a0b 35bf
00000310: 14de e4bd 9b20 933e 47b6 8b3e 4598 9e3e
00000320: 487b a43e b216 b73e 1905 a73e 529a 9f3e
00000330: f1d0 efbc 3a87 81bc a31a 413e f92e 8abd
00000340: e752 9cbe 599c c53e 562d 373f 74a0 c1bc
00000350: 92df 98be acbd 2cbf b4a2 7fbe c6b8 bdbe
00000360: 15dc 39be cad9 cc3e e81b 86bf d427 bf3e
00000370: e221 72bd ce1d 703e ffef 363e d6f9 0d3e
00000380: 05c8 603e 560d 63be 7df7 d73c 7bd8 ae3e
00000390: b4d7 97be 4e12 083f 5d49 f4bd 0c1b 21bf
000003a0: 7e12 94bd 9fe9 69bf 8afa 14bf 98c5 153f
000003b0: 20c1 87bd 604f 46be 2adc 353b bc9c a53b
000003c0: 3941 db3e 4dfa 803d d941 8ebf bf0c 4bbe
000003d0: 23de 483e b8ee 5a3e f91c 8b3e 54b1 2d3f
000003e0: 426e 2cbe 81f3 0fbf 7af9 f43e 8e62 25be
000003f0: b8b5 52be 355e c73d 9a60 623e ad64 183e

bias f4 [120]
-0.22784205 -0.056349255 0.21512756 0.025817554 -0.028321428 -0.12769514 -0.1487652 0.22396408
-0.24786273 0.014771955 0.1261658 -0.19284798 -0.039219603 0.18805234 0.03166346 -0.19355166
-0.10559839 0.22712308 0.097369954 -0.14408578 -0.21093927 0.18956698 -0.2480973 0.18394653
0.009490719 0.101044 -0.14450131 -0.20044188 0.12966219 -0.21701021 -0.16618544 0.1991711
-0.24167028 -0.10397656 -0.13405557 -0.069888905 0.25822267 -0.14316547 -0.04853196 -0.07002282
-0.15999307 -0.15317987 -0.15814534 0.04891151 0.22966848 0.15166728 -0.10174413 -0.19215515
-0.24299897 0.071699575 -0.13525142 -0.14377677 0.04923434 0.09657261 -0.17594354 0.0045016822
0.14364555 -0.04263015 0.0354401 0.12278645 -0.046200357 0.24529415 0.03771228 0.16816266
-0.21368508 -0.21949206 -0.22286455 0.25691894 -0.07345729 0.21972094 0.006924308 0.048424505
0.1428936 -0.2006972 0.11480662 -0.1124325 -0.02015352 -0.07950665 0.13593726 0.15570487
0.04872317 0.18673421 -0.06943689 0.115233146 0.22660044 0.025491279 0.05638571 0.21254961
0.23534943 -0.25485182 0.20205203 -0.11646659 0.22353685 0.07951407 0.004003769 0.117118575
0.09651109 -0.19216055 -0.10227256 -0.0393063 0.20583588 0.04665397 -0.16276781 0.11232757
-0.16472152 -0.21702015 -0.19399592 -0.14947636 -0.18767431 0.2087845 0.056531306 -0.23129901
-0.11793571 -0.08311124 -0.24720487 -0.15299709 -0.13639423 -0.15237811 0.14194597 0.23137721
00000000: 6d4f 69be 7ace 66bd 664a 5c3e 567f d33c
00000010: 5702 e8bc 84c2 02be e855 18be d756 653e
00000020: bacf 7dbe 1206 723c 9c31 013e f179 45be
00000030: bca4 20bd cb90 403e 8bb1 013d 6832 46be
00000040: f843 d8bd f492 683e e669 c73d 398b 13be
00000050: 7700 58be d91d 423e 380d 7ebe 7b5c 3c3e
00000060: f67e 1b3c 28f0 ce3d 27f8 13be a340 4dbe
00000070: 2ac6 043e ed37 5ebe 842c 2abe 82f3 4b3e
00000080: 6a78 77be aaf1 d4bd dd45 09be ea21 8fbd
00000090: c335 843e f899 12be 73c9 46bd 2068 8fbd
000000a0: 39d5 23be 2fdb 1cbe daf0 21be 6f57 483d
000000b0: 372e 6b3e ab4e 1b3e 3a5f d0bd 52c4 44be
000000c0: b9d4 78be 3ad7 923d 597f 0abe 383a 13be
000000d0: f3a9 493d dcc7 c53d 8b2a 34be d982 933b
000000e0: d217 133e f49c 2ebd a329 113d 7677 fb3d
000000f0: 963c 3dbd 642e 7b3e 3178 1a3d d532 2c3e
00000100: 43d0 5abe 87c2 60be 9b36 64be e18a 833e
00000110: c770 96bd 87fe 603e 4ee5 e23b c658 463d
00000120: b352 123e 9183 4dbe bc1f eb3d 0343 e6bd
00000130: ff18 a5bc 62d4 a2bd 2333 0b3e 1971 1f3e
00000140: f291 473d 4137 3f3e ee34 8ebd 5bff eb3d
00000150: f209 683e 16d3 d03c b4f4 663d 9ba6 593e
00000160: 71ff 703e f07b 82be bae6 4e3e 0986 eebd
00000170: d8e6 643e 46d8 a23d 0c32 833b dddb ef3d
00000180: 9ba7 c53d bcc5 44be 4774 d1bd a5ff 20bd
00000190: a4c6 523e 3c18 3f3d 9bac 26be ff0b e63d
000001a0: c2ac 28be 883a 5ebe dea6 46be 5510 19be
000001b0: b22d 40be 9bcb 553e 5f8d 673d a6d9 6cbe
000001c0: 4788 f1bd 3a36 aabd 4623 7dbe 45ab 1cbe
000001d0: eeaa 0bbe 0209 1cbe 495a 113e 26ee 6c3e

weight f4 [120]
0.9791667 0.98437357 0.99193937 1.0005449 0.9830819 1.0001475 0.9852678 0.99966496
1.0137638 1.0243082 0.95050853 0.97704417 0.97640586 1.0139081 0.99776924 1.0106444
0.9838205 0.9956027 1.027721 0.9962496 0.99085754 0.9735887 1.0060902 1.082819
0.99248105 0.9978427 0.9955305 0.9877413 0.98336774 0.98421484 1.0069146 0.9901826
1.0131598 0.98574954 0.98886204 1.0302113 0.9939841 0.9929998 1.0747203 0.9978909
0.9849402 1.0061184 0.98785204 1.0007477 0.9998925 1.003522 1.0075742 1.0138745
1.0617163 1.0049093 1.0120326 0.9879957 0.96936285 0.98984617 1.0003929 0.9864
0.97326297 0.9903454 0.9919361 0.9896439 0.9964081 1.0035404 0.99939173 1.0048823
1.0088599 0.97589517 1.0274942 0.9821827 1.0015589 0.99583244 1.0010704 0.9818005
0.9942012 0.9959187 1.0066967 0.99008244 0.99147654 1.0171764 0.994046 0.9764633
0.9891301 1.0297159 0.9746681 0.9890021 0.9887934 0.9906469 1.0031034 1.0274228
1.0079416 0.9786366 0.98965657 0.99383795 0.9941482 0.9956127 0.98486376 1.002525
1.0033886 0.98626626 0.9838147 1.0220318 1.7393696 0.98427284 0.99591976 1.0073183
1.0231967 1.0000923 0.9879272 1.019713 1.001621 0.99349064 0.9903446 1.0455
1.0205004 0.9933511 0.9938385 1.0340182 0.9927852 0.9915083 1.0172303 0.9959422
00000000: abaa 7a3f e8ff 7b3f bdef 7d3f db11 803f
00000010: 41ab 7b3f d504 803f 833a 7c3f 0bea 7f3f
00000020: 03c3 813f 881c 833f 8754 733f 911f 7a3f
00000030: bcf5 793f bec7 813f ce6d 7f3f cc5c 813f
00000040: a9db 7b3f d2df 7e3f 5d8c 833f 370a 7f3f
00000050: d7a8 7d3f 1c3d 793f 90c7 803f d099 8a3f
00000060: 3d13 7e3f 9f72 7f3f 16db 7e3f 9ddc 7c3f
00000070: fdbd 7b3f 81f5 7b3f 94e2 803f 9b7c 7d3f
00000080: 38af 813f 155a 7c3f 1026 7d3f f7dd 833f
00000090: be75 7e3f 3c35 7e3f 6f90 893f c775 7f3f
000000a0: 0a25 7c3f 7dc8 803f dfe3 7c3f 8018 803f
000000b0: f4f8 7f3f 6973 803f 31f8 803f a4c6 813f
000000c0: 52e6 873f dea0 803f 498a 813f 49ed 7c3f
000000d0: 2a28 783f 8f66 7d3f e00c 803f b684 7c3f
000000e0: c327 793f 4787 7d3f 86ef 7d3f 4d59 7d3f
000000f0: 9a14 7f3f 0374 803f 23d8 7f3f fc9f 803f
00000100: 5222 813f 44d4 793f ee84 833f 5370 7b3f
00000110: 1533 803f e0ee 7e3f 1323 803f 4757 7b3f
00000120: f883 7e3f 87f4 7e3f 70db 803f 0b76 7d3f
00000130: 68d1 7d3f d632 823f cc79 7e3f 80f9 793f
00000140: a137 7d3f bbcd 833f d983 793f 3e2f 7d3f
00000150: 9021 7d3f 099b 7d3f b165 803f 9782 833f
00000160: 3b04 813f ee87 7a3f 225a 7d3f 2a6c 7e3f
00000170: 7f80 7e3f 79e0 7e3f 0820 7c3f bd52 803f
00000180: 0a6f 803f f27b 7c3f 48db 7b3f f0d1 823f
00000190: aaa3 de3f 4ef9 7b3f 99f4 7e3f ceef 803f
000001a0: 1cf8 823f 0603 803f cce8 7c3f f585 823f
000001b0: 1e35 803f 6755 7e3f 3987 7d3f f2d2 853f
000001c0: c29f 823f 424c 7e3f 336c 7e3f b55a 843f
000001d0: 2c27 7e3f 7dd3 7d3f 9a34 823f 11f6 7e3f

bias f4 [120]
0.016762061 0.0018749551 0.021091897 -0.014381369 -0.034926414 0.008821917 0.002033003 0.017682709
0.0044309953 8.613004e-05 0.0011736036 -0.0075127315 0.07752615 0.0065563396 -0.030241553 0.0033349353
0.008550576 0.03275598 0.04224654 0.0037437624 0.005061008 -0.013557931 0.009838131 -0.00038008956
0.0005943888 0.019452041 0.004622884 0.010442646 0.0044735433 -0.007957545 0.02277255 0.018932449
0.0004556577 -6.4243904e-05 -0.01575574 0.022035269 -0.016480321 0.013990603 0.024706606 0.018112771
0.010285245 0.012821053 -0.010656278 -0.003210206 -0.0016809787 0.028925741 0.0032257875 0.0072425944
0.0067721833 -0.007930562 -0.006151286 0.00059899595 -0.028998356 0.0037423007 0.0033653036 -0.0042171036
0.024064496 0.010376944 -0.0023258785 0.03932905 -0.004078983 0.04382256 0.0045156768 0.01063324
0.014853964 0.003211212 0.0013824556 0.0046779905 -0.01350563 -0.00030941705 -0.0017732732 -0.008647227
0.0041150525 0.03742252 -0.008938545 -0.0007204944 -0.00996474 0.01070421 -0.013521136 -0.03655962
0.022123035 0.01137193 0.0066295117 -0.0035861942 -0.010375922 0.013524359 0.009132669 0.012646761
-0.0195328 0.047975343 0.00443604 0.04689833 -0.010860679 0.017934976 -0.004676098 -0.0027335514
0.0172908 0.006365422 -0.024492988 -0.0173167 0.08033773 -0.0416307 0.009413058 -0.01942532
0.006450013 0.011224426 -0.02551857 0.020092286 0.0152619425 0.020087248 -0.007622075 0.02090896
0.016320886 0.0048173373 0.0011658141 0.009399954 0.038101837 0.033913035 0.020780584 0.01001372
00000000: 9750 893c 0ec1 f53a eac8 ac3c d59f 6bbc
00000010: 000f 0fbd cd89 103c 213c 053b 54db 903c
00000020: e231 913b b7a0 b438 9ad3 993a 5c2d f6bb
00000030: 08c6 9e3d 90d6 d63b 22bd f7bc ee8e 5a3b
00000040: b717 0c3c 222b 063d b50a 2d3d e959 753b
00000050: d0d6 a53b 1622 5ebc 1d30 213c c246 c7b9
00000060: c2d0 1b3a e359 9f3c 907b 973b a217 2b3c
00000070: cd96 923b 5d60 02bc 808d ba3c 3918 9b3c
00000080: 57e5 ee39 afba 86b8 2f12 81bc 4f83 b43c
00000090: bd01 87bc d838 653c 8265 ca3c 3c61 943c
000000a0: 7283 283c 650f 523c ab97 2ebc 5262 52bb
000000b0: 4954 dcba adf5 ec3c bc67 533b 4953 ed3b
000000c0: 31e9 dd3b 30ef 01bc ba90 c9bb f005 1d3a
000000d0: f68d edbc 6341 753b 6d8c 5c3b a12f 8abb
000000e0: e822 c53c 0f04 2a3c c46d 18bb 7f17 213d
000000f0: fda8 85bb 497f 333d 3ef8 933b 0b37 2e3c
00000100: 0a5e 733c 3373 523b 8333 b53a d449 993b
00000110: b846 5dbc 4139 a2b9 2d6d e8ba 19ad 0dbc
00000120: 90d7 863b 5b48 193d fa72 12bc 90df 3cba
00000130: 2643 23bc b660 2f3c c187 5dbc 8abf 15bd
00000140: 5e3b b53c 5551 3a3c 603c d93b 5b06 6bbb
00000150: c5ff 29bc 4695 5d3c 31a1 153c 5c34 4f3c
00000160: 4003 a0bc cb81 443d 335c 913b 7718 403d
00000170: fdf0 31bc 5fec 923c f439 99bb 6225 33bb
00000180: 70a5 8d3c 0895 d03b 85a5 c8bc c1db 8dbc
00000190: 1c88 a43d f484 2abd 3a39 1a3c d921 9fbc
000001a0: a15a d33b a8e6 373c 520c d1bc 9498 a43c
000001b0: 3a0d 7a3c 038e a43c 99c2 f9bb 4449 ab3c
000001c0: 61b3 853c c1da 9d3b 3bce 983a 4402 1a3c
000001d0: ac10 1c3d 65e8 0a3d 0b3c aa3c 9610 243c

running_mean f4 [120]
-0.35557052 0.0440804 0.12812904 0.38721249 0.13870075 -0.18709457 -0.015989164 0.38775125
-0.30740112 0.091590606 -0.02334879 0.016214663 -0.0013753118 0.43404883 -0.09378211 -0.06241674
0.06164226 0.08659629 0.07438252 -0.017358908 -0.39408585 0.249307 -0.27456057 -0.05001702
0.056944937 0.26113856 -0.13550752 -0.39822277 0.16124628 -0.22338064 -0.01200221 0.25169444
0.030832432 -0.23275904 -0.115498215 -0.08039499 0.108402975 -0.011058325 -0.010220041 -0.25353503
-0.37841922 -0.08913546 -0.46641594 0.061944917 0.1411728 0.26688722 0.11552147 -0.29794833
-0.39901364 -0.12334184 -0.3539948 -0.11364482 0.08274012 -0.15609293 -0.41542977 0.12580442
0.09341937 -0.18178286 -0.21073629 0.0002158442 -0.06573043 0.19954067 0.054999474 0.32312924
-0.34408334 -0.094769314 -0.021561561 0.28918096 -0.008142706 0.30300233 0.09563909 -0.07111215
0.38546488 -0.41158098 0.229091 -0.056923065 0.10077748 -0.034549683 0.11394634 0.15104976
-0.016182294 0.31167597 -0.079660445 0.043222353 0.07877792 -0.10770656 0.025380649 0.13693129
-0.031305715 -0.23227328 0.14965257 -0.08705491 0.27043724 -0.058261048 0.02047097 0.2235253
0.20338234 -0.16924158 0.022386167 0.15282622 0.18748069 0.21547407 -0.17147021 0.16180432
-0.25334695 -0.19013609 -0.10511448 -0.212947 0.1307571 0.36234632 0.038855057 -0.21940549
-0.057110757 -0.18595377 -0.26604575 0.12388531 0.037196454 -0.10731439 -0.06338904 0.18497737
00000000: 570d b6be a68d 343d 4234 033e b740 c63e
00000010: 9207 0e3e b895 3fbe b5fb 82bc 5587 c63e
00000020: ae63 9dbe db93 bb3d f645 bfbc 9dd4 843c
00000030: ce43 b4ba a63b de3e d610 c0bd b2a8 7fbd
00000040: 987c 7c3d 6559 b13d dd55 983d 4534 8ebc
00000050: 9fc5 c9be 564a 7f3e 3493 8cbe a6de 4cbd
00000060: 183f 693d f4b3 853e 7cc2 0abe dbe3 cbbe
00000070: bf1d 253e e5bd 64be eba4 44bc 18de 803e
00000080: 4c94 fc3c 6358 6ebe 548a ecbd 21a6 a4bd
00000090: 6102 de3d fa2d 35bc f571 27bc 58cf 81be
000000a0: 2ac0 c1be a78c b6bd 12ce eebe f4b9 7d3d
000000b0: 9a8f 103e 71a5 883e 8596 ec3d af8c 98be
000000c0: 844b ccbe a69a fcbd ce3e b5be 9ebe e8bd
000000d0: a773 a93d d3d6 1fbe 36b3 d4be e0d2 003e
000000e0: a852 bf3d 4925 3abe 41cb 57be 3c54 6239
000000f0: ad9d 86bd 6454 4c3e 2147 613d 3271 a53e
00000100: b12b b0be 6a16 c2bd dfa1 b0bc 870f 943e
00000110: fc68 05bc 1f23 9b3e 6dde c33d 3fa3 91bd
00000120: a75b c53e beba d2be d596 6a3e 2928 69bd
00000130: 6c64 ce3d f883 0dbd b35c e93d caac 1a3e
00000140: bb90 84bc fe93 9f3e 0425 a3bd ec09 313d
00000150: 5156 a13d 4295 dcbd 14eb cf3c b737 0c3e
00000160: 6c3a 00bd 0cd9 6dbe 863e 193e d849 b2bd
00000170: c076 8a3e 23a3 6ebd bcb2 a73c d1e3 643e
00000180: 7643 503e aa4d 2dbe 3263 b73c 7a7e 1c3e
00000190: f0fa 3f3e 3ca5 5c3e e395 2fbe 08b0 253e
000001a0: b1b6 81be 09b3 42be 4346 d7bd c70e 5abe
000001b0: 30e5 053e 7585 b93e 7b26 1f3d d5ab 60be
000001c0: f8ec 69bd aa6a 3ebe 2637 88be 95b7 fd3d
000001d0: 4f5b 183d a6c7 dbbd 1dd2 81bd b56a 3d3e

running_var f4 [120]
8.0518505e-05 5.2513053e-05 2.1183645e-05 1.9568588e-05 6.0817354e-05 1.1261672e-05 8.985235e-05 2.0576856e-05
6.004517e-06 8.780205e-06 0.00014237358 9.046681e-05 5.0040693e-05 5.445889e-05 3.8733102e-05 0.00013498498
0.00014166202 9.473318e-05 1.025563e-05 0.00014822422 5.8905942e-05 6.5976245e-05 5.6870755e-05 4.9377405e-07
0.0001021096 5.740051e-05 9.710553e-05 8.320919e-05 0.00022561786 0.00013725687 3.4719797e-05 7.33627e-05
4.973687e-05 0.00011885221 9.858023e-05 1.8732868e-05 6.461447e-05 5.25795e-05 7.940036e-06 3.4575452e-05
5.7132962e-05 3.538429e-05 4.802507e-05 2.9027116e-05 0.00012742542 7.653966e-05 3.645264e-05 2.141352e-05
6.731856e-06 8.139656e-05 5.549735e-05 7.8327794e-05 7.528086e-05 2.574925e-05 2.8239876e-05 0.00012564551
0.00017778117 4.358071e-05 3.764224e-05 8.732911e-05 0.00013779281 5.4303513e-05 5.8399062e-05 0.000121376215
5.89452e-05 6.842441e-05 7.3463307e-06 0.00010059462 6.987734e-05 3.8145165e-05 7.256572e-05 3.4049328e-05
1.6363454e-05 4.436226e-05 5.0270384e-05 7.098047e-05 9.4227136e-05 6.393491e-05 0.00014547702 0.00017148188
0.00014439823 1.5109467e-05 7.147295e-05 7.511001e-05 4.453904e-05 9.543673e-05 8.973845e-05 4.8312404e-06
1.7798056e-05 8.982853e-05 0.00010313053 0.00019903565 6.69152e-05 7.6059114e-05 0.0001973847 3.291279e-05
4.432056e-05 4.9494953e-05 6.1362116e-05 8.637311e-06 1.1969984e-08 3.5101035e-05 0.00017097629 9.612265e-05
1.3320593e-05 6.553685e-05 5.7426452e-05 8.505568e-05 4.25668e-05 0.00015375474 0.00011878607 8.420186e-06
5.3749452e-05 0.00018002253 4.181814e-05 1.7837583e-05 7.0378126e-05 6.094359e-05 1.7548608e-05 0.000113514085
00000000: 0bdc a838 7641 5c38 88b3 b137 3927 a437
00000010: 2316 7f38 83f0 3c37 1d6f bc38 769c ac37
00000020: 697a c936 b14e 1337 1e4a 1539 00b9 bd38
00000030: c9e2 5138 ca6a 6438 5a75 2238 c18a 0d39
00000040: 1c8b 1439 7dab c638 980f 2c37 a36c 1b39
00000050: c611 7738 ba5c 8a38 8288 6e38 e58b 0435
00000060: ad23 d638 54c1 7038 22a5 cb38 9880 ae38
00000070: d593 6c39 9cec 0f39 19a0 1138 4dda 9938
00000080: 8f9c 5038 4b40 f938 dcbc ce38 8724 9d37
00000090: a181 8738 cf88 5c38 3236 0537 1c05 1138
000000a0: 0da2 6f38 9869 1438 876e 4938 427f f337
000000b0: 809d 0539 eb83 a038 b9e4 1838 2fa1 b337
000000c0: 34e2 e136 72b3 aa38 d3c5 6838 ea43 a438
000000d0: 1be0 9d38 1800 d837 ace4 ec37 b6bf 0339
000000e0: c56a 3a39 6eca 3638 0ce2 1d38 7524 b738
000000f0: 7a7c 1039 f4c3 6338 84f1 7438 5c8b fe38
00000100: ed3b 7738 137f 8f38 8080 f636 53f6 d238
00000110: 1c8b 9238 0ffe 1f38 6d2e 9838 30d0 0e38
00000120: 4044 8937 9d11 3a38 6ad9 5238 5adb 9438
00000130: cf9b c538 cb14 8638 318b 1839 d1cf 3339
00000140: 9b69 1739 ab7e 7d37 bfe3 9538 6184 9d38
00000150: 6ecf 3a38 3425 c838 f731 bc38 0a1c a236
00000160: 094d 9537 5362 bc38 c847 d838 3ab4 5039
00000170: d354 8c38 ed81 9f38 0df9 4e39 d70b 0a38
00000180: d7e4 3938 cd98 4f38 89af 8038 f8e8 1037
00000190: 8ca4 4d32 7339 1338 1948 3339 7495 c938
000001a0: 837b 5f37 d470 8938 2fdd 7038 ec5f b238
000001b0: c189 3238 3939 2139 c91c f938 6c44 0d37
000001c0: 0971 6138 6ec4 3c39 e365 2f38 eba1 9537
000001d0: f897 9338 ae9d 7f38 5935 9337 690e ee38

weight f4 [120, 120]
-0.02181001 0.050215278 -0.013901302 0.012331601 0.053176317 0.030349998 -0.058645234 -0.057903405
0.013594644 -0.016103784 0.015901791 0.030199466 0.05826509 -0.065389015 0.046428453 0.055542428
-0.036130313 -0.028741425 -0.060454436 -0.075234905 -0.07814943 0.018266946 -0.057740137 -0.1229691
0.031388436 0.034045275 0.09358483 -0.102344915 -0.049573936 0.07707424 0.045084875 -0.0119768195
0.040094774 0.050083995 -0.035121035 -0.0047646607 0.06760834 -0.044607166 0.04712822 -0.07187502
0.09541139 -0.016606782 0.083969876 0.038710885 -0.06364882 -0.05264516 0.07145424 -0.04822145
-0.059659198 0.06713845 0.1024294 0.029850336 0.07478919 0.09182798 -0.08999706 -0.026830943
0.07624973 0.037107732 0.005772461 -0.08793602 0.066494375 0.08544628 0.032084625 -0.041805275
-0.046684995 0.05935568 0.047366828 0.0771039 0.026182313 0.026604949 -0.022851652 0.07005291
0.014168493 0.038413998 -0.05179088 -0.015159128 -0.068889685 0.0060766963 -0.029858932 -0.079706416
0.051422697 0.003963616 -0.012291759 -0.0014663893 0.07382153 0.010979404 -0.00070158177 -0.10420084
-0.024397926 0.007770023 -0.0763902 0.072096795 0.05316915 0.057102226 -0.048646867 -0.04478456
0.064281896 0.07760171 -0.07061951 0.05915798 -0.19295527 -0.034755636 -0.070855185 -0.08531447
-0.08251351 -0.030054903 -0.03138491 0.051446863 -0.05445351 0.05260508 -0.0032100875 0.08495117
-0.021146396 -0.003079379 0.020849686 0.053281724 0.030471334 -0.012657027 0.088163786 0.037244197
0.04346007 0.02167263 -0.030130723 0.08432133 -0.021948041 0.07703281 -0.008036359 0.036644403
-0.028273733 0.036535688 0.038981557 -0.050763756 -0.064146236 -0.034548 0.03537636 -0.105370946
-0.049619466 0.015405697 -0.06361479 -0.099863596 0.043497242 -0.019148882 0.04585817 -0.05925704
0.098700844 0.07777477 -0.003898916 -0.03494514 -0.053766657 -0.07414819 0.085964344 -0.0023295886
-0.036509916 -0.026029171 0.015606909 0.048539497 0.046377588 -0.02946669 0.0101705175 -0.013399771
0.0857032 0.09997335 0.0031050183 0.020147158 0.06648469 0.06950903 -0.077925526 0.024669234
0.093750305 -0.030684737 -0.03071384 -0.08805083 0.07554636 -0.060172085 0.07209669 0.08236003
0.012483087 0.040555913 0.07152335 0.012231604 0.07301494 -0.028681463 0.04927906 -0.039757337
-0.07226954 0.010861294 0.04087153 -0.022833511 0.016962407 0.09352201 0.07373836 0.09186263
0.06513484 -0.04700112 0.086610705 -0.032006357 -0.0064723673 -0.02112157 0.03864026 -0.07395036
-0.033496536 -0.004951987 0.07308193 0.052725833 0.03350116 -0.012369968 -0.01745768 -0.007122804
-0.015756732 0.09648431 -0.02680183 0.07176085 -0.017731661 -0.027542958 -0.08758052 -0.042565618
0.060742106 -0.04425561 -0.01682213 0.02317492 -0.23835137 0.06814834 -0.07050701 -0.10372871
0.088715635 0.053503104 -0.073799334 0.059120722 0.04564774 -0.06661831 0.038735986 0.030254
-0.007206295 -0.009260772 -0.07701738 -0.0725705 0.03197306 -0.039218556 -0.04788324 0.056188397
-0.046474565 -0.085157946 -0.039762598 -0.08474846 0.06523477 0.06951097 -0.06975695 0.055603795
-0.015014537 -0.035379574 0.029650748 -0.018461311 -0.0687425 0.038441177 0.023443878 -0.064452164
00000000: e8aa b2bc 89ae 4d3d 49c2 63bc 7c0a 4a3c
00000010: 69cf 593d 8fa0 f83c fc35 70bd 1f2c 6dbd
00000020: 12bc 5e3c 15ec 83bc 7944 823c df64 f73c
00000030: 60a7 6e3d adea 85bd c32b 3e3d 7580 633d
00000040: 61fd 13bd 2373 ebbc 129f 77bd c214 9abd
00000050: cf0c a0bd 90a4 953c ec80 6cbd 39d7 fbbd
00000060: 2991 003d 0f73 0b3d 67a9 bf3d 369a d1bd
00000070: 0a0e 4bbd 19d9 9d3d ebaa 383d 6c3a 44bc
00000080: 6b3a 243d e024 4d3d 13db 0fbd df20 9cbb
00000090: 3e76 8a3d 01b6 36bd 8509 413d 3633 93bd
000000a0: 0c67 c33d f20a 88bc 66f8 ab3d 4e8f 1e3d
000000b0: 505a 82bd 74a2 57bd 9a56 923d db83 45bd
000000c0: 345d 74bd e27f 893d 81c6 d13d b188 f43c
000000d0: 132b 993d 4f10 bc3d 6150 b8bd 91cc dbbc
000000e0: d228 9c3d 47fe 173d ea26 bd3b cd17 b4bd
000000f0: 342e 883d 76fe ae3d 2b6b 033d 023c 2bbd
00000100: c438 3fbd f11e 733d b803 423d a6e8 9d3d
00000110: 4a7c d63c 9ff2 d93c 6333 bbbc e677 8f3d
00000120: f822 683c ff57 1d3d ac22 54bd fe5d 78bc
00000130: 0916 8dbd 061f c73b b89a f4bc 1e3d a3bd
00000140: 9ba0 523d 39e1 813b 6063 49bc dc33 c0ba
00000150: be2f 973d f5e2 333c 5bea 37ba 4067 d5bd
00000160: 29de c7bc ad9b fe3b 7772 9cbd 7ca7 933d
00000170: e5c7 593d 06e4 693d f041 47bd 0470 37bd
00000180: 3aa6 833d a5ed 9e3d f6a0 90bd a34f 723d
00000190: 1196 45be ed5b 0ebd 861c 91bd 5ab9 aebd
000001a0: d8fc a8bd b335 f6bc 778d 00bd f2b9 523d
000001b0: a50a 5fbd 6d78 573d 5560 52bb e1fa ad3d
000001c0: 353b adbc 68cf 49bb f6cc aa3c f03d 5a3d
000001d0: 059f f93c 6b5f 4fbc 378f b43d 5f8d 183d
000001e0: 3003 323d cd8a b13c b5d4 f6bc a9b0 ac3d
000001f0: 61cc b3bc 61c3 9d3d efaa 03bc 7118 163d
00000200: 519e e7bc 72a6 153d 20ab 1f3d a8ed 4fbd
00000210: 1a5f 83bd 3482 0dbd cde6 103d b9cc d7bd
00000220: c83d 4bbd 2d68 7c3c 7948 82bd 4985 ccbd
00000230: 2a2a 323d 1ede 9cbc c7d5 3b3d 83b7 72bd
00000240: ab23 ca3d 6148 9f3d f584 7fbb a322 0fbd
00000250: 6d3a 5cbd 02db 97bd 130e b03d 03ac 18bb
00000260: 6c8b 15bd 213b d5bc 1fb4 7f3c 5ad1 463d
00000270: 6df6 3d3d 2164 f1bc 3ea2 263c b78a 5bbc
00000280: 2985 af3d d4be cc3d 907d 4b3b a70b a53c
00000290: 2029 883d c05a 8e3d 6b97 9fbd 2217 ca3c
000002a0: 2900 c03d 8f5e fbbc 979b fbbc fe53 b4bd
000002b0: 0db8 9a3d 0177 76bd 6ea7 933d 60ac a83d
000002c0: dd85 4c3c f51d 263d d67a 923d 1167 483c
000002d0: db88 953d 63f5 eabc d7d8 493d 97d8 22bd
000002e0: 0d02 94bd 92f3 313c e868 273d 580d bbbc
000002f0: bff4 8a3c 7888 bf3d 2304 973d 7922 bc3d
00000300: 6a65 853d 3f84 40bd f460 b13d 1919 03bd
00000310: 2716 d4bb 2507 adbc 4045 1e3d 4973 97bd
00000320: aa33 09bd 4744 a2bb fbab 953d 0bf7 573d
00000330: 8338 093d 68ab 4abc 6903 8fbc 6966 e9bb
00000340: 4314 81bc 9199 c53d 838f dbbc 5af7 923d
00000350: fd41 91bc c5a1 e1bc 6a5d b3bd 4959 2ebd
00000360: b7cc 783d 5f45 35bd 90ce 89bc 54d9 bd3c
00000370: 6212 74be 5b91 8b3d fb65 90bd b86f d4bd
00000380: 8bb0 b53d 1226 5b3d 1b24 97bd 9228 723d
00000390: 20f9 3a3d 2e6f 88bd a0a9 1e3d 3dd7 f73c
000003a0: c922 ecbb 7eba 17bc 4abb 9dbd d89f 94bd
000003b0: 2ff6 023d a3a3 20bd 3721 44bd ce25 663d
000003c0: 1d5c 3ebd 4a67 aebd 1bde 22bd 9a90 adbd
000003d0: cf99 853d c45b 8e3d bbdc 8ebd cec0 633d
000003e0: 88ff 75bc 2cea 10bd 20e6 f23c 2d3c 97bc
000003f0: dec8 8cbd 7f74 1d3d 600d c03c 7fff 83bd

bias f4 [120]
0.0055600386 0.080557615 -0.043993086 -0.07761839 -0.08831837 -0.089044124 -0.069963865 0.02422676
-0.020702157 -0.037419736 -0.020681417 -0.056406733 -0.02790107 0.03290612 0.083897054 0.035709117
-0.022454921 -0.084745854 0.03344241 -0.0693687 -0.032734953 -0.06673036 -0.044716537 -0.01790926
0.021873511 -0.020249372 0.08225039 0.08096383 -0.089415826 0.017812692 0.013230076 -0.02183458
0.0074172565 -0.050484337 0.03486543 -0.053005084 -0.046204958 -0.055860765 -0.04301862 0.059176497
0.051465545 0.05429758 0.039246447 -0.046446014 -0.06285328 -0.07003984 0.08624156 0.015190401
-0.026620084 -0.034165453 0.04452327 0.06534165 -0.01636162 0.06711707 0.006474651 -0.070343874
-0.060152825 -0.03083513 0.05460218 -0.037539814 -0.0050509186 0.00036271644 0.04048184 0.041404888
0.03023292 0.040631093 0.05676881 -0.020914784 -0.055890836 -0.063889846 -0.0009741952 0.06928387
-0.060259055 -0.04193506 -0.079634026 -0.050030116 0.023275945 -0.025604418 0.049446262 -0.057095237
-0.045782268 -0.05634744 -0.0018329406 0.059842527 -0.026452446 0.015647024 -0.06406349 0.017520368
0.085682414 -0.0128100505 0.07892776 0.006955216 0.054785103 -0.05664413 -0.022001812 0.02883315
0.06139981 -0.0170943 0.019421801 -0.04072802 -0.054536454 0.06838982 0.03511703 0.090291314
0.0010212916 -0.0031469557 -0.0012723922 0.02548009 -0.0040998776 -0.025546962 0.065668985 -0.03401386
0.029609753 0.03058373 0.084550194 0.067168474 0.048569817 0.016793702 -0.033989836 -0.005226273
00000000: fc30 b63b 64fb a43d 1832 34bd 64f6 9ebd
00000010: 43e0 b4bd c45c b6bd 3749 8fbd 3377 c63c
00000020: 9297 a9bc 7045 19bd 136c a9bc bf0a 67bd
00000030: c990 e4bc 91c8 063d 38d2 ab3d b943 123d
00000040: 62f3 b7bc 3c8f adbd e9fa 083d 2d11 8ebd
00000050: 1615 06bd eda9 88bd b028 37bd 71b6 92bc
00000060: 1430 b33c 03e2 a5bc e472 a83d 5dd0 a53d
00000070: a51f b7bd eceb 913c f6c2 583c 6fde b2bc
00000080: 750c f33b aac8 4ebd 0ecf 0e3d dc1b 59bd
00000090: 6941 3dbd 42ce 64bd 4b34 30bd 0e63 723d
000000a0: 89cd 523d 2467 5e3d e2c0 203d 2d3e 3ebd
000000b0: 38b9 80bd 0c71 8fbd 6a9f b03d 29e1 783c
000000c0: 5d12 dabc 13f1 0bbd 085e 363d d8d1 853d
000000d0: ce08 86bc ad74 893d 4f29 d43b 7310 90bd
000000e0: cf62 76bd f499 fcbc 89a6 5f3d 59c3 19bd
000000f0: 2d82 a5bb fa2a be39 49d0 253d 2c98 293d
00000100: 07ab f73c ca6c 263d 6986 683d 7b55 abbc
00000110: caed 64bd aed8 82bd 2261 7fba b4e4 8d3d
00000120: 33d2 76bd 19c4 2bbd 2a17 a3bd 61ec 4cbd
00000130: 32ad be3c 5bc0 d1bc 2a88 4a3d b2dc 69bd
00000140: 3086 3bbd 93cc 66bd 483f f0ba 701d 753d
00000150: cdb2 d8bc 302e 803c b833 83bd e086 8f3c
00000160: 437a af3d 3fe1 51bc e1a4 a13d 95e8 e33b
00000170: 5866 603d ad03 68bd 253d b4bc 8033 ec3c
00000180: 5e7e 7b3d 5809 8cbc 781a 9f3c 6dd2 26bd
00000190: 9e61 5fbd f60f 8c3d e0d6 0f3d a7ea b83d
000001a0: dcdc 853a 283d 4ebb 66c6 a6ba 9fbb d03c
000001b0: 4458 86bb dd47 d1bc 767d 863d 1e52 0bbd
000001c0: 2790 f23c bb8a fa3c a728 ad3d a08f 893d
000001d0: 25f1 463d f292 893c ed38 0bbd 2841 abbb

weight f4 [120]
0.99137336 0.98289585 0.9824525 0.994433 0.9945073 0.9987952 0.97478205 1.0095322
1.0104426 1.0373397 1.0048152 1.0109663 0.9972675 1.0220307 0.9706953 0.98501295
1.0034329 1.0142936 1.0018752 1.0027567 1.0360532 1.0179358 1.0048189 0.9767795
1.0198185 1.0093744 1.00802 0.9888841 1.0062522 0.9750232 0.99506533 0.9574238
1.0446424 0.9900676 1.0162839 0.9854022 1.0015426 0.9929695 0.9894837 1.0036726
0.9781126 1.0104089 0.97247285 1.0081356 1.0045389 1.0185008 0.97128356 0.9813836
0.9976853 0.9765767 1.0018563 0.9929697 0.96177316 1.0091223 0.98690534 1.0275428
0.9938998 1.0213803 1.0136123 0.9836674 1.0054406 0.9984106 1.0113137 0.9659263
1.0036334 1.002082 1.0264076 1.0173044 1.0219119 1.0271928 1.0032581 1.0029305
1.0306082 1.0225981 0.97685164 0.9508594 0.9922248 0.9721499 0.99301785 0.97127944
0.9934638 0.96926904 1.0031742 0.9901657 1.0110277 0.98420835 1.0014131 0.99410725
1.0037575 0.985419 1.0039314 0.9910841 0.982759 1.0061848 0.9943484 0.99966514
0.98837835 1.0271144 1.144747 0.9959132 1.0255665 0.99190867 0.99331075 0.99591833
0.95866305 0.9991923 1.0049149 0.9866039 0.99796855 1.004374 1.0073384 1.0241224
0.9958957 0.9912823 1.0097618 0.9958919 0.99962336 0.99715424 1.0027556 0.9971723
00000000: a5ca 7d3f 109f 7b3f 0282 7b3f 2993 7e3f
00000010: 0898 7e3f 0bb1 7f3f 518b 793f 5a38 813f
00000020: 2f56 813f 8cc7 843f c99d 803f 5867 813f
00000030: ec4c 7f3f e7d1 823f 7d7f 783f cf29 7c3f
00000040: 7d70 803f 5fd4 813f 723d 803f 555a 803f
00000050: 649d 843f b84b 823f e89d 803f 390e 7a3f
00000060: 6a89 823f 2e33 813f cd06 813f 8227 7d3f
00000070: dfcc 803f 1f9b 793f 9abc 7e3f ba19 753f
00000080: d8b6 853f 1275 7d3f 9715 823f 5243 7c3f
00000090: 8c32 803f 4033 7e3f ce4e 7d3f 5878 803f
000000a0: 9665 7a3f 1455 813f fbf3 783f 960a 813f
000000b0: bb94 803f 3c5e 823f 0aa6 783f f53b 7b3f
000000c0: 4e68 7f3f ee00 7a3f d43c 803f 4333 7e3f
000000d0: c436 763f eb2a 813f d4a5 7c3f 8686 833f
000000e0: 3870 7e3f 97bc 823f 0cbe 813f a0d1 7b3f
000000f0: 47b2 803f d697 7f3f ba72 813f f246 773f
00000100: 0f77 803f 3944 803f 5361 833f 0837 823f
00000110: 02ce 823f 0e7b 833f c36a 803f 0760 803f
00000120: f8ea 833f 7fe4 823f f312 7a3f 866b 733f
00000130: 7202 7e3f d1de 783f 6b36 7e3f c5a5 783f
00000140: a553 7e3f 0422 783f 0368 803f 807b 7d3f
00000150: 5b69 813f 14f5 7b3f 4e2e 803f d07d 7e3f
00000160: 207b 803f 6b44 7c3f d380 803f b0b7 7d3f
00000170: 1896 7b3f aaca 803f 9e8d 7e3f 0eea 7f3f
00000180: 5d06 7d3f 7c78 833f 1287 923f 2bf4 7e3f
00000190: c345 833f baed 7d3f 9d49 7e3f 81f4 7e3f
000001a0: f16a 753f 11cb 7f3f 0da1 803f 1392 7c3f
000001b0: de7a 7f3f 548f 803f 77f0 803f 7116 833f
000001c0: 05f3 7e3f adc4 7d3f e03f 813f c6f2 7e3f
000001d0: 51e7 7f3f 8045 7f3f 4c5a 803f af46 7f3f

bias f4 [120]
-0.015008234 0.040461224 -0.029878924 0.008967744 -0.012622554 -0.04266643 -0.037114713 0.02334412
0.02404718 0.03302756 0.009934373 0.030835018 0.055440787 0.025564797 -0.08140605 -0.024395028
-0.012067566 0.040749494 -0.06246017 -0.11303986 0.054230638 0.010457447 0.060755365 -0.036607325
0.077742726 -0.035212707 -0.010613869 -0.011193364 -0.030601317 0.024285546 0.011854731 -0.079959586
0.05344061 -0.020551177 0.00697359 0.008468321 0.00097299553 -0.026356317 -0.019706804 -0.011031784
-0.06114181 -0.0067278305 -0.05172864 0.018883714 -0.029495047 0.022692954 0.004641011 -0.023815319
-0.0077785403 -0.0211991 0.00976369 0.018513098 -0.046007827 0.056406677 -0.07256759 0.15369661
-0.021891126 0.043744683 0.01453045 -0.016796848 -0.054878283 -0.094037466 -0.011663778 -0.016840793
0.0065854136 0.002630043 0.07942463 0.05492831 0.026344413 0.010488036 -0.04046436 -0.0030970748
0.023097344 0.06530489 -0.017609134 -0.14896607 0.01879338 -0.08206685 -0.014438902 -0.00084357546
-0.11311311 -0.06366819 0.016377825 -0.01615203 0.022880277 -0.013813741 0.008885736 -0.054050565
0.01580958 -0.046213675 0.012202738 -0.035113715 -0.03564978 0.052836772 -0.03077985 -0.1349746
-0.023005035 0.23083848 0.2235228 -0.0136204725 0.0843572 -0.002034169 0.006134915 -0.04790311
-0.04588493 0.0029652806 0.012685091 -0.028860103 0.02807638 0.0059811706 0.019061439 0.027071256
0.009054451 -0.009879543 0.032977946 -0.05685564 -0.00017622359 0.010732803 -0.0032508343 -0.0077706785
00000000: 19e5 75bc abba 253d a5c4 f4bc 72ed 123c
00000010: d4ce 4ebc ffc2 2ebd 9905 18bd 2b3c bf3c
00000020: 97fe c43c e847 073d c8c3 223c b899 fc3c
00000030: e115 633d 446d d13c 37b8 a6bd 15d8 c7bc
00000040: 0ab7 45bc f1e8 263d 3cd6 7fbd 7181 e7bd
00000050: f220 5e3d b655 2b3c 9eda 783d 90f1 15bd
00000060: 9437 9f3d 333b 10bd cbe5 2dbc 5f64 37bc
00000070: 9daf fabc 7bf2 c63c 583a 423c dac1 a3bd
00000080: 8be4 5a3d f15a a8bc b682 e43b b6be 0a3c
00000090: a010 7f3a 34e9 d7bc 2a70 a1bc a8be 34bc
000000a0: d66f 7abd 2275 dcbb 69e1 53bd 05b2 9a3c
000000b0: 999f f1bc 93e6 b93c 9f13 983b 5818 c3bc
000000c0: 20e3 febb bca9 adbc e2f7 1f3c c8a8 973c
000000d0: b472 3cbd b00a 673d 519e 94bd a562 1d3e
000000e0: 0555 b3bc a02d 333d 2011 6e3c 8b99 89bc
000000f0: 0dc8 60bd b796 c0bd 6e19 3fbc b4f5 89bc
00000100: 74ca d73b cd5c 2c3b 61a9 a23d 82fc 603d
00000110: 3dd0 d73c 03d6 2b3c f5bd 25bd 4bf8 4abb
00000120: a436 bd3c 92be 853d 0841 90bc 908a 18be
00000130: 93f4 993c aa12 a8bd 2591 6cbc 6423 5dba
00000140: d9a7 e7bd 7864 82bd ca2a 863c 4351 84bc
00000150: 6b6f bb3c 0753 62bc 7a95 113c 2064 5dbd
00000160: 1883 813c 8d4a 3dbd feed 473c 66d3 0fbd
00000170: 8105 12bd 5f6b 583d 0626 fcbc c836 0abe
00000180: 0e75 bcbc ec60 6c3e 29e3 643e 6728 5fbc
00000190: 78c3 ac3d b14f 05bb 6607 c93b 0d36 44bd
000001a0: d6f1 3bbd 2755 423b 21d5 4f3c 066c ecbc
000001b0: 7000 e63c b2fd c33b bc26 9c3c 8ac4 dd3c
000001c0: 1f59 143c cfdd 21bc e213 073d 76e1 68bd
000001d0: a9c8 38b9 a3d8 2f3c f30b 55bb 2da1 febb

running_mean f4 [120]
0.13518287 0.18577811 0.03841293 -0.04142063 0.052934237 0.045881465 -0.07285592 -0.1319447
-0.043334376 -0.15606946 -0.07372974 -0.2169562 -0.17831834 0.0365326 0.15745912 -0.007588187
-0.14107344 -0.17117043 0.38154107 0.15782063 -0.13840702 -0.023233458 -0.08253128 0.04961947
-0.22378129 -0.006453411 0.2056851 0.07392359 -0.12390895 -0.24226767 -0.13123962 0.22332382
-0.2193277 0.03437883 0.17779405 -0.06775588 -0.015646124 -0.0061835316 -0.009432503 0.09667783
0.19464985 0.10053916 0.2389466 -0.0488599 -0.030588003 -0.14932448 0.16905482 0.30420062
-0.093704745 0.057442885 0.06448692 0.08969904 0.105289005 0.028274301 0.05542446 -0.064210534
0.0061599743 -0.14668673 -0.09566242 0.027216982 0.09186916 0.10609321 0.06363982 0.28178737
-0.12780015 0.014683389 0.0748604 -0.14912723 -0.09836089 -0.08112332 0.122342944 0.08544066
-0.09317618 -0.42597118 0.020603484 0.48665163 0.010783709 0.17133634 0.05846819 0.16176452
0.23416184 0.16885608 -0.04782236 0.096630074 -0.011292856 0.07261667 -0.07696978 0.11469484
-0.16136321 0.06693239 -0.0066492525 0.17273603 0.05625341 -0.086014844 0.238658 0.50182873
0.16641743 0.013476111 0.037241336 0.067475036 -0.29068446 0.1626356 -0.03660984 0.21223998
0.20940353 -0.15622707 -0.008838594 0.14749596 -0.056908928 0.05349225 -0.02724464 -0.09129243
0.14601715 0.06863412 -0.067988336 0.38603434 -0.005699216 0.13342954 -0.10179092 -0.031085752
00000000: 616d 0a3e 9e3c 3e3e e056 1d3d aea8 29bd
00000010: 92d1 583d 34ee 3b3d 7c35 95bd 831c 07be
00000020: 637f 31bd acd0 1fbe 9eff 96bd c429 5ebe
00000030: 1599 36be 35a3 153d f73c 213e 54a6 f8bb
00000040: 8e75 10be 4d47 2fbe 5a59 c33e bb9b 213e
00000050: 92ba 0dbe 1854 bebc 2906 a9bd c93d 4b3d
00000060: ec26 65be 2377 d3bb 1d9f 523e 4065 973d
00000070: fac3 fdbd 0415 78be ae63 06be 00af 643e
00000080: 7197 60be d1d0 0c3d a50f 363e 98c3 8abd
00000090: 4d2c 80bc 399f cabb c98a 1abc 07ff c53d
000000a0: 4a52 473e 7ae7 cd3d 6bae 743e 5221 48bd
000000b0: b193 fabc 84e8 18be b51c 2d3e 2fc0 9b3e
000000c0: 46e8 bfbd 3b49 6b3d b811 843d 21b4 b73d
000000d0: c3a1 d73d 829f e73c c204 633d d080 83bd
000000e0: 9cd9 c93b 0c35 16be a9ea c3bd 26f6 de3c
000000f0: e625 bc3d 6647 d93d 9855 823d 6f46 903e
00000100: 0bde 02be 9992 703c 6950 993d cfb4 18be
00000110: 6f71 c9bd fc23 a6bd f08e fa3d 83fb ae3d
00000120: 27d3 bebd e518 dabe a3c8 a83c 672a f93e
00000130: 27ae 303c cb72 2f3e 577c 6f3d 99a5 253e
00000140: 1fc8 6f3e 9ce8 2c3e 61e1 43bd fde5 c53d
00000150: ac05 39bc 0cb8 943d 55a2 9dbd 21e5 ea3d
00000160: 663c 25be d913 893d f9e1 d9bb b7e1 303e
00000170: fa69 663d 8d28 b0bd c362 743e d977 003f
00000180: 5569 2a3e e8ca 5c3c 5f8a 183d 5a30 8a3d
00000190: 98d4 94be f289 263e 33f4 15bd 7055 593e
000001a0: e16d 563e fdf9 1fbe c0cf 10bc 2e09 173e
000001b0: 5619 69bd b11a 5b3d 2730 dfbc 87f7 babd
000001c0: 8585 153e 0c90 8c3d 783d 8bbd 4ba6 c53e
000001d0: 7dc0 babb c1a1 083e c277 d0bd 8ca7 febc

running_var f4 [120]
0.027453618 0.074765265 0.022132235 0.021917252 0.023569101 0.017867438 0.044804204 0.05770394
0.011847523 0.024801904 0.04593604 0.04331429 0.029108858 0.002399 0.016340744 0.15313846
0.008833992 0.009535789 0.05074439 0.047984347 0.023479242 0.010423468 0.008350018 0.007646598
0.08733342 0.022466496 0.10095878 0.06883527 0.016688906 0.044840112 0.02545271 0.024390828
0.06406744 0.052616872 0.09428596 0.049387965 0.03393104 0.0685593 0.025811777 0.027652837
0.009645067 0.028442482 0.070907645 0.01773877 0.005027905 0.0454034 0.05151118 0.059125546
0.13377964 0.04535185 0.03972805 0.047302723 0.06372842 0.007174169 0.025954863 0.001363248
0.023662977 0.035079658 0.024731297 0.041943893 0.005836443 0.026527675 0.021277595 0.07577637
0.023195656 0.0050233197 0.0017597482 0.018778842 0.006215021 0.02329823 0.043552883 0.028244065
0.003940353 0.07148234 0.13490203 0.067241654 0.01090008 0.024708804 0.17724912 0.03242035
0.06231757 0.112137966 0.01294736 0.041933313 0.0045020324 0.10432643 0.17651373 0.0026061968
0.04691809 0.0167828 0.03881547 0.024212528 0.057191037 0.0027732658 0.06517318 0.11544477
0.010119148 0.0007489608 0.00018858827 0.03291263 0.034495633 0.02075982 0.07223574 0.013014394
0.07266328 0.15320818 0.02704495 0.05501866 0.02555296 0.0129793305 0.05770563 0.0038685785
0.06552021 0.021491833 0.052757975 0.04440941 0.016919471 0.13935165 0.03655868 0.04685229
00000000: 69e6 e03c 881e 993d a94e b53c cf8b b33c
00000010: fd13 c13c bc5e 923c 9d84 373d f75a 6c3d
00000020: 1d1c 423c 5d2d cb3c 6e27 3c3d 536a 313d
00000030: b375 ee3c 8b38 1d3b 06dd 853c 54d0 1c3e
00000040: 73bc 103c ff3b 1c3c 59d9 4f3d 3c8b 443d
00000050: 8a57 c03c 32c7 2a3c 84ce 083c 5090 fa3b
00000060: dddb b23d a80b b83c 7ac3 ce3d 82f9 8c3d
00000070: 2cb7 883c 44aa 373d 3482 d03c 46cf c73c
00000080: ca35 833d ca84 573d ff18 c13d 094b 4a3d
00000090: 46fb 0a3d d168 8c3d 3873 d33c 3488 e23c
000000a0: 5806 1e3c 3500 e93c 0738 913d e650 913c
000000b0: 20c1 a43b eaf8 393d 63fd 523d a12d 723d
000000c0: 88fd 083e ddc2 393d e1b9 223d 80c0 413d
000000d0: 0c84 823d 4b15 eb3b 4b9f d43c 03af b23a
000000e0: dcd8 c13c b0af 0f3d 4a99 ca3c 5ccd 2b3d
000000f0: a23f bf3b 9150 d93c 5a4e ae3c a430 9b3d
00000100: d104 be3c a99a a43b 5aa7 e63a 16d6 993c
00000110: 60a7 cb3b eedb be3c 8264 323d 1960 e73c
00000120: 141e 813b 5565 923d c223 0a3e feb5 893d
00000130: 4096 323c 1e6a ca3c cb80 353e 33cb 043d
00000140: b540 7f3d 97a8 e53d 2a21 543c 44c2 2b3d
00000150: c985 933b 18a9 d53d 04c0 343e bacc 2a3b
00000160: 2f2d 403d 157c 893c f8fc 1e3d 5a59 c63c
00000170: 2641 6a3d aebf 353b 8479 853d 4f6e ec3d
00000180: c8ca 253c e955 443a c7bf 4539 65cf 063d
00000190: 4b4b 0d3d 7f10 aa3c 55f0 933d 533a 553c
000001a0: 7cd0 943d 9be2 1c3e 5f8d dd3c 3f5b 613d
000001b0: 7154 d13c 42a7 543c bd5c 6c3d fa87 7d3b
000001c0: 762f 863d a40f b03c bf18 583d a4e6 353d
000001d0: b49a 8a3c 33b2 0e3e 8ebe 153d 30e8 3f3d

weight f4 [120, 120]
0.062131528 0.046311654 -0.060200628 -0.09034193 0.06094284 0.030500462 0.034834865 0.031305388
-0.0045716963 0.02244608 0.07605514 -0.030668491 0.048205934 0.073992126 0.049308363 0.014057457
0.083025984 0.10159567 0.035797514 -0.07725038 -0.0064985286 0.03749312 0.04349603 0.08639325
-0.013902973 0.084032364 -0.034929007 0.023014981 -0.04557685 -0.08123287 -0.02717611 -0.03360065
0.032785065 -0.07255891 -0.0733415 -0.083284706 0.04905796 -0.04009678 0.06093119 0.05178019
-0.017126169 0.047447644 0.014589636 -0.015794488 -0.0020496438 0.01645442 0.026965002 -0.08978194
-0.037546065 -0.024715673 -0.032344658 -0.07512755 -0.030380875 0.098107025 -0.048760075 0.012455991
0.04598003 0.012200847 0.0010298762 0.10582417 0.019718017 -0.012876452 -0.012877579 0.07688052
-0.010828461 0.017092297 -0.06633118 0.020077366 0.0633068 -0.028973203 0.014379376 -0.029141398
0.0075601004 0.0010643745 -0.064860344 0.06801394 -0.069241166 0.058053486 0.06343505 0.08330155
0.10027854 0.0917402 0.033821445 0.0109710945 0.044116646 -0.04717441 -0.021950647 0.037801754
0.047247145 0.027637534 0.11975356 0.048311554 -0.06709794 0.054237843 -0.055936843 -0.047580536
0.078329526 -0.08718976 0.03880183 -0.04154705 0.07821453 0.084945224 -0.05558308 0.0035596867
-0.026432524 0.0028836161 0.0895895 -0.07372761 -0.05335179 0.03382245 -0.015398184 0.013469538
-0.03425864 -0.023444511 0.08034336 0.071433544 0.04516687 0.033641014 0.049133394 0.043002244
0.048938524 -0.038909424 -0.037415367 -0.0068391026 0.03033037 -0.06726244 -0.030685654 -0.022994738
-0.017139982 0.11609356 -0.0035919196 0.020731986 0.08385097 0.053102452 0.06385717 0.08919179
-0.08872669 -0.03276252 0.10074697 -0.08125777 0.093721576 -0.05362846 -0.095020756 0.07182793
-0.032720808 0.057100885 -0.033390176 0.045069866 0.03729636 -0.092763394 0.09271937 -0.027201142
-0.09588078 0.08691579 -0.0027432176 -0.06411288 -0.049523674 0.07020739 0.07976047 -0.029576004
0.047667384 -0.042392015 0.0030273655 -0.073372595 -0.052717384 -0.03194373 -0.08491596 0.08952514
-0.03555719 0.08376786 -0.074824885 0.08367714 -0.036893442 -0.0038177366 0.04138732 -0.06463579
0.0073853177 0.062043756 -0.09812494 0.09535753 -0.031646617 0.027674176 -0.08982583 -0.04047576
0.055959076 -0.050122306 -0.05876303 -0.01292521 -0.092325896 0.07512116 -0.022864264 -0.016096398
-0.06201728 -0.026832994 0.05205116 0.011508962 -0.0012029596 0.055284996 0.032745983 0.0017943943
0.09374008 -0.059466943 0.06651106 -0.06599528 0.06756029 -0.0798493 0.07256732 0.012095181
0.068511546 0.026322795 0.04075733 0.04144394 0.038990974 -0.017961912 -0.058112223 0.0023515369
0.047948953 0.05187982 -0.051089447 -0.04088066 0.06104164 0.06665103 -0.04515096 -0.008933287
0.051586617 0.010606331 0.06747923 0.03749469 -0.027870294 0.0049020764 -0.023572342 0.07479634
0.0090075685 -0.03813674 0.043479472 0.008118629 0.0017343464 0.014313926 0.056890465 0.0038058502
0.06224213 -0.026349675 -0.03343458 -0.006699095 -0.019547436 -0.005867002 0.09877065 0.053738337
0.06193327 -0.105621286 0.01858388 -0.062094573 0.009404769 0.040112104 0.07122876 -0.03668313
00000000: a17d 7e3d 4ab1 3d3d ef94 76bd 3105 b9bd
00000010: 339f 793d 1bdc f93c 01af 0e3d 143a 003d
00000020: 2bce 95bb d7e0 b73c ccc2 9b3d 7d3c fbbc
00000030: 9673 453d 2f89 973d 91f7 493d 4051 663c
00000040: 8709 aa3d 6411 d03d 6aa0 123d 7235 9ebd
00000050: 9cf1 d4bb 6392 193d e528 323d f2ee b03d
00000060: 4cc9 63bc 2919 ac3d b811 0fbd ea89 bc3c
00000070: cbae 3abd 6b5d a6bd 6fa0 debc d6a0 09bd
00000080: a249 063d c499 94bd 1134 96bd 2c91 aabd
00000090: 00f1 483d 853c 24bd fc92 793d 7717 543d
000000a0: 2e4c 8cbc 7658 423d 5e09 6f3c 7163 81bc
000000b0: 5153 06bb 6bcb 863c b5e5 dc3c 98df b7bd
000000c0: e7c9 19bd 8678 cabc d57b 04bd 79dc 99bd
000000d0: 50e1 f8bc 56ec c83d a5b8 47bd 3614 4c3c
000000e0: 8e55 3c3d 10e6 473c e9fc 863a 58ba d83d
000000f0: ae87 a13c c1f7 52bc 7bfc 52bc 8973 9d3d
00000100: db69 31bc 2505 8c3c a4d8 87bd 4a79 a43c
00000110: ffa6 813d 3659 edbc 7997 6b3c f1b9 eebc
00000120: b8ba f73b 7b82 8b3a 80d5 84bd e44a 8b3d
00000130: 50ce 8dbd 7ec9 6d3d 3cea 813d 019a aa3d
00000140: d65e cd3d 49e2 bb3d 5b88 0a3d 1bc0 333c
00000150: a8b3 343d f439 41bd d8d1 b3bc 03d6 1a3d
00000160: 3986 413d 1c68 e23c 5b41 f53d 56e2 453d
00000170: a56a 89bd 8028 5e3d 081e 65bd cfe3 42bd
00000180: 3b6b a03d 8b90 b2bd abee 1e3d 3d2d 2abd
00000190: f12e a03d c3f7 ad3d 15ab 63bd a249 693b
000001a0: 0589 d8bc 0dfb 3c3b b37a b73d 80fe 96bd
000001b0: 6887 5abd 6989 0a3d aa48 7cbc 56af 5c3c
000001c0: ca52 0cbd b40e c0bc 0f8b a43d c04b 923d
000001d0: e500 393d 29cb 093d 1940 493d 1f23 303d
000001e0: c373 483d 7d5f 1fbd db40 19bd 8d1a e0bb
000001f0: 6577 f83c e4c0 89bd 7b60 fbbc 765f bcbc
00000200: 2669 8cbc 76c2 ed3d 6966 6bbb 20d6 a93c
00000210: 0fba ab3d f581 593d 8cc7 823d 2faa b63d
00000220: 57b6 b5bd fe31 06bd 6d54 ce3d 796a a6bd
00000230: 19f1 bf3d 84a9 5bbd 3e9a c2bd 861a 933d
00000240: 4106 06bd 9ee2 693d 23c4 08bd 2e9b 383d
00000250: 11c4 183d bcfa bdbd a7e3 bd3d eed4 debc
00000260: 245d c4bd e800 b23d 8ec7 33bb 9d4d 83bd
00000270: 56d9 4abd e4c8 8f3d 7559 a33d 6049 f2bc
00000280: e03e 433d 40a3 2dbd c466 463b 5f44 96bd
00000290: 2fee 57bd 6ed7 02bd 6be8 adbd f558 b73d
000002a0: 6ba4 11bd 7c8e ab3d ca3d 99bd ec5e ab3d
000002b0: 941d 17bd fe32 7abb c085 293d c55f 84bd
000002c0: 8900 f23b 9821 7e3d bbf5 c8bd cf4a c33d
000002d0: e29f 01bd f4b4 e23c 9bf6 b7bd e9c9 25bd
000002e0: 5835 653d 0c4d 4dbd 81b1 70bd 43c4 53bc
000002f0: 5c15 bdbd 1fd9 993d d64d bbbc 98dc 83bc
00000300: d505 7ebd ded0 dbbc 9933 553d 1690 3c3c
00000310: a0ac 9dba 8572 623d a720 063d e231 eb3a
00000320: cdfa bf3d 9c93 73bd f336 883d 8928 87bd
00000330: 0d5d 8a3d 0888 a3bd 2d9e 943d de2a 463c
00000340: c84f 8c3d e7a2 d73c 28f1 263d 1fc1 293d
00000350: 00b5 1f3d dc24 93bc 1507 6ebd 3e1c 1a3b
00000360: 1f66 443d ef7f 543d 2b43 51bd 7b72 27bd
00000370: cc06 7a3d 5680 883d 37f0 38bd ec5c 12bc
00000380: 7d4c 533d 2dc6 2d3c 8d32 8a3d 0894 193d
00000390: 3e50 e4bc 99a1 a03b c91a c1bc d32e 993d
000003a0: 7b94 133c 4535 1cbd 8817 323d 0004 053c
000003b0: 0253 e33a f584 6a3c fa05 693d 926b 793b
000003c0: 9bf1 7e3d 46db d7bc b3f2 08bd 1584 dbbb
000003d0: f221 a0bc fb3f c0bb 4448 ca3d bb1c 5c3d
000003e0: bead 7d3d f94f d8bd 393d 983c e156 7ebd
000003f0: 7616 1a3c 974c 243d 62e0 913d 0d41 16bd
