neural_networks/Drone_customsigmoid_BN.pt (torch, 140941 bytes, 24 tensors)

1.weight f4 [120, 16]
0.18224503 0.18570474 0.08785668 -0.059966665 -0.03487273 0.06758767 -0.08879671 -0.018741136
-0.03565516 -0.15783338 0.0053922846 0.13056456 0.003864608 0.01208584 0.024308583 -0.013523201
0.13344243 -0.2542814 0.03672306 -0.11014244 -0.097156905 -0.17844284 -0.29472068 0.030423865
-0.10983522 -0.20424907 -0.101774655 -0.07050624 -0.007492294 0.0330457 -0.010375987 -0.11050639
-0.11242442 -0.3291329 0.021802416 0.18056244 0.27341822 0.021535873 0.23880261 0.014994277
0.09555428 -0.11707129 0.21359913 -0.055344015 -0.08542583 -0.004552527 -0.069321714 0.19649723
-0.21022007 0.08231906 -0.04107719 0.20579371 -0.04634336 -0.018294957 0.013353618 -0.18353151
-0.21579528 0.023924151 -0.11743374 -0.014656705 0.051158976 -0.15097778 0.11037744 0.08818364
-0.18260321 0.19978532 0.07876174 0.11772519 0.045353122 -0.28395444 0.08927297 0.12941277
-0.10334773 0.106592365 0.2106423 0.16119112 -0.09120694 -0.13651164 -0.034268867 0.15098968
-0.2176165 -0.004365413 0.31001183 0.17576875 0.15225057 -0.2394564 -0.22682327 0.16870439
0.15439078 0.121136196 -0.22856688 0.16784328 -0.19511728 0.21336396 -0.043654006 -0.17284885
0.05554352 -0.19834465 0.008502731 0.14760518 0.08485312 -0.028161399 0.06303427 0.09358089
-0.2170713 -0.06899111 -0.072261296 -0.13534261 0.22148375 -0.127913 -0.21729778 0.064285114
-0.13178353 -0.050183468 -0.1042022 -0.09975307 0.10460666 0.0949568 -0.23630783 -0.05123362
-0.09136722 -0.063594714 0.09797006 0.09472324 0.030568082 0.045925662 -0.008989952 0.22299846
0.2834616 0.24160548 0.113027275 -0.21781269 -0.28586134 0.20843244 -0.04374117 0.24322644
0.11897412 0.07956054 -0.14875373 0.050597064 -0.13675003 0.063972555 -0.16964425 -0.10228687
0.24007347 0.1898594 -0.16256154 0.22771612 -0.26568714 0.15883331 0.22139217 -0.10182864
0.1657639 0.22523531 0.01037318 0.17316146 0.034128293 0.17248723 0.06996299 -0.08326687
-0.10833022 -0.071557336 -0.11224268 -0.11735959 0.17598972 -0.024349064 0.11150904 0.1504905
-0.23488913 -0.20156693 0.03929917 0.12234059 -0.09439478 0.24503168 0.02638555 -0.093269065
0.17581491 -0.17776616 0.22899134 -0.15972993 -0.06836119 0.15000309 -0.08012096 -0.008742055
0.22691728 0.16896741 0.21502951 0.10119317 0.14543925 -0.14919062 0.22604917 0.046242744
0.011660219 -0.1615478 -0.06157436 0.08743768 -0.1985363 0.17105061 -0.058691997 -0.031808954
0.040016256 -0.057298668 -0.22499745 0.029312182 0.20256604 -0.055542264 0.060048807 -0.16566496
-0.008322683 0.04531614 -0.15859988 0.00016110032 0.21814506 -0.20478976 -0.13562612 -0.14461356
-0.040034443 -0.018869521 -0.3316514 0.048272073 -0.01153088 -0.13007982 0.029799119 -0.028315252
-0.046992805 -0.10164326 0.13596737 0.23192252 0.20515439 0.023347609 -0.11794041 -0.054171734
-0.056348514 0.1582738 -0.035382506 -0.09871259 0.17243174 0.16291663 -0.051084336 -0.0899642
-0.06839734 0.06632909 -0.14171137 0.13201483 0.21784899 -0.05161623 -0.23006481 0.19517086
0.056796473 0.01238987 -0.0920282 0.035443112 0.0067062452 -0.079679586 -0.017759182 -0.22189488
00000000: 719e 3a3e 6229 3e3e 34ee b33d 9b9f 75bd
00000010: b5d6 0ebd 686b 8a3d 0ddb b5bd 0387 99bc
00000020: 250b 12bd 139f 21be c3b1 b03b b7b2 053e
00000030: 5d45 7d3b b003 463c cb22 c73c 6b90 5dbc
00000040: 22a5 083e 2c31 82be eb6a 163d 5c92 e1bd
00000050: 33fa c6bd b8b9 36be a1e5 96be 783b f93c
00000060: 4af1 e0bd ab26 51be 3b6f d0bd 9365 90bd
00000070: eb81 f5bb ee5a 073d 0b00 2abc 2d51 e2bd
00000080: c63e e6bd 1c84 a8be fb9a b23c 5ce5 383e
00000090: 79fd 8b3e 006c b03c ac88 743e 8eaa 753c
000000a0: f6b1 c33d 13c3 efbd bbb9 5a3e 68b0 62bd
000000b0: bdf3 aebd 5d2d 95bb 8bf8 8dbd 9236 493e
000000c0: ee43 57be e596 a83d 8e40 28bd 96bb 523e
000000d0: 89d2 3dbd 4edf 95bc 22c9 5a3c afef 3bbe
000000e0: 70f9 5cbe 95fc c33c 1a81 f0bd ad22 70bc
000000f0: 138c 513d eb99 1abe 910d e23d a099 b43d
00000100: 56fc 3abe 8694 4c3e d64d a13d e819 f13d
00000110: 32c4 393d 7a62 91be bfd4 b63d c884 043e
00000120: faa7 d3bd 194d da3d 9db2 573e 490f 253e
00000130: b4ca babd b5c9 0bbe 835d 0cbd 0a9d 1a3e
00000140: dcd6 5ebe bd0b 8fbb dfb9 9e3e b9fc 333e
00000150: 93e7 1b3e 0f34 75be 5c44 68be d8c0 2c3e
00000160: 9e18 1e3e 4116 f83d 700d 6abe 1cdf 2b3e
00000170: d3cc 47be 157c 5a3e 8bce 32bd 4aff 30be
00000180: 9a81 633d dc1a 4bbe 0a4f 0b3c d025 173e
00000190: 79c7 ad3d bcb2 e6bc 1d18 813d 56a7 bf3d
000001a0: f047 5ebe 364b 8dbd bbfd 93bd 4197 0abe
000001b0: a3cc 623e a0fb 02be 4f83 5ebe eaa7 833d
000001c0: 43f2 06be 2e8d 4dbd f767 d5bd 564b ccbd
000001d0: 043c d63d b678 c23d aefa 71be 58da 51bd
000001e0: bd1e bbbd f23d 82bd 87a4 c83d 42fe c13d
000001f0: ea69 fa3c 8c1c 3c3d 974a 13bc b559 643e
00000200: e121 913e 6d67 773e d87a e73d 4a0a 5fbe
00000210: 6b5c 92be 506f 553e f129 33bd 5a10 793e
00000220: b4a8 f33d a3f0 a23d e652 18be de3e 4f3d
00000230: 3308 0cbe 0b04 833d 39b7 2dbe c77b d1bd
00000240: d2d5 753e 816a 423e 8876 26be 6a2e 693e
00000250: 2508 88be 33a5 223e a1b4 623e 898b d0bd
00000260: 03be 293e 16a4 663e 45f4 293c 3d51 313e
00000270: 1cca 0b3d 7ea0 303e c248 8f3d d287 aabd
00000280: 3cdc ddbd a78c 92bd 7ddf e5bd 3a5a f0bd
00000290: a636 343e b077 c7bc da5e e43d 2e1a 1a3e
000002a0: c786 70be 9067 4ebe 2bf8 203d b48d fa3d
000002b0: 0d52 c1bd 96e9 7a3e 8226 d83c da03 bfbd
000002c0: d308 343e 5508 36be b57c 6a3e 3e90 23be
000002d0: f400 8cbd 699a 193e 7516 a4bd d63a 0fbc
000002e0: 015d 683e cb05 2d3e b230 5c3e 5d3e cf3d
000002f0: 07ee 143e 6dc5 18be 6f79 673e 0869 3d3d
00000300: 810a 3f3c c96c 25be 6535 7cbd 8712 b33d
00000310: 1a4d 4bbe e427 2f3e 0567 70bd 1b4a 02bd
00000320: 16e8 233d 02b2 6abd bb65 66be 1a20 f03c
00000330: 796d 4f3e 4980 63bd bdf5 753d 13a4 29be
00000340: dd5b 08bc 6b9d 393d 0268 22be 0aed 2839
00000350: 6b61 5f3e 68b4 51be 93e1 0abe 9415 14be
00000360: 28fb 23bd 4194 9abc 36ce a9be f0b8 453d
00000370: 04ec 3cbc a533 05be 481d f43c 63f5 e7bc
00000380: 877b 40bd 572a d0bd 083b 0b3e 197d 6d3e
00000390: fe13 523e 7c43 bf3c be8a f1bd 2ee3 5dbd
000003a0: b3cd 66bd 8712 223e 3fed 10bd d429 cabd
000003b0: f291 303e 9ed3 263e cf3d 51bd 273f b8bd
000003c0: e813 8cbd 8cd7 873d c91c 11be e52e 073e
000003d0: ce13 5f3e 8a6b 53bd 1c96 6bbe dfda 473e
000003e0: 6ba3 683d e2fe 4a3c 4879 bcbd cc2c 113d
000003f0: 10c0 db3b 0d2f a3bd b47b 91bc 6938 63be

1.bias f4 [120]
0.04470794 -0.10443531 0.07109757 0.08862731 -0.21257974 -0.23487656 0.14565624 -0.14074591
0.09253014 0.14440641 -0.21917032 0.21506365 0.23061493 0.14951676 -0.15437587 0.20693098
-0.14109564 0.08596042 -0.07801942 -0.20429064 -0.24838309 0.07548358 -0.078188494 -0.07041459
0.07916833 -0.08472756 0.11643738 -0.039232016 -0.08619206 -0.2471063 0.18796715 -0.23087955
0.15868409 0.16757055 -0.041018616 -0.08578519 -0.15022175 0.15175068 0.12117355 0.11919909
0.18767609 0.16137245 0.03966804 -0.1122226 0.23185867 -0.19383474 -0.09001407 0.2184835
0.24893239 0.16567618 0.23709872 0.23235872 -0.0062784236 -0.20431417 -0.09743384 -0.23164055
0.043229707 -0.13249788 -0.039113075 0.12524895 -0.22789411 0.21153593 -0.16244434 -0.01646096
-0.02596969 -0.062795766 -0.112368025 -0.21161067 -0.205182 -0.13126068 0.10144765 -0.019108465
-0.018325757 -0.11449628 0.15066846 -0.17000867 0.16363867 0.16866319 0.10326176 0.12011488
0.036632527 0.0012627343 0.039699614 0.2286662 0.15604678 0.1055373 -0.16358833 -0.15782584
-0.085785955 -0.11993604 -0.23415206 -0.13327183 0.10245538 -0.023453906 -0.11020896 -0.21706332
-0.13926707 -0.14480025 0.060720634 -0.19928125 0.21310365 0.08765846 -0.15326312 0.1792488
0.018230308 0.16159199 0.071173005 -0.17654258 0.12602066 0.12399239 -0.03183868 -0.055238243
0.18775533 -0.12117569 0.20130986 0.13244857 -0.009953109 0.18593991 -0.0017555327 -0.16260117
00000000: ac1f 373d 2ee2 d5bd 9a9b 913d 3c82 b53d
00000010: 81ae 59be 7b83 70be e926 153e b21f 10be
00000020: 7180 bd3d 46df 133e 2f6e 60be a539 5c3e
00000030: 5226 6c3e ec1a 193e b514 1ebe b7e5 533e
00000040: 607b 10be 040c b03d a5c8 9fbd 9131 51be
00000050: 2358 7ebe 2397 9a3d 4a21 a0bd 8635 90bd
00000060: 0123 a23d a585 adbd b976 ee3d c0b1 20bd
00000070: 7685 b0bd 6f09 7dbe 767a 403e b06b 6cbe
00000080: 157e 223e 9d97 2b3e 2303 28bd 25b0 afbd
00000090: bbd3 19be 8864 1b3e d729 f83d a71e f43d
000000a0: 292e 403e d23e 253e f47a 223d f6d4 e5bd
000000b0: 5c6c 6d3e 9d7c 46be 4c59 b8bd 23ba 5f3e
000000c0: 22e8 7e3e 04a7 293e 02ca 723e 72ef 6d3e
000000d0: 3cbb cdbb bc37 51be 658b c7bd 2e33 6dbe
000000e0: a211 313d 86ad 07be 0835 20bd 4341 003e
000000f0: 135d 69be e09c 583e cf57 26be 23d9 86bc
00000100: 63be d4bc 119b 80bd 3521 e6bd 78b0 58be
00000110: 3b1b 52be 3369 06be c9c3 cf3d 5b89 9cbc
00000120: e61f 96bc 077d eabd d548 1a3e c116 2ebe
00000130: e590 273e 0bb6 2c3e e77a d33d cafe f53d
00000140: fd0b 163d 5582 a53a 109c 223d 7927 6a3e
00000150: baca 1f3e f123 d83d b383 27be 199d 21be
00000160: 8cb0 afbd 07a1 f5bd 8fc5 6fbe 6978 08be
00000170: 20d4 d13d 6822 c0bc 3cb5 e1bd d945 5ebe
00000180: 079c 0ebe 8446 14be 33b6 783d 6210 4cbe
00000190: d837 5a3e 4786 b33d 02f1 1cbe ff8c 373e
000001a0: ba57 953c 5f78 253e 27c3 913d 94c7 34be
000001b0: 8f0b 013e b9ef fd3d 4769 02bd 7f41 62bd
000001c0: ef42 403e f62a f8bd 2c24 4e3e 99a0 073e
000001d0: 5d12 23bc 0867 3e3e e719 e6ba ec80 26be

2.weight f4 [120]
1.0023632 1.0539517 1.0365417 1.0195314 1.0424496 0.99667 0.9855886 0.98795867
1.0199368 1.0068139 1.0190256 0.9812123 0.97890306 1.0131732 1.0077453 0.9569995
0.9560237 1.0273166 1.0219206 0.9795568 1.0201126 0.98508835 0.9785573 0.9755259
0.99278593 0.9886295 0.9541705 1.0149587 0.98362833 0.97248715 0.97208124 0.9803369
0.9962561 1.0009767 1.022186 1.0138891 1.0028781 0.99849534 1.0202804 1.0366508
0.9812625 1.0269226 0.97401905 0.98885864 1.0263559 0.96725494 1.0112832 0.9940047
0.9777686 1.0297971 0.9858435 1.0018739 1.0098945 1.0443118 0.9754997 1.0046861
0.9304411 0.96699125 0.9607998 1.0405366 1.0070122 0.97998005 1.0313991 1.0689372
1.0302856 0.98397315 1.0307604 0.97986245 0.9879452 0.98015916 0.98795253 0.9886768
0.95067996 0.9877138 0.9985023 1.0066788 0.9596977 0.9846093 0.9752096 1.0120927
1.0178758 1.0206273 0.9886895 0.98949426 0.9993679 0.98677105 1.0068307 0.99938583
0.9665462 0.98509413 1.0201181 0.99326825 1.0027145 1.0036849 1.0313715 1.0027146
0.99166876 1.000804 1.0220819 0.992869 1.0432094 0.974041 0.9427863 0.9709492
0.9874679 1.0087532 0.9879772 0.99799836 0.99726707 1.0093299 0.97030586 1.0040711
0.9836069 0.97363824 1.008134 0.9968154 1.0111483 0.9936247 0.9719346 1.0037634
00000000: 704d 803f e4e7 863f 66ad 843f 0180 823f
00000010: fd6e 853f c425 7f3f 894f 7c3f dcea 7c3f
00000020: 4a8d 823f 47df 803f 6e6f 823f bb30 7b3f
00000030: 6499 7a3f a9af 813f ccfd 803f ebfd 743f
00000040: f8bd 743f 1c7f 833f 4bce 823f 3cc4 7a3f
00000050: 0d93 823f c02e 7c3f bb82 7a3f 11bc 793f
00000060: 3827 7e3f d316 7d3f 8544 743f 2bea 813f
00000070: 11cf 7b3f ebf4 783f 51da 783f 5cf7 7a3f
00000080: a40a 7f3f 0120 803f fed6 823f 1ec7 813f
00000090: 4f5e 803f 649d 7f3f 8c98 823f f9b0 843f
000000a0: 0534 7b3f 3372 833f 5059 793f d725 7d3f
000000b0: a15f 833f 059e 773f ba71 813f 1877 7e3f
000000c0: 0b4f 7a3f 64d0 833f 3d60 7c3f 673d 803f
000000d0: 3944 813f 02ac 853f 59ba 793f 8e99 803f
000000e0: 6331 6e3f bd8c 773f faf6 753f 4e30 853f
000000f0: c7e5 803f f9df 7a3f e304 843f efd2 883f
00000100: 66e0 833f aae5 7b3f f5ef 833f 44d8 7a3f
00000110: fae9 7c3f b6eb 7a3f 75ea 7c3f ec19 7d3f
00000120: c35f 733f d0da 7c3f d99d 7f3f dada 803f
00000130: c0ae 753f 5b0f 7c3f 56a7 793f 418c 813f
00000140: c149 823f eaa3 823f c11a 7d3f 7f4f 7d3f
00000150: 93d6 7f3f 079d 7c3f d4df 803f c0d7 7f3f
00000160: 926f 773f 212f 7c3f 3b93 823f d446 7e3f
00000170: f358 803f bf78 803f fb03 843f f458 803f
00000180: 01de 7d3f 581a 803f 94d3 823f aa2c 7e3f
00000190: e387 853f c05a 793f 715a 713f 2090 783f
000001a0: b2ca 7c3f d31e 813f 13ec 7c3f d27c 7f3f
000001b0: e54c 7f3f b931 813f f765 783f 6785 803f
000001c0: a9cd 7b3f 5b40 793f 890a 813f 4b2f 7f3f
000001d0: 4f6d 813f 305e 7e3f b5d0 783f 527b 803f

2.bias f4 [120]
0.16647281 -0.026718399 0.05542956 0.04971611 0.011356963 0.09677264 0.043710124 0.082747415
0.100148745 0.045205034 0.026174834 0.024076045 0.024311751 0.052604437 0.047954842 0.11107523
-0.07426671 0.04899949 0.022884836 0.023612382 -0.018694727 0.15736987 0.049196325 0.0289391
0.06716591 0.06288355 0.015382289 0.06656161 0.0030415745 0.03292535 0.07568734 -0.050631795
-0.039670564 -0.085837744 0.041082684 0.0331406 0.075487375 0.028379805 0.03625165 0.033926353
0.015800301 0.089507766 0.019161643 -0.0036524043 0.14296436 0.035082657 0.01229237 -0.07208486
0.03513181 0.09488743 0.03576494 0.03978467 0.040878687 0.023877202 0.023393093 0.08146872
0.023928642 -0.028719585 0.02830688 0.039429832 0.038973756 0.06466694 0.0048550544 -0.019298151
0.04814975 -0.015356444 -0.0028948048 0.016627807 0.022908432 0.029703084 0.060787957 0.02783174
-0.011445141 0.1001751 0.00450745 0.08000603 0.078104965 -0.073045544 0.031215299 0.09569729
0.06723678 0.089973114 0.011602432 -0.108803146 0.05594194 -0.05563856 -0.018630773 0.036539435
0.09804656 0.09807344 0.050624676 0.05342762 0.026378175 0.06289206 0.1547885 -0.022306068
0.01956635 0.01672295 0.04347979 0.0076050046 0.13977432 0.01458808 0.05280412 0.014298311
0.06424797 0.059271675 0.088124864 0.061513823 0.051656812 0.015401669 0.06553276 0.007110567
-0.015939947 0.011791725 0.045069724 0.07995887 -0.013279203 0.075227275 0.013641742 0.07701227
00000000: d977 2a3e 8be0 dabc 1b0a 633d 1fa3 4b3d
00000010: 8e12 3a3c bc30 c63d 6309 333d 7a77 a93d
00000020: c91a cd3d ea28 393d 9b6c d63c 203b c53c
00000030: 7029 c73c c077 573d 4c6c 443d 697b e33d
00000040: 2519 98bd b0b3 483d fb78 bb3c c16e c13c
00000050: af25 99bc 9125 213e 1682 493d b111 ed3c
00000060: 488e 893d 17c9 803d ff05 7c3c 7451 883d
00000070: 2755 473b bbdc 063d f701 9b3d 4963 4fbd
00000080: 9a7d 22bd b3cb afbd 5146 283d 70be 073d
00000090: 2099 9a3d c47c e83c 9c7c 143d 5cf6 0a3d
000000a0: a26f 813c d94f b73d e1f8 9c3c 2d5d 6fbb
000000b0: 4065 123e d5b2 0f3d f065 493c 3aa1 93bd
000000c0: 5fe6 0f3d 5754 c23d 427e 123d 40f5 223d
000000d0: 6970 273d 1f9a c33c dfa2 bf3c 13d9 a63d
000000e0: 0006 c43c 5645 ebbc d4e3 e73c 2d81 213d
000000f0: f2a2 1f3d 1a70 843d 2617 9f3b 2817 9ebc
00000100: ac38 453d 9899 7bbc c4b6 3dbb 0a37 883c
00000110: 77aa bb3c e253 f33c cbfc 783d 64ff e33c
00000120: 6784 3bbc 9a28 cd3d 3bb3 933b 34da a33d
00000130: 7ff5 9f3d e798 95bd 3ab7 ff3c f1fc c33d
00000140: 70b3 893d d343 b83d 2018 3e3c 2fd4 debd
00000150: 6023 653d 42e5 63bd 909f 98bc 60aa 153d
00000160: a3cc c83d bada c83d d25b 4f3d ecd6 5a3d
00000170: 0b17 d83c 8dcd 803d e080 1e3e 37bb b6bc
00000180: 9c49 a03c 91fe 883c dd17 323d 6733 f93b
00000190: 0021 0f3e d802 6f3c 2249 583d 7743 6a3c
000001a0: 7194 833d dbc6 723d cf7a b43d ebf5 7b3d
000001b0: 1896 533d 4857 7c3c 0a36 863d c2ff e83b
000001c0: 7e94 82bc 1432 413c 089b 383d 7ac1 a33d
000001d0: 0491 59bc c210 9a3d 9d81 5f3c 9cb8 9d3d

2.running_mean f4 [120]
0.041645747 -0.111769594 0.023588873 0.086464256 -0.16673173 -0.20319723 0.16118641 -0.07502263
0.05335044 0.03672187 -0.11667795 0.13015243 0.18754195 0.22097875 -0.1407655 0.268248
-0.30706233 -0.0061232722 -0.070218 -0.27837145 -0.27594417 0.1225293 0.02742611 -0.15417622
0.107351385 -0.11336724 0.17260706 -0.055334393 -0.121801205 -0.18017627 0.22191162 -0.26022863
0.14209598 0.21934012 0.010678441 -0.21394989 -0.10256305 0.14006443 0.14032313 0.13505553
0.1260435 0.13415506 -0.09348862 -0.1312488 0.20707202 -0.26696813 -0.023897639 0.18590328
0.3630188 0.10323581 0.264666 0.21871305 -0.13778286 -0.25095385 -0.10509409 -0.19695768
0.035697 -0.06575683 -0.100244395 0.20574307 -0.20161298 0.21987826 -0.09904808 0.06100347
-0.039415985 -0.15495104 -0.04353281 -0.3044882 -0.15830274 -0.11460919 0.16006562 -0.104540445
-0.05349968 -0.09442837 0.20179562 -0.2554045 0.19396949 0.07440145 0.2092423 0.1360086
0.012682861 -0.052564424 0.043609247 0.22614545 0.12946911 0.0642265 -0.2471613 -0.1487249
-0.0788442 -0.1276053 -0.16242096 -0.15578422 0.21436238 -0.13109277 -0.16325198 -0.22170222
-0.14015362 -0.1461097 0.020145437 -0.1627204 0.22671054 0.10756662 -0.21732438 0.18351588
0.011215901 0.16790183 0.082907066 -0.24477473 0.19956057 0.10038502 -0.07995741 -0.022929141
0.08358459 -0.111939326 0.29260376 0.16771881 -0.0024167045 0.26790798 -0.007582822 -0.2212654
00000000: bb94 2a3d 75e7 e4bd 743d c13c 2c14 b13d
00000010: b9bb 2abe ef12 50be 0d0e 253e 77a5 99bd
00000020: fe85 5a3d ac69 163d d9f4 eebd ae46 053e
00000030: ff0a 403e 4148 623e d524 10be cd57 893e
00000040: 4637 9dbe bba5 c8bb 74ce 8fbd b486 8ebe
00000050: 8e48 8dbe a4f0 fa3d b9ac e03c 5fe0 1dbe
00000060: 0bdb db3d 152d e8bd e8bf 303e 51a6 62bd
00000070: e972 f9bd 2180 38be cd3c 633e b03c 85be
00000080: 9c81 113e b29a 603e a1f4 2e3c ae15 5bbe
00000090: 940c d2bd 0d6d 0f3e deb0 0f3e ff4b 0a3e
000000a0: 8c11 013e f25f 093e f676 bfbd 1666 06be
000000b0: b00a 543e 0cb0 88be fbc4 c3bc 6e5d 3e3e
000000c0: 9add b93e 4c6d d33d 4d82 873e 50f6 5f3e
000000d0: f316 0dbe 067d 80be 923b d7bd 46af 49be
000000e0: 0437 123d 84ab 86bd ef4c cdbd 50ae 523e
000000f0: a273 4ebe c427 613e b8d9 cabd c6de 793d
00000100: a872 21bd 7cab 1ebe 764f 32bd e1e5 9bbe
00000110: 1d1a 22be 39b8 eabd 3ee8 233e 4d19 d6bd
00000120: 7b22 5bbd a963 c1bd 83a3 4e3e 61c4 82be
00000130: f09f 463e ca5f 983d 9d43 563e d745 0b3e
00000140: c6cb 4f3c cb4d 57bd 9c9f 323d ac92 673e
00000150: 8d93 043e 2f89 833d da17 7dbe 574b 18be
00000160: 1179 a1bd f7aa 02be ae51 26be e685 1fbe
00000170: d081 5b3e 2f3d 06be 872b 27be e805 63be
00000180: 6e84 0fbe c89d 15be 0b08 a53c 2da0 26be
00000190: cf26 683e e34b dc3d 488a 5ebe 96eb 3b3e
000001a0: e6c2 373c 75ee 2b3e 2ecb a93d 3aa6 7abe
000001b0: 9b59 4c3e a996 cd3d b6c0 a3bd e5d5 bbbc
000001c0: 662e ab3d 7240 e5bd 29d0 953e 7bbe 2b3e
000001d0: 9361 1ebb 3c2b 893e 5279 f8bb 6693 62be

2.running_var f4 [120]
0.09587197 0.40222433 0.28194603 0.085790195 0.3995594 0.3467477 0.094453655 0.23633315
0.39481246 0.5310909 0.3905345 0.40359664 0.28265053 0.2962259 0.10913574 0.18482696
0.48295215 0.32991612 0.30731395 0.36447608 0.2981524 0.46265188 0.39683655 0.27736408
0.254015 0.28888908 0.20710538 0.17773922 0.4570865 0.17599267 0.20953889 0.40295506
0.32176584 0.53626454 0.18258142 0.559936 0.20541887 0.112403505 0.22627625 0.21168005
0.3360121 0.21999036 0.5318669 0.80643296 0.11834531 0.331622 0.18725249 0.6825398
0.462284 0.20154849 0.39051747 0.13981852 0.43465772 0.21430583 0.0825608 0.17773202
0.4156908 0.22096057 0.30298558 0.23713751 0.115233354 0.31990516 0.3693226 0.281897
0.13934323 0.37446955 0.14239456 0.39431098 0.3625644 0.38110292 0.5048173 0.3447327
0.3054336 0.2491743 0.17317575 0.31233338 0.115540214 0.51071787 0.30649847 0.18807703
0.12128192 0.3017075 0.42012224 0.23959906 0.12524313 0.39974514 0.3167548 0.09528912
0.24856006 0.18193924 0.32149023 0.19951458 0.324285 0.3153033 0.25691032 0.055316284
0.254717 0.6747063 0.2043586 0.21903037 0.24709058 0.22775812 0.25074646 0.45437518
0.15256517 0.3799382 0.24504228 0.55674887 0.56865793 0.26810288 0.33227804 0.30636683
0.31628343 0.18052354 0.27314106 0.1781967 0.40953606 0.3187493 0.5496816 0.23394078
00000000: 8658 c43d 59f0 cd3e 3b5b 903e c5b2 af3d
00000010: 0d93 cc3e ea88 b13e eb70 c13d 5101 723e
00000020: dc24 ca3e 93f5 073f 23f4 c73e 38a4 ce3e
00000030: 92b7 903e ecaa 973e 8f82 df3d 4743 3d3e
00000040: 8145 f73e c4ea a83e 4158 9d3e 9c9c ba3e
00000050: 6ea7 983e b5e0 ec3e 292e cb3e aa02 8e3e
00000060: 410e 823e 45e9 933e 6f13 543e 4501 363e
00000070: 3e07 ea3e 6c37 343e 5d91 563e 2050 ce3e
00000080: 7ebe a43e a248 093f a0f6 3a3e f757 0f3f
00000090: 5359 523e cf33 e63d f6b4 673e a8c2 583e
000000a0: c709 ac3e 2745 613e 6e28 083f 6472 4e3f
000000b0: 075f f23d 5cca a93e 1ebf 3f3e eeba 2e3f
000000c0: 7db0 ec3e ba62 4e3e e8f1 c73e 962c 0f3e
000000d0: 758b de3e fd72 5b3e a315 a93d 62ff 353e
000000e0: 6dd5 d43e 7d43 623e ed20 9b3e 2dd4 723e
000000f0: 77ff eb3d 9cca a33e da17 bd3e ce54 903e
00000100: feaf 0e3e 79ba bf3e e1cf 113e 21e3 c93e
00000110: 0ba2 b93e ec1f c33e b53b 013f ce80 b03e
00000120: cb61 9c3e 8c27 7f3e fc54 313e 29ea 9f3e
00000130: 59a0 ec3d 68be 023f 5eed 9c3e 4497 403e
00000140: a862 f83d 6879 9a3e 431a d73e 7559 753e
00000150: bc3f 003e 65ab cc3e af2d a23e f126 c33d
00000160: 8786 7e3e 484e 3a3e 5e9a a43e 8d4d 4c3e
00000170: af08 a63e 6f6f a13e c089 833e 5493 623d
00000180: 446a 823e 8db9 2c3f 6143 513e 7f49 603e
00000190: 5005 7d3e 6d39 693e d761 803e dda3 e83e
000001a0: 0b3a 1c3e 4287 c23e 5dec 7a3e 1887 0e3f
000001b0: 9193 113f c844 893e 5920 aa3e 1ddc 9c3e
000001c0: e7ef a13e 2adb 383e 25d9 8b3e 3279 363e
000001d0: b6ae d13e 1c33 a33e efb7 0c3f 2c8e 6f3e

4.weight f4 [120, 120]
-0.03838614 -0.01527972 0.0029154702 -0.011816384 0.08276746 0.098131895 0.018718423 0.13153318
-0.058097996 0.036937308 0.06717775 0.011729482 0.060175512 0.0051936973 -0.015933221 -1.6077485e-05
0.08204115 -0.03717754 0.103506945 0.07025271 0.09106679 -0.054047607 -0.084821254 0.10092092
0.065710515 -0.04042868 0.046693493 0.035865717 -0.03555926 0.0063092276 0.027484199 0.048039157
-0.026676474 -0.0073818276 -0.002769487 0.07762064 -0.07930978 -0.052835267 0.08408713 0.111343406
-0.03856445 0.06973945 -0.08939823 0.028229227 0.003121846 0.055351272 0.04154584 0.036648717
-0.0022419044 0.0007835935 -0.011401211 0.0054227468 -0.034908935 -0.0141771175 -0.028614573 0.12440733
0.006498135 0.029183352 -0.00259853 -0.025872802 -0.02690286 0.08340406 -0.06436297 -0.061811574
0.0060463194 0.018569348 0.012840798 -0.024468122 0.012475181 0.049780417 -0.045080118 0.015818924
-0.06164352 -0.070050515 0.007991073 -0.022197744 0.018109955 0.046071026 -0.07510796 0.0670865
-0.042750295 0.08737645 -0.032679062 0.029588249 0.0013593067 0.07829166 -0.017398827 0.038647316
0.029433213 0.055024512 0.003969475 -0.120936245 -0.05773774 0.04385251 -0.022891669 -0.020839455
0.076839834 -0.0025636135 -0.042933658 0.0010015969 -0.03401463 -0.039729927 -0.0013681583 0.040102486
0.03313141 -0.011214295 -0.08417054 0.07513608 -0.056857053 0.037750307 0.013138873 0.023789885
0.029526526 0.043442894 0.07303004 0.035182603 0.06295105 -0.014156279 -0.015082143 -0.06527321
-0.08386321 -0.008349712 -0.07573012 -0.038207542 0.0039444133 0.106374875 0.068629 0.08768608
0.032569915 0.009691222 -0.054219402 0.035488214 0.0075044595 0.065336846 -0.015875325 0.09059464
-0.0662618 -0.079364866 0.03138405 -0.04829943 -0.051444795 -0.0146520035 -0.077336855 0.061286338
-0.0122880135 -0.08405002 -0.04238509 -0.0072447895 0.0003307155 -0.07988348 0.02026611 0.0002693027
-0.031557344 0.0062319227 -0.090849616 -0.043895587 -0.06587378 -0.010084183 0.043323122 -0.10494311
-0.016023625 0.086435586 -0.0059438474 0.025114654 -0.01680277 -0.07143797 0.06993126 -0.002700211
-0.082061835 -0.044873267 0.0016309877 0.06554559 0.037881117 0.07813537 0.056358933 0.06677553
0.06595551 -0.07803442 -0.09250138 0.011406663 -0.05280518 -0.060300633 -0.038114835 0.037134897
-0.08457086 0.06569393 -0.015067695 0.033731107 0.066613734 6.4674074e-05 -0.03708865 0.024758356
-0.032852203 -0.036000043 0.08779215 0.012010944 -0.00988851 -0.06356525 0.01970499 0.060997013
-0.050356515 0.00397699 -0.04208457 0.0024208368 -0.049909763 0.064143054 -0.07817677 0.062978104
-0.032235745 0.0021891412 0.05122267 -0.07410502 0.065548114 0.0036384927 -0.06980617 -0.02892132
-0.041463036 -0.04542494 -0.07692517 0.08948416 0.03463217 0.033960726 -0.00030212392 0.008841715
0.026859505 -0.03175068 0.04297423 -0.086154036 0.0009624704 -0.025994975 0.02029899 0.056394983
0.0524533 0.05132576 -0.03239953 -0.06795867 0.025934149 0.045053124 -0.042244993 -0.07547925
0.12537363 -0.049091063 -0.08769388 0.10978739 0.047436744 -0.026111953 0.097536415 -0.043812264
0.03591499 -0.031267386 -0.10306322 0.08816063 -0.007961793 -0.021092102 0.0683311 0.03041299
00000000: c93a 1dbd ca57 7abc 7911 3f3b 8299 41bc
00000010: fc81 a93d 60f9 c83d 6157 993c a2b0 063e
00000020: 2af8 6dbd 934b 173d 7d94 893d 032d 403c
00000030: 997a 763d e42f aa3b 6386 82bc 23de 86b7
00000040: 3105 a83d 7a47 18bd 73fb d33d a7e0 8f3d
00000050: 3a81 ba3d 0661 5dbd c4b6 adbd a1af ce3d
00000060: 3c93 863d 8b98 25bd ad41 3f3d eee7 123d
00000070: 96a6 11bd a3bd ce3b 8b26 e13c b5c4 443d
00000080: 9f88 dabc 42e3 f1bb 4880 35bb 92f7 9e3d
00000090: 2a6d a2bd cb69 58bd e035 ac3d 0308 e43d
000000a0: c2f5 1dbd 8fd3 8e3d 6b16 b7bd fb40 e73c
000000b0: e297 4c3b 04b8 623d f92b 2a3d f71c 163d
000000c0: eaec 12bb 126a 4d3a 25cc 3abc 4cb1 b13b
000000d0: acfc 0ebd 2447 68bc 1c69 eabc 45c9 fe3d
000000e0: 4fee d43b ed11 ef3c 194c 2abb 33f3 d3bc
000000f0: 6363 dcbc bfcf aa3d bcd0 83bd 222e 7dbd
00000100: 3420 c63b bf1e 983c 3662 523c 5f71 c8bc
00000110: b464 4c3c 8de6 4b3d eea5 38bd b096 813c
00000120: ea7d 7cbd a576 8fbd fdec 023c 0bd8 b5bc
00000130: 545b 943c f9b4 3c3d 34d2 99bd a664 893d
00000140: ef1a 2fbd 6df2 b23d 7bda 05bd 0e63 f23c
00000150: c42a b23a 6157 a03d fc87 8ebc a64c 1e3d
00000160: ec1d f13c 6261 613d 5f12 823b 6cad f7bd
00000170: 697e 6cbd b19e 333d 4f87 bbbc 81b7 aabc
00000180: 345e 9d3d 4c02 28bb 34db 2fbd 0448 833a
00000190: ed52 0bbd d9bb 22bd c653 b3ba 8142 243d
000001a0: cdb4 073d 2abc 37bc 9b61 acbd f2e0 993d
000001b0: f1e2 68bd 11a0 1a3d 6d44 573c 01e3 c23c
000001c0: 9de1 f13c 2df1 313d c690 953d a21b 103d
000001d0: 7bec 803d bdef 67bc 181b 77bc f6ad 85bd
000001e0: 7ac0 abbd 3bcd 08bc 6518 9bbd 837f 1cbd
000001f0: 2340 813b 12db d93d 5c8d 8c3d c294 b33d
00000200: 0868 053d eec7 1e3c 2a15 5ebd 175c 113d
00000210: f8e7 f53b 53cf 853d f80c 82bc af89 b93d
00000220: 44b4 87bd 0c8a a2bd 908c 003d a0d5 45bd
00000230: c7b7 52bd f50e 70bc c962 9ebd 6207 7b3d
00000240: aa53 49bc 6b22 acbd fd9b 2dbd b365 edbb
00000250: e263 ad39 f399 a3bd 1d05 a63c 3231 8d39
00000260: 4642 01bd 2835 cc3b 5d0f babd dccb 33bd
00000270: d5e8 86bd 2138 25bc 9673 313d 6aec d6bd
00000280: fa43 83bc 2405 b13d 9bc4 c2bb 3fbd cd3c
00000290: f6a5 89bc 124e 92bd 1f38 8f3d 06f6 30bb
000002a0: 0910 a8bd 08cd 37bd dec6 d53a c43c 863d
000002b0: 3b29 1b3d 7005 a03d a0d8 663d 9cc1 883d
000002c0: af13 873d 83d0 9fbd 5d71 bdbd 03e3 3a3c
000002d0: 3f4a 58bd ccfd 76bd 4d1e 1cbd c31a 183d
000002e0: 7d33 adbd 8a8a 863d 7ede 76bc a129 0a3d
000002f0: c86c 883d a1a1 8738 45ea 17bd 09d2 ca3c
00000300: 0890 06bd c874 13bd 5fcc b33d 8dc9 443c
00000310: 6b03 22bc 7f2e 82bd 5c6c a13c 01d8 793d
00000320: a242 4ebd 6951 823b df60 2cbd e7a6 1e3b
00000330: 2e6e 4cbd 6f5d 833d 241b a0bd aafa 803d
00000340: a109 04bd b277 0f3b ddce 513d 5fc4 97bd
00000350: 173e 863d c773 6e3b 8af6 8ebd 67ec ecbc
00000360: 25d5 29bd 800f 3abd f28a 9dbd 7943 b73d
00000370: 76da 0d3d 671a 0b3d 6366 9eb9 d7dc 103c
00000380: 7708 dc3c 000d 02bd bf05 303d 8771 b0bd
00000390: 4c4e 7c3a 6af3 d4bc 114a a63c 6dfe 663d
000003a0: 46d9 563d f63a 523d 5fb5 04bd ea2d 8bbd
000003b0: da73 d43c a089 383d 1609 2dbd dd94 9abd
000003c0: f261 003e b613 49bd d998 b3bd 36d8 e03d
000003d0: 084d 423d bce8 d5bc 2cc1 c73d 7d74 33bd
000003e0: 991b 133d 3b12 00bd cf12 d3bd 8f8d b43d
000003f0: 2e72 02bc 58c9 acbc 2df1 8b3d aa24 f93c

4.bias f4 [120]
0.022940947 0.05467972 0.045294058 0.055973798 0.06271011 0.06144032 0.045292076 -0.07871582
-0.067521535 -0.084804386 0.07072351 0.07656518 -0.044930898 0.059865303 -0.085224204 -0.011581475
0.06731207 0.05947819 -0.0022289811 0.009375509 0.017306319 0.04449231 -0.08426851 0.063315265
-0.042870596 0.039500937 -0.030922765 -0.08055386 -0.07066614 -0.023742717 -0.07573015 -0.085772686
-0.07621436 0.013007374 0.041472867 -0.02787796 0.08610662 -0.073784254 0.003965968 -0.035533354
-0.03919964 -0.06288627 -0.03871101 0.028633675 0.017727852 -0.058076344 -0.03277262 -0.023279572
-0.07740774 -0.026553713 -0.08704116 -0.08828516 0.009241783 0.033470847 -0.08870612 -0.08075579
0.012638252 -0.049390703 0.059357874 0.0076617855 -0.0679426 -0.06271625 -0.07500604 -0.08678116
-0.035195887 -0.0482564 -0.07114907 -0.07263355 0.06709078 0.035276942 0.012032905 0.06794896
-0.06184295 -0.06918065 -0.04184261 0.05076529 0.011250921 0.010558463 0.031167554 -0.06757548
0.006291698 0.026239906 0.013697527 -0.010088388 -0.08582146 -0.07369434 -0.07477281 0.029817937
-0.06174144 0.041611403 0.08086505 0.040048 0.04037421 0.010895577 -0.0028004 -0.07231547
-0.06326533 -0.016637791 -0.0022538125 -0.026366549 0.031171285 -0.03710371 -0.018520445 0.08423496
-0.021451201 -0.026909264 -0.0643986 0.086748354 0.01750638 0.005569101 -0.056667086 -0.06492526
0.0037893439 -0.048453186 -0.07710431 0.08349212 0.06676733 -0.011000268 0.05322006 -0.002454286
00000000: a7ee bb3c d8f7 5f3d 4386 393d c844 653d
00000010: 286e 803d d8a8 7b3d 2f84 393d c335 a1bd
00000020: bb48 8abd ecad adbd 7dd7 903d 35ce 9c3d
00000030: 7609 38bd 5235 753d 078a aebd 3ac0 3dbc
00000040: e9da 893d 679f 733d 1914 12bb bc9b 193c
00000050: fbc5 8d3c 923d 363d f894 acbd 6fab 813d
00000060: 1499 2fbd bccb 213d bd51 fdbc 6cf9 a4bd
00000070: 69b9 90bd 1680 c2bc 6918 9bbd 97a9 afbd
00000080: 4616 9cbd e11c 553c 74df 293d 5260 e4bc
00000090: ab58 b03d 331c 97bd f3f4 813b 6c8b 11bd
000000a0: cd8f 20bd 84ca 80bd 708f 1ebd 2b91 ea3c
000000b0: 003a 913c 76e1 6dbd 953c 06bd cdb4 bebc
000000c0: f387 9ebd 2c87 d9bc a342 b2bd dace b4bd
000000d0: d96a 173c ba18 093d 8eab b5bd 4b63 a5bd
000000e0: ac10 4f3c e84d 4abd 3e21 733d b70f fb3b
000000f0: 7d25 8bbd 6171 80bd c49c 99bd 52ba b1bd
00000100: 9029 10bd 81a8 45bd 9bb6 91bd e6c0 94bd
00000110: e466 893d 8e7e 103d a925 453c d328 8b3d
00000120: 084f 7dbd 96ae 8dbd 2863 2bbd 44ef 4f3d
00000130: c855 383c 67fd 2c3c 1953 ff3c 0365 8abd
00000140: 972a ce3b 12f5 d63c 986b 603c c449 25bc
00000150: 29c3 afbd 0fed 96bd 7d22 99bd bf44 f43c
00000160: 98e4 7cbd b870 2a3d 939c a53d 5f09 243d
00000170: 6d5f 253d 5d83 323c ea86 37bb 221a 94bd
00000180: 4191 81bd fa4b 88bc b3b4 13bb a9fe d7bc
00000190: ec5a ff3c 0ffa 17bd 30b8 97bc 6183 ac3d
000001a0: 6eba afbc d170 dcbc 6ae3 83bd 1fa9 b13d
000001b0: 8a69 8f3c 017d b63b bf1b 68bd 89f7 84bd
000001c0: a456 783b d976 46bd dde8 9dbd ebfd aa3d
000001d0: 4fbd 883d 783a 34bc 47fd 593d 16d8 20bb

5.weight f4 [120]
1.0145458 0.9522816 1.001624 1.0033716 0.9617413 0.9911286 0.99769473 1.0474074
1.013919 0.9926668 0.99602705 1.0517107 0.9821861 0.98254406 0.94790685 1.0191544
1.0094447 0.9795568 1.0229344 1.0176331 1.0246855 0.9831926 0.99523926 1.0224522
1.0251815 0.9832847 0.9461495 1.009189 0.9952681 1.0018729 1.0440117 0.9920642
0.99355257 0.95787156 0.9788107 0.9955678 0.97336733 0.9982819 1.0043588 1.0074613
1.0364997 0.9885944 0.9839258 0.96447635 1.0266364 0.9338257 1.0097322 0.96207774
0.9998684 1.0094744 1.0231888 0.9825848 1.0592704 1.001618 1.008672 0.93876714
0.9712621 0.9734981 0.991021 1.0042682 1.0361134 1.0022743 0.97161365 1.0177432
1.0112165 0.9970157 0.98350275 1.0099366 1.0364901 1.0162867 0.9881621 1.0100595
0.99450254 1.0360479 1.0238479 0.9872951 1.0537732 0.944298 1.0369333 0.9792248
1.0212941 1.0537302 0.96971726 0.9837134 0.97406465 0.9703272 0.9775306 0.98788846
0.97801787 1.002769 1.021969 0.96620905 1.0233389 0.9825868 0.9748416 0.9915809
0.9768404 1.0039836 1.0042622 1.0042853 1.027311 0.98886913 1.0079486 1.0275298
1.0068933 0.9808429 1.0205102 1.016146 1.004089 1.0010552 1.0016277 1.0245675
1.0006036 1.0276269 0.99462575 0.98308617 1.0326458 1.0409532 0.9576559 1.0174289
00000000: a3dc 813f bac8 733f 3735 803f 7b6e 803f
00000010: ae34 763f 9bba 7d3f ec68 7f3f 7211 863f
00000020: 19c8 813f 691f 7e3f a1fb 7e3f 759e 863f
00000030: 8c70 7b3f 0288 7b3f 06aa 723f a773 823f
00000040: 7c35 813f 3cc4 7a3f 84ef 823f cd41 823f
00000050: e528 833f 83b2 7b3f 00c8 7e3f b7df 823f
00000060: 2639 833f 8cb8 7b3f db36 723f 1b2d 813f
00000070: e4c9 7e3f 5f3d 803f 2da2 853f ebf7 7d3f
00000080: 7659 7e3f 1237 753f 5793 7a3f 88dd 7e3f
00000090: 9a2e 793f 678f 7f3f d48e 803f 7ef4 803f
000000a0: 06ac 843f 8614 7d3f 90e2 7b3f ece7 763f
000000b0: d268 833f 330f 6f3f e83e 813f ba4a 763f
000000c0: 60f7 7f3f 7536 813f daf7 823f ad8a 7b3f
000000d0: 2c96 873f 0535 803f 2a1c 813f 0b53 703f
000000e0: a2a4 783f 2c37 793f 8db3 7d3f dc8b 803f
000000f0: 5d9f 843f 864a 803f acbb 783f 6945 823f
00000100: 8b6f 813f 6c3c 7f3f d6c6 7b3f 9a45 813f
00000110: b5ab 843f af15 823f 31f8 7c3f a149 813f
00000120: b897 7e3f 389d 843f 730d 833f 5fbf 7c3f
00000130: 0ae2 863f 84bd 713f 3bba 843f 7aae 7a3f
00000140: c4b9 823f a2e0 863f 643f 783f a4d4 7b3f
00000150: 4d5c 793f 5d67 783f 723f 7a3f 42e6 7c3f
00000160: 615f 7a3f bc5a 803f e1cf 823f 7a59 773f
00000170: c5fc 823f cf8a 7b3f 388f 793f 3fd8 7d3f
00000180: 3612 7a3f 8982 803f aa8b 803f 6c8c 803f
00000190: ed7e 833f 8726 7d3f 7604 813f 1986 833f
000001a0: e1e1 803f 8518 7b3f 14a0 823f 1211 823f
000001b0: fd85 803f 9422 803f 5635 803f 0725 833f
000001c0: c713 803f 4789 833f cb9f 7e3f 89ab 7b3f
000001d0: bd2d 843f f43d 853f f028 753f 1c3b 823f

5.bias f4 [120]
-0.0066417227 -0.02178332 0.013258985 -0.05461796 -0.057048336 0.04602481 0.022408774 0.10199892
-0.018281931 -0.037849896 0.015052356 0.0018976 0.00027808012 0.007648177 -0.008728032 -0.051148742
-0.0021103192 -0.026867034 -0.06370329 0.06545694 -0.05691193 0.011441882 0.029324748 -0.033851504
-0.014361294 0.049006566 -0.01050053 -0.05657821 -0.09372177 0.042054646 0.039544713 0.0013990063
0.0011377184 0.007337751 0.020099998 0.060490876 -0.012076789 -0.028126368 0.00800617 -0.009401407
0.00509519 -0.029654142 -0.030362306 -0.0051184213 -0.02960847 0.0483494 0.028299982 -0.055923577
0.00015582936 0.0403805 0.026744872 -0.07030061 0.030452468 0.005221737 0.012027073 -0.011571537
0.07411698 -0.068114996 -0.008278744 0.035692796 -0.013951662 0.073290214 -0.019278169 0.02249345
-0.009958377 0.08033621 0.020494856 0.0108142495 0.0297306 0.07579879 0.02698313 0.048057277
-0.009090678 0.040316034 0.067274325 0.0039331596 0.045705155 0.041678306 -0.055054396 -0.009291864
-0.009439001 -0.02400263 0.094238915 0.03826962 -0.07843982 0.049696475 -0.00065556617 -0.01675484
0.01277713 0.065418296 0.009770838 0.07225076 -0.014080644 0.016817855 0.025765931 0.07442684
0.057130955 -0.0097940415 0.0326101 -0.0457778 -0.08307477 -0.014476396 -0.017570578 0.04814845
-0.025735863 0.011561452 -0.030676575 -0.027689097 0.006803773 -0.0103713265 0.016730059 0.07393433
0.010611016 0.121589586 0.00509882 -0.012173382 0.043808848 -0.13191245 0.06474896 0.0049706763
00000000: cfa2 d9bb ef72 b2bc 373c 593c 15b7 5fbd
00000010: 84ab 69bd 8384 3c3d 9b92 b73c cfe4 d03d
00000020: fdc3 95bc 7e08 1bbd 289e 763c e4b8 f83a
00000030: 48cb 9139 8f9d fa3b 0500 0fbc 5881 51bd
00000040: 484d 0abb 4118 dcbc df76 82bd 4a0e 863d
00000050: 7c1c 69bd bb76 3b3c 743a f03c e0a7 0abd
00000060: a24b 6bbc 1cbb 483d 6a0a 2cbc 8ebe 67bd
00000070: 33f1 bfbd 7e41 2c3d a3f9 213d dd5e b73a
00000080: 7f1f 953a 8471 f03b c0a8 a43c 48c5 773d
00000090: b9dd 45bc 4569 e6bc 502c 033c 5c08 1abc
000000a0: 8df5 a63b 3eed f2bc 5fba f8bc 6eb8 a7bb
000000b0: 768d f2bc 050a 463d 5dd5 e73c 1f10 65bd
000000c0: 2066 2339 0666 253d 1018 db3c c4f9 8fbd
000000d0: 7477 f93c 1b1b ab3b 330d 453c 8b96 3dbc
000000e0: a5ca 973d e07f 8bbd 92a3 07bc 9c32 123d
000000f0: 8395 64bc 2e19 963d 40ed 9dbc 2f44 b83c
00000100: 7628 23bc 5087 a43d d4e4 a73c 402e 313c
00000110: 968d f33c 653c 9b3d ba0b dd3c b5d7 443d
00000120: 11f1 14bc 6d22 253d 1fc7 893d bce1 803b
00000130: 5435 3b3d dfb6 2a3d b880 61bd e73c 18bc
00000140: 0aa6 1abc 2aa1 c4bc 5500 c13d 9bc0 1c3d
00000150: 0ea5 a0bd 888e 4b3d 4dda 2bba 7241 89bc
00000160: 2b57 513c 07fa 853d dd15 203c 35f8 933d
00000170: 80b2 66bc 99c5 893c 1313 d33c 196d 983d
00000180: 2602 6a3d 3077 20bc 2b92 053d 8181 3bbd
00000190: 1b23 aabd 682e 6dbc 2cf0 8fbc 4f37 453d
000001a0: 04d4 d2bc 3f6c 3d3c 714d fbbc 3fd4 e2bc
000001b0: 2ff2 de3b 7fec 29bc 7a0d 893c e26a 973d
000001c0: d4d9 2d3c f603 f93d 0114 a73b dd72 47bc
000001d0: e870 333d 0f14 07be 1a9b 843d 0ee1 a23b

5.running_mean f4 [120]
0.48835146 -0.20204978 0.35701153 0.4286689 -0.23465742 0.2061813 0.07125279 -0.83136785
-0.6591156 0.39254934 -0.1619655 0.032267172 0.191701 0.27310038 -0.056855522 -0.19482632
0.098629884 0.20931892 -0.46907043 -0.7409353 -0.5608196 0.33999324 -0.20055896 0.08885734
-0.5798217 0.14661413 -0.15214562 0.003998734 -0.39570066 -0.42007115 -0.19729812 -0.25430754
-0.11301657 0.29401177 0.56531125 0.13524607 0.11715358 -0.1668651 -1.0157928 -0.3250947
-0.3231898 -0.04094214 0.2364582 0.09716314 -0.39111078 -0.08583945 -0.30993634 0.39652196
-0.041357804 -0.6413933 -0.31251597 -0.2529492 -0.5891108 0.16556296 -0.43780273 0.15498203
0.22124553 0.17470978 0.42312747 0.0886148 0.36173368 0.5876752 -0.49910185 -0.4380275
-0.5214427 -0.452475 -0.25048348 -0.22402984 -0.39682692 -0.015136532 0.16748187 0.4834717
0.40737364 -0.10144122 -0.33012208 -0.08506271 -0.042841244 0.27093723 -0.05804783 -0.24145953
0.2766214 -0.25543755 -0.044582903 0.5055311 -0.23946822 0.3112555 0.03318716 -0.3220659
-0.39951527 0.028977625 -0.12676139 0.2992718 -0.560616 0.010921368 0.09925697 0.12889788
0.009045136 0.3596614 -0.34176588 0.27803794 0.8300956 -0.09961662 0.1089753 0.31664658
0.25030136 -0.0524555 0.23221955 -0.3332155 0.29472876 -0.4665857 -0.2152451 -0.020497248
0.48428127 -0.3359857 0.2956789 -0.39706162 0.156433 -0.68951 -0.07215007 -0.15586893
00000000: 3409 fa3e 23e6 4ebe 37ca b63e 7d7a db3e
00000010: 094a 70be 3121 533e fcec 913d 86d4 54bf
00000020: cdbb 28bf 3afc c83e 49da 25be 952a 043d
00000030: 444d 443e d0d3 8b3e 56e1 68bd 8d80 47be
00000040: 77fe c93d b357 563e 002a f0be f0ad 3dbf
00000050: e091 0fbf 9813 ae3e 545f 4dbe d6fa b53d
00000060: 326f 14bf 0422 163e 10cc 1bbe d007 833b
00000070: 4799 cabe 9113 d7be 8508 4abe 9934 82be
00000080: 3b75 e7bd b688 963e 3db8 103f f27d 0a3e
00000090: 37ee ef3d afde 2abe 8005 82bf d072 a6be
000000a0: 2279 a5be f2b2 27bd 1922 723e 78fd c63d
000000b0: ac3f c8be 98cc afbd faaf 9ebe ed04 cb3e
000000c0: cd66 29bd 5a32 24bf 1802 a0be 8f82 81be
000000d0: f7cf 16bf 5689 293e ae27 e0be 9cb3 1e3e
000000e0: 308e 623e 1fe7 323e 2aa4 d83e ad7b b53d
000000f0: 2835 b93e e271 163f 478a ffbe 2445 e0be
00000100: 457d 05bf ceaa e7be 5f3f 80be 1468 65be
00000110: e62c cbbe 37ff 77bc 5e80 2b3e 9a89 f73e
00000120: 4793 d03e 6ac0 cfbd c305 a9be 5c35 aebd
00000130: 4d7a 2fbd 49b8 8a3e 90c3 6dbd 2b41 77be
00000140: 52a1 8d3e b6c8 82be 909c 36bd 7c6a 013f
00000150: 2837 75be e25c 9f3e 42ef 073d d2e5 a4be
00000160: 448d ccbe 7c62 ed3c bdcd 01be 273a 993e
00000170: 8884 0fbf 8aef 323c 3d47 cb3d cefd 033e
00000180: 0d32 143c 8a25 b83e f0fb aebe fd5a 8e3e
00000190: 2581 543f cc03 ccbd 712e df3d 801f a23e
000001a0: 8027 803e 94db 56bd f6ca 6d3e 399b aabe
000001b0: b0e6 963e 52e4 eebe 3669 5cbe d8e9 a7bc
000001c0: b7f3 f73e 5106 acbe 3a63 973e a94b cbbe
000001d0: f92f 203e ba83 30bf 6ac3 93bd 1b9c 1fbe

5.running_var f4 [120]
0.14153783 0.121948674 0.15085746 0.12775351 0.08703536 0.08592923 0.22374721 0.40092537
0.11137586 0.1488727 0.094087265 0.14355972 0.13419631 0.12006244 0.119932644 0.072481774
0.10040535 0.11615286 0.074217156 0.16343598 0.1570959 0.1244856 0.11306632 0.092954956
0.112810016 0.17075728 0.1120654 0.1346593 0.08586608 0.26204798 0.11405311 0.17857617
0.206438 0.15088521 0.19084184 0.19925858 0.12682012 0.19391422 0.15467247 0.1541855
0.12011854 0.11434124 0.1865269 0.27236766 0.142011 0.16415162 0.20498353 0.18673642
0.11963678 0.15813576 0.14178942 0.10474887 0.28404376 0.10539488 0.1299119 0.07557
0.09052344 0.08764684 0.084973216 0.22622578 0.19022325 0.36870116 0.20010276 0.11181088
0.0973619 0.14263104 0.12690337 0.123657025 0.18295103 0.15133053 0.13926958 0.16664453
0.14840043 0.1240464 0.17992407 0.18822579 0.20187223 0.11099596 0.07021383 0.09673756
0.14269118 0.17727506 0.12819192 0.12029813 0.13682903 0.17168835 0.170905 0.15745395
0.13793999 0.17765799 0.10216416 0.18452409 0.25825146 0.19925012 0.20858413 0.1644179
0.11114801 0.1425089 0.11695114 0.15361333 0.17275721 0.20293726 0.14820702 0.08132657
0.11969798 0.09851156 0.12590358 0.18087496 0.11718417 0.101162836 0.16993044 0.14545865
0.29355028 0.17513256 0.12099865 0.18354012 0.16398785 0.1257167 0.10733918 0.096359745
00000000: 4bef 103e 3ac0 f93d 617a 1a3e d1d1 023e
00000010: 983f b23d aafb af3d fd1d 653e 1746 cd3e
00000020: 0719 e43d 1672 183e d3b0 c03d 5201 133e
00000030: c26a 093e 4ce3 f53d 3f9f f53d 5371 943d
00000040: 52a1 cd3d 8de1 ed3d 2aff 973d c35b 273e
00000050: bfdd 203e 4ef2 fe3d 518f e73d 2b5f be3d
00000060: f008 e73d ffda 2e3e 8b82 e53d 21e4 093e
00000070: 8eda af3d 272b 863e ad94 e93d acdc 363e
00000080: 7c64 533e a781 1a3e 0b6c 433e 710a 4c3e
00000090: 22dd 013e 7391 463e 7662 1e3e cee2 1d3e
000000a0: b600 f63d bd2b ea3d e800 3f3e c673 8b3e
000000b0: 556b 113e 5d17 283e 34e7 513e d537 3f3e
000000c0: 2104 f53d 57ee 213e 3f31 113e 9386 d63d
000000d0: 2f6e 913e 45d9 d73d a007 053e 72c4 9a3d
000000e0: 5a64 b93d 3080 b33d 7006 ae3d bba7 673e
000000f0: e2c9 423e 66c6 bc3e bde7 4c3e 1afd e43d
00000100: ad65 c73d df0d 123e f5f2 013e e53f fd3d
00000110: 8457 3b3e 64f6 1a3e af9c 0e3e dda4 2a3e
00000120: 48f6 173e 0a0c fe3d 043e 383e 43be 403e
00000130: 98b7 4e3e da51 e33d 45cc 8f3d 581e c63d
00000140: a31d 123e 9887 353e be44 033e de5e f63d
00000150: e91c 0c3e 12cf 2f3e b801 2f3e 9c3b 213e
00000160: 2440 0d3e faeb 353e 713b d13d e2f3 3c3e
00000170: 8939 843e 3908 4c3e 1497 553e 2a5d 283e
00000180: 91a1 e33d daed 113e 1484 ef3d d04c 1d3e
00000190: 44e7 303e c9ce 4f3e 95c3 173e 8b8e a63d
000001a0: 3724 f53d 6ec0 c93d deec 003e 4937 393e
000001b0: 41fe ef3d 762e cf3d 3f02 2e3e 1df3 143e
000001c0: 394c 963e f355 333e 24ce f73d f1f1 3b3e
000001d0: 6eec 273e e1bb 003e a5d4 db3d 4258 c53d

7.weight f4 [120, 120]
-0.022642558 -0.054134637 0.0075053554 0.02253428 0.020785073 0.031827386 -0.034565493 0.021793189
-0.053281356 0.06826116 0.018395534 0.06490214 -0.022512775 -0.0026933926 -0.08065703 0.048391834
0.042962994 0.00034068426 -0.013061155 0.090748735 -0.0943057 0.046918362 0.07850615 0.017941851
0.08868313 0.060861908 0.02519162 -0.027648728 0.009820767 0.01006684 0.0048439433 0.029526284
-0.07417179 -0.08828458 0.03101125 -0.038595434 -0.010025547 0.09909916 -0.07860278 -0.07850619
-0.03347043 0.08740963 -0.044235338 -0.02078589 0.03420406 -0.07741928 -0.073171906 0.065249644
0.10227363 -0.047753725 0.11339204 -0.013587109 -0.013352173 0.07118886 0.011781727 -0.06530834
0.023630911 -0.0108921705 0.03960361 -0.06352626 -0.024994116 0.03176475 0.017900126 -0.05032901
-0.021163465 0.09098249 -0.07572436 -0.034657676 -0.03185927 -0.020339964 0.049554918 -0.092639916
0.08076561 0.0051951855 0.011575823 0.010652269 -0.04029466 -0.02221412 0.087758176 -0.022969158
0.05906628 -0.014423584 0.09257972 0.09535917 0.010296917 0.04179361 -0.023309365 0.06329042
-0.09660615 0.012273019 0.005353761 0.06787312 -0.0047564874 0.059499882 0.050062794 0.06383069
-0.03912039 0.040815998 0.037465155 0.07836152 -0.018326461 -0.034098264 -0.03966367 -0.018925333
-0.05324498 -0.033597805 -0.03924935 -0.016310878 -0.11273972 0.07926354 -0.085620664 -0.0135556385
0.10391988 -0.026983032 -0.035471912 -0.049692232 0.07567585 0.050257 0.044960454 -0.045091543
0.05437822 -0.04100627 0.03853066 -0.021077782 0.042806674 0.02583182 0.08226699 -0.032467484
-0.04889802 -0.10303995 -0.057093535 -0.025128582 -0.02045507 0.026812105 -0.020885212 0.036602996
-0.02790597 0.023046412 -0.054231282 -0.040583495 0.0024211989 -0.018542266 -0.046986736 -0.023306357
0.10835416 -0.024478653 0.07785286 0.008720947 0.03347608 -0.04956601 0.0023623344 -0.10114818
-0.008400472 -0.060725223 -0.058724668 0.029880894 0.01934162 -0.037184272 -0.054080036 -0.05356572
-0.051224217 0.05381415 -0.06368756 0.0049878787 -0.034246013 -0.0037938908 0.010744777 -0.097932376
0.024387214 -0.07281334 -0.05712859 0.082701296 0.08517381 0.055857293 -0.052400053 -0.051536206
0.07036463 0.074116334 0.00010348459 0.0005132106 0.049787045 0.13525265 -0.005429827 0.051114924
-0.018431373 0.07638039 -0.038701303 -0.052061137 0.0025109944 -0.0031367696 0.07703548 0.0413402
-0.031454645 -0.07634096 -0.018298334 0.005070255 0.0828765 0.011965346 0.051066246 0.059123002
0.027057694 -0.06359426 0.033135563 -0.035059173 0.07395795 0.03804782 -0.075337626 0.052563768
0.046214916 0.09576008 -0.0161732 0.03608795 0.085166 0.006378426 -0.04143149 0.039680384
-0.11289703 0.051887646 0.018184077 0.06268404 -0.009693161 0.07368495 -0.032568928 -0.028009249
0.08791009 0.039794505 0.0032167614 -0.009850819 0.00783143 0.06364381 0.0017947523 -0.044732783
-0.0062543666 0.0896731 -0.008846605 0.02442963 0.025204057 -0.09560746 -0.055196382 -0.042802677
-0.09019215 0.045680735 0.10638629 -0.030838188 -0.008738241 -0.018378116 0.007962514 -0.044261362
-0.029294128 0.055128835 -0.0059487345 0.060461197 -0.041462816 0.067298084 0.07380063 0.0046115424
00000000: e37c b9bc 48bc 5dbd 7cef f53b cf99 b83c
00000010: 7545 aa3c 6f5d 023d 8c94 0dbd a187 b23c
00000020: 8d3d 5abd 82cc 8b3d 3bb2 963c 6aeb 843d
00000030: b66c b8bc a183 30bb 832f a5bd 8436 463d
00000040: f7f9 2f3d de9d b239 74fe 55bc 79da b93d
00000050: 5923 c1bd 782d 403d d5c7 a03d cafa 923c
00000060: 809f b53d 564a 793d a85e ce3c 967f e2bc
00000070: 48e7 203c 63ef 243c f1b9 9e3b 1be1 f13c
00000080: 61e7 97bd 8cce b4bd 4e0b fe3c 3f16 1ebd
00000090: 3142 24bc 80f4 ca3d 7ffa a0bd dac7 a0bd
000000a0: 4a18 09bd d203 b33d 1d30 35bd 2c47 aabc
000000b0: 8e19 0c3d 008e 9ebd 27db 95bd 9ba1 853d
000000c0: d674 d13d 6999 43bd 163a e83d 779c 5ebc
000000d0: 13c3 5abc 77cb 913d 2508 413c 61c0 85bd
000000e0: 9d95 c13c 1375 32bc 6537 223d 0e1a 82bd
000000f0: 76c0 ccbc c11b 023d 49a3 923c cb25 4ebd
00000100: 015f adbc 0755 ba3d 6015 9bbd 35f5 0dbd
00000110: de7e 02bd ff9f a6bc 19fa 4a3d ffb9 bdbd
00000120: 7168 a53d 603c aa3b 85a8 3d3c db86 2e3c
00000130: 030c 25bd 63fa b5bc 8fba b33d d129 bcbc
00000140: 7cef 713d e550 6cbc 709a bd3d ab4b c33d
00000150: 66b4 283c c72f 2b3d 48f3 bebc 689e 813d
00000160: 72d9 c5bd c614 493c 9a6e af3b 1001 8b3d
00000170: 4fdc 9bbb 26b6 733d a50e 4d3d aab9 823d
00000180: b43c 20bd ad2e 273d 1075 193d 017c a03d
00000190: 6021 96bc 9faa 0bbd 5f76 22bd 4d09 9bbc
000001a0: 6817 5abd da9d 09bd edc3 20bd 649e 85bc
000001b0: 15e4 e6bd ec54 a23d e359 afbd 7818 5ebc
000001c0: f2d3 d43d 850b ddbc ff4a 11bd 158a 4bbd
000001d0: f1fb 9a3d 49da 4d3d 7428 383d e9b1 38bd
000001e0: b2bb 5e3d 31f6 27bd 53d2 1d3d 50ab acbc
000001f0: 0d56 2f3d 419d d33c 987b a83d a0fc 04bd
00000200: 4a49 48bd 9c06 d3bd e9da 69bd 75da cdbc
00000210: 6491 a7bc 0fa5 db3c 7717 abbc 06ed 153d
00000220: 109b e4bc d4cb bc3c 9f21 5ebd e13a 26bd
00000230: faac 1e3b f3e5 97bc 2a75 40bd f9ec bebc
00000240: c9e8 dd3d 7587 c8bc 5271 9f3d 4ee2 0e3c
00000250: 371e 093d ba05 4bbd 65d1 1a3b c726 cfbd
00000260: 22a2 09bc 03bb 78bd 4789 70bd c7c8 f43c
00000270: 5172 9e3c 894e 18bd 0783 5dbd ba67 5bbd
00000280: 7cd0 51bd 3a6c 5c3d a06e 82bd 5c71 a33b
00000290: 8c45 0cbd eda2 78bb dc0a 303c c590 c8bd
000002a0: b2c7 c73c 291f 95bd abff 69bd 4c5f a93d
000002b0: 9b6f ae3d 9eca 643d 70a1 56bd a117 53bd
000002c0: 551b 903d 4eca 973d de05 d938 fb88 063a
000002d0: 80ed 4b3d ac7f 0a3e b1ec b1bb e25d 513d
000002e0: 64fd 96bc 526d 9c3d 4285 1ebd 0f3e 55bd
000002f0: 7f8f 243b 4392 4dbb c7c4 9d3d 5754 293d
00000300: 96d6 00bd a658 9cbd 63e6 95bc 6224 a63b
00000310: 28bb a93d 4c0a 443c d72a 513d f62a 723d
00000320: 19a8 dd3c b53d 82bd 28b9 073d 359a 0fbd
00000330: 4477 973d 08d8 1b3d 9d4a 9abd 1b4d 573d
00000340: da4b 3d3d dc1d c43d a97d 84bc f5d0 133d
00000350: 836b ae3d 1e02 d13b 11b4 29bd e687 223d
00000360: 8f36 e7bd 2488 543d c6f6 943c 7d60 803d
00000370: 10d0 1ebc 23e8 963d ff66 05bd a773 e5bc
00000380: 350a b43d 90ff 223d 4dd0 523b 5465 21bc
00000390: 664f 003c b057 823d e53d eb3a b939 37bd
000003a0: 6ef1 ccbb 88a6 b73d 5af1 10bc a620 c83c
000003b0: bd78 ce3c d8cd c3bd 9a15 62bd dc51 2fbd
000003c0: a9b6 b8bd b91b 3b3d 0ee1 d93d 5ea0 fcbc
000003d0: d72a 0fbc b48d 96bc 3475 023c 674b 35bd
000003e0: 3dfa efbc c6ce 613d 9aed c2bb 29a6 773d
000003f0: ead4 29bd 94d3 893d c924 973d 6c1c 973b
