neural_networks/Drone_customsigmoid_new.pt (torch, 130029 bytes, 8 tensors)

1.weight f4 [120, 16]
000000 35 d7 a3 be b7 51 bb be af 10 a2 3d 8a 8d d4 bd
       -0.32000127 -0.3658578 0.079133384 -0.10378559
000010 55 3d 30 3e 67 9b a4 3d 65 33 13 bd b8 54 08 bd
       0.17210896 0.08037453 -0.035937686 -0.03328392
000020 97 a7 72 3e ac d7 15 3e bf 18 8c 3d e3 83 d0 3c
       0.23696743 0.14633054 0.068406574 0.025453513
000030 db b5 25 3e 19 12 bd bd a4 44 5e bd 01 c6 67 bd
       0.16182654 -0.092319675 -0.05426468 -0.056585316
000040 a2 e8 ba 3c c0 21 2e 3e 09 ba df bd 73 5a 22 be
       0.022816006 0.17005062 -0.10924155 -0.15854816
000050 f0 17 44 be ed 83 58 be 90 f7 7d be c8 9d 2b 3d
       -0.19149756 -0.21144076 -0.24801469 0.04189852
000060 c0 57 16 3d 88 7c 44 3d af e9 0a 3e 81 8d 05 3e
       0.03670478 0.047970325 0.13565706 0.1304226
000070 ef d9 65 3e de 14 51 3e 6a 9a ea 3d 6d f6 a8 3d
       0.22446416 0.20418116 0.114552334 0.08250127
000080 87 d8 2a bd 25 73 21 3d bc 92 0c be 08 1a 78 be
       -0.041710403 0.03941645 -0.1372785 -0.2422868
000090 ce ad b3 3e 72 0b a0 bd 5d 46 0c 3e 1a ba 4f 3e
       0.3509354 -0.07814683 0.13698716 0.20285836
0000a0 b0 99 d9 bd 4d 3e 85 3e f3 db 70 3d 88 e5 e6 bc
       -0.10625017 0.26024094 0.05880351 -0.02818562
0000b0 26 44 0d 3c b3 60 2c 3e 9c f7 41 3e a0 f8 cc bd
       0.008622205 0.16833763 0.18942112 -0.10008359
0000c0 9a f2 82 3d cc 0c b1 3d 2c 44 44 be d0 f3 1a be
       0.06393929 0.08645019 -0.1916663 -0.1513207
0000d0 8d 2b 4e 3e b7 34 33 3d fa a4 3e 3e e6 2d 0a be
       0.20133801 0.043751445 0.18617621 -0.13494071
0000e0 f1 88 22 be 80 5e 99 be 9f cf 59 be 3a 8b 71 3e
       -0.15872552 -0.2995491 -0.21270607 0.23588267
0000f0 42 bf 11 3e d2 c9 a4 bd da 42 67 bd b4 b8 b8 3d
       0.14233115 -0.08046307 -0.05646024 0.09019604
000100 de 4a bc 3e 1d 74 7e bd c8 c0 c9 3d 6c 5e 0d 3e
       0.3677587 -0.062122453 0.09851223 0.1380555
000110 ba 4b 54 be db 74 e2 bd 35 a6 6d 3d 85 66 f9 bd
       -0.20732012 -0.11057445 0.058019836 -0.12177757
000120 4d 26 22 be 5d d9 19 bc db 81 7e be 07 45 60 bc
       -0.15834923 -0.009390202 -0.24854223 -0.013688332
000130 6a e3 07 3e 90 88 98 be f6 f6 85 3e a1 87 8c 3e
       0.13270345 -0.2979169 0.2616498 0.27447227
000140 af b2 33 bd fb 99 e5 be 7a fc 6a 3d 8c 88 7f 3e
       -0.043871578 -0.4484404 0.057369687 0.24954432
000150 7a 87 91 bd cc ee 16 3e 9e bc f2 3a 13 9a 9c bd
       -0.07105918 0.14739531 0.0018519347 -0.07646575
000160 bf 63 95 be af 4c 8c be 66 83 44 3e 63 b2 9f bd
       -0.29177663 -0.27402255 0.1919075 -0.077976964
000170 1f 85 3f bd 73 88 16 3e 1e ef e2 3d dd f3 f8 bb
       -0.046757814 0.14700489 0.11080764 -0.00759743
000180 f7 80 3f be db 95 65 3e e1 f2 90 bd 49 fe 4c bd
       -0.1870154 0.22420447 -0.070775755 -0.050047193
000190 21 2b 0d 3d 85 de 4f 3c 56 24 a6 bd 3d 05 49 be
       0.03446496 0.01268733 -0.08112399 -0.19630904
0001a0 b5 ae be be 6e 11 1c bd e5 c6 1b 3e 23 ea 33 bd
       -0.37242666 -0.03810256 0.15212591 -0.043924462
0001b0 4d 3b 3d 3e c6 da 55 be 43 d4 f9 3d 87 79 5a be
       0.18479653 -0.20884237 0.12198689 -0.21335422
0001c0 9b e2 b7 bc fe a6 cd bd 12 ec 85 be 03 e4 b0 3d
       -0.022446921 -0.10041617 -0.2615667 0.0863724
0001d0 00 87 c8 3d d4 e3 43 bd 81 1a 6e 3e f2 ad e2 3d
       0.09791374 -0.047824696 0.23252298 0.11068334
0001e0 1d 5e dd be eb ac 44 3d f3 89 39 bd 69 54 c7 bd
       -0.43235865 0.04801647 -0.045297574 -0.09732897
0001f0 1d 62 9f 3e 0d e2 31 be fc 98 e1 bd 4e 97 ca bd
       0.31129542 -0.17371388 -0.110155076 -0.0989214
000200 9e a7 8d 3e d9 9e 06 3e ff ed 3d 3e 17 d5 b2 3d
       0.27666944 0.13146533 0.1854782 0.0873205
000210 73 58 dc 3d f5 4e d2 bc 90 d7 ac bd e5 21 55 be
       0.10759058 -0.025672415 -0.08439553 -0.20813711
000220 11 62 9a bc 0a da d4 bd 6a 95 44 3e 67 a6 45 3e
       -0.01884559 -0.1039315 0.19197622 0.19301759
000230 93 0f 3f 3e 12 17 99 3d 75 dc 41 3d 30 a0 08 be
       0.18658285 0.074751034 0.047329385 -0.13342357
000240 51 64 83 be 86 f7 85 bd 39 35 70 3e 2c c6 97 3e
       -0.25662473 -0.06541352 0.23457803 0.2964338
000250 00 d4 5f bd 9a 44 f1 3b 2a b2 06 bd 7a 16 26 3e
       -0.05464554 0.0073629143 -0.032884754 0.16219512
000260 ee 41 42 3e 10 66 62 3e 88 90 97 be 45 12 93 bd
       0.18970463 0.22109246 -0.29602456 -0.07181219
000270 d8 10 94 3c cd 72 66 be 66 87 90 bd 46 b6 fa bd
       0.018074438 -0.2250473 -0.07057075 -0.12241797
000280 1a 9f 3a 3e 4d 29 4c 3d 48 83 43 bd 85 4e 85 3e
       0.18224755 0.049844075 -0.04773262 0.26036468
000290 c9 af 38 be 6a 69 bd 3c 93 15 52 3e 90 a4 a2 3e
       -0.18035807 0.023121554 0.20516042 0.31766176
0002a0 27 0a 52 3e e7 d8 c6 3c 8f 3e bc 3d 2a b8 1a bc
       0.20511685 0.024273349 0.091916196 -0.009443322
0002b0 14 89 0f be d2 8d 67 3e 54 0b ac bd c5 b4 e4 bc
       -0.14017135 0.22612694 -0.08400598 -0.027918229
0002c0 1f a6 50 be 5c fd a7 be 1e 3d f4 3a f1 de dc 3d
       -0.2037587 -0.32810485 0.0018633937 0.1078471
0002d0 dc 95 8c 3e 8d 2e 20 be 35 70 4e 3d 84 c7 b7 bd
       0.27458084 -0.15642758 0.050399978 -0.089736015
0002e0 56 c4 ef bd f8 06 e8 be 1d 49 0b 3e d3 05 04 3e
       -0.1170737 -0.45317817 0.13602109 0.12892847
0002f0 5d a6 2d 3e 68 86 4f 3d 7e 73 9d bd f7 48 df 3d
       0.16957994 0.05066529 -0.07688044 0.10902589
000300 45 7a 54 3e 5a 95 23 be f8 82 6a 3e 08 cc 18 be
       0.20749767 -0.15974942 0.22901523 -0.14921582
000310 ab e6 00 be ca 1c 30 bd 88 15 61 3e f2 09 d7 bd
       -0.12587993 -0.042996205 0.2198087 -0.10499944
000320 46 0e 2f be d5 2c 9d 3d 6b b5 64 3e d0 21 aa be
       -0.17095289 0.07674567 0.2233483 -0.33228922
000330 f7 49 0f be 79 09 82 bc a4 ff 8b 3d d3 5b 9e bd
       -0.13993059 -0.015873658 0.06835869 -0.07732358
000340 d4 78 60 3e 1c 33 92 3e 3a 15 bd 3e a3 45 65 be
       0.21921092 0.28554618 0.36930257 -0.22389846
000350 e8 9c cf 3d 42 9b 41 bd 8a 17 e6 bd 06 2b 46 3b
       0.10137349 -0.047267206 -0.112349585 0.0030238046
000360 1d d3 68 3e 13 1b 3f bd 63 7c b1 bd 73 91 15 3e
       0.22736783 -0.04665668 -0.08666303 0.14606266
000370 54 6b cc bd 7d e2 25 be 20 8e b6 bd fd bb 92 3d
       -0.09981409 -0.1619968 -0.08913827 0.07164762
000380 f4 e0 50 bd fc 93 22 be d1 18 90 3e 4e 02 9d be
       -0.050995782 -0.15876764 0.28143933 -0.3066582
000390 b2 fa 28 3e 51 f3 21 3c 2e a1 ba 3e 1a 72 88 bd
       0.16501883 0.009884671 0.36451095 -0.06662388
0003a0 c7 ed 09 bd 05 3e 4a bd 3c 1e 6d be 84 98 83 3e
       -0.033674028 -0.049375553 -0.23156065 0.25702298
0003b0 4a 51 3d be c4 ce 26 bd 4c 5e 4a be 87 ac d3 bd
       -0.1848804 -0.04072453 -0.19762534 -0.10335641
0003c0 99 cb 9f 3d 97 bc f7 bd 67 2e 63 3d ec e4 2c 3e
       0.07802505 -0.120965175 0.055464175 0.16884202
0003d0 d3 ed 35 be 62 a1 41 3e 5f 5d 99 3d 83 65 c3 3e
       -0.17766504 0.18909219 0.07488512 0.38163385
0003e0 c1 34 fb bd 6a 7b e0 3d b2 83 3f 3e 69 85 91 ba
       -0.122659214 0.10961039 0.18702582 -0.0011102381
0003f0 22 16 82 bd e9 9e a1 bc 71 65 b3 bc d4 4a 57 3d
       -0.06351878 -0.019729095 -0.021898957 0.052561596

1.bias f4 [120]
000000 e6 97 05 be 66 f0 ad bd 7f 69 1a be 03 61 f5 bd
       -0.13046226 -0.08493118 -0.15079306 -0.11981394
000010 02 42 e0 3d 30 e8 03 38 8a e1 87 bd 9f e8 24 be
       0.1095009 3.1449075e-05 -0.06634815 -0.16104363
000020 5f 3c 9c 3e 64 c8 10 be 8d 45 4d bd 15 f9 db bc
       0.3051481 -0.14138943 -0.050115157 -0.02685217
000030 65 a1 ac bd 2d d9 3c 3e 24 4f 37 3d 61 1b 93 3e
       -0.08429221 0.18442221 0.04475321 0.28731826
000040 10 43 be 3d 92 80 29 3e 4b d3 77 be 4f 76 46 bc
       0.09290135 0.16552952 -0.24201696 -0.012113168
000050 ec 7b 0c 3e 26 be 46 be b4 89 90 bc 46 e6 a8 bd
       0.13719147 -0.19408473 -0.017643787 -0.08247046
000060 96 2e 96 3d 9d 55 8c 3e 5b c0 e2 bd a1 c2 65 bb
       0.07333104 0.27409068 -0.11071845 -0.0035058635
000070 e9 09 d0 3d 4d d9 99 3e 6c b0 55 3e c6 5f 59 be
       0.1015814 0.300486 0.20868081 -0.21227941
000080 52 2b eb bd 96 63 f5 3a 7d 1e 93 3d 71 f8 37 3c
       -0.11482872 0.0018721696 0.071835496 0.011228667
000090 6b 89 30 3e f8 d9 0e 3e cc 4a b0 3e 2b 8c 70 be
       0.17239921 0.13950336 0.34432065 -0.2349097
0000a0 6a 42 5a 3d b5 bd e3 3d d4 bf 4d bb 88 d9 78 3e
       0.053285994 0.11120168 -0.0031394856 0.24301732
0000b0 a8 9f e2 bd ef cb 81 3e d5 89 5a bd 2f 17 e0 bd
       -0.11065608 0.253509 -0.053354103 -0.10941922
0000c0 7b 99 8e 3e fc a0 4a be ae fb b8 3d 49 a0 d0 3d
       0.2785147 -0.19787973 0.09032379 0.10186822
0000d0 7f d4 ac 3c 17 04 48 3e 23 c3 60 3e f3 2d 6f bd
       0.02109742 0.1953281 0.21949439 -0.05839343
0000e0 79 97 67 3e 2c 17 31 be 54 06 17 be 6c f1 13 3c
       0.22616376 -0.17293996 -0.14748508 0.009029727
0000f0 02 c4 d0 3d 22 31 98 3e 83 65 27 be 4a 1a 56 3e
       0.101936355 0.29724985 -0.16347317 0.20908466
000100 56 50 00 bd b9 bf 16 be a2 17 22 3e 19 0e 73 3e
       -0.031326614 -0.14721574 0.15829328 0.23735847
000110 68 00 0c 3e 70 ff 28 be 50 2c 9a be ea eb 10 be
       0.1367203 -0.16503692 -0.30111933 -0.14152494
000120 e8 2b 0d 3e 40 42 69 3d 05 c2 7b 3e b8 b6 fd 3d
       0.1378628 0.056947947 0.24585731 0.123883665
000130 83 a7 0d 3e 96 f6 ed 3d e9 2e 7e be e0 10 7a be
       0.13833432 0.11619298 -0.24822582 -0.244205
000140 ff 78 07 bd 70 38 9c bc 81 38 56 3e d3 a8 1c 3e
       -0.033074375 -0.01906988 0.20919992 0.15298776
000150 a4 a6 96 3d 9e ca a8 bc e9 13 0a 3d 2d 8b 39 be
       0.07356003 -0.020604428 0.033710394 -0.18119498
000160 23 7e c5 bd 2d 66 b9 3e 9a 3c 91 be f3 09 66 3e
       -0.09643199 0.36210766 -0.28366548 0.22464733
000170 15 d7 3c 3d 7f 37 ce bd 71 36 09 3e 76 be 67 3e
       0.046103556 -0.10069179 0.13399674 0.22631249
000180 e2 b2 d8 bd b0 89 63 3e f5 af 16 3e bf 3b 0d be
       -0.10580994 0.22220492 0.1471556 -0.13792323
000190 e7 49 4f be 2f ee 83 bd 9a fc 84 3e b5 e2 92 3e
       -0.20243035 -0.06441914 0.2597397 0.2868859
0001a0 cd 5b 99 bd 87 ec e1 3d df ef 64 be fb 92 0e 3e
       -0.07488213 0.11031442 -0.22357129 0.13923256
0001b0 72 39 89 3e 1e 08 81 3d 60 a0 28 be 7b 9e e8 bd
       0.2680164 0.06300376 -0.16467428 -0.11358353
0001c0 77 fb b4 bc 3a 4d 1e be 46 fa 66 3e 45 f8 ff 3d
       -0.022092564 -0.15459147 0.22556409 0.124985255
0001d0 04 c6 34 3e f9 e9 3e 3e c7 75 66 bb a6 a1 83 be
       0.17653662 0.18643941 -0.0035165416 -0.25709265

3.weight f4 [120, 120]
000000 60 4a a3 bd 43 29 82 3d b9 23 b3 3c be e4 8b 3d
       -0.0797317 0.06355526 0.02186762 0.068307385
000010 da db 40 bd 9f 13 54 bd 9f f1 19 3c 1a 6a 30 3d
       -0.047084667 -0.051776525 0.009395986 0.043069936
000020 75 ee e2 bc 70 94 16 3d c7 bb 99 bd 40 ee 6d 3c
       -0.027701596 0.036762655 -0.07506519 0.014522135
000030 6a 38 05 3e bf f4 19 3d a7 be e2 3d 31 f1 90 bd
       0.13009802 0.037586924 0.1107152 -0.070772536
000040 cc 4f 05 bd 2a ce 1d bd 13 cf c1 3d 2b a4 83 3b
       -0.032546803 -0.03852669 0.094633244 0.004017373
000050 e0 9f 9c 3c 77 27 2d bd 98 fa 6a 3d 47 52 0a bd
       0.019119203 -0.042273965 0.05736789 -0.033769872
000060 08 d5 74 bd 45 6d ad 3c f9 c1 cf bd f3 1c 1b bc
       -0.059773475 0.021170268 -0.10144419 -0.009467351
000070 b9 a6 b7 bd 73 4b 55 bd 5c 18 1d 3d 19 52 72 3d
       -0.08967347 -0.052073907 0.03835331 0.059160326
000080 03 86 f3 bc 2e 7f c7 3d a2 61 7b be 67 3d 50 3d
       -0.029726988 0.097410545 -0.24548963 0.050839808
000090 3d 2e 49 3d 4a c5 8c bd 88 33 46 bc 22 28 02 3e
       0.049116362 -0.068735674 -0.012097247 0.12710622
0000a0 6e 28 75 3d e9 f0 8e bd e4 42 13 3e 62 bd 06 bd
       0.05985301 -0.06979544 0.14380985 -0.032895453
0000b0 43 dd 18 3c 7e 30 50 be 82 6c d8 3d b2 ac bb 3d
       0.009330097 -0.20330998 0.10567571 0.091637984
0000c0 1c c4 e9 bd e7 a8 22 bd 5b e8 dc 3c ba 2e 21 bd
       -0.11414358 -0.03971186 0.026966264 -0.039351203
0000d0 d9 04 10 3c c8 92 8d 3d b5 74 91 bc b5 ca f1 3c
       0.008790218 0.06912762 -0.017755846 0.029515604
0000e0 1a e1 d1 3d c3 e7 b8 3d b4 49 92 bd 57 54 9c bc
       0.10248013 0.0902858 -0.07142964 -0.019083185
0000f0 8d 61 06 be 56 60 bf 3c a9 0e c4 bd 56 ee a8 bd
       -0.1312315 0.023361366 -0.09573109 -0.08248584
000100 64 b1 e4 3d 41 1c 63 bc 9c 5c 1a 3d b9 92 e8 3c
       0.11166647 -0.013861717 0.037685975 0.028390275
000110 fa 6c da bb a7 b2 1e 3c d5 e3 8e bc 72 60 85 3c
       -0.006665823 0.009686149 -0.017442623 0.01628134
000120 dd 7d 59 bd 1a 00 17 bd 1a 66 45 3d 63 63 c3 3d
       -0.05309855 -0.03686533 0.048193075 0.09540441
000130 81 f9 05 be 48 df 4b 39 09 19 23 3d 97 19 04 bd
       -0.1308346 0.00019442767 0.039818797 -0.032250967
000140 84 56 99 bc 04 6f 12 be 5f 17 83 bc 33 e4 85 bc
       -0.018718012 -0.14300162 -0.016002355 -0.016344165
000150 d4 45 22 be ce 01 58 3d 09 cf 32 bd 18 8a 0c 3d
       -0.1584695 0.052736096 -0.043654475 0.034311384
000160 b1 4d 10 bb 05 c1 00 be 61 12 ad ba 66 65 0f 3e
       -0.0022018964 -0.12573631 -0.001320433 0.14003524
000170 a8 ae 77 bc 4e da 86 bd 50 4d 73 3d 30 0a e6 3d
       -0.015117325 -0.06584607 0.059399903 0.11232412
000180 97 a7 fb 3c d0 e0 38 be 58 62 e4 bc 1f 0b 89 bc
       0.030719562 -0.18054509 -0.027878925 -0.016728936
000190 a0 a0 a3 bb ff 3a ab 3d b7 a4 96 bd c1 fd 80 3b
       -0.004993513 0.08360862 -0.073556356 0.0039365
0001a0 ff 00 a3 3d 4e d5 c6 bd 92 cd 6c 3d 04 65 c1 3b
       0.07959174 -0.097086534 0.057813235 0.0059019346
0001b0 ed 93 1d 3d b3 42 ed 3b 9c 9a 32 3d 81 83 01 3d
       0.03847115 0.007240617 0.04360448 0.031619553
0001c0 ed 3b 8e 3c fb f1 ef bc 72 2e 29 bd 26 e6 93 bb
       0.01736256 -0.02929019 -0.04130406 -0.00451352
0001d0 0e c8 05 bc e0 fc dc 3c 32 36 77 3d 2a 27 ed 3d
       -0.008165373 0.026976049 0.06035442 0.115797356
0001e0 3a 4e 06 bd ca f9 38 bd 83 13 2a 3d e7 4c 6a 3b
       -0.032789446 -0.045160092 0.041522514 0.0035751404
0001f0 46 ce f1 3c ed b1 a3 bb 71 92 7e 3c c3 0b c9 3d
       0.029517304 -0.0049955756 0.015537844 0.098166965
000200 42 41 70 3c 77 d6 da 3d f9 a1 e5 3c 4c 75 8d 3c
       0.014663996 0.10685437 0.028031336 0.017267846
000210 60 29 0b 3d 72 62 75 3c ad fb 33 bd 25 08 dd 3c
       0.033975005 0.0149770845 -0.04394119 0.026981423
000220 47 51 f4 3d b7 a9 04 bd 2f 97 62 3c 36 cf 36 3d
       0.11929565 -0.032388415 0.01382999 0.044631205
000230 5b c5 d1 3c e4 05 27 bd 29 cc 2f 3c d4 34 56 bd
       0.025606802 -0.040777102 0.010729828 -0.052296475
000240 1f 60 99 3c 60 a1 e8 3c e7 ed 3f bc 7e 4b 8c 3d
       0.018722592 0.028397262 -0.011714435 0.068503365
000250 96 61 d9 3d dd 07 74 3d b1 71 27 bd 38 6f 9b bd
       0.10614316 0.05957781 -0.04087991 -0.07589573
000260 3a 6b 3e bd 9c e4 90 bd 13 3a 2e bd ac 0f 82 3c
       -0.046488978 -0.07074854 -0.042535853 0.015876614
000270 0c db d5 3c 79 d1 1b 3c 13 0b 0a 3e c4 fe d5 3c
       0.026105426 0.009510391 0.13480787 0.026122458
000280 21 0a 2f bc db 3b 3a 3d 04 5b 2e bd 56 94 d8 bd
       -0.010683567 0.04546724 -0.042567268 -0.10575168
000290 9d 7a 5f 3c 1e 37 f4 3d 47 72 ab bc 19 c2 cd 3d
       0.013640073 0.11924575 -0.020928515 0.10046787
0002a0 09 4f 05 bd 32 91 0f 3e 48 a3 cb ba c5 76 b6 3d
       -0.032546077 0.14020231 -0.0015536333 0.08909372
0002b0 73 bf ed 3d 9a b1 1b bd 06 e6 41 bd a0 6d f4 bc
       0.11608782 -0.03801117 -0.047338508 -0.02983743
0002c0 d1 0c 8a 3d c5 70 1b bc 9d 06 29 ba 9a 65 99 3d
       0.06740726 -0.009487336 -0.0006447824 0.07490082
0002d0 56 e3 b3 3d 35 36 92 bd a4 a3 75 bb 78 07 bd 3c
       0.08783595 -0.071392454 -0.003748157 0.02307485
0002e0 b8 c1 ff bc fe 5e 18 3d 7f 16 80 3d 5a 01 73 bd
       -0.031220302 0.037199967 0.06254291 -0.05932746
0002f0 09 21 f9 3d 55 18 37 bd 83 5f 83 3d 06 d3 66 bd
       0.12164504 -0.04470094 0.06414702 -0.05635359
000300 01 29 86 ba 68 7a 87 3d c6 9e 3a bd 08 76 aa 3d
       -0.0010235609 0.06615144 -0.045561574 0.08323294
000310 d6 42 2a bd 10 90 14 3d b6 09 cd 3d 25 d8 a0 3c
       -0.041567646 0.0362702 0.10011618 0.019634316
000320 1d a8 8c 3d 53 da 2f bd 18 17 8f bd 7f 93 bb 3d
       0.068680026 -0.04293282 -0.06986827 0.09158992
000330 5f 0a 19 3e cc eb ca bc 87 3b a7 bd 8d 74 3d bd
       0.14945363 -0.02477064 -0.08165651 -0.04625373
000340 ed 8e fa 3d af 93 85 3c 5f b1 74 3d 01 df 95 bc
       0.12234292 0.016305773 0.059739467 -0.018294813
000350 2e 04 d7 3c 5d c3 08 3e 3d 27 ba 3d d0 8d a0 3d
       0.02624711 0.13355775 0.09089515 0.078395486
000360 5b 75 b9 bb 9a d5 b1 3d f5 f5 3f bd 2f 4f 61 3d
       -0.005659742 0.086833194 -0.046865422 0.055007156
000370 64 72 a0 3c ab b0 43 3d 4a a8 61 3d 8f 63 2e 3d
       0.019585796 0.047775906 0.055092134 0.042575415
000380 40 50 ea 3d 66 0f 42 3c 3d 82 77 3d 17 ca 5b bd
       0.11441088 0.011844492 0.06042694 -0.053659525
000390 00 f8 52 bd 1c d6 92 3d 14 5f 71 3d fc 56 e0 3d
       -0.051506042 0.07169744 0.058928564 0.10954091
0003a0 ae 09 7f 3d f0 84 01 be d9 d9 1f bd ee aa 4c 3c
       0.06226509 -0.12648368 -0.039026115 0.012491925
0003b0 a6 7b 52 bc 69 93 c2 3c a5 33 a7 bd 12 7d 7c bd
       -0.012846863 0.023751931 -0.08164147 -0.061642714
0003c0 95 fb aa bd 1e 67 38 bd e0 1c 37 bd dc 8b 21 bd
       -0.08348767 -0.045020215 -0.04470527 -0.03944002
0003d0 24 5f 8f 3d 9a ef 0e be ba f7 28 3d 8c 64 88 3d
       0.070005685 -0.13958588 0.041251875 0.06659803
0003e0 fa c5 19 3d 64 8b 06 be b8 5a 04 bc 99 09 89 bc
       0.03754232 -0.13139111 -0.00807827 -0.01672821
0003f0 d5 7f 94 bc b2 4a 0b bd 3b 57 11 be 6e 10 94 bd
       -0.018127361 -0.034006782 -0.14193432 -0.07229696

3.bias f4 [120]
000000 98 0f be bd 17 7e f7 3d bb 39 d8 bc c2 ae 6d ba
       -0.09280318 0.120845966 -0.026394716 -0.00090668735
000010 9e 88 4b 3d 1a 4d ad 3d d3 46 79 3d 03 65 8d 3c
       0.049690835 0.084619716 0.06085856 0.01726008
000020 2e 10 43 3b d7 89 cd bd 2c e7 09 3b 89 37 46 3d
       0.0029764283 -0.100360565 0.002104233 0.048392806
000030 ca 10 54 3c 9f d1 ff 3d 4e 6a 33 3d df a1 48 bd
       0.012943456 0.12491154 0.043802552 -0.048982497
000040 f1 a2 7e 3d 08 11 cc 3d 50 a3 0d 3e c4 4b 80 bd
       0.06216711 0.09964186 0.1383183 -0.06264451
000050 84 c1 10 3e 5f 57 69 3c e7 e0 4a 3d 41 36 dd 3c
       0.1413632 0.014242022 0.04953089 0.02700341
000060 ce 38 ea bc 7c 7d 9e 3b 4b 9a 80 3d 82 5f f6 3d
       -0.02859154 0.0048367362 0.06279429 0.120299354
000070 9c 47 2f bd ca 1c 63 3c bc 85 4b bd aa 11 77 bb
       -0.0427929 0.013861844 -0.049688086 -0.0037699738
000080 67 ba 57 bd fb 8e b7 bc 94 11 c5 3d 62 a3 1c 3e
       -0.052668 -0.022407046 0.096224934 0.152967
000090 72 7a 00 3e e1 e4 30 bd 17 07 eb 3d d2 ac 99 3d
       0.12546709 -0.043187026 0.11475962 0.07503666
0000a0 34 04 19 bb d2 a7 0d 3e d7 17 a4 3c 87 33 24 bc
       -0.0023348453 0.1383355 0.020030899 -0.010022051
0000b0 38 2b fa 3c 91 9f 4e 3d 80 df dc bd f1 78 77 3d
       0.030538186 0.050445143 -0.10784817 0.060418073
0000c0 13 49 ab bc a1 15 b9 3d 86 a2 16 3d 76 a7 7a bb
       -0.020908868 0.090373285 0.03677609 -0.0038246787
0000d0 ed f5 33 bd 6f 43 95 3d d5 47 d2 3d 15 d0 1a 3e
       -0.043935705 0.072882526 0.10267607 0.1511844
0000e0 e1 fe 81 3d 85 1b 06 3e d5 1e 8d 3d c7 99 e0 bb
       0.063474424 0.13096435 0.06890646 -0.006854269
0000f0 c0 80 48 3c 25 f9 49 3e 46 0d b4 3d 94 0b 27 3d
       0.012237728 0.19723947 0.08791594 0.040782526
000100 3a 11 8b bd 1e 82 36 bc 5a b4 62 3d 7d 65 ac 3c
       -0.06790395 -0.011139421 0.055347778 0.021044487
000110 39 73 9a bd 7b 8e a5 3c 1c af f0 3c 57 a4 a6 3c
       -0.07541508 0.020209542 0.029380374 0.020342035
000120 15 f4 5c bd 9a 0f 32 bd 78 18 95 bd 23 cb b6 3d
       -0.053943712 -0.04347191 -0.07280058 0.08925464
000130 8e 92 0c bd c7 7d f0 bc d8 a0 7f 3b 4b 60 7d bd
       -0.034319453 -0.02935685 0.0039005782 -0.06185941
000140 49 71 ec 3b c8 91 20 bd e8 1a de bd 53 ac a9 bc
       0.007215653 -0.039201528 -0.10844976 -0.020712053
000150 21 52 b8 3d 85 42 ac 3d c0 1f ff 3d c5 3c 48 3d
       0.0900004 0.08411125 0.12457228 0.04888608
000160 1b a6 a6 bc 53 1b a1 bb b1 47 b3 3d 16 84 3b bd
       -0.020342877 -0.0049165874 0.087539084 -0.045780264
000170 ca 78 cc 3c 9d 8d 9b 3d 60 09 a0 3d 9c cf 97 3d
       0.02495994 0.0759537 0.07814288 0.07412645
000180 ef 9b 65 bd 37 31 f9 3d 3f b9 ef 3d 38 9a a5 3d
       -0.056056913 0.1216759 0.11705255 0.080860555
000190 d2 87 36 3d 85 4d d2 3d 42 8b c2 bc b9 c2 b5 bc
       0.044563122 0.10268692 -0.023748044 -0.022187578
0001a0 0f 28 c9 3c a4 c3 9a 3d dd b4 d2 bb eb 97 60 3c
       0.024555234 0.07556847 -0.006430252 0.013708095
0001b0 25 45 13 3e ea 1d c6 3c 7d 7c 90 3d 23 b0 a5 3d
       0.14381845 0.024184186 0.07054994 0.08090236
0001c0 df 93 c1 3d 85 b9 d6 3c 7b 3f 92 3c b6 16 99 3d
       0.09452032 0.02621151 0.017852535 0.07475035
0001d0 8e bc 12 3d 5d 31 6a bd ba a4 9f 3d 6c 4b 78 3b
       0.03582435 -0.057175983 0.07795091 0.0037886752

5.weight f4 [120, 120]
000000 50 fc 41 3e ff 7a 87 3c 84 b6 7f be 47 e6 87 3d
       0.18943906 0.016538141 -0.24971968 0.06635719
000010 14 85 07 bd a2 05 03 bd f1 d2 68 bd 5a 5c 0d 3c
       -0.033085898 -0.031987794 -0.056841794 0.008627975
000020 d9 ae f2 bc ff 2c 57 3d 7d 5d 89 bd 3d c2 3d bc
       -0.02962439 0.052533146 -0.067072846 -0.011581955
000030 71 8c af 3d 9e e9 0a 3e 23 56 45 3d 8e 72 6d bc
       0.08571709 0.1356568 0.04817785 -0.014492644
000040 a9 a3 9f bc 92 59 b0 3d 33 e0 00 3d 0d a6 6d 3d
       -0.019487219 0.08610834 0.031463813 0.058019686
000050 98 07 e7 3c 75 ef 10 3d 66 89 46 bd 5f 38 b2 3d
       0.028201863 0.035384614 -0.048470877 0.08702158
000060 0d 84 0c 3e c6 9e 78 3d ba 59 1b bd df f4 99 39
       0.13722248 0.060698293 -0.037927367 0.00029364877
000070 fd 24 c4 be 27 8c 55 3d c0 3a 0b be 98 89 83 bc
       -0.3830947 0.052135613 -0.1359663 -0.01605682
000080 c4 31 16 be 46 ff f5 3c 38 63 c4 bc b6 10 92 3d
       -0.14667422 0.03002895 -0.023973092 0.071320936
000090 d3 e8 17 3e f8 94 04 3d 31 52 cd bc cb 34 d7 3d
       0.14834909 0.03236863 -0.025063606 0.10508116
0000a0 1c e3 0a 3d 98 62 ce 3d b1 1c 8c bd fe 29 32 3d
       0.033907995 0.10077399 -0.0684141 0.043497078
0000b0 5d 2f 8f 3d ce 20 92 bd cd e9 9f bd fe 77 9d bc
       0.06991456 -0.07135163 -0.07808266 -0.019222256
0000c0 e7 15 fe bc f8 f8 d7 bd ee b4 82 bd 91 0f 3d bd
       -0.031016303 -0.10545534 -0.06382166 -0.046157423
0000d0 4c 72 41 3e 14 77 28 3d 91 a7 3c 3e 58 3d 28 bd
       0.18891257 0.041129187 0.18423297 -0.041074127
0000e0 b4 d0 b5 bc 71 02 c3 3d e4 7c 3d bd e9 07 a7 bc
       -0.022194244 0.0952195 -0.046261683 -0.020389514
0000f0 9e 82 d1 3d 0a 07 7e 3c 82 6b 25 bd 4d 22 92 bd
       0.102299914 0.015504608 -0.04038573 -0.071354486
000100 10 c0 a5 3c c1 65 a5 bc 41 c7 a2 bb 96 cf 3b bd
       0.020233184 -0.020190122 -0.0049676006 -0.045852266
000110 5a 64 85 3d c1 b9 11 be 8f 37 b2 bd d5 4b 59 3d
       0.06513281 -0.14231016 -0.08702003 0.053050835
000120 a3 47 d3 3d 8d d2 a9 bb f4 24 9e 3d da e7 f3 3d
       0.10316398 -0.0051825703 0.07721892 0.119094566
000130 ac a6 87 bc f7 c8 dd bd 89 9b 6c 3c 27 d5 25 3c
       -0.016558968 -0.108293466 0.014441379 0.01012162
000140 1c a4 22 3d 93 33 44 bd e6 4f 9d bd f7 8a 32 3c
       0.03970729 -0.047900748 -0.07681255 0.01089739
000150 61 17 c1 3d 18 a3 83 3d c0 15 01 3e 00 c7 1f bd
       0.09428287 0.06427592 0.12605953 -0.03900814
000160 ff c6 cf bd 25 1a 0e be 36 ea fe 3d f0 1a dd bd
       -0.10145377 -0.13877161 0.12447016 -0.107961535
000170 da fc 5e 3d a1 65 41 bd ba 41 a8 b9 0b 48 b9 3c
       0.054440357 -0.04721606 -0.00032092427 0.02261736
000180 29 85 36 3d 31 65 87 3d cc 8c 88 3d 75 d2 9e bd
       0.044560585 0.066110976 0.0666748 -0.07754985
000190 91 de 83 bd 97 66 80 3d b3 2f 19 bd b3 ee ed 3c
       -0.064389355 0.062695675 -0.037399005 0.029044485
0001a0 ce 21 42 bd c2 8e 13 bb d4 bc 53 bd b9 ae dd bc
       -0.04739552 -0.002251551 -0.051693752 -0.027060853
0001b0 0d 24 38 bd f6 76 d8 3d ef ed 2c 3d 4b f3 91 bd
       -0.044956256 0.10569565 0.0422191 -0.071264826
0001c0 2b 32 e4 3a 40 4c 51 3d de ce bc 3d d5 17 ea 3d
       0.0017409971 0.05109811 0.09219144 0.11430327
0001d0 fb 28 1a 38 e7 25 2c 3d d1 d5 70 3d b2 1b eb bd
       3.6754627e-05 0.042028334 0.05879766 -0.11479892
0001e0 b6 dc 14 3e 98 fb f2 3c 59 af 5c be 36 34 87 3c
       0.1453732 0.029660985 -0.21551265 0.016504388
0001f0 e1 6e b5 3d a0 b9 09 3e e6 7a 14 3e 2e ce 8f bd
       0.08859039 0.13449717 0.14500007 -0.070217475
000200 27 a9 51 3c 29 e6 bc bd 66 73 31 bd 21 8b 60 bd
       0.012796677 -0.09223587 -0.043322943 -0.054820184
000210 0b 32 c5 3d e8 79 83 3d 35 d5 41 3b 2b 79 c9 3c
       0.096286856 0.06419736 0.0029576544 0.02459391
000220 fc a2 bf 3a 50 3e 0e 3e 94 a4 35 3c 7a 18 61 bd
       0.0014620717 0.13890958 0.011086602 -0.054954983
000230 77 1a 0f 3e ef ee 12 3e e1 7d 5e 3c 35 85 90 3d
       0.1397494 0.14348958 0.013579817 0.07056657
000240 3b d7 86 bb a2 ae 32 bd 2b 6b 37 3d c2 6e 7b 3d
       -0.004115013 -0.043623574 0.044779938 0.061384924
000250 95 82 14 be 27 76 9e bc 28 8f 8b 3c 63 1f cf bc
       -0.14502938 -0.019343449 0.017036036 -0.025283521
000260 0b dd 2b 3d 78 47 3f 3d 43 54 e8 3d 21 1e 05 3d
       0.04195885 0.046699017 0.11344197 0.032499436
000270 2d 74 0c be 31 25 bc 3d bf 49 21 bc 75 d3 06 3d
       -0.13716193 0.09186781 -0.009844243 0.032916505
000280 11 a7 27 bd 0e 30 77 3c 1c 8c 2c bc 03 12 05 3d
       -0.04093081 0.015087141 -0.010531452 0.03248788
000290 56 e3 d8 3c da bb 12 be e0 e4 38 bc 4f bf 01 3e
       0.02647559 -0.14329472 -0.011285037 0.12670635
0002a0 66 60 8b bd 89 43 0c 3d d0 8e 8f 3d ad e7 4d bd
       -0.06805496 0.034244094 0.07009661 -0.05026977
0002b0 89 5a b4 bd 83 d5 01 3c 47 1b 0c 3e ce 01 10 3e
       -0.08806331 0.00792444 0.1368228 0.14063188
0002c0 cb 29 30 bc 91 4e 01 3c fe e5 a4 bd f2 12 a4 bd
       -0.010752152 0.007892267 -0.0805168 -0.08011426
0002d0 95 04 e0 3d 56 0b 29 3d bb 6c e2 3d 31 bc ea bd
       0.10938374 0.041270576 0.11055895 -0.11461676
0002e0 0f 8d 3a bd 72 b2 c4 3c 8d ac 2a bd fc 41 21 3e
       -0.04554468 0.02401087 -0.041668463 0.15747827
0002f0 28 60 8a 3c 25 bc 9a 3c 7f 77 b2 bd 4b 0d 7c 3d
       0.016891554 0.018888542 -0.08714198 0.061536115
000300 f3 37 2e 3d 9f 48 a4 bc c2 1f d1 3d 03 f3 14 3d
       0.042533826 -0.02005416 0.102111354 0.036364567
000310 f6 c4 d6 bd 54 4d b2 3d 00 17 39 bd cb 68 04 3e
       -0.10486786 0.087061554 -0.04518795 0.129306
000320 89 46 cb 3d 77 47 87 bd d6 e6 39 3c 68 96 18 bd
       0.09925563 -0.06605428 0.0113465395 -0.037252814
000330 ac ab 90 3d c8 33 69 3d 3c 0b 5a 3d 21 82 0e be
       0.07063994 0.056934148 0.05323337 -0.13916828
000340 c2 37 3f be 28 20 04 be 87 01 1b 3d 18 a8 3d bd
       -0.18673614 -0.12902892 0.037843253 -0.046302885
000350 fa 9a 80 bd 02 a8 86 bd 8a 10 89 3d 3c c7 38 bd
       -0.062795594 -0.06575014 0.06692608 -0.04511188
000360 fd 32 17 bd 94 51 d1 3d e9 06 55 39 0a 3f e3 3d
       -0.03691386 0.10220638 0.00020315837 0.11096008
000370 1c 64 bd 3d 46 36 83 3d db 53 1b bd db 21 1c bd
       0.0924761 0.06406836 -0.037921768 -0.038118225
000380 7c 4c b6 bd 4c d0 26 bc 15 3c 43 3d 4c 30 c6 bb
       -0.08901307 -0.010181498 0.04766472 -0.006048238
000390 5e 72 95 3d fd 4f 6f 3c a9 0f 01 bd 72 d7 20 3d
       0.072972044 0.014606473 -0.031509075 0.039267965
0003a0 ec 1a 11 3e 6a 23 b7 3d 06 73 52 bd 7d f2 c1 bd
       0.14170426 0.089423016 -0.051379226 -0.09470079
0003b0 81 6f 8a bd 17 60 84 3d 50 5b 97 3d 7f 0a 97 bd
       -0.06759549 0.0646364 0.07390463 -0.07375049
0003c0 12 fb 29 3e 95 50 a0 bd 83 af a7 3d f4 d5 66 bd
       0.16599682 -0.0782787 0.08187773 -0.056356385
0003d0 10 63 dd bd 5b 29 30 bd 3f 3c 8a bd 31 4e 4f 3e
       -0.1080991 -0.04300819 -0.06749772 0.20244671
0003e0 6f 9d d2 bc b7 d6 52 3e 3f 19 88 bd 35 54 6e 3d
       -0.025709836 0.2058972 -0.0664544 0.058185775
0003f0 05 2a f4 3d 1a 38 ce 3d 1d 42 3a 3c ec 88 20 3e
       0.11922077 0.10069294 0.011368302 0.15677232

5.bias f4 [120]
000000 93 2e a9 3d e4 ac 63 3b 9e 61 0a bc 54 96 16 3d
       0.082608365 0.0034740502 -0.008446125 0.036764458
000010 d3 68 6c bc 7a 6e 91 bd 97 7a 9a 3c 11 e6 aa bd
       -0.014429289 -0.0710115 0.018857284 -0.08344663
000020 84 6a 10 3c e2 05 7b be 88 ef 50 3d e0 7b 9f bd
       0.008814458 -0.24513963 0.051009685 -0.07787299
000030 45 18 9b 3d 25 0e a3 bd 97 23 b9 bc 08 4d 10 3c
       0.075729884 -0.07961682 -0.022599978 0.008807428
000040 28 f9 14 bd 43 d3 38 be 76 26 10 bc 2e 58 b7 3d
       -0.036370426 -0.1804934 -0.008798232 0.08952366
000050 98 51 05 3c bb 1a bb 3d e2 ab 8a bc d9 30 48 3d
       0.008137129 0.09135958 -0.016927663 0.04887471
000060 79 53 9c 3d 99 c9 f8 bc 38 79 21 3e da a0 1f bd
       0.07633109 -0.030369567 0.15768898 -0.03897176
000070 af bc 06 3c 58 cf fa 3c b8 bf 24 3e 14 cf f3 bd
       0.008223697 0.030616447 0.1608876 -0.119047314
000080 bf ea 8f bd 8a 6d 19 bd a2 f8 ab 3c 38 58 ea bc
       -0.07027196 -0.03745798 0.02099258 -0.02860652
000090 99 0d be 3d 6e 98 06 3e e7 55 c4 bd 14 a6 06 3e
       0.09279937 0.13144085 -0.09586697 0.13149291
0000a0 c3 4b 7b bd 22 f0 06 3e d2 93 09 3d 2c e5 0c bc
       -0.06135155 0.13177541 0.033588238 -0.008599561
0000b0 26 b0 db 3d 57 33 1e 3d 6b 54 3f 3d c9 08 25 3c
       0.10726957 0.03862318 0.046711367 0.010072895
0000c0 9a db 46 3d 18 26 54 3c dd 5c 19 3e 48 5c 97 bd
       0.048549272 0.012948535 0.14976831 -0.07390648
0000d0 69 60 00 3e ea d3 01 bd 8c 93 12 3e 26 ec de 3c
       0.12536778 -0.031696238 0.14314097 0.027212214
0000e0 99 4b 57 3d 70 27 9c 3d 28 80 f3 3c 25 b3 2d 3c
       0.05256233 0.076247096 0.029724196 0.010601793
0000f0 5a d8 ba bd de 7a 81 3d 60 ec 58 3d 12 35 b2 bd
       -0.09123297 0.06322263 0.0529598 -0.087015286
000100 22 41 a1 bb 45 df 09 3d 33 dc e3 3c b8 e9 b9 bd
       -0.0049210945 0.033660192 0.02781496 -0.090777814
000110 1b 59 cc 3d a0 bc b8 bc c4 3c 6c 3d ed 3e a0 bc
       0.09977933 -0.02255088 0.057675138 -0.019561255
000120 3d cd 1f 3d a2 08 82 bd 94 ac 18 3e 9d c1 02 bd
       0.03901409 -0.06349303 0.14909583 -0.031922925
000130 ae 97 e9 bd 71 d1 b8 bd eb f8 61 3d 4f 16 3a bd
       -0.11405884 -0.09024323 0.055169027 -0.04543143
000140 d8 d3 f7 3d d4 3e 00 bd c5 f3 db 3d f5 db 54 bc
       0.12100953 -0.031309918 0.10739855 -0.012991895
000150 42 c4 7c bd 49 71 07 3e ce 56 9a 3d ea 3a a5 3d
       -0.061710604 0.13226809 0.07536088 0.080678776
000160 c7 6f 1e bb 7a cf 4d bd 1b e1 bc 3d 74 43 0f 3c
       -0.0024175511 -0.050246693 0.09222623 0.008744109
000170 c3 fb 2a 3c fb b2 71 38 74 75 bd 3d 0c 2b 61 3d
       0.010436001 5.7625566e-05 0.09250918 0.054972693
000180 12 8e 18 3d 3b de 90 bc 53 20 47 3c c3 4a 99 bb
       0.037244864 -0.017684093 0.012153703 -0.0046781017
000190 e8 c1 91 3d 61 10 80 3c 00 73 38 bd 95 1a 13 bd
       0.07117063 0.01563281 -0.045031548 -0.035914022
0001a0 71 b0 bf 3d 7c ff 59 bc 29 0d 91 bc 08 6a db 3c
       0.093598254 -0.013305541 -0.01770647 0.026783958
0001b0 58 0c a9 3d 0c 45 ab 3d a5 00 03 3e 65 2a 74 bb
       0.082543075 0.08362779 0.12793215 -0.0037256714
0001c0 f2 7f b9 bc f7 14 cb 3d a5 6e b5 3d b3 7d c6 bc
       -0.022644017 0.09916108 0.088589944 -0.02422986
0001d0 5b 78 2b be 4c 31 e7 bc a6 fa 39 3d 85 f2 7b 3c
       -0.1674513 -0.028221749 0.045405053 0.015377645

7.weight f4 [4, 120]
000000 66 e6 23 3e 71 11 0d 3e 0f c0 59 3e d7 df b8 3e
       0.16005859 0.13776185 0.21264671 0.36108276
000010 46 8a b2 bd 0b 01 7a bd 01 86 d0 3a ee 50 9c 3d
       -0.0871778 -0.06103615 0.0015909077 0.076326236
000020 40 0b 39 3d 2f ff 9a be 6c 83 b8 bd ab 08 0b be
       0.045176744 -0.30272815 -0.09009442 -0.13577525
000030 8d 7d 24 be 1c b8 0f 3e dd 38 f2 3c cf 6a ac bb
       -0.16063519 0.14035076 0.02956813 -0.005261756
000040 ff 1b b9 3c 71 a7 5f 3e 3e a8 ea bd 3b 41 ad bd
       0.022596357 0.21841218 -0.11457871 -0.08459707
000050 b8 13 70 be 45 fd 18 3e 5b ec 87 3d 12 46 01 3e
       -0.23445022 0.14940365 0.06636878 0.12624386
000060 ad 86 47 3e cb ec cb bd aa b5 03 3e fa 28 60 bd
       0.19484968 -0.09957274 0.12862268 -0.05472658
000070 82 19 c4 3e b3 7e 30 3d 37 5d b8 3d 23 ca 89 be
       0.3830071 0.04308958 0.09002154 -0.2691203
000080 42 0f b6 bd b8 fd 87 3c 9b 35 6f bd d6 e2 3f bd
       -0.08889629 0.016600475 -0.05840073 -0.046847187
000090 b3 73 6f bd 3f fe f7 3d d5 a1 e2 3d 05 44 9b 3d
       -0.05845995 0.121090405 0.11066023 0.07581333
0000a0 58 24 0b be 79 02 05 3e 14 8e c0 3d 67 53 2b be
       -0.13588083 0.12989224 0.09402099 -0.16731034
0000b0 12 db b0 bc 9e 67 94 bb c6 cb 56 3d e2 30 78 be
       -0.021588836 -0.0045289537 0.052440427 -0.24237397
0000c0 b4 c8 10 be 56 41 c3 bd de 09 9a 3d 1a 4b ea bd
       -0.14139062 -0.09533946 0.07521413 -0.11440106
0000d0 d8 71 09 3e 3b ad 63 be 5f 84 ae 3d 16 ec 55 3d
       0.13422334 -0.22234051 0.085213415 0.052227102
0000e0 ff ef b2 3d 89 cc b0 bd 86 3c b2 3d f8 55 bc 3d
       0.08737182 -0.08632762 0.0870295 0.09196085
0000f0 ca 13 f4 bd 91 41 f9 3d b2 84 8b 3d 95 9d 33 be
       -0.11917837 0.12170709 0.06812419 -0.17540582
000100 3d e9 8b bd 42 e8 cc 3c b3 18 0e be 5b a9 fe bd
       -0.06831596 0.025013093 -0.1387661 -0.12434646
000110 ca f8 91 bd 11 01 b5 bd 15 34 6c 3e 92 9d 1b be
       -0.07127531 -0.08838094 0.23066743 -0.15196827
000120 2c aa d4 bd e2 6d d8 3e 38 76 c3 3d d7 04 f2 bd
       -0.1038402 0.42271334 0.09544033 -0.118173294
000130 72 6a 0b bd ed 4e 84 bd c7 bd 2c bd 42 7d 87 3d
       -0.03403706 -0.064603664 -0.042173173 0.06615688
000140 8a 21 7f bd c4 0d 0b 3e ae 15 25 3d 45 2c 81 bd
       -0.062287845 0.1357947 0.04030388 -0.06307272
000150 c5 4c fc 3d 53 fe 98 3d d0 01 19 3e 3a 42 40 3e
       0.1231933 0.074703835 0.14942098 0.18775263
000160 e6 62 94 3d d7 1c 2c be e6 81 0b 3e ce d8 44 be
       0.07245426 -0.16807877 0.13623771 -0.1922333
000170 c1 cc d4 3d 5a e2 33 be 5a fd 38 3d c9 83 b4 3c
       0.10390616 -0.17566815 0.04516349 0.022035496
000180 aa ff 31 bc cf b6 bc be 1e 89 81 3e 36 98 14 be
       -0.010864178 -0.36858222 0.25299925 -0.14511189
000190 9f 3a 3a be 1d 77 d5 3d 39 5c 1f bd fa 71 73 3d
       -0.18186425 0.1042311 -0.03890631 0.05943487
0001a0 b1 93 bf 3d a2 df 99 3c 24 34 57 3d f8 fe 54 3e
       0.09354342 0.018783394 0.05253996 0.20800388
0001b0 b9 fe 09 3e 0c cc 90 bd 75 27 c8 3d 2e c3 f9 bd
       0.13476075 -0.07070169 0.09773151 -0.12195431
0001c0 82 1b 39 3d ce ba 0f bd bf b9 cd 3d d9 75 51 3e
       0.04519225 -0.03509026 0.10045194 0.20455112
0001d0 69 15 2e be 59 fe 19 be 48 d1 79 bd c2 7f b8 bd
       -0.17000355 -0.15038432 -0.0609906 -0.09008743
0001e0 6e 11 58 3e 84 cf fa 3d 1c 4b 50 bd 1c 93 a4 be
       0.21100399 0.12246612 -0.05085288 -0.32143486
0001f0 ca cb a9 bb c2 fd 79 bd 25 05 12 3e df f5 5e bd
       -0.0051817643 -0.061033018 0.14259775 -0.0544337
000200 7d 0d 72 bc 57 5f bd bd 73 33 0f 3e 2c f4 2b bd
       -0.014773724 -0.092467 0.1398447 -0.041980907
000210 73 38 93 3d ec b3 93 bd 99 44 bc bd 71 06 f6 bd
       0.07188501 -0.07212052 -0.091927715 -0.12012947
000220 f5 7f 71 3d b5 60 94 be 29 a9 89 3e 5b 92 09 be
       0.05895992 -0.28980032 0.2688687 -0.13434736
000230 83 7f 57 be 3f 53 89 3e 4a 87 9a bd b0 26 4a be
       -0.21044736 0.26821324 -0.075453356 -0.1974132
000240 08 3e c4 3c 55 d7 58 3b 95 bb d0 3d ca f9 a5 bd
       0.02395536 0.0033087332 0.101920284 -0.08104284
000250 19 d8 26 3d 57 d7 2b 3d 26 28 ae be a9 21 69 3e
       0.04073343 0.04195341 -0.34015006 0.22766747
000260 80 38 f4 bd 98 0a 0e be cf d0 18 3e 5d 16 42 3d
       -0.11924839 -0.13871229 0.14923404 0.04738461
000270 70 71 df 3d 13 c7 e8 3c 17 ca 33 3d 48 38 ad 3d
       0.10910308 0.028415238 0.0438939 0.084580004
000280 45 b3 ed 3d b2 24 ee bd 38 b1 37 bd ee 80 cf bd
       0.116064586 -0.11628093 -0.044846743 -0.10132013
000290 8a f0 de 3d 78 29 1d 3d 21 54 05 3d 04 d7 d2 bd
       0.10885723 0.038369626 0.032550935 -0.10294917
0002a0 f7 95 86 bd 6e 7e 00 bd 62 6f 2d 3e fa 85 2a bd
       -0.06571572 -0.031370573 0.1693702 -0.041631676
0002b0 94 15 8a 3d 49 1c 8d bd d4 6b db 3d 8a d4 7d be
       0.06742397 -0.068901606 0.10713926 -0.24788108
0002c0 20 06 be bd 6a a0 0a be 7e b9 ee 3d 31 88 69 3d
       -0.09278512 -0.13537756 0.116564736 0.057014648
0002d0 9f be ed bd 23 be e4 bc f7 1d c9 bd 28 32 49 3d
       -0.11608624 -0.027922696 -0.098201685 0.0491201
0002e0 e3 a0 14 3e b0 c8 e5 3b 4b a5 16 3c b7 31 db bd
       0.14514498 0.007012449 0.009194682 -0.10702842
0002f0 cd e2 43 be 47 f3 a8 3e d3 76 04 3d 4a f2 81 3d
       -0.19129486 0.32998106 0.032339882 0.06345041
000300 1a bb 02 be 7a 2d a6 be 72 27 42 3e ae 20 e2 3d
       -0.12766686 -0.3245657 0.1896036 0.110413894
000310 b7 8f ca 3d d1 21 ab 3d 2d 9b 6f 3d 2f ae 22 3b
       0.09890693 0.08356059 0.058497597 0.002482306
000320 e5 f9 92 3d a1 0a 3e 3e af 90 56 3e 7c 80 b8 3c
       0.0717657 0.18558742 0.2095363 0.022522204
000330 2d 97 8c bd 37 6a ff 3d 0f 52 90 bd da 88 bc 3d
       -0.06864772 0.12471431 -0.070469014 0.0920579
000340 7d e0 b3 3d 69 b0 61 bd 87 94 67 bd 38 49 44 3d
       0.08783052 -0.05509988 -0.05653813 0.04792139
000350 01 a5 08 be 61 1d 21 3d c6 a7 2f be f3 3f 97 bd
       -0.13344194 0.03933466 -0.17153844 -0.07385244
000360 74 c2 dd bd c9 9e 8f be d7 dc dd bc be 2a bd bb
       -0.108281046 -0.2805083 -0.027082844 -0.0057729175
000370 cd 81 2e 3e db 7b 9e bd 74 68 9a bd 82 78 33 bd
       0.17041703 -0.07738467 -0.07539454 -0.043816097
000380 d1 f4 ec bd 87 ca 2d bd 54 23 9e 3d e2 06 33 be
       -0.115701325 -0.042429473 0.07721582 -0.17483094
000390 3b 58 13 3e 28 da 42 3e 88 e8 1f 3e 19 f0 41 3e
       0.14389126 0.19028533 0.15616047 0.18939246
0003a0 ee 77 d3 3e c9 0b 01 3e 0b 68 04 3d bf 18 0a 3e
       0.41302437 0.12602152 0.032325786 0.13486002
0003b0 10 9b a5 be e7 32 98 3d 3a fa 56 bd e7 c6 86 bd
       -0.32344866 0.07431584 -0.05248473 -0.06580906
0003c0 f5 10 56 3d 9e 87 18 3e 9c c6 e7 bd 8e d5 c1 be
       0.052262265 0.14895484 -0.113171786 -0.37858242
0003d0 64 a1 4e bc 3d 63 a6 3c 6d 94 28 bd 2d 45 a7 3d
       -0.012611721 0.020310992 -0.041157175 0.08167491
0003e0 eb f7 50 3e 18 96 66 3e b3 65 f0 bd 67 c1 e6 bd
       0.20407073 0.22518194 -0.117381476 -0.11267357
0003f0 16 6b ee 3d 71 52 6d 3d 86 2d 2f be fa 3d 05 be
       0.11641519 0.05793995 -0.1710721 -0.13011923

7.bias f4 [4]
000000 ce d6 9c 3d 57 69 fb 3c d8 e3 6a 3d 7b 38 2f 3c
       0.07658158 0.030689878 0.057346195 0.010694618
