neural_networks/fixed_point_6_6_layers_8888_sd.pt (torch, 141469 bytes, 24 tensors)

model.1.weight f4 [120, 16]
00000000: 0000 003e 0000 80bd 0000 20be 0000 803e
00000010: 0000 603e 0000 40be 0000 203e 0000 603e
00000020: 0000 403e 0000 c03d 0000 003d 0000 003d
00000030: 0000 c0bd 0000 803d 0000 00be 0000 40be
00000040: 0000 80be 0000 003d 0000 c0bd 0000 203e
00000050: 0000 60be 0000 003d 0000 c03d 0000 003d
00000060: 0000 c0bd 0000 803e 0000 803d 0000 00bd
00000070: 0000 20be 0000 60be 0000 80bd 0000 80bd
00000080: 0000 80be 0000 603e 0000 0080 0000 403e
00000090: 0000 203e 0000 0000 0000 c0bd 0000 c03d
000000a0: 0000 203e 0000 203e 0000 0080 0000 c03d
000000b0: 0000 c03d 0000 003d 0000 803e 0000 c0bd
000000c0: 0000 c0bd 0000 203e 0000 803e 0000 c0bd
000000d0: 0000 803d 0000 c03d 0000 00bd 0000 60be
000000e0: 0000 203e 0000 403e 0000 60be 0000 803d
000000f0: 0000 20be 0000 203e 0000 80bd 0000 60be
00000100: 0000 20be 0000 0000 0000 0000 0000 c0bd
00000110: 0000 80bd 0000 203e 0000 40be 0000 40be
00000120: 0000 80bd 0000 603e 0000 803d 0000 003e
00000130: 0000 003d 0000 003e 0000 003e 0000 60be
00000140: 0000 003e 0000 60be 0000 003e 0000 00be
00000150: 0000 403e 0000 403e 0000 c03d 0000 603e
00000160: 0000 20be 0000 803d 0000 803d 0000 803d
00000170: 0000 403e 0000 c03d 0000 80bd 0000 20be
00000180: 0000 003d 0000 603e 0000 003d 0000 203e
00000190: 0000 80bd 0000 80be 0000 0080 0000 0080
000001a0: 0000 20be 0000 803e 0000 803d 0000 603e
000001b0: 0000 60be 0000 00bd 0000 603e 0000 003d
000001c0: 0000 803d 0000 60be 0000 c0bd 0000 00bd
000001d0: 0000 203e 0000 c0bd 0000 403e 0000 c03d
000001e0: 0000 c03d 0000 203e 0000 203e 0000 00be
000001f0: 0000 203e 0000 60be 0000 40be 0000 80bd
00000200: 0000 603e 0000 60be 0000 0080 0000 0000
00000210: 0000 60be 0000 403e 0000 203e 0000 803d
00000220: 0000 0000 0000 c0bd 0000 803d 0000 003d
00000230: 0000 80bd 0000 603e 0000 403e 0000 20be
00000240: 0000 203e 0000 803e 0000 003e 0000 603e
00000250: 0000 20be 0000 60be 0000 00be 0000 20be
00000260: 0000 00be 0000 60be 0000 20be 0000 c03d
00000270: 0000 003d 0000 80bd 0000 80bd 0000 80bd
00000280: 0000 80bd 0000 203e 0000 603e 0000 203e
00000290: 0000 003e 0000 003d 0000 203e 0000 00bd
000002a0: 0000 00be 0000 60be 0000 603e 0000 603e
000002b0: 0000 00bd 0000 003d 0000 203e 0000 0080
000002c0: 0000 40be 0000 203e 0000 00bd 0000 203e
000002d0: 0000 00bd 0000 803d 0000 c0bd 0000 203e
000002e0: 0000 603e 0000 603e 0000 60be 0000 c0bd
000002f0: 0000 0000 0000 0000 0000 003e 0000 603e
00000300: 0000 80be 0000 003d 0000 c03d 0000 003e
00000310: 0000 0080 0000 203e 0000 803d 0000 20be
00000320: 0000 203e 0000 00bd 0000 603e 0000 803d
00000330: 0000 00be 0000 003e 0000 203e 0000 803e
00000340: 0000 00bd 0000 80be 0000 80be 0000 c0bd
00000350: 0000 00be 0000 80be 0000 403e 0000 80bd
00000360: 0000 00bd 0000 20be 0000 603e 0000 00bd
00000370: 0000 803d 0000 c03d 0000 603e 0000 403e
00000380: 0000 c03d 0000 603e 0000 00bd 0000 40be
00000390: 0000 803e 0000 203e 0000 80bd 0000 40be
000003a0: 0000 603e 0000 c0bd 0000 403e 0000 80be
000003b0: 0000 0080 0000 00be 0000 003e 0000 203e
000003c0: 0000 40be 0000 003d 0000 c03d 0000 20be
000003d0: 0000 203e 0000 20be 0000 40be 0000 80bd
000003e0: 0000 203e 0000 0080 0000 203e 0000 403e
000003f0: 0000 80bd 0000 203e 0000 00be 0000 00be
0.125 -0.0625 -0.15625 0.25 0.21875 -0.1875 0.15625 0.21875
0.1875 0.09375 0.03125 0.03125 -0.09375 0.0625 -0.125 -0.1875
-0.25 0.03125 -0.09375 0.15625 -0.21875 0.03125 0.09375 0.03125
-0.09375 0.25 0.0625 -0.03125 -0.15625 -0.21875 -0.0625 -0.0625
-0.25 0.21875 -0.0 0.1875 0.15625 0.0 -0.09375 0.09375
0.15625 0.15625 -0.0 0.09375 0.09375 0.03125 0.25 -0.09375
-0.09375 0.15625 0.25 -0.09375 0.0625 0.09375 -0.03125 -0.21875
0.15625 0.1875 -0.21875 0.0625 -0.15625 0.15625 -0.0625 -0.21875
-0.15625 0.0 0.0 -0.09375 -0.0625 0.15625 -0.1875 -0.1875
-0.0625 0.21875 0.0625 0.125 0.03125 0.125 0.125 -0.21875
0.125 -0.21875 0.125 -0.125 0.1875 0.1875 0.09375 0.21875
-0.15625 0.0625 0.0625 0.0625 0.1875 0.09375 -0.0625 -0.15625
0.03125 0.21875 0.03125 0.15625 -0.0625 -0.25 -0.0 -0.0
-0.15625 0.25 0.0625 0.21875 -0.21875 -0.03125 0.21875 0.03125
0.0625 -0.21875 -0.09375 -0.03125 0.15625 -0.09375 0.1875 0.09375
0.09375 0.15625 0.15625 -0.125 0.15625 -0.21875 -0.1875 -0.0625
0.21875 -0.21875 -0.0 0.0 -0.21875 0.1875 0.15625 0.0625
0.0 -0.09375 0.0625 0.03125 -0.0625 0.21875 0.1875 -0.15625
0.15625 0.25 0.125 0.21875 -0.15625 -0.21875 -0.125 -0.15625
-0.125 -0.21875 -0.15625 0.09375 0.03125 -0.0625 -0.0625 -0.0625
-0.0625 0.15625 0.21875 0.15625 0.125 0.03125 0.15625 -0.03125
-0.125 -0.21875 0.21875 0.21875 -0.03125 0.03125 0.15625 -0.0
-0.1875 0.15625 -0.03125 0.15625 -0.03125 0.0625 -0.09375 0.15625
0.21875 0.21875 -0.21875 -0.09375 0.0 0.0 0.125 0.21875
-0.25 0.03125 0.09375 0.125 -0.0 0.15625 0.0625 -0.15625
0.15625 -0.03125 0.21875 0.0625 -0.125 0.125 0.15625 0.25
-0.03125 -0.25 -0.25 -0.09375 -0.125 -0.25 0.1875 -0.0625
-0.03125 -0.15625 0.21875 -0.03125 0.0625 0.09375 0.21875 0.1875
0.09375 0.21875 -0.03125 -0.1875 0.25 0.15625 -0.0625 -0.1875
0.21875 -0.09375 0.1875 -0.25 -0.0 -0.125 0.125 0.15625
-0.1875 0.03125 0.09375 -0.15625 0.15625 -0.15625 -0.1875 -0.0625
0.15625 -0.0 0.15625 0.1875 -0.0625 0.15625 -0.125 -0.125

model.1.bias f4 [120]
00000000: 521d 8abc 62fa ccbd 5c0a 3fbe 21cb 8abd
00000010: 1b1f 2c3d 7a12 7f3d 42fa a2bd acc8 09be
00000020: d053 283e 92d8 323e 7ecb 233e d5d8 153e
00000030: a1d6 c93d 46b4 65be f41e 5abe 6f0a 33bc
00000040: 640d 3abe 42fe 5ebe 5f51 79be 66df 733e
00000050: 7258 c03c 6389 823d 433e eb3d 6cbf 13be
00000060: a462 d5bd 35d1 583d a7cc 8dbc 0058 7c3e
00000070: c549 3e3e ac8c 9bbc e3bb 233e 018d 3e3e
00000080: 1194 36be 24c1 653e 26f5 33be 1bc0 d73d
00000090: aabe 0dbd 8118 423e ade9 193e 2284 4fbe
000000a0: fd53 51bd 1488 afbd acff 77bd df36 cb3d
000000b0: dfad de3b ba9a 1dbb 8ec3 5b3e 7de0 d8bc
000000c0: fdff 47bd a8db c33d cbec 153e 214b 1dbe
000000d0: c2fc 5a3e 51f7 1ebe b12e 08bd bf5e 373d
000000e0: d7db 983d 1846 d33d 2bea 143e 5ef0 363e
000000f0: bdfd 5dbe d233 07be 0118 233e 5f51 27be
00000100: 760c 5c3e 2d6e 4fbe e3a4 d43d 3d47 fabd
00000110: 4610 703d a7d0 a0bc 4767 213e 42b6 233e
00000120: fbeb 433e a87f ddbd 8a90 9f3c 7b97 653d
00000130: fdd2 40be 4590 83bd dee2 48be 9b45 04bd
00000140: d0fb f7bd ffa8 c6bd feb0 e4bd 4eea d6bc
00000150: f1b2 6b3d a1ba 7d3e f69e ef3d a2bb 5c3e
00000160: ed44 d8bd 55c1 7f3e 923a 73b9 5c32 773e
00000170: a5dc 873d 97c4 46be 99d4 6bbe 210d 4ebe
00000180: d911 cbbd 2c05 c03d a619 a73d 2ec2 923d
00000190: 9adf 373d 9ae6 51bc 2554 d3bd d235 ea3d
000001a0: 2e0f 65be a0a2 d03c be34 37bd 18bf 2cbe
000001b0: c3e4 f13d 90a5 de3b 1d93 053e fe82 7f3e
000001c0: 50c9 65bc a176 47be 5f68 523e 41b6 4f3e
000001d0: bc25 e2bd dda7 203e 5a52 7cbd eefb 2d3e
-0.016859684 -0.10008694 -0.18656296 -0.06777025 0.042021852 0.06227348 -0.07957889 -0.13455456
0.16438222 0.17465428 0.15995595 0.14633496 0.0985539 -0.2243205 -0.2130087 -0.0109277805
-0.1816917 -0.21776679 -0.24347447 0.23815688 0.023479674 0.06373861 0.11486485 -0.1442849
-0.10419205 0.05293389 -0.0173095 0.24642944 0.18582828 -0.018987976 0.15989642 0.18608476
-0.1782992 0.22436959 -0.17573985 0.10534688 -0.03460566 0.1895466 0.15030546 -0.20265248
-0.051105488 -0.08570877 -0.060546562 0.09922575 0.0067956294 -0.0024048523 0.21461317 -0.026474232
-0.048828114 0.095633805 0.1464111 -0.1536069 0.21385482 -0.15524031 -0.033247653 0.04476809
0.07463806 0.10316104 0.14542453 0.1786513 -0.21678825 -0.13203362 0.15927126 -0.16339634
0.21489128 -0.20256872 0.10383012 -0.12220619 0.05860927 -0.019630743 0.15762053 0.15987495
0.19132988 -0.10815364 0.019478101 0.056052666 -0.18830486 -0.064240016 -0.19617793 -0.032292943
-0.12108576 -0.09700202 -0.11166571 -0.026234772 0.0575437 0.24778225 0.11700241 0.21555951
-0.105600215 0.24976094 -0.00023196105 0.24140304 0.066338815 -0.1941093 -0.23030318 -0.20122196
-0.099155135 0.093759865 0.08159189 0.07165943 0.044890977 -0.012811327 -0.10318784 0.11436047
-0.22369072 0.02546817 -0.044728033 -0.16869771 0.11811211 0.006794639 0.130444 0.24952313
-0.014025047 -0.19478847 0.20547627 0.20284368 -0.110423535 0.15689035 -0.061601974 0.16990635

model.2.weight f4 [120]
00000000: c995 323e 2abd 723f 1021 b73f 332c b83f
00000010: c1a3 a63f 533e 273f ba67 7c3e 1e15 4e3f
00000020: 3111 3d3f d0c6 8b3e 0287 163f 4cc7 763e
00000030: 98e7 fa3e 5df4 7c3f 017a b03f 5653 b03f
00000040: 6d2a 313f 0b47 e03e f1a6 443e be0e 933f
00000050: c858 253f 4b82 8d3e 5328 893f c041 8c3f
00000060: 5a93 303f 6849 683e d128 923f ce63 993f
00000070: 1b25 433f 95fa df3f 0b18 8c3f bb57 2a3f
00000080: 10ac 1e3e f784 663f fb2b e73e 83b6 3d3f
00000090: 6edf 323f 6b0c 333f a88d 853f e837 863f
000000a0: b0f2 7f3f 6078 ab3f 431c bd3e ea17 893f
000000b0: 5767 743e fd75 253e f27a 173f 5dfe 0a3f
000000c0: 1a59 3e3f d9fa 0d3f fede 4c3f f506 cc3e
000000d0: 0531 7a3f 61f9 b53f f47e 503f bd3d be3e
000000e0: 94ba 8a3f 241c 163e c7bf c43f 041e 9b3e
000000f0: 63da 833f 5e29 803f ebed b13f ef93 973e
00000100: 419e 913f 7a91 023f 22c2 963f 5772 803e
00000110: 7376 1e3f ac07 b53f 8765 843f 9b93 1a3f
00000120: ee13 6a3f 9963 273f cc7f 113f 4e6b b63e
00000130: 1c4a 7e3f d743 bc3e f531 513f b6c3 253f
00000140: e70e 3c3f c232 273f eac6 493f 2916 c53f
00000150: bd5f 063f a70a 7c3f 7bba 2d3f 8bfd a23f
00000160: 8b53 633f 19df c23e 2df5 d43e 2250 083f
00000170: 8222 353f 7a3f 8e3e 17a3 5f3f 8d52 e53e
00000180: e55b 563f 0a55 723f 421b 9b3f 6c0d da3f
00000190: a6d3 143f 6125 f83d bdea bb3f 88dd 8b3f
000001a0: d05a 9d3e 7aae 273f 7492 7d3f ba26 3c3f
000001b0: 6bc4 5d3f 7052 0a3f bad5 b23f bc16 453f
000001c0: 6097 cc3e 8c52 2c3f 2f83 273e be0c 233f
000001d0: c838 ae3f 16c0 303f c05b 093f c1bf e73e
0.17439951 0.9481989 1.4306965 1.4388489 1.3018724 0.65329474 0.24648944 0.8050097
0.73854357 0.2730012 0.58799756 0.24099463 0.49004817 0.9881037 1.3787233 1.3775432
0.6920536 0.438042 0.19204308 1.1488874 0.64588594 0.27638468 1.0715431 1.0957565
0.6897484 0.22684252 1.1418706 1.1983583 0.76228493 1.7498347 1.0944837 0.66540116
0.15495324 0.9004664 0.45150742 0.74106616 0.69872177 0.69940823 1.0433855 1.0485811
0.99979687 1.339611 0.36935624 1.0710423 0.23867546 0.1615829 0.59171975 0.5429438
0.7435471 0.5546089 0.8002776 0.39849058 0.9773105 1.4216729 0.81443715 0.37156478
1.0838189 0.14659172 1.5371026 0.30296338 1.0301021 1.0012624 1.3900732 0.29605052
1.137642 0.5100323 1.1777995 0.25087234 0.6189949 1.4142966 1.0343484 0.6038148
0.9143666 0.6538635 0.5683563 0.35628742 0.9933183 0.36770508 0.81716853 0.64751756
0.7346024 0.65311825 0.78819144 1.5397388 0.52489835 0.98453754 0.6786267 1.2733625
0.8879935 0.38060835 0.41593304 0.5324727 0.7075578 0.27782804 0.8735823 0.44789544
0.8373397 0.9466101 1.2117693 1.7035346 0.5813545 0.121165045 1.4681011 1.0926981
0.30733347 0.65500605 0.99051595 0.7349659 0.86627835 0.5403204 1.3971474 0.76987815
0.3995924 0.67313457 0.16358636 0.6369132 1.3611078 0.690431 0.53655624 0.45263484

model.2.bias f4 [120]
00000000: 9e0c cebe ff17 933f 6208 393f a4e7 c03e
00000010: 81e6 f43c b98f 113f 92f9 9abe e5a1 5c3f
00000020: 0bf4 143e 671d ec3e 4052 b1be 0679 fcbd
00000030: 1899 12bf 88f0 03bd d047 ae3f 6040 f33c
00000040: 4788 143e 5239 0cbf 06eb 46bf 19da 023f
00000050: 3875 ebbe 0d2e b63e c9b7 89be 2571 353f
00000060: 22a7 d13e 47a0 27bf 41dd 2f3f 82db 6d3e
00000070: f971 2f3f 2556 c83e 6bdf 19bc d37b a7be
00000080: 87f3 50bf c637 8dbe 6e53 b93d a92f f23d
00000090: e479 2dbe 6c98 cabe 9ce6 d13e 66de 3a3f
000000a0: 2f60 983f 8c27 a43f 0848 dabe 52f0 82be
000000b0: 6769 6dbe 0a53 24bf af0b 343f deda 333f
000000c0: a78c 663d ed2a 07bf 6bd7 863f ccac 4c3e
000000d0: 9e3b 5c3f efae ad3f 3daf b73f bec1 12be
000000e0: 5dde 9c3f b7fd 4fbf 27bf 043d 15a1 9e3e
000000f0: f34b 043f 8c12 0d3f b12b 403f f5e8 adbe
00000100: be27 e33e f2cb b8be 1dc2 f23e 05d0 2dbf
00000110: d504 173d 00b7 8fbd db0e 153f c2b0 30be
00000120: 3af8 32be d244 de3e 963c 333f 455f 593f
00000130: b45c 943e f0fb aebd 47d9 4f3e e679 a6be
00000140: ca2d 113e 7d6f f7be 2083 29be d1a3 a83f
00000150: d8a4 c9bd fa64 563f dd2e f63e a0c0 0d3f
00000160: d59c 153f ad48 163f 1ab2 15bf 03e6 50be
00000170: 3b0a 0abe 2017 e2be 2daf 103f 1b36 bd3e
00000180: aae7 e53e 6c81 223f b7f5 6a3f ef0e 813f
00000190: 2eac 803e 36e8 4dbf 86c8 8a3e 0f15 4c3f
000001a0: e3fa 0bbf 78a6 55be a08f 23be 8962 b9bd
000001b0: 938a 9e3e af31 b2bd 5781 4a3f bdee bebe
000001c0: df74 25bd 7cce c03f 354a 35bf 3534 17bf
000001d0: a4a9 a73f 9b8d 103f e6dc ddbe 1fef 3ebf
-0.40244 1.1491698 0.72278416 0.37676728 0.02989507 0.5685993 -0.30268532 0.8618453
0.1454622 0.46116182 -0.34633064 -0.12327771 -0.5726485 -0.03221181 1.3615665 0.029693782
0.1450511 -0.54774964 -0.7770237 0.5111404 -0.45987868 0.3558201 -0.2689803 0.7087577
0.40947825 -0.6547894 0.6869698 0.23228267 0.68533283 0.39128223 -0.009391646 -0.32711658
-0.81621593 -0.27581614 0.09049116 0.11825497 -0.16941029 -0.39569414 0.40996253 0.72995603
1.1904353 1.2824569 -0.4263308 -0.25573975 -0.23184739 -0.6418921 0.7033033 0.7025584
0.05628648 -0.52799875 1.053449 0.19987792 0.8602847 1.356901 1.4350353 -0.1433172
1.225536 -0.81246513 0.03240886 0.3098227 0.5167839 0.55106425 0.7506667 -0.33966795
0.44366258 -0.36093098 0.47413722 -0.6789554 0.036869843 -0.07017326 0.5822579 -0.17254928
-0.17477503 0.4341188 0.7001432 0.84910995 0.28976977 -0.08544147 0.20297728 -0.32514876
0.14177623 -0.48327246 -0.16553926 1.3174993 -0.098458946 0.8374783 0.4808263 0.5537205
0.5844243 0.58704644 -0.58474886 -0.20400243 -0.13480465 -0.44158268 0.565173 0.36955342
0.44903308 0.6347873 0.9178118 1.0082682 0.25131363 -0.8043245 0.27106112 0.7971963
-0.546797 -0.20864284 -0.15972757 -0.09051997 0.309651 -0.08700883 0.79103607 -0.37291518
-0.04039466 1.5063014 -0.70816356 -0.59064037 1.3098645 0.5646607 -0.43332595 -0.7458362

model.2.running_mean f4 [120]
00000000: 5f5c 5fbd 96ff 0abe 9502 26be 94d7 c6bc
00000010: f64f b43d e8ea 013e ad84 53be 9f49 b2bd
00000020: 8aa9 713d 2c01 de3d a021 be3d 7796 003e
00000030: 9ab5 583c e887 80be 4e7e 45be ab89 cf3d
00000040: b2f4 39be 0641 8cbe 26f3 28be 4ed3 7e3e
00000050: 7d87 3b3d d862 373c f5a1 543e 2ced 24be
00000060: 2e0f 84bd 8dfa dabb 69e1 893c 0def 8e3e
00000070: b0d6 463e 2b80 d43d 4758 1e3e 4fb4 263e
00000080: 8aab 07be ec03 a13e 7353 9bbd 8895 953d
00000090: 6b8b 17bd db1e 0a3e ebbf fd3d 5caa a4be
000000a0: d6c7 f3bd c778 91bd 850b 4abd 7811 083d
000000b0: d9f4 b7bd bd49 00bd 04e2 a33e 7773 ab3c
000000c0: 148f 83bd 96b8 de3d 4254 bf3d 8d79 5bbe
000000d0: e85c 203e 4968 24be 4348 e53c 15ba 653d
000000e0: 370d b8bc fe38 ea3d cc5e 4c3e 4f45 7c3e
000000f0: f1a1 96be b9b2 a4bd be36 773e 4ee9 62be
00000100: a6a2 4b3e 6f5e 1fbe 9de3 e63d 0ba1 e0bd
00000110: 6f12 963d f412 fe3c 9828 893c 4e78 363e
00000120: 806b 813e adcf 26be 566e 933d 0bc8 4b3e
00000130: d589 44be e7a9 6fbc 89eb 58be fc7b 94bd
00000140: d740 a2bd b5a4 39be 023c 87be 7d35 2bbd
00000150: 090d 423d 916a 623e be5b 413c b435 a43e
00000160: 5c93 cabc d71f 9e3e a0db fabc 234f 373e
00000170: f93a 02bd 4117 29be 99f7 42be 6c48 79be
00000180: 10a8 d2bd 919d 05bd 915d 273e 642a 2a3e
00000190: 6e09 0e3c 12b4 82bd 6e44 f8bd 75aa 8e3d
000001a0: 9449 61be 39e9 a73d 06ed 50bd 3745 4bbe
000001b0: 82a5 0d3d 39e2 043e 3943 f73d 2770 723e
000001c0: 5159 b3bc 4c0b 22be 0679 4d3e a614 833e
000001d0: f7c9 5abe 4225 463d 78e9 f1bc 2350 063e
-0.05453145 -0.13574061 -0.16211922 -0.024272718 0.08804314 0.12687266 -0.2065608 -0.08705448
0.058999576 0.10840067 0.09283757 0.12557398 0.013226891 -0.25103688 -0.19286463 0.1013368
-0.1815975 -0.2739336 -0.16499004 0.24885294 0.04578351 0.011193 0.20764907 -0.16106099
-0.06448208 -0.0066827 0.016831117 0.27916756 0.19417834 0.103760086 0.15463363 0.1627972
-0.1324903 0.31448305 -0.07584276 0.073039114 -0.036998194 0.13488333 0.12390121 -0.32161224
-0.1190335 -0.071031146 -0.049327392 0.033219784 -0.08982248 -0.031320322 0.32008374 0.020929081
-0.06423774 0.10875051 0.09342243 -0.21433087 0.15660441 -0.16055407 0.027988559 0.056085665
-0.022467239 0.11436652 0.19958037 0.24635814 -0.29420426 -0.08041901 0.24141976 -0.22159311
0.19886264 -0.15563367 0.112738825 -0.109682165 0.07327735 0.031014897 0.01674299 0.1781933
0.25277328 -0.1629016 0.07198779 0.19900529 -0.19193204 -0.01462791 -0.211836 -0.07250211
-0.079225235 -0.18129237 -0.2641297 -0.041799057 0.047375713 0.22110964 0.011801658 0.32072222
-0.02472847 0.30883667 -0.030622303 0.17901282 -0.031794522 -0.16512777 -0.19039764 -0.24344033
-0.10285962 -0.03262097 0.16344287 0.16617733 0.00866924 -0.06382002 -0.12122427 0.06966106
-0.22000724 0.081987806 -0.051007293 -0.19850622 0.03458167 0.12976922 0.120733686 0.23675595
-0.021893175 -0.15824622 0.20065698 0.2560169 -0.21366106 0.048375376 -0.029530272 0.13116507

model.2.running_var f4 [120]
00000000: 9534 4a3e 4227 8e3e 4777 993e 2645 ec3e
00000010: 52d4 a43e b809 4d3e 908f f63e 0f5e 163e
00000020: 8e76 c83e 33a6 903e efed df3e 11e2 9d3e
00000030: 15ca 7d3e 5b2e 2c3f 5dbd 0c3f bdac 923e
00000040: 4a65 a93e 3ded 763e 88b9 863e 6ba5 5c3e
00000050: c2cd a13e 4258 083f ca0c 423f 4b1f a83e
00000060: 9df9 443e a09a 3b3e 547b 823e 085b e23e
00000070: 6993 b03e 953b af3e f03f 483e b2d8 1c3e
00000080: 6fbb 393e 2f33 023f d88d 923e b497 253e
00000090: dfeb cd3e 1231 d83e 2781 6f3e 212c 0c3f
000000a0: ef16 923e 0df1 383e 1c33 c13e 18fc ab3e
000000b0: d3b3 a43e 61fa 833e 8e12 cd3e d9d5 933e
000000c0: cb1a 9d3e 2379 923e 57d9 c93e b306 9a3e
000000d0: 35eb 223f 522b a03e cdf7 093f d76c bf3e
000000e0: 3b60 d13e 6fd6 f03d c853 d33e 5db9 bc3e
000000f0: 52fd 1c3e 62a5 c03e 4af9 823e b367 993e
00000100: cf9f d93e 65d5 2f3e d033 853e f0ad 983e
00000110: d8c6 9e3e 1de8 da3e 288f 043f 3c2e 343e
00000120: 8c17 ec3e 22fd 8b3e 772e 803e 7a55 2e3f
00000130: 6c50 a33e 6b15 9b3e 5fdb 543e 8787 953e
00000140: 523c 6c3e 8d0a eb3e 87f5 0a3f f5f1 d43e
00000150: b0d0 cb3e c4ea 933e 4a35 ce3e 87fb 803e
00000160: 09a1 3c3f cf06 593e 30d9 793e 2483 c43e
00000170: a6cb e33e 252c e93e d250 b63e 660e 5c3e
00000180: f1fd b43e 9eef d03e d34a cb3e 70e7 ae3e
00000190: 9282 6b3e e75d 013e ecec 473e 14d2 413e
000001a0: c2bf b43e 31ac b73e f2f4 3f3e e8e1 ce3e
000001b0: 0117 a13e 2f9a de3e 83f4 f83d bb30 943e
000001c0: 4095 a43e 0f3c b93e c079 383e 6586 d03e
000001d0: e83f c53e ceea b93e d087 b73e 9e8b b03e
0.19746621 0.27764326 0.29973814 0.46146506 0.32193238 0.20023239 0.48156404 0.14684318
0.3915295 0.282518 0.43736216 0.30836537 0.2478412 0.6725823 0.54976445 0.28647414
0.3308509 0.24113937 0.26313424 0.21547477 0.31602293 0.5325967 0.75800765 0.32836375
0.19235845 0.18320704 0.25484717 0.44210076 0.34487465 0.34225145 0.1955564 0.15317038
0.18137906 0.5085935 0.28623843 0.16171151 0.40219018 0.42224938 0.23389111 0.54754835
0.28533122 0.18060704 0.37734306 0.3359077 0.32168445 0.2577696 0.4005322 0.2887409
0.30684504 0.28608045 0.3942363 0.30083236 0.6364015 0.3128305 0.5389374 0.37387726
0.4089373 0.1175965 0.41274858 0.3686017 0.15331009 0.37626177 0.25580817 0.2996193
0.42504737 0.17171247 0.26016092 0.29820204 0.3101108 0.42755213 0.5178094 0.17595762
0.46111715 0.27341563 0.2503545 0.68099177 0.31897295 0.30289778 0.20786808 0.29204962
0.23069885 0.45906487 0.54280895 0.4159085 0.39807653 0.2889005 0.4027503 0.251919
0.7368322 0.21194004 0.24399257 0.38381302 0.4449131 0.45541492 0.35608536 0.21489868
0.35349992 0.40807813 0.39705524 0.34160948 0.22999027 0.12633477 0.19523972 0.18927795
0.3530255 0.3587356 0.18745783 0.40406728 0.31462863 0.43477008 0.12156012 0.28943428
0.3214512 0.36178634 0.18015194 0.40727535 0.3852532 0.36311954 0.35845804 0.3448152

model.4.weight f4 [120, 120]
00000000: 0000 803d 0000 003d 0000 c03d 0000 803d
00000010: 0000 003d 0000 00bd 0000 80bd 0000 00bd
00000020: 0000 80bd 0000 80bd 0000 003d 0000 00bd
00000030: 0000 00bd 0000 803d 0000 00bd 0000 003d
00000040: 0000 803d 0000 00bd 0000 803d 0000 803d
00000050: 0000 00bd 0000 003d 0000 003d 0000 003d
00000060: 0000 803d 0000 c0bd 0000 803d 0000 00bd
00000070: 0000 0000 0000 00bd 0000 c0bd 0000 00bd
00000080: 0000 00bd 0000 0080 0000 003d 0000 803d
00000090: 0000 803d 0000 00bd 0000 80bd 0000 003d
000000a0: 0000 003d 0000 003d 0000 80bd 0000 803d
000000b0: 0000 0080 0000 803d 0000 80bd 0000 803d
000000c0: 0000 00bd 0000 803d 0000 0080 0000 0000
000000d0: 0000 80bd 0000 00bd 0000 80bd 0000 0000
000000e0: 0000 00bd 0000 0000 0000 c03d 0000 80bd
000000f0: 0000 80bd 0000 00bd 0000 0080 0000 c0bd
00000100: 0000 0000 0000 80bd 0000 003d 0000 c03d
00000110: 0000 003d 0000 80bd 0000 803d 0000 803d
00000120: 0000 00bd 0000 00bd 0000 003d 0000 00bd
00000130: 0000 00bd 0000 80bd 0000 c0bd 0000 0000
00000140: 0000 0000 0000 00bd 0000 0000 0000 0080
00000150: 0000 c0bd 0000 80bd 0000 c03d 0000 803d
00000160: 0000 0080 0000 80bd 0000 c03d 0000 0000
00000170: 0000 00bd 0000 0080 0000 0000 0000 c0bd
00000180: 0000 00bd 0000 c0bd 0000 803d 0000 c03d
00000190: 0000 0080 0000 0080 0000 003d 0000 803d
000001a0: 0000 80bd 0000 803d 0000 80bd 0000 c03d
000001b0: 0000 0080 0000 0080 0000 0000 0000 0000
000001c0: 0000 80bd 0000 803d 0000 80bd 0000 80bd
000001d0: 0000 80bd 0000 803d 0000 0080 0000 80bd
000001e0: 0000 003d 0000 80bd 0000 0080 0000 003d
000001f0: 0000 00bd 0000 80bd 0000 c0bd 0000 80bd
00000200: 0000 003d 0000 80bd 0000 803d 0000 c0bd
00000210: 0000 c03d 0000 80bd 0000 003d 0000 0080
00000220: 0000 80bd 0000 803d 0000 003d 0000 00bd
00000230: 0000 c03d 0000 803d 0000 c03d 0000 003d
00000240: 0000 80bd 0000 0000 0000 0080 0000 00bd
00000250: 0000 003d 0000 00bd 0000 003d 0000 003d
00000260: 0000 80bd 0000 803d 0000 803d 0000 003d
00000270: 0000 803d 0000 003d 0000 00bd 0000 00bd
00000280: 0000 0000 0000 003d 0000 c0bd 0000 003d
00000290: 0000 0080 0000 00bd 0000 80bd 0000 00bd
000002a0: 0000 803d 0000 00bd 0000 80bd 0000 80bd
000002b0: 0000 0000 0000 00bd 0000 c03d 0000 00bd
000002c0: 0000 80bd 0000 00bd 0000 c0bd 0000 c0bd
000002d0: 0000 803d 0000 80bd 0000 00bd 0000 80bd
000002e0: 0000 00bd 0000 c0bd 0000 80bd 0000 c0bd
000002f0: 0000 00bd 0000 003d 0000 c03d 0000 003d
00000300: 0000 80bd 0000 00bd 0000 00bd 0000 003d
00000310: 0000 803d 0000 0000 0000 003d 0000 0080
00000320: 0000 803d 0000 003d 0000 803d 0000 003d
00000330: 0000 0000 0000 00bd 0000 00bd 0000 c0bd
00000340: 0000 c03d 0000 003d 0000 80bd 0000 0080
00000350: 0000 80bd 0000 00bd 0000 003d 0000 00bd
00000360: 0000 803d 0000 803d 0000 00bd 0000 00bd
00000370: 0000 c03d 0000 0080 0000 c03d 0000 0080
00000380: 0000 c0bd 0000 80bd 0000 80bd 0000 803d
00000390: 0000 80bd 0000 803d 0000 c03d 0000 00bd
000003a0: 0000 803d 0000 0000 0000 0000 0000 00bd
000003b0: 0000 003d 0000 00bd 0000 803d 0000 003d
000003c0: 0000 c03d 0000 0000 0000 c03d 0000 00bd
000003d0: 0000 00bd 0000 803d 0000 c0bd 0000 003d
000003e0: 0000 c03d 0000 003d 0000 c03d 0000 003d
000003f0: 0000 003d 0000 003d 0000 003d 0000 003d
0.0625 0.03125 0.09375 0.0625 0.03125 -0.03125 -0.0625 -0.03125
-0.0625 -0.0625 0.03125 -0.03125 -0.03125 0.0625 -0.03125 0.03125
0.0625 -0.03125 0.0625 0.0625 -0.03125 0.03125 0.03125 0.03125
0.0625 -0.09375 0.0625 -0.03125 0.0 -0.03125 -0.09375 -0.03125
-0.03125 -0.0 0.03125 0.0625 0.0625 -0.03125 -0.0625 0.03125
0.03125 0.03125 -0.0625 0.0625 -0.0 0.0625 -0.0625 0.0625
-0.03125 0.0625 -0.0 0.0 -0.0625 -0.03125 -0.0625 0.0
-0.03125 0.0 0.09375 -0.0625 -0.0625 -0.03125 -0.0 -0.09375
0.0 -0.0625 0.03125 0.09375 0.03125 -0.0625 0.0625 0.0625
-0.03125 -0.03125 0.03125 -0.03125 -0.03125 -0.0625 -0.09375 0.0
0.0 -0.03125 0.0 -0.0 -0.09375 -0.0625 0.09375 0.0625
-0.0 -0.0625 0.09375 0.0 -0.03125 -0.0 0.0 -0.09375
-0.03125 -0.09375 0.0625 0.09375 -0.0 -0.0 0.03125 0.0625
-0.0625 0.0625 -0.0625 0.09375 -0.0 -0.0 0.0 0.0
-0.0625 0.0625 -0.0625 -0.0625 -0.0625 0.0625 -0.0 -0.0625
0.03125 -0.0625 -0.0 0.03125 -0.03125 -0.0625 -0.09375 -0.0625
0.03125 -0.0625 0.0625 -0.09375 0.09375 -0.0625 0.03125 -0.0
-0.0625 0.0625 0.03125 -0.03125 0.09375 0.0625 0.09375 0.03125
-0.0625 0.0 -0.0 -0.03125 0.03125 -0.03125 0.03125 0.03125
-0.0625 0.0625 0.0625 0.03125 0.0625 0.03125 -0.03125 -0.03125
0.0 0.03125 -0.09375 0.03125 -0.0 -0.03125 -0.0625 -0.03125
0.0625 -0.03125 -0.0625 -0.0625 0.0 -0.03125 0.09375 -0.03125
-0.0625 -0.03125 -0.09375 -0.09375 0.0625 -0.0625 -0.03125 -0.0625
-0.03125 -0.09375 -0.0625 -0.09375 -0.03125 0.03125 0.09375 0.03125
-0.0625 -0.03125 -0.03125 0.03125 0.0625 0.0 0.03125 -0.0
0.0625 0.03125 0.0625 0.03125 0.0 -0.03125 -0.03125 -0.09375
0.09375 0.03125 -0.0625 -0.0 -0.0625 -0.03125 0.03125 -0.03125
0.0625 0.0625 -0.03125 -0.03125 0.09375 -0.0 0.09375 -0.0
-0.09375 -0.0625 -0.0625 0.0625 -0.0625 0.0625 0.09375 -0.03125
0.0625 0.0 0.0 -0.03125 0.03125 -0.03125 0.0625 0.03125
0.09375 0.0 0.09375 -0.03125 -0.03125 0.0625 -0.09375 0.03125
0.09375 0.03125 0.09375 0.03125 0.03125 0.03125 0.03125 0.03125

model.4.bias f4 [120]
00000000: b24a 07bc 5f40 a8bd 00a9 99bd 94f5 8c3c
00000010: 0cdd 6d3c bede 823d 009d b9bd 05ad ac3d
00000020: 6180 43bd b98b 2e3d f846 fabc ffdd a43d
00000030: fbb5 803d b858 b93d cad7 6ebc 0320 03bc
00000040: fe36 c33c 96eb b83d 1879 ab3d f41d e73c
00000050: 5de7 b43b 5673 98bd 60c7 8cbd 8618 9b3c
00000060: 22c7 2d3d bedf f93a 0b6c 1cbd de45 683d
00000070: 782f dcbb f94a 553c 628a 8c3d b87a df3c
00000080: 7f89 babd 67e4 8bbc fcc0 aa3d b5ce 913b
00000090: 7093 ec39 347d 8f3d 5e39 b53d 43ee cfbc
000000a0: 41cc b5bd 83e2 83bd b4de 81bd abea 97bb
000000b0: 0ffa 76bd f735 d13c 7cb5 4dbd b2b7 603b
000000c0: 430d 093d fa72 a03d df2a 3dbd 55dd 943d
000000d0: c5af 3a3c 1daf 98ba bab6 553d 023f 2b3b
000000e0: 5a56 983d 8069 963c 5aa2 83bd d414 a9bd
000000f0: 18fc 8bbc efe4 b1bd da5e 5f3d 0ea3 b1bd
00000100: f0a5 e1bc cf2d 87bd 7f45 483d 1199 a73d
00000110: ef2f 50bb 5b36 2a3d 21c2 aabd 07fd 623d
00000120: d66b b43d 14ed 98bd 0662 b63d f6be b7bd
00000130: b5a1 223c 75d4 a73d 05ec 03bd 541b c13a
00000140: 86ca 003c 68dd 093b e0dc 6c3d 0286 38bd
00000150: 0412 71bc 84d4 503d 008c b7bd 542d 22bc
00000160: be4d a4bd 812c 823d bc09 0fbd 06c2 e0bc
00000170: f95b 6fbc 7e9b a1bd d47f 9f3d 4bfc 0abd
00000180: 0af3 9bbd 0392 80bd 4497 78bd 5d65 9a3d
00000190: c377 213c 00e0 a83d f9d2 96bc 10de dabc
000001a0: fd07 b43c 7f88 043c 925f 7dbd 1e9a 4d3d
000001b0: 5b50 84bd 434e 5f3d 249a f33b ba46 dc3c
000001c0: 55ce 1b3d a3f4 a8bd 64c6 ffbb 53ed 183d
000001d0: db35 8dbd 25c6 b1bb 4e4a 963d 8942 a13a
-0.008257555 -0.08215403 -0.07502937 0.017206945 0.014518034 0.06390141 -0.090631485 0.08431438
-0.047729854 0.04261372 -0.030551419 0.08050155 0.0628471 0.09050125 -0.014577815 -0.008003238
0.023829933 0.090293095 0.08372706 0.028212525 0.0055207447 -0.074438736 -0.06873965 0.018932592
0.042426236 0.0019063873 -0.038188975 0.056707256 -0.006719526 0.013018363 0.06862332 0.027280197
-0.091082565 -0.017076684 0.0833759 0.00444969 0.00045123277 0.070063025 0.088488325 -0.025382167
-0.08876849 -0.06439688 -0.063413054 -0.004636129 -0.06029707 0.025538428 -0.050221905 0.0034289178
0.033459913 0.0783443 -0.046183463 0.07268778 0.011394446 -0.0011648868 0.052176215 0.0026130085
0.07438345 0.018360853 -0.064274505 -0.08255926 -0.017087981 -0.08686244 0.054533817 -0.08673678
-0.027544945 -0.06600534 0.0488944 0.08183492 -0.0031766852 0.041555744 -0.083378084 0.055417087
0.088096306 -0.07467094 0.08905415 -0.0897197 0.009926249 0.0819482 -0.032207508 0.0014732876
0.007860785 0.002103651 0.05782783 -0.045049675 -0.014713768 0.05098392 -0.0896225 -0.009898502
-0.08022641 0.06356145 -0.034921393 -0.027436268 -0.01460933 -0.07890986 0.07788053 -0.03393201
-0.076147154 -0.062778495 -0.060691133 0.07538865 0.009855214 0.082458496 -0.018411146 -0.026717216
0.021976465 0.008089184 -0.06185872 0.050195806 -0.06460639 0.054517996 0.0074341465 0.026889194
0.03803857 -0.08249786 -0.0078056324 0.037335705 -0.06895038 -0.005425232 0.07338391 0.0012303154

model.5.weight f4 [120]
00000000: 2593 1e3f 58dd 223f 6eee ce3f 4360 4c3f
00000010: 29ba bb3e 2a7a 693e 5e55 cc3e 8750 db3e
00000020: 872a 6a3f f310 713e 351e 243f 07e9 f73e
00000030: ed75 423f c782 103f 6afe 7c3f 6ef8 003f
00000040: 9509 283f 4079 463f a0f6 7f3f 2764 273f
00000050: 1106 a23f 8e18 423f 4b28 853e cca8 0c3f
00000060: 756c e23f e205 1c3f 355a bd3f 4858 0f3f
00000070: 0a6a 833f d248 943e 34ae 653f f7e5 033f
00000080: 1377 fd3e efc8 253f 0611 483f fe9f eb3e
00000090: fd91 4d3f e16f a53f 1b96 443f 50ee ea3f
000000a0: f655 783f 311f 383f f91e 763f 7828 2c3f
000000b0: 360e 533f 9b1e 2e3e 7cc8 0e3e 7abd 2e3f
000000c0: 12bf 5b3e 6e8e 463f 189b 373f 5c5e 273f
000000d0: 999a 1d3f 7b48 033f 8abb 293f 89f8 073f
000000e0: e454 613f fd3d cf3f 7366 043f 2718 d93e
000000f0: 7224 c33f dbca 5c3f 94e5 273f 4d49 8f3f
00000100: c922 e13e 05e1 983f dc32 9a3f 1b55 4d3f
00000110: 269e 363f b95c 543f 259e 413f d431 c13e
00000120: 03fa 4e3f 97de 493e 4717 603f 0609 9c3e
00000130: a245 873f 09db 9a3f e635 443f 8bf2 723f
00000140: 2594 553f 104b e93e bb84 963e 6840 853f
00000150: 6aca 153f b2b0 c43e 5af8 fd3e 075f 913f
00000160: 0ced e43e 6983 c63e f83c 773f 2791 913e
00000170: c765 573f 1a23 fb3e 3ae2 d33e d06d e73f
00000180: 9f9d 7d3f 8866 083f deba c73f f783 be3f
00000190: 1a12 343e f3c0 cd3e ea36 133f f236 c43f
000001a0: 597a d43f 4c48 bb3f 14fb 353f 194d 953f
000001b0: cf71 963f 95ab fe3e 3f89 b93e 7ecc a83f
000001c0: 54f6 293f 194d 013f 6beb 413f 39fe 993f
000001d0: 53b3 d93e 1e6c 333f f388 9d3f 10b4 323f
0.61943275 0.63618994 1.6166513 0.79834384 0.36665466 0.22800508 0.3990888 0.42834875
0.9147114 0.23541622 0.6410859 0.48419973 0.7596119 0.5644955 0.98825705 0.50379074
0.6563962 0.7752876 0.99985695 0.65387195 1.2658101 0.7581872 0.26007304 0.54945064
1.7689348 0.60946476 1.4793154 0.5599408 1.0266736 0.28961807 0.8971894 0.51522774
0.4950491 0.64759725 0.78150976 0.46020502 0.80300885 1.2924768 0.7679154 1.8353977
0.97006166 0.71922594 0.9614101 0.6724925 0.8244356 0.17003863 0.13943666 0.6825787
0.21459606 0.7756108 0.7172103 0.65378356 0.6156402 0.5128247 0.66301787 0.5311361
0.8802016 1.6190792 0.51718825 0.4240124 1.5245497 0.8624703 0.65584683 1.1194245
0.4397185 1.194367 1.2046771 0.80207986 0.71335065 0.82953984 0.75631934 0.37733328
0.8085024 0.19713818 0.8753552 0.30475634 1.0568125 1.2098094 0.7664474 0.9490134
0.83429176 0.4556508 0.2939814 1.041028 0.58511984 0.38416058 0.4960354 1.1357125
0.44712102 0.38772133 0.96577406 0.28431055 0.84139675 0.49050218 0.41383535 1.8080387
0.99068636 0.5328145 1.5603902 1.4884022 0.1758503 0.4018627 0.5750567 1.5329268
1.6599838 1.4631438 0.7108624 1.1664153 1.1753482 0.49740282 0.36237523 1.3187406
0.6639149 0.50508267 0.75749844 1.2030708 0.42519626 0.7008685 1.2307419 0.69806004

model.5.bias f4 [120]
00000000: b19e 7c3f 0bda 0cbe 21ac e33e 77dd bebd
00000010: a7dd 3dbf 9fd8 bcbe 8a60 48be 515f 9ebe
00000020: 06fe ec3e c074 a3be 28a3 87be e621 79be
00000030: b651 d1bd 12ad 023f f546 823f 6744 49bf
00000040: 6e61 06bf d7cd e3be e6f5 373f 3e2b fe3d
00000050: 0e4f 273f 536c bcbe a10b 24bf f5df 873c
00000060: 7ef0 4c3f a145 813d 5a4c 443f 24d1 2c3f
00000070: d281 483f 09c8 39bf 95cf 11be 4862 33bf
00000080: 3887 30bf b1bd f93c 5127 273f 6324 893d
00000090: 424d abbb 4588 903e 9c9d 123f d368 8e3f
000000a0: cf09 973e a86e e8bd de35 10bd b604 43bf
000000b0: cb54 653f ed0a 32bf 6460 17be efbc 173e
000000c0: 7518 19bf 2f83 27be bea4 88be 12f2 843f
000000d0: 5023 3bbe 9c17 3a3d 81cb fd3e 0a9e 9b3d
000000e0: caef 3c3e ac92 403f a2a9 b8be 894a 8bbe
000000f0: dea0 c23e 255f 8f3e e5d5 023b 63f9 003f
00000100: 2088 8dbe 90fc 733f d1af 043d dfc0 723e
00000110: 399f 373e 944a bf3d 95fb b73f 73f1 19bf
00000120: 432e c43e 2ba8 a1be 67a0 3a3e 04ad 18bf
00000130: bd12 133f d946 523f 4e10 17be 81bd b9bd
00000140: ba36 02be 2e93 793d 7a3c 193e d86e 383e
00000150: 60d9 85be ab86 69be 0625 3dbf 2918 763d
00000160: 94eb e9be fea6 82be 7c42 a33f 25b2 cabe
00000170: dea0 a13d 0e89 04bf 01ec ae3e 583f 873e
00000180: 38a8 e43e d013 82be 4243 133f 3cac 883f
00000190: a719 853e 78a7 29bf 39ce 48bf a451 6e3f
000001a0: a34f 3b3f bc6f 723f 08ed c7be 25d1 b73e
000001b0: ecca a83e 1811 a9be eef6 20bf fb2c c93f
000001c0: f66a af3f b72e 1dbe 5d8f e7be 9a2b f33e
000001d0: 6ac2 03bc 0458 44be 3bcd 9b3e bacd ad3e
0.98679644 -0.13755052 0.4446726 -0.09319585 -0.7416634 -0.3688402 -0.19568077 -0.30932096
0.46287555 -0.3192501 -0.26491666 -0.24329337 -0.10220663 0.51045334 1.0177904 -0.7862
-0.52492416 -0.4449298 0.71859586 0.124105915 0.65355 -0.36801395 -0.64080244 0.016586283
0.8005446 0.06312109 0.76679003 0.67506623 0.7832309 -0.72570854 -0.14239343 -0.7007184
-0.6895633 0.03048596 0.6529437 0.06696393 -0.0052277157 0.28228965 0.5727174 1.112574
0.2949967 -0.11349231 -0.03520762 -0.76179063 0.8958251 -0.6954792 -0.14782864 0.14818166
-0.59802943 -0.16358636 -0.26688188 1.0386374 -0.1827519 0.045432672 0.49569324 0.07598503
0.18450847 0.75223804 -0.3606692 -0.27205303 0.38013357 0.28002277 0.0019963917 0.50380534
-0.27642918 0.95307255 0.032394234 0.23706387 0.17931832 0.093403965 1.4373652 -0.6013405
0.38316545 -0.31573614 0.18225251 -0.59639 0.5745047 0.82139355 -0.14752313 -0.09069348
-0.12716189 0.060931377 0.14964476 0.18011034 -0.26142406 -0.22805278 -0.7388462 0.060081635
-0.45687544 -0.2551803 1.2754664 -0.39589038 0.07892011 -0.5177163 0.34164432 0.26415515
0.4465959 -0.2540574 0.575245 1.0677562 0.25996134 -0.6627116 -0.7843967 0.93093324
0.7316839 0.94701743 -0.39048028 0.35901752 0.32967317 -0.33020854 -0.62876785 1.5716852
1.3704517 -0.15349852 -0.45226565 0.47494203 -0.008041957 -0.191742 0.30430016 0.3394602

model.5.running_mean f4 [120]
00000000: ba39 303e 9685 1cbe f8ed 363f a755 54bf
00000010: 6695 32be d450 9c3e 3672 50be a697 753f
00000020: 445c 86bd a906 5e3e f7ec 7a3e a235 0a3f
00000030: cd8c 783e 2181 3e3e 1ee7 323d 11ca 8e3e
00000040: 9fd7 c13c fa99 0f3d 1a14 66be 7dd8 2ebf
00000050: 3b53 3fbd 01ce debe 2644 c7bc da61 2bbe
00000060: 79c0 b7be 3740 fcbe 93fb 773e 13a2 89bd
00000070: b000 d8be 22e7 0b3e 349b eb3e 14f6 70bd
00000080: 83c0 81be 0a46 5b3e 8262 fd3e dca2 febd
00000090: 8815 083f 183b cd3e a0cf 183e fd31 05bf
000000a0: 8db4 9ebe f372 2abf 1f68 ab3e 50d4 d43d
000000b0: 7233 bd3d 4b49 12bf 726f c0be 13f8 333a
000000c0: b241 243e 19b6 a03f 5913 1cbe 8ef6 e1be
000000d0: 287a 673e 1f39 453e 2275 47be 766b e13e
000000e0: 9649 85be f1e1 99be 6cc2 5f3e d932 1f3d
000000f0: b5f1 be3e 5842 70bd b3b9 10bd 7f1e 803d
00000100: 9f69 fcbe ed1b 88be 0995 9e3e 2b09 a6bb
00000110: 1a73 d8be 251d 63be a135 34be 863b 0bbf
00000120: 4cac 87be 742f 0a3d 0a34 d33e 27ed 0ebf
00000130: 558d 323e 42d0 ec3d a606 693f c3ee 703e
00000140: adc5 203e ef89 4c3e ab84 86bd 34d2 22bf
00000150: 770d 9fbe 0c8e 933e bed4 193e ac2c 59be
00000160: b2c9 943e ffa1 113f adf4 1b3e 573e fbbe
00000170: a3aa 0dbf b0ef 50bb da51 193e a1c7 5f3e
00000180: 725b 55be 4c06 0ebf a1ca c5be 0338 f83d
00000190: 8718 82bf efae d6be c805 a13e cc31 68be
000001a0: 5646 a63e f2af cabe 4004 9abd 2b8a a73d
000001b0: 9f8e 873e 57b4 f4bd cb7a 17be e7cd e9be
000001c0: 94fc 3e3e e6bc 2dbe 8d87 703d 6495 e3bd
000001d0: 3522 b03d 6176 d0b9 f93c 12be 24e3 023f
0.17209521 -0.15285334 0.7145686 -0.82943195 -0.17439803 0.30530417 -0.20356068 0.9593452
-0.06560567 0.21682228 0.24504457 0.5398809 0.24272461 0.18603946 0.04367744 0.2788854
0.023662386 0.035058953 -0.22468606 -0.68299085 -0.046710234 -0.43516544 -0.024324488 -0.16736546
-0.35889032 -0.49267742 0.24217062 -0.06720366 -0.42188025 0.13662389 0.46016848 -0.05882843
-0.25342187 0.21413437 0.49489218 -0.12433407 0.53157854 0.40084147 0.14922953 -0.520294
-0.30997124 -0.6658165 0.33477876 0.10392058 0.09238328 -0.57143086 -0.37585026 0.0006865274
0.16040686 1.2555572 -0.15241756 -0.4413342 0.22605193 0.19260071 -0.19478276 0.440273
-0.26032704 -0.30055192 0.2185151 0.03886685 0.37293783 -0.05865702 -0.035333347 0.06255817
-0.49299332 -0.26583806 0.3097308 -0.005067011 -0.42275316 -0.22179087 -0.17598583 -0.543877
-0.2649864 0.03373666 0.4125064 -0.55830616 0.17436726 0.115631595 0.9102577 0.2352858
0.15700407 0.19974492 -0.06568273 -0.63601995 -0.3106496 0.2881931 0.15022561 -0.21208447
0.2906013 0.5688781 0.15230055 -0.49071 -0.55338496 -0.0031881146 0.1497263 0.21853496
-0.20835665 -0.5547836 -0.38631156 0.121200584 -1.0163735 -0.4193034 0.31449723 -0.22675246
0.32475537 -0.3958736 -0.07520342 0.0818065 0.26476 -0.119484596 -0.14792936 -0.45664904
0.18651038 -0.1696659 0.05872302 -0.111124784 0.086002745 -0.0003976105 -0.14281072 0.5112784

model.5.running_var f4 [120]
00000000: 1761 653e 8765 cb3d a167 d13d f95e 1a3e
00000010: dce3 1c3e 83d3 fe3d a48d 8b3d 2356 083e
00000020: d30a 213e aa8a 083e 0dd0 8b3e 7c77 283e
00000030: 9ac9 313e 2307 c73d 17ee b83d b281 493d
00000040: e8ad 023e c56b 333e 1483 d93d 26ac 333e
00000050: bd0e ec3d c51a c63d b449 b83d b573 f23d
00000060: 50d9 123e 9e3f 9b3d ce74 073e 69fc ec3d
00000070: 7deb aa3d 5d6e 633d 7c88 2f3e 2794 d53d
00000080: 7cc1 bf3d 4ed3 073e fac0 8e3e 1229 a73d
00000090: 0952 153e 8da3 9f3d d154 ac3d 49fb 2f3e
000000a0: a092 083e 9b25 d93d a1c3 123e 4489 493d
000000b0: 082f 8a3e c111 cf3d 0d45 853d a8c7 ed3d
000000c0: 0d20 3b3e 5808 613e 8090 553d 8df5 753d
000000d0: 217c 803d 1e48 033e f0ea 223e d716 8e3e
000000e0: 4e91 853d 6f3b 873d 5821 543e fd34 d33d
000000f0: 5460 f13d bd9c 643e a163 fc3d 20d7 803d
00000100: 9273 8a3d 638b a63d 93ae d03d d9d2 9c3d
00000110: 16d8 fd3d 5709 053e c7cc ba3d a2bb 313e
00000120: 8bad 043e eba6 163e 6272 293e ede9 af3d
00000130: f273 1f3e d35d 153e e6ce eb3d 3760 8c3d
00000140: 1177 c23d 01e0 ea3d 5d2a fb3d 5e67 053e
00000150: 200b 063e bffd c23d e874 0e3e d6f8 343d
00000160: d08a 873e 8e90 133e 2a39 3a3e 992c ed3d
00000170: 329b 1a3e d795 243e 3da0 9b3d 5402 ec3d
00000180: daaf 1a3e ccb7 6f3d c511 313e fa09 043e
00000190: b2b6 403e c121 0e3e ae81 1f3e 1cbe b73d
000001a0: aff7 153e acf3 2e3e 64db f13d fcc6 883d
000001b0: e445 203e a572 1a3e 0117 a63d f37b 0e3e
000001c0: c25f 973e 5e99 963d fd42 293e f8b4 ed3d
000001d0: 5ca4 803e 9b7e db3d 2ac0 b83d 4d4a 5b3d
0.22400318 0.09931474 0.10224844 0.15075292 0.15321296 0.124426864 0.06814125 0.13314109
0.15726785 0.13334146 0.27307168 0.1645183 0.17362061 0.09718158 0.09029787 0.049195953
0.12761652 0.1752158 0.10620704 0.17546138 0.115262486 0.09673075 0.08998433 0.118384756
0.1434071 0.075804934 0.13228151 0.11571581 0.08345697 0.055525173 0.17141908 0.104286484
0.09363076 0.132642 0.27881604 0.081621304 0.14582075 0.07794867 0.08414615 0.17185701
0.13337183 0.10602876 0.14332439 0.049203172 0.26989007 0.10110808 0.06507311 0.11610347
0.18273945 0.21975839 0.05213976 0.06004863 0.06273676 0.1282048 0.15909934 0.277518
0.06521855 0.06603133 0.20715845 0.10312841 0.11785951 0.22325416 0.1232369 0.06291032
0.067603245 0.08132055 0.101895474 0.076574035 0.12394731 0.12991844 0.091210894 0.17356732
0.12956826 0.14712112 0.1654754 0.0858954 0.15571573 0.14586572 0.11514072 0.06854289
0.09495366 0.114685066 0.122639395 0.13027713 0.13090181 0.095210545 0.13911784 0.04418262
0.26473093 0.14410612 0.18185869 0.11580772 0.15098265 0.16072784 0.075989224 0.115238816
0.15106145 0.05852489 0.17291935 0.12894431 0.18819693 0.13880064 0.15576813 0.08971807
0.14645265 0.17085141 0.118094236 0.06678578 0.15651661 0.15082796 0.081098564 0.1391447
0.29565245 0.07353471 0.1652946 0.11606783 0.25125396 0.107175075 0.090210274 0.053537656

model.7.weight f4 [120, 120]
00000000: 0000 0000 0000 80bd 0000 003d 0000 00bd
00000010: 0000 00bd 0000 c03d 0000 c0bd 0000 80bd
00000020: 0000 c0bd 0000 003d 0000 80bd 0000 00bd
00000030: 0000 803d 0000 0000 0000 00bd 0000 80bd
00000040: 0000 0000 0000 00bd 0000 803d 0000 c03d
00000050: 0000 80bd 0000 803d 0000 803d 0000 803d
00000060: 0000 00bd 0000 803d 0000 0080 0000 0000
00000070: 0000 80bd 0000 c0bd 0000 803d 0000 0080
00000080: 0000 003d 0000 003d 0000 c03d 0000 c0bd
00000090: 0000 0000 0000 80bd 0000 0000 0000 803d
000000a0: 0000 003d 0000 80bd 0000 00bd 0000 00bd
000000b0: 0000 803d 0000 003d 0000 0000 0000 80bd
000000c0: 0000 0000 0000 c03d 0000 00bd 0000 80bd
000000d0: 0000 80bd 0000 00bd 0000 c03d 0000 0000
000000e0: 0000 003d 0000 0080 0000 00bd 0000 003d
000000f0: 0000 803d 0000 80bd 0000 803d 0000 003d
00000100: 0000 80bd 0000 0000 0000 00bd 0000 80bd
00000110: 0000 803d 0000 80bd 0000 803d 0000 00bd
00000120: 0000 80bd 0000 003d 0000 803d 0000 003d
00000130: 0000 00bd 0000 00bd 0000 00bd 0000 80bd
00000140: 0000 00bd 0000 003d 0000 803d 0000 003d
00000150: 0000 00bd 0000 00bd 0000 803d 0000 0080
00000160: 0000 003d 0000 c03d 0000 003d 0000 80bd
00000170: 0000 0080 0000 003d 0000 003d 0000 c0bd
00000180: 0000 00bd 0000 003d 0000 c03d 0000 80bd
00000190: 0000 803d 0000 803d 0000 00bd 0000 803d
000001a0: 0000 0000 0000 0080 0000 00bd 0000 c03d
000001b0: 0000 c0bd 0000 00bd 0000 803d 0000 c0bd
000001c0: 0000 00bd 0000 803d 0000 003d 0000 003d
000001d0: 0000 80bd 0000 0000 0000 003d 0000 c0bd
000001e0: 0000 c0bd 0000 0000 0000 0080 0000 00bd
000001f0: 0000 80bd 0000 803d 0000 803d 0000 c03d
00000200: 0000 80bd 0000 c03d 0000 803d 0000 803d
00000210: 0000 803d 0000 80bd 0000 00bd 0000 c03d
00000220: 0000 00bd 0000 003d 0000 003d 0000 803d
00000230: 0000 0000 0000 80bd 0000 c03d 0000 c03d
00000240: 0000 c0bd 0000 00bd 0000 c0bd 0000 803d
00000250: 0000 80bd 0000 c0bd 0000 003d 0000 00bd
00000260: 0000 c0bd 0000 0080 0000 0080 0000 c0bd
00000270: 0000 803d 0000 803d 0000 00bd 0000 0000
00000280: 0000 803d 0000 c0bd 0000 003d 0000 0000
00000290: 0000 003d 0000 0080 0000 c03d 0000 0080
000002a0: 0000 803d 0000 0000 0000 003d 0000 c0bd
000002b0: 0000 00bd 0000 003d 0000 003d 0000 80bd
000002c0: 0000 0080 0000 003d 0000 80bd 0000 0000
000002d0: 0000 c0bd 0000 0000 0000 0080 0000 0000
000002e0: 0000 003d 0000 803d 0000 003d 0000 803d
000002f0: 0000 c03d 0000 00bd 0000 80bd 0000 00bd
00000300: 0000 00bd 0000 80bd 0000 003d 0000 00bd
00000310: 0000 003d 0000 003d 0000 003d 0000 c0bd
00000320: 0000 00bd 0000 003d 0000 003d 0000 80bd
00000330: 0000 80bd 0000 80bd 0000 c0bd 0000 803d
00000340: 0000 80bd 0000 00bd 0000 0080 0000 0000
00000350: 0000 003d 0000 803d 0000 c0bd 0000 00bd
00000360: 0000 80bd 0000 00bd 0000 00bd 0000 003d
00000370: 0000 003d 0000 0080 0000 803d 0000 003d
00000380: 0000 003d 0000 803d 0000 80bd 0000 80bd
00000390: 0000 003d 0000 c03d 0000 80bd 0000 803d
000003a0: 0000 c0bd 0000 0080 0000 c0bd 0000 c0bd
000003b0: 0000 003d 0000 c0bd 0000 0000 0000 80bd
000003c0: 0000 80bd 0000 c03d 0000 c0bd 0000 c03d
000003d0: 0000 803d 0000 c03d 0000 00bd 0000 80bd
000003e0: 0000 c0bd 0000 00bd 0000 803d 0000 c03d
000003f0: 0000 00bd 0000 00bd 0000 0080 0000 803d
0.0 -0.0625 0.03125 -0.03125 -0.03125 0.09375 -0.09375 -0.0625
-0.09375 0.03125 -0.0625 -0.03125 0.0625 0.0 -0.03125 -0.0625
0.0 -0.03125 0.0625 0.09375 -0.0625 0.0625 0.0625 0.0625
-0.03125 0.0625 -0.0 0.0 -0.0625 -0.09375 0.0625 -0.0
0.03125 0.03125 0.09375 -0.09375 0.0 -0.0625 0.0 0.0625
0.03125 -0.0625 -0.03125 -0.03125 0.0625 0.03125 0.0 -0.0625
0.0 0.09375 -0.03125 -0.0625 -0.0625 -0.03125 0.09375 0.0
0.03125 -0.0 -0.03125 0.03125 0.0625 -0.0625 0.0625 0.03125
-0.0625 0.0 -0.03125 -0.0625 0.0625 -0.0625 0.0625 -0.03125
-0.0625 0.03125 0.0625 0.03125 -0.03125 -0.03125 -0.03125 -0.0625
-0.03125 0.03125 0.0625 0.03125 -0.03125 -0.03125 0.0625 -0.0
0.03125 0.09375 0.03125 -0.0625 -0.0 0.03125 0.03125 -0.09375
-0.03125 0.03125 0.09375 -0.0625 0.0625 0.0625 -0.03125 0.0625
0.0 -0.0 -0.03125 0.09375 -0.09375 -0.03125 0.0625 -0.09375
-0.03125 0.0625 0.03125 0.03125 -0.0625 0.0 0.03125 -0.09375
-0.09375 0.0 -0.0 -0.03125 -0.0625 0.0625 0.0625 0.09375
-0.0625 0.09375 0.0625 0.0625 0.0625 -0.0625 -0.03125 0.09375
-0.03125 0.03125 0.03125 0.0625 0.0 -0.0625 0.09375 0.09375
-0.09375 -0.03125 -0.09375 0.0625 -0.0625 -0.09375 0.03125 -0.03125
-0.09375 -0.0 -0.0 -0.09375 0.0625 0.0625 -0.03125 0.0
0.0625 -0.09375 0.03125 0.0 0.03125 -0.0 0.09375 -0.0
0.0625 0.0 0.03125 -0.09375 -0.03125 0.03125 0.03125 -0.0625
-0.0 0.03125 -0.0625 0.0 -0.09375 0.0 -0.0 0.0
0.03125 0.0625 0.03125 0.0625 0.09375 -0.03125 -0.0625 -0.03125
-0.03125 -0.0625 0.03125 -0.03125 0.03125 0.03125 0.03125 -0.09375
-0.03125 0.03125 0.03125 -0.0625 -0.0625 -0.0625 -0.09375 0.0625
-0.0625 -0.03125 -0.0 0.0 0.03125 0.0625 -0.09375 -0.03125
-0.0625 -0.03125 -0.03125 0.03125 0.03125 -0.0 0.0625 0.03125
0.03125 0.0625 -0.0625 -0.0625 0.03125 0.09375 -0.0625 0.0625
-0.09375 -0.0 -0.09375 -0.09375 0.03125 -0.09375 0.0 -0.0625
-0.0625 0.09375 -0.09375 0.09375 0.0625 0.09375 -0.03125 -0.0625
-0.09375 -0.03125 0.0625 0.09375 -0.03125 -0.03125 -0.0 0.0625

model.7.bias f4 [120]
00000000: abe9 463d 1953 54bd 14b1 96bc dc3c 6c3d
00000010: a7d9 3d3d ea83 b6bc d15e eabb 5a18 4fbc
00000020: b6c2 ab3d 0091 98bd 53f8 b63d c610 31bd
00000030: 0bda 23bc 0ad0 2f3c dd43 1ebd 0bca b3bb
00000040: de7b 693d 2816 18bd 9196 e73c 8122 923d
00000050: 09a1 b4bc 8ab8 b1bd df00 983d 7b1b ad3d
00000060: 0f6e 01bd 43a3 a33d a948 c43c fb25 ff3c
00000070: 0be0 0f3b 3e54 38bb 23da 4ebd 5c1b f0ba
00000080: bcda 563d a24f b8bd baef b0bd a197 973d
00000090: 8700 983d 5794 ca3b 88c5 5ebd f957 563d
000000a0: fc04 943d fe58 edbc 2052 b5bb 7b03 58bd
000000b0: bbc7 2d3d 6931 e23c a22f 99bd 3ecb a8bd
000000c0: b8d1 333d 286e 233c ef25 b63c dc32 34bc
000000d0: dfd9 e13b dabe 033d a417 653d dbde 4cbb
000000e0: 0c28 1a3c ab6f 51b8 7651 4a3d 44de 4ebd
000000f0: 890e 21bd 0296 a33d fdd7 66bd 4270 57bc
00000100: 3f8a 383d 9481 aabb 0070 6abc c6db b33d
00000110: a975 85bc d53a abbd 4ee0 37bc 7df7 acbd
00000120: f557 f03b 0560 7fbd 903a 78bc f9e9 6fbd
00000130: 5350 1bbd 60e7 35bc 12af 74bc 1502 05bd
00000140: 0268 803b 86ba e03c bc0f 1c3d f020 0cbd
00000150: 0449 a93c a897 813d b2b5 b53d 3a2a d73c
00000160: f3c2 a93c 8cfb 87bd 51d5 263c 0ee2 cdbc
00000170: de94 623d a32d 95bd 7b61 78bd 8358 a43d
00000180: a99c 8bbd 7b3f 473d 0560 943d 1eec ba3c
00000190: 738a 3fbd f674 4ebd 123d 16bc 2543 b5bd
000001a0: a061 8ebd aafb 5bbd 6f6d 9a3d bdb2 11bd
000001b0: 05d9 9a3c 0aca bc3c 7c9b 8f3d b7e6 7fbc
000001c0: bed5 81bd 1d09 8b3c c2ea c83c 5a65 a93c
000001d0: 84b6 623d 1014 10bc 971a 8a3c ad48 9ebd
0.048562687 -0.05183706 -0.018394984 0.057675228 0.046350148 -0.022279698 -0.0071524163 -0.012640083
0.083867475 -0.074495316 0.08934083 -0.043228887 -0.010000716 0.010730753 -0.03863894 -0.005486732
0.057002895 -0.037130505 0.028270038 0.07135487 -0.022049444 -0.08677776 0.07422041 0.08452507
-0.0315991 0.07990124 0.023960428 0.03114604 0.0021953608 -0.0028126384 -0.050501 -0.0018318701
0.052454695 -0.08999564 -0.08639474 0.07401968 0.074219756 0.0061822343 -0.0543876 0.05232999
0.07227513 -0.028973099 -0.0055334717 -0.052737694 0.042426806 0.027611451 -0.07479788 -0.0824189
0.043901175 0.009974994 0.022234885 -0.010998454 0.0068924273 0.032164432 0.05593075 -0.0031260762
0.009408962 -4.9933482e-05 0.049394093 -0.050504938 -0.039320502 0.07987596 -0.056358326 -0.013149323
0.045053717 -0.005203435 -0.014308929 0.08782153 -0.016291456 -0.08360831 -0.011222912 -0.08445642
0.007334704 -0.06234743 -0.015150681 -0.058572743 -0.0379184 -0.011102527 -0.014934318 -0.03247269
0.0039186487 0.027432691 0.038100943 -0.0342111 0.0206647 0.06327754 0.08872546 0.026265252
0.020722842 -0.06639776 0.0101826945 -0.025132205 0.055317752 -0.07284095 -0.06063984 0.08024695
-0.0681699 0.048644524 0.07244877 0.022817668 -0.046762895 -0.05040451 -0.009169834 -0.088506974
-0.06952214 -0.053706802 0.07540404 -0.03557085 0.018902311 0.023045558 0.07012078 -0.015618972
-0.06339596 0.016972119 0.024526004 0.020678211 0.05534984 -0.008793846 0.016858382 -0.077287056

model.8.weight f4 [120]
00000000: e88b 993e 5538 aa3e bec9 2e3f 014e 383f
00000010: e7d4 cd3e a4bf 953f 4e0a 793f 1d51 5d3e
00000020: 8ad2 043f 44dd 893e a07e 953f 2326 9b3e
00000030: f378 133e 68cc d13f f432 5a3e 881d 943e
00000040: d521 e53e 5a27 793f 835f e03f 19dd 493e
00000050: 6ea6 893e 263c d13f afbe 903e e65e 603f
00000060: b0b1 e23f 295b a53f 5a8d 303f 7ccb 903f
00000070: ae47 0f3f 7782 703e 72bc ee3e da40 953e
00000080: 7d89 b33e 09f6 203f f490 0a3f 2dd6 3b3f
00000090: 84df 633f 4e97 8d3e 9d58 8e3f bab0 533f
000000a0: 5168 ae3e 280e fc3d e4cb 9b3e c55b 4a3f
000000b0: d4fa f93e 6063 5e3f 62fa 373e a000 043f
000000c0: 531e 803f 184d 6a3f a182 303e 660a 3b3f
000000d0: d505 753f 75a5 bf3f 4acd cd3f 217e 653f
000000e0: 061e 1c3f 7005 973f c1e8 8e3f faaf cd3f
000000f0: 49e3 833f 76b1 8b3f 66da 813f a71e 1d3f
00000100: 0d9f b23f d2cc 703f 654c a93f da33 b33e
00000110: 351a 073f 38ee b33f bca4 a73f 30ef a13e
00000120: fc02 cc3e 1948 d93e 47cf 2c3f 8fa9 433f
00000130: dd6a a43f e30a 403f 1212 d03f 910e 533f
00000140: 238a 8c3e e1e4 2b3f 80fb 853f e2fb 6b3f
00000150: 428b 8f3f 2304 923f 4665 813f 8a4b 823f
00000160: 2126 213f 19b1 873f 134b a63f 3e37 353e
00000170: ee69 693e 9ccf 5b3e 2c15 843f 64c7 103e
00000180: 1050 673e c4a7 153f 2534 703f 8c8f 633f
00000190: 0f7c 913e 8595 973f 00c0 953e 2890 7d3f
000001a0: 7fc5 913e 2cd8 d03d 0b0c 963f 1339 933e
000001b0: aa79 f33e 1c84 233f 2903 d33f b17d e03f
000001c0: 52ab 173f a6cf 7a3f ff3c b13f b83c 543f
000001d0: 2a91 363e 17b7 0e3e b3f2 b03f 9c1c 073f
0.29989552 0.33246103 0.68276584 0.71994025 0.40201494 1.1699109 0.9728135 0.21612974
0.5188376 0.26926625 1.1679268 0.30302534 0.14401607 1.6390505 0.213085 0.2892878
0.44752374 0.9732567 1.7529148 0.19713248 0.26884788 1.6346481 0.2827048 0.87644804
1.7710476 1.2918445 0.68965685 1.1312099 0.5596875 0.23487268 0.46628147 0.2915104
0.35065833 0.6287542 0.5412743 0.7337368 0.8901293 0.276545 1.1120793 0.8269154
0.34063962 0.123073876 0.30428994 0.7904628 0.4882418 0.86870384 0.17966607 0.51563454
1.0009254 0.91523886 0.17237331 0.7306274 0.95712024 1.4972368 1.6078274 0.8964558
0.6098331 1.1798534 1.1164781 1.6069329 1.0303737 1.0913532 1.0144775 0.61374897
1.3954788 0.9406253 1.3226439 0.35000497 0.52774364 1.4057074 1.3097148 0.31627798
0.39846027 0.4243782 0.6750378 0.764306 1.2845112 0.7501661 1.6255515 0.824441
0.2744914 0.67146116 1.0467377 0.9218122 1.1214373 1.1407512 1.0109031 1.0179303
0.62948805 1.0600921 1.2991661 0.17696854 0.22794315 0.21465915 1.0318961 0.14138561
0.22589135 0.58459115 0.93829566 0.8889091 0.28414962 1.1842505 0.29248047 0.9904809
0.2847099 0.101974815 1.1722425 0.28754482 0.4755376 0.6387346 1.6485339 1.7538358
0.5924579 0.97973096 1.384674 0.8290515 0.17828813 0.1393703 1.3824066 0.5277803
