neural_networks/fixed_point_FP_sd_4333_8_BN_0.001596.pt (torch, 267337 bytes, 28 tensors)

model.1.weight f4 [120, 16]
000000 68 66 6e 3e c0 ee ee 3b 6e 7a 4c be 2e 41 3b be
       0.23281252 0.007291645 -0.19968578 -0.18286583
000010 4e f1 4f 3e 94 0f 9e bd 70 43 e4 bd 28 3d 5a 3e
       0.20306894 -0.07717815 -0.11145675 0.21312392
000020 f0 c5 70 3d c4 af ca 3d 86 3d 47 3e e0 4a 2f bc
       0.058782518 0.09896806 0.19457063 -0.010699004
000030 ae f6 01 3e 08 7f 76 be 28 d7 fe 3d aa 19 44 3e
       0.12691757 -0.24071896 0.124433815 0.19150415
000040 62 e1 15 be b8 c8 6b bd ec c5 15 3e 68 6c 14 3d
       -0.14636758 -0.057564467 0.14626282 0.036236197
000050 e6 85 5e be a0 79 43 3e 70 97 06 bd a4 74 eb 3d
       -0.21730766 0.19089365 -0.032859266 0.11496857
000060 e4 a6 91 3d 1e 3e 2f be 78 25 45 3e b2 52 24 be
       0.0711191 -0.1711354 0.19252574 -0.16047171
000070 c8 f3 6d 3d 04 a0 4a 3e 78 46 8c 3d 40 c7 8f bc
       0.058093816 0.19787604 0.06849378 -0.017551064
000080 02 d6 09 be 1e 38 0d 3e 56 d0 30 be ec b8 e6 bd
       -0.13460544 0.13790938 -0.17266974 -0.1126574
000090 98 c9 55 bd 70 0c 5c 3d 38 3f e0 bd 08 27 f4 3d
       -0.052194208 0.0537228 -0.10949558 0.11921507
0000a0 40 19 98 3c 32 37 68 be ee 18 52 be 9c e8 a4 bd
       0.018566728 -0.22677305 -0.20517322 -0.08052179
0000b0 ca c9 16 3e 78 b8 46 bd 04 0e b1 bd 64 8f 08 3e
       0.14725414 -0.048515767 -0.086452514 0.13335949
0000c0 90 63 9a bc a8 f7 f9 bd bc c2 f5 3d d8 3d 06 bd
       -0.018846303 -0.1220544 0.12000033 -0.032773823
0000d0 1c b2 4f be 14 01 83 3d 9c 84 50 be 48 62 db bd
       -0.20282787 0.0639669 -0.20363086 -0.10712105
0000e0 30 f4 d0 3c 00 a3 e9 3b 54 40 c6 3d 48 a6 8c 3d
       0.025507063 0.007130027 0.09680238 0.06867653
0000f0 b8 27 cc bd 42 55 13 be 18 df 97 bd f8 39 c4 bd
       -0.09968513 -0.14387992 -0.07415599 -0.09581369
000100 68 07 5e be 68 2c 0b 3d ee 59 42 be c6 c0 08 be
       -0.21682513 0.033977896 -0.18979618 -0.13354787
000110 fc 4d 9b bd 90 ca ce bd 76 83 4e 3e 68 3a 37 bd
       -0.07583234 -0.100972295 0.20167336 -0.044733435
000120 f4 0c 2d be 20 bd fc bc a8 ce 53 bd bc 18 74 be
       -0.16899472 -0.0308519 -0.051710755 -0.2383756
000130 70 10 d5 bc 70 e8 e7 bd e8 bb 06 3d 50 52 84 3d
       -0.026008815 -0.11323631 0.032894045 0.06461012
000140 4a 3f 33 be 82 b9 5e be 5c 57 82 bd 50 18 35 3d
       -0.17504612 -0.21750453 -0.06364319 0.04421264
000150 68 65 16 3d 8c 9e 45 3e 4c 83 3c 3e 30 db 30 be
       0.036717802 0.19298762 0.18409461 -0.17271113
000160 00 cc 43 3a 10 c4 a7 bd e2 1a 02 be 92 10 3b 3e
       0.0007469058 -0.08191693 -0.12705567 0.1826804
000170 70 08 23 bd 2e d1 3e 3e 90 bc 5f be 48 d6 01 3d
       -0.03980297 0.18634483 -0.21849275 0.031698495
000180 1c d9 5f 3e 88 96 93 3d 96 4a 2f be f8 ce 4f be
       0.21860164 0.07206446 -0.17118296 -0.20293796
000190 c4 dd 1e 3e 4a e9 59 3e 24 84 18 3e 00 3a 1f bd
       0.15514284 0.21280399 0.14894158 -0.038873672
0001a0 ca f9 14 3e b8 5b e5 bd 1a 19 45 be 1c 36 74 be
       0.14548412 -0.111991346 -0.19247857 -0.23848766
0001b0 f4 ef 5a 3e 00 49 9c 3d 80 d5 cb bc de d3 68 3e
       0.21380597 0.07631111 -0.024882078 0.22737071
0001c0 f8 3a 7b 3d 28 5a 16 be 6c f8 61 3e 4c 79 78 3e
       0.061335534 -0.1468283 0.22067422 0.24265021
0001d0 76 07 0a 3e 84 d6 a4 bd d8 3c 1f 3e 9e e3 22 3e
       0.13479409 -0.08048728 0.15550554 0.15907142
0001e0 fc 41 5d be f2 a5 27 be 00 4a 29 3a 9c 85 60 3e
       -0.21607202 -0.16371897 0.0006457865 0.21925968
0001f0 8a 5e 44 be b8 78 f5 3d be 17 59 be e8 ce 41 bd
       -0.19176689 0.11985916 -0.21200463 -0.04731646
000200 64 bd 5a 3e bc 35 6b be bc bf 74 3e 0c f2 54 be
       0.2136131 -0.22969717 0.23901266 -0.20795459
000210 34 8b 1d 3e 5c 73 83 bd a6 c6 66 3e 00 ac 20 ba
       0.15385133 -0.064184874 0.22536716 -0.00061291456
000220 36 43 76 be 40 43 c6 3c e4 df 4c 3e 90 e0 42 bd
       -0.24049076 0.02420199 0.20007282 -0.04757744
000230 a8 d1 47 3e 66 9c 7a be 66 de 46 be b0 5e ce 3d
       0.19513571 -0.24473724 -0.19420776 0.10076654
000240 98 cb 8e bd 64 01 3d 3e ee 0a 7d be c0 a1 91 3b
       -0.06972426 0.18457562 -0.247112 0.004444331
000250 00 30 65 bc 08 af 79 bd 90 47 3c 3e 0c 03 bb 3d
       -0.013988495 -0.06095794 0.18386674 0.091314405
000260 e2 ac 20 3e e0 76 10 3d 5a 82 5e be 34 f4 2b 3e
       0.1569095 0.035269618 -0.21729413 0.16792375
000270 e0 77 20 3c ec 86 f8 3d 62 4b 6c 3e 2a a0 6d 3e
       0.009794205 0.12135109 0.23075631 0.23205629
000280 20 f7 f4 bc 00 45 04 3b a0 ec 56 3e 2e 11 71 3e
       -0.029902995 0.0020182729 0.20988703 0.2354171
000290 54 a8 91 3d c0 ef 8f bb 2a 45 55 3e f8 04 68 3e
       0.07112184 -0.004392594 0.20827165 0.22658145
0002a0 3c 1b 5b 3e c0 40 1f bd 60 ea d3 3d 00 0f 6a bd
       0.21397108 -0.03888011 0.10347438 -0.05714321
0002b0 ac 16 55 be 10 2a 2e be e0 eb 6c be 8e 36 56 be
       -0.2080943 -0.17008233 -0.23136854 -0.20919248
0002c0 9c ef 16 be 42 33 76 be 5c 65 e5 3d b0 d9 d9 3d
       -0.14739841 -0.24042991 0.112009734 0.10637224
0002d0 a4 20 26 3e 00 1f c6 3a 90 2c 2c be d4 2a 96 bd
       0.16223389 0.001511544 -0.16813874 -0.073323876
0002e0 90 75 40 bd 88 ab 37 be b2 a2 42 3e da f6 01 3e
       -0.046987116 -0.17936528 0.19007376 0.12691823
0002f0 18 53 92 3d c4 63 cb bd b0 d2 68 bd 10 6a e1 3d
       0.07144755 -0.09931138 -0.056841552 0.11006558
000300 36 d3 40 be 30 17 6a be 44 80 43 3e f4 05 6c 3e
       -0.1883057 -0.22860408 0.19091898 0.23049146
000310 00 e0 7c 3d 20 e7 5f 3d 66 5c 7b be 50 c3 e3 bd
       0.06173706 0.054663777 -0.24546966 -0.11121237
000320 60 bb e5 3d c0 93 2f bd bc 2e 01 be 18 70 5c be
       0.112173796 -0.042865515 -0.12615484 -0.21527135
000330 34 a5 7b be 5c d8 1d be 40 c9 84 3d a0 68 f5 bd
       -0.24574739 -0.15414566 0.06483698 -0.11982846
000340 26 ae 10 3e 00 cc a0 3b d0 a6 8d bc e2 68 1f 3e
       0.14128932 0.004907131 -0.017291456 0.15567353
000350 d8 f9 9e bd e0 d1 61 3d 2e 33 78 be d4 bd 40 3e
       -0.07762498 0.055131793 -0.24238274 0.18822414
000360 40 e9 31 be b4 c9 39 be 6a e9 41 3e 2c df 85 bd
       -0.17374134 -0.1814335 0.18936697 -0.06536707
000370 f0 30 4b be c0 b7 13 3e c4 48 c4 bd 6c ea a2 3d
       -0.19842887 0.14425564 -0.095841914 0.07954869
000380 8a 41 3c be 28 19 15 3d d8 dc da bd 94 bf 28 3e
       -0.18384376 0.036400944 -0.10686654 0.16479331
000390 d0 26 42 be 14 d5 25 3e 6c d8 c0 3d b8 ea e7 bd
       -0.18960118 0.16194564 0.09416279 -0.11324066
0003a0 80 cf fe bd 80 86 33 bb 02 5e 34 3e a8 47 37 be
       -0.12441921 -0.00273934 0.17613986 -0.17898428
0003b0 08 61 02 3d 68 af 3f be 5a cf 5a 3e 0c 71 e5 bd
       0.031830817 -0.18719256 0.21368161 -0.112032026
0003c0 64 8f c7 3d a0 5b 2a 3d 40 71 a2 3b b4 84 2e be
       0.097441465 0.041591287 0.004957348 -0.1704281
0003d0 8e d4 11 3e 50 66 33 3e e6 a8 57 3e c0 3b 5d 3d
       0.1424124 0.17519498 0.21060523 0.05401206
0003e0 dc d3 86 3d a0 d8 4d 3d 0e 2c 44 be e2 38 0a 3e
       0.06583378 0.050255418 -0.1915743 0.13498262
0003f0 10 64 10 3d d0 35 dc bd 50 b2 ec 3d b4 95 a0 3d
       0.035251677 -0.107524514 0.11557448 0.078410536

model.1.bias f4 [120]
000000 35 f5 0e 3d 12 00 f0 3d 30 00 62 3e 4f ed 22 bc
       0.034901816 0.117187634 0.22070384 -0.009944274
000010 c1 38 3f be 42 60 d6 bd db 21 4d 3d 31 c1 49 be
       -0.18673994 -0.104675785 0.050081115 -0.19702603
000020 d7 5b b0 3c 5e 7c 00 be 2f 35 6a be bf 8b de bd
       0.021528168 -0.12547442 -0.2287185 -0.10866498
000030 c5 dd 8f bd a5 db 74 3c df 9e 1f bc c7 59 af bd
       -0.07024721 0.014944945 -0.009742468 -0.085620455
000040 03 37 dc 3d 42 b3 d9 bd a1 96 a0 bd 42 68 10 be
       0.1075268 -0.10629894 -0.0784123 -0.14102271
000050 81 28 4d bd c3 1c 27 3e aa 43 0a be 3d 32 ef bd
       -0.050087456 0.16319565 -0.13502374 -0.11679504
000060 5e cf 27 3c 42 f0 8c bd 02 80 2a 3d bd 95 74 be
       0.010242311 -0.06881763 0.041625984 -0.23885246
000070 aa 1e 38 3e 45 7e 03 3e 5a 2a 4e be da 78 37 3d
       0.17980447 0.12841137 -0.20133343 0.044792987
000080 2a f5 ce 3d a8 85 79 3d b1 78 db 3d 5e 5b 3e 3e
       0.10105355 0.06091848 0.107163794 0.18589541
000090 97 1a 80 bc d8 ea 25 3e dc fd f4 bd 26 78 7c 3e
       -0.015637679 0.16202867 -0.11962482 0.24655208
0000a0 b7 9e 29 3c ba fd 86 bd b6 49 e6 bd 88 87 f3 3c
       0.010352782 -0.06591363 -0.11244528 0.029727712
0000b0 35 b9 5a 3d d0 b3 0e bd 69 57 40 3e 55 3e 02 3e
       0.053399283 -0.03483945 0.18783344 0.1271909
0000c0 ff 51 e6 3d b1 a5 15 bd 7f 98 15 be 5b 80 27 be
       0.11246108 -0.03653497 -0.14608954 -0.16357557
0000d0 9c bb c8 bc 4d 65 62 be df e8 2c be 7e f3 21 3e
       -0.024503522 -0.22108956 -0.16885708 0.15815541
0000e0 01 65 75 3e 48 05 01 3e b7 e2 ab 3d 44 bf fb bc
       0.23964311 0.12599671 0.08392852 -0.030730851
0000f0 22 c2 12 3e 40 95 28 be 53 30 4c be 04 a3 55 3e
       0.14331868 -0.16463184 -0.19940309 0.20862967
000100 08 02 71 be 8f 5f 66 be 42 e7 f6 bd ca f7 59 bd
       -0.23535931 -0.2249739 -0.12055828 -0.053214826
000110 c6 c7 c2 3d b7 2c e4 bc f6 d6 48 3e 5e 31 37 be
       0.0951076 -0.027853353 0.19613251 -0.17889926
000120 d7 23 fb bd e6 20 86 3d 5a b6 fc bc 46 81 75 be
       -0.12262695 0.06549244 -0.03084867 -0.23975095
000130 ad f1 21 3d c4 47 20 bd 01 83 4c 3e be e3 49 be
       0.03953712 -0.03913094 0.19971849 -0.19715783
000140 02 57 0e 3e de ce 0c be fc 55 75 3d fe b6 71 3e
       0.13900378 -0.13750789 0.059896454 0.23604962
000150 fb b7 41 3e e6 19 c5 3d a9 a1 a8 3d 5a 7e 06 3c
       0.18917839 0.0962408 0.08233959 0.0082088355
000160 d5 a0 40 be 1e 3c e4 bd 23 36 8a 3d a2 51 b0 bc
       -0.18811353 -0.11144279 0.06748607 -0.0215233
000170 43 90 94 bd 00 d1 29 3e b3 74 69 be 58 0d 83 3d
       -0.07254078 0.16583633 -0.22798423 0.063990295
000180 5c 51 ee 3d de 8d 77 be 4d 0c d7 3d 8e 2f 5d 3e
       0.11636612 -0.24175212 0.10500393 0.21600172
000190 ae e4 34 3e d4 3e 65 be 0f 90 c6 3c 51 bb a4 bd
       0.1766536 -0.22387248 0.024238614 -0.0804354
0001a0 73 52 a6 bd 0c 9a a1 3d bb fc 52 be cf 6c 61 be
       -0.08121195 0.0789071 -0.20604222 -0.22014163
0001b0 a0 13 92 bc a2 91 49 be dc 80 99 bd ad 23 3f 3e
       -0.017831624 -0.19684461 -0.07495281 0.18665953
0001c0 54 ca 07 be c5 11 88 bd ad 72 54 3e bb 71 86 3d
       -0.13260776 -0.06644014 0.2074687 0.06564661
0001d0 5d 6c 3b be d6 86 76 bc 04 c1 16 3e be 31 64 be
       -0.18303056 -0.015046796 0.14722067 -0.222846

model.1.weight_org f4 [120, 16]
000000 54 1f 82 3e ec 0b 38 3d e1 60 22 be ad 92 5c be
       0.25414526 0.044933245 -0.15857269 -0.21540327
000010 3c b3 51 3e 0a 00 85 bd 8b 01 e8 bd 4d a3 5a 3e
       0.20478529 -0.06494148 -0.11328419 0.21351357
000020 2f ad e3 3c ff 62 9f 3d 56 07 83 3e ee 4d a2 3b
       0.027792541 0.07782554 0.25591534 0.0049531376
000030 f8 6b 11 3e 0a 7e 72 be 40 c2 07 3e a3 24 d7 3d
       0.14201343 -0.23680893 0.13257694 0.10505035
000040 e9 39 3c be da 03 d8 bd ac 5d f4 3d 5d a6 89 3d
       -0.18381466 -0.105476096 0.11931929 0.067211844
000050 7f b3 75 be 57 ff 2b 3e 26 6e 5d bd e4 58 e0 3d
       -0.23994254 0.16796623 -0.054060124 0.109544545
000060 78 89 31 3d 6e c2 18 be 33 91 1c 3e c7 6f 8b be
       0.04334399 -0.14917919 0.15289764 -0.27233717
000070 2c 3c d0 3c df c8 31 3e 73 26 35 3d b9 b0 10 bc
       0.025419317 0.17361782 0.04422612 -0.008831196
000080 63 ec d3 bd 67 1a 3c 3e c0 0c 08 be 53 e4 be bd
       -0.103478216 0.18369447 -0.13286114 -0.09320893
000090 91 6f e7 bd c9 67 7f bb 70 af 3a be a5 08 0e 3c
       -0.113005765 -0.0038971773 -0.18230987 0.008669053
0000a0 0f 19 4f 3a 2d d6 85 be c0 79 15 be 95 04 30 bd
       0.00079001574 -0.26139966 -0.14597225 -0.04297312
0000b0 39 a5 cb 3d 13 fb b7 bd 0b 03 d8 bd d8 41 0e 3e
       0.09943623 -0.089834355 -0.105474554 0.13892305
0000c0 c4 94 bf 3c a3 e1 f9 bd ed 31 40 3e cb 86 ca bd
       0.023386367 -0.1220124 0.18769045 -0.09888991
0000d0 d4 72 1f be e2 58 8c bb 02 35 37 be e2 96 0c be
       -0.15571147 -0.0042830566 -0.17891315 -0.13729432
0000e0 f1 c5 3f 3c d3 74 0b 3b 4f 0d 63 3d e8 8f 95 3d
       0.011704908 0.002127935 0.055432614 0.073028386
0000f0 16 62 10 be 3e 35 05 be e2 76 96 bd 1d dd 6e bd
       -0.14099917 -0.13008592 -0.07346894 -0.05831634
000100 5c 72 7c be d8 b5 97 3b f3 7a 57 be 7c e9 ed bd
       -0.24653 0.0046298318 -0.21042995 -0.11616799
000110 a4 59 6f bd 3d 79 06 bd 2e 00 3b 3e 6f 88 e8 bd
       -0.058435097 -0.032830466 0.18261787 -0.11354148
000120 ba 00 14 be 9b 3a 06 bd 81 f9 b7 bd 9a 72 4c be
       -0.14453402 -0.032770734 -0.08983136 -0.19965592
000130 2a d7 b7 bb ae 20 f8 bd 90 cc e9 3c b9 07 70 3d
       -0.0056103664 -0.12115608 0.028539926 0.058601115
000140 de 4d 51 be 3a 97 95 be 96 41 74 bc ec 01 e8 3d
       -0.2043986 -0.2921694 -0.014908215 0.113284916
000150 18 ff d7 3d fb 8e 03 3e b6 aa 49 3e 52 1a 80 be
       0.10546702 0.12847511 0.19694027 -0.2502008
000160 fd 84 44 3d 4a cd 95 3c 09 00 1c be c2 f9 b7 3d
       0.04797839 0.018286366 -0.15234388 0.089831844
000170 8c 84 d1 bc c1 00 98 3d 16 11 01 be c3 57 35 3d
       -0.025575899 0.07422019 -0.12604174 0.04427315
000180 23 dd a0 3e 99 95 04 3d 1d 9e 38 be 59 40 6e be
       0.31418714 0.03236923 -0.18029065 -0.23266734
000190 db ae 20 3e 6f 06 3c 3e 60 57 aa 3d 7c 09 ca bc
       0.15691702 0.18361829 0.08317447 -0.024662726
0001a0 a0 67 69 3d 23 b8 0b be 5b 7e 68 be 15 91 2d be
       0.05698359 -0.13644461 -0.22704451 -0.16949876
0001b0 d3 5b 76 3e 96 e3 9c 3d f7 be 66 bc ac ae e9 3d
       0.24058466 0.07660596 -0.0140836155 0.11410269
0001c0 54 32 dc 3d d8 a1 56 be 48 d5 8d 3e 37 44 54 3e
       0.10751787 -0.20960176 0.27701783 0.20729147
0001d0 6b 4b 1b 3e dd a7 ce bd eb ff 23 3e 29 93 e6 3d
       0.15165488 -0.10090611 0.16015594 0.11258537
0001e0 31 e6 43 be 5c d7 f3 bd a1 2b 7d bc 5f d0 09 3e
       -0.1913078 -0.11906311 -0.0154522965 0.13458394
0001f0 42 d1 3f be cb 02 04 3e 6b fa 4b be b6 06 e5 bd
       -0.1873217 0.1289169 -0.19919746 -0.11182921
000200 ba 00 92 3e 96 ed ab be 76 01 54 3e 0c 17 86 be
       0.2851618 -0.335797 0.20703682 -0.26189458
000210 f1 65 36 3e 02 00 b7 bd c4 ff 53 3e 16 ce 3e bc
       0.17812325 -0.08935548 0.20703036 -0.011645814
000220 27 e2 0e be 2c 00 50 3d f1 ff 2b 3e 87 3a 83 bd
       -0.13953458 0.050781414 0.16796853 -0.064076476
000230 2a 74 39 3e ee 22 4e be fd ae 21 be 95 8e 1c 3e
       0.1811072 -0.20130512 -0.15789409 0.15288766
000240 3f cc 20 bd 6a cc 2c 3e c5 3e 6f be 20 47 75 3c
       -0.039257284 0.16874853 -0.23363788 0.014970571
000250 6c 7d 39 3d 08 75 2a bc f8 3f 23 3e f0 c9 4e 3d
       0.045285627 -0.010403879 0.15942371 0.05048555
000260 c1 a9 4d 3e 22 a2 3d 3d 00 4e 8d be 0f 60 4e 3e
       0.20084287 0.0462972 -0.27598572 0.20153831
000270 fd 5b bb 3c 6b cb a6 3d 94 8e 7c 3e fd e0 3f 3e
       0.022871012 0.08144268 0.24663764 0.1873817
000280 04 d1 91 bd 1d b1 4d bd 54 52 51 3e e6 a4 92 3e
       -0.07119945 -0.050217737 0.20441562 0.28641433
000290 cd 57 81 3d 95 bb 1c 3b e6 d7 42 3e f0 b1 89 3e
       0.06315575 0.0023915519 0.19027671 0.26893568
0002a0 aa d0 62 3e eb e4 de bc ed 09 d8 3d 50 f6 a2 3c
       0.22149912 -0.027208766 0.10548768 0.019892842
0002b0 75 d5 3d be 81 91 0f be 83 39 7b be 65 c4 1a be
       -0.18538459 -0.14020349 -0.24533658 -0.15113981
0002c0 48 23 25 be 37 ea 5b be bf a6 e7 3d ee d5 2b 3e
       -0.1612674 -0.21476065 0.11311101 0.16780826
0002d0 cf af 54 3e f2 3e 89 bb 62 d5 ea bd da 50 87 bd
       0.2077019 -0.004188412 -0.11466481 -0.06607218
0002e0 b9 2a 25 bd 93 ce 37 be 1b f7 59 3e f9 b8 00 3e
       -0.040323947 -0.17949896 0.2128567 0.12570561
0002f0 8b 7f 92 3d 23 a2 90 bd d1 71 c0 bc 3c 41 f7 3d
       0.07153233 -0.07062175 -0.023491772 0.12072989
000300 6e 36 88 be 7a 01 5c be 4d 2b 63 3e 01 d6 65 3e
       -0.26604027 -0.21484938 0.22184487 0.22444917
000310 c8 b6 f2 3d 73 6e a1 bc 29 47 96 be ed ff d7 bd
       0.11851269 -0.019705987 -0.29351166 -0.10546861
000320 e3 56 02 3e 80 27 c8 3c 9d 90 0d be 52 96 4a be
       0.12728457 0.024432898 -0.13824697 -0.19783905
000330 d5 08 38 be 06 e2 05 be 76 03 88 3d 56 09 b9 bd
       -0.17972119 -0.13074502 0.06641285 -0.09034984
000340 ec af 27 3e bf 0f 10 3d 86 04 10 bd c3 d4 b9 3d
       0.16375703 0.035171267 -0.035160564 0.09073784
000350 98 01 4b bd 9c 5e 51 3d e2 eb 69 be c3 d6 43 3e
       -0.049562067 0.051115617 -0.22843888 0.19124894
000360 85 c0 16 be 62 a1 3d be cd 9e 53 3e f4 b7 ef bd
       -0.14721878 -0.18518594 0.20666046 -0.11705008
000370 55 00 34 be 83 68 4b 3e 42 ae d5 bd 05 5b 52 3d
       -0.17578252 0.19864087 -0.10433628 0.051356334
000380 22 57 8d be 10 32 d7 3c fc 07 b8 bd 48 4a 6c 3e
       -0.2760554 0.026268989 -0.08985898 0.23075211
000390 e4 ae ee bd b5 e5 f7 3d ca fb af 3d d6 fb 13 be
       -0.116544515 0.1210436 0.08592947 -0.14451537
0003a0 41 f1 d7 bd 96 00 40 bc e4 fe 4b 3e 7b e8 d2 bd
       -0.105440624 -0.01171889 0.19921452 -0.102982484
0003b0 5d fc 0f 3d 1e 17 40 be 25 8d 38 3e de ae 84 bd
       0.03515278 -0.18758819 0.18022592 -0.06478666
0003c0 bb af 25 3e ef e7 4f 3d 82 c8 7f bc 08 50 3c be
       0.16180317 0.0507583 -0.01561177 -0.18389904
0003d0 1a a3 1a 3e 25 b4 3d 3e 7d 71 69 3e 23 4a 0d 3d
       0.15101281 0.18525751 0.22797199 0.03449453
0003e0 13 16 a6 3d c6 5b 24 3d 4f 4e 0d be 0d ba f1 3d
       0.08109679 0.040126584 -0.13799404 0.118030645
0003f0 04 3e e4 3a ae ff 13 be b1 3b a0 3c f3 92 8b 3d
       0.0017413502 -0.14453003 0.019559713 0.06815138

model.2.weight f4 [120]
000000 e1 1d 77 3f 21 9b 81 3f 2e 4d 80 3f 4b 1e 86 3f
       0.96529967 1.0125467 1.0023553 1.0477995
000010 8b f3 80 3f 2d f6 7c 3f 2c b8 79 3f 69 4f 80 3f
       1.0074323 0.98813134 0.9754665 1.0024234
000020 48 45 86 3f ba 80 7a 3f bd e4 84 3f 7c 68 85 3f
       1.0489893 0.9785267 1.0382305 1.0422511
000030 7e a6 87 3f c5 03 80 3f c5 67 83 3f 44 34 87 3f
       1.0597684 1.000115 1.0266043 1.0562825
000040 14 bf 7d 3f c3 d4 79 3f 89 15 81 3f 64 34 84 3f
       0.9911969 0.97590274 1.0084697 1.0328488
000050 26 69 88 3f 1b 59 82 3f 67 1c 82 3f d2 11 80 3f
       1.0657089 1.0183443 1.0164918 1.0005438
000060 4f 0a 83 3f 35 62 7c 3f a9 c0 81 3f 7d fd 79 3f
       1.0237521 0.9858735 1.013692 0.9765242
000070 a7 38 83 3f 46 a1 82 3f 99 36 7c 3f 56 91 7f 3f
       1.0251664 1.0205467 0.9852081 0.9983114
000080 47 6d 7e 3f 66 c9 75 3f c6 09 75 3f d4 ec 80 3f
       0.99385494 0.96010435 0.9571804 1.0072274
000090 6d 83 81 3f d2 ad 82 3f 36 fd 81 3f bd 16 81 3f
       1.0118233 1.0209296 1.0155399 1.0085064
0000a0 e9 c9 7b 3f e8 bd 78 3f 11 a6 7c 3f f3 8f 7e 3f
       0.98354965 0.97164774 0.986909 0.994384
0000b0 b5 67 7e 3f 61 8c 80 3f 84 03 80 3f 1a 0b 81 3f
       0.99376994 1.004284 1.0001073 1.0081513
0000c0 40 42 83 3f 06 03 82 3f 4b 87 80 3f 56 b4 81 3f
       1.0254593 1.0157173 1.0041288 1.0133159
0000d0 72 d9 7c 3f c9 3a 86 3f 0c 98 78 3f ee 30 80 3f
       0.98769295 1.048669 0.97107005 1.0014932
0000e0 06 a3 82 3f 89 7c 7b 3f 3f 83 81 3f da 20 83 3f
       1.0206001 0.982369 1.0118178 1.02444
0000f0 a2 42 82 3f 15 36 87 3f b0 9e 81 3f 75 9d 88 3f
       1.0176585 1.056338 1.0126553 1.0673052
000100 f7 01 80 3f 9e 66 7c 3f f9 77 72 3f d5 b6 7b 3f
       1.00006 0.9859408 0.94714314 0.98325855
000110 f6 74 79 3f 53 b4 7b 3f 47 f6 80 3f 5b 0b 77 3f
       0.97444093 0.9832203 1.0075158 0.965017
000120 cc 90 7d 3f 6e 1c 82 3f 10 b7 81 3f d4 b0 7a 3f
       0.9904907 1.0164926 1.0133991 0.9792607
000130 c6 43 78 3f ad f9 74 3f b9 62 7a 3f 48 ba 84 3f
       0.96978414 0.95693475 0.9780689 1.0369349
000140 74 cc 81 3f dd 86 83 3f bb 49 81 3f 4b 2a 84 3f
       1.0140519 1.0275532 1.0100626 1.0325407
000150 d0 ed 7e 3f 6a 0a 7a 3f fd 6a 80 3f b3 41 81 3f
       0.99581623 0.9767214 1.003265 1.0098175
000160 85 4f 7d 3f 2e d6 82 3f 26 18 83 3f 93 fc 82 3f
       0.9894946 1.0221612 1.0241745 1.023333
000170 fe 07 80 3f f5 f3 81 3f 28 fd 76 3f 3c 8c 7e 3f
       1.0002439 1.0152575 0.96480036 0.9943273
000180 2e 08 77 3f 17 d8 7e 3f d0 73 75 3f 5c 31 87 3f
       0.96496856 0.99548477 0.9587984 1.0561938
000190 2e f2 79 3f 6b 4a 77 3f df 40 8b 3f 34 b3 80 3f
       0.9763516 0.9659793 1.0879172 1.0054688
0001a0 61 a3 81 3f 66 33 81 3f f1 e4 82 3f 80 ff 81 3f
       1.0127984 1.009381 1.0226117 1.0156097
0001b0 4d a7 74 3f 1a 15 81 3f 5d d3 7d 3f b6 7b 80 3f
       0.9556778 1.0084565 0.9915064 1.0037754
0001c0 05 a4 79 3f 41 b1 83 3f 3c d8 77 3f ee 86 83 3f
       0.975159 1.0288469 0.9681432 1.0275552
0001d0 9c 76 81 3f 34 08 7f 3f a6 57 81 3f 22 b5 87 3f
       1.0114322 0.9962189 1.0104873 1.0602152

model.2.bias f4 [120]
000000 ac 7c fe 3d 0f 19 3c 3a fa 24 72 3d b1 2d d8 3d
       0.12426123 0.0007175365 0.059117295 0.1055559
000010 bd fc 64 3d fb 74 49 3e 32 87 64 3d d1 90 e4 3d
       0.055905093 0.19673531 0.055792995 0.11160434
000020 3d d1 4f 3d 98 86 ac 3d b7 97 c6 3d 52 f6 55 3d
       0.050736655 0.08424109 0.09696906 0.052236862
000030 c6 1c 3d 3d 1c 32 fa 3d 12 77 ea 3d 70 89 97 3d
       0.04617002 0.12216589 0.11448492 0.07399261
000040 2c cf 89 3d 62 00 72 3c 1c f5 51 3d a5 69 91 3c
       0.06728968 0.014770599 0.051259145 0.01775057
000050 bf 9e 91 3d 6c 3a 6a 3d 7a 54 39 3d 75 14 99 3d
       0.071103565 0.05718462 0.04524658 0.07474605
000060 81 a6 81 3c df ec 5c 3d 75 b2 e2 3d 56 13 99 3d
       0.015826466 0.053936835 0.11069194 0.07474391
000070 81 3e a1 3d f5 47 c9 3d 27 c7 07 3d 99 a7 30 3d
       0.0787325 0.09828178 0.03314891 0.043128584
000080 b4 5c 17 3e 18 dd 02 3e aa 80 8a 3d 5b 1f 0b 3d
       0.14781457 0.12779653 0.06762822 0.03396545
000090 de 8c 1a 3d df 71 66 3d 2e 69 b4 3d 6d 75 eb 3c
       0.037731998 0.05626094 0.08809124 0.028742516
0000a0 b3 89 99 3d 95 27 73 3d 9f fa 23 3e c3 7b ac 3d
       0.07496967 0.05936392 0.16013573 0.08422043
0000b0 9e a3 0a 3e 1b 60 e6 3c 7b 97 bd 3d d0 60 f9 3d
       0.13538978 0.028121999 0.09257408 0.12176669
0000c0 ef 2c 3a bc 23 e4 0b 3e cb 91 bf 3d a7 17 8a 3d
       -0.011363252 0.13661246 0.0935398 0.067427926
0000d0 33 15 dd 3c 70 32 80 3d 79 44 70 3d f7 2d 42 3d
       0.026987648 0.0625962 0.05865905 0.047407117
0000e0 c3 0c 9f 3c 1e e0 b1 3c 06 e3 72 3c b3 87 9c 3d
       0.019415265 0.021713313 0.014824634 0.0764307
0000f0 f7 8b dc 3d 77 d4 33 bb 12 0b 02 3e d9 c2 56 3d
       0.10768884 -0.0027439871 0.12699535 0.052431915
000100 45 2b da 3d 30 6d f5 3c 82 ca 73 3d 93 92 7c 3d
       0.10652784 0.029959291 0.0595193 0.06166322
000110 e7 52 c2 3b 56 47 ab 3d e6 06 80 bc e8 28 4a 3d
       0.005930293 0.083632156 -0.01562829 0.049355417
000120 9c 30 bc 3d 47 4d c1 3d 39 89 7e 3d a2 50 7c 3d
       0.09188959 0.094385676 0.062142584 0.061600335
000130 b9 3a 68 3d 5b ff 0e 3d be 36 64 3d 3e 13 22 3c
       0.056696627 0.034911495 0.05571627 0.009892283
000140 6a 5c 98 bc d6 71 9a 3d 4a f6 d8 bd c1 0f 87 3d
       -0.018598754 0.07541244 -0.10593851 0.06594802
000150 e2 0f 59 3d a7 bc 48 3d 21 40 c2 3d b3 85 93 3d
       0.052993663 0.049008038 0.09484888 0.072032355
000160 9c 06 04 3e 80 83 b9 3d e3 01 7a 3d 68 e9 b1 3d
       0.12893146 0.09058285 0.061036956 0.08687097
000170 a1 14 dd 3d 40 cb ca 3c df bc 21 3c 04 6f e7 3c
       0.1079495 0.02475512 0.0098716905 0.028251179
000180 ac a1 9e 3d c1 3d 88 3b 18 f4 61 3d b6 0c 4e 3c
       0.0774568 0.0041577523 0.055164427 0.012576273
000190 3a 9f 1c 3d 2d 98 d3 3c 67 ed 9a 3d 5b 5e fa 3c
       0.038237788 0.025829399 0.07564812 0.03056257
0001a0 6d 1b 88 3d 6b 32 19 bc 1c 92 0e 3e 55 d6 90 3d
       0.06645856 -0.0093503995 0.13922924 0.070721306
0001b0 03 62 df 3d 95 b5 76 bc d0 99 ad 3d 18 c6 97 3d
       0.10907366 -0.015057941 0.08476603 0.0741083
0001c0 27 ee 6c 3d 34 d7 60 3d d2 b9 b1 3d 06 27 d2 bb
       0.057844307 0.054892734 0.086780205 -0.0064133434
0001d0 6f 5d d5 3d 35 31 01 3e a3 4d 46 3d cb da 8d 3d
       0.10418212 0.12616427 0.048413884 0.06926497

model.2.running_mean f4 [120]
000000 f6 cc d3 3d 6d c1 74 3e 35 ef 07 3f 0b 2f 6c bd
       0.103418276 0.23901911 0.53099376 -0.05766205
000010 ed 29 9e be 6f db 63 be de 6a 26 3e 79 ea f2 be
       -0.30891362 -0.22251676 0.16251704 -0.47444513
000020 42 83 3a 3d 8a de 81 be dc 57 02 bf 3a 9e 69 be
       0.045535333 -0.25365096 -0.5091531 -0.22814265
000030 ce 92 2f be ba c4 cb bc 6d 5b 9f bd e3 23 26 be
       -0.17145845 -0.02487408 -0.0778111 -0.16224627
000040 1e f6 97 3e aa 77 59 be 12 20 fb bd e2 22 da be
       0.2967996 -0.21237054 -0.12261976 -0.42604738
000050 f8 36 5a be 73 1d ac 3e fe d5 48 be f7 14 4c be
       -0.21310031 0.33616218 -0.19612882 -0.19929872
000060 c4 c4 1e 3b ef b2 4d be a8 80 4d 3d fe cc e3 be
       0.0024226168 -0.20087789 0.050171524 -0.44492334
000070 0d f1 d4 3e d3 34 33 3e b9 7f 82 be 8e a5 18 3e
       0.41590157 0.1750062 -0.2548807 0.14906904
000080 ce 45 56 3e d8 13 3d 3e d2 83 5d 3e 48 a2 dd 3e
       0.20925066 0.18464601 0.21632317 0.43287873
000090 c9 73 e5 bd 2b 8b a6 3e f7 47 7d be 34 e6 e0 3e
       -0.11203725 0.32528052 -0.24734484 0.4392563
0000a0 fb 39 f6 3d 19 92 39 be 01 1c 3b be 7d 78 6a 3d
       0.12022778 -0.18122138 -0.18272401 0.057243813
0000b0 93 57 0f bc 50 0f 71 bd e6 51 e3 3e 59 fb 94 3e
       -0.008748907 -0.058852494 0.4439842 0.29098013
0000c0 91 cd 41 3e 77 86 d7 bd aa 5b ad be 74 8f 87 be
       0.18926074 -0.10523694 -0.33858997 -0.26476634
0000d0 d1 92 9e bd 3a 31 0a bf 47 08 8c be 36 70 8a 3e
       -0.07742847 -0.53981364 -0.27350065 0.27038735
0000e0 18 6d dc 3e f9 a9 7a 3e cb fe 25 3d 51 e2 ef bd
       0.43051982 0.24478902 0.040526193 -0.11713088
0000f0 2a 53 b2 3e 25 2e a7 be c1 4c cd be 67 8a 00 3f
       0.34829074 -0.32652393 -0.4009762 0.50211185
000100 a6 c9 12 bf 32 d0 00 bf 86 77 9c be fd 8b 0f be
       -0.5733894 -0.5031768 -0.3055994 -0.14018245
000110 f0 b0 90 3e 04 31 9b 3c 1d c9 e4 3e 25 27 c2 be
       0.28259993 0.01894427 0.44684687 -0.3792049
000120 ff 48 2b be 92 80 c6 3c de ec 99 bd c7 97 13 bf
       -0.16727065 0.024231229 -0.07515882 -0.5765347
000130 02 48 7f 3d 66 44 00 be dd 25 e3 3e 5a 60 8e be
       0.06232453 -0.12526092 0.44364825 -0.27807885
000140 b4 f6 9d 3e 13 22 4f be aa e6 18 3e eb 30 e1 3e
       0.30852282 -0.20227842 0.14931741 0.43982634
000150 02 d1 cd 3e f9 5d de 3d 28 98 0d 3e c6 4d 84 bd
       0.40198523 0.108577676 0.13827574 -0.064601466
000160 27 6f 90 be 69 1f 43 be d5 22 06 3e b0 fd 8b bd
       -0.28209803 -0.19054951 0.13099225 -0.068354964
000170 bf 65 56 be d6 4b d7 3e cd dc b0 be ae c5 d4 3d
       -0.2093725 0.42050046 -0.34543458 0.10389267
000180 ee fb 59 3e a8 53 ca be 86 4c 85 3e 67 95 ab 3e
       0.2128751 -0.3951695 0.26034945 0.33512422
000190 91 6a b8 3e aa cc cd be e4 6f 8c bc 1f 20 84 be
       0.36018804 -0.4019521 -0.017143197 -0.25805756
0001a0 1d c1 90 be 23 4a 8d 3e a3 cf d3 be f8 19 0f bf
       -0.28272334 0.27595624 -0.41369352 -0.55899
0001b0 f7 19 86 bc 9e a9 9a be 34 50 25 be 5b a3 ca 3e
       -0.016369803 -0.30207533 -0.16143876 0.39577755
0001c0 5c 86 8f be 32 9a af bd d1 3c d8 3e 5c 29 c5 3d
       -0.28032196 -0.08574332 0.422339 0.09627029
0001d0 d3 2d a5 be 33 71 dc bd 25 12 aa 3e ca 9e e7 be
       -0.32261524 -0.107637785 0.33216968 -0.45238334

model.2.running_var f4 [120]
000000 0f 73 ab 3e 47 05 b6 3e fa 3c 5a 3e 3e 3f 99 3e
       0.3348622 0.355509 0.21312323 0.29931062
000010 94 b9 25 3e 0e c2 01 3e aa 66 f2 3e 97 f1 e7 3e
       0.16184074 0.12671682 0.4734395 0.45301506
000020 fb 0c 18 3e 06 f6 e7 3e 7e 3a 01 3f fc af 94 3e
       0.14848702 0.45304888 0.50479877 0.29040515
000030 94 75 d5 3e 15 13 87 3e 4c 3f 80 3e 4b 27 6c 3e
       0.41691267 0.26381746 0.25048292 0.23061864
000040 13 65 19 3f 65 ac 7e 3e 59 c1 d2 3d cc ee ea 3e
       0.5991985 0.24870451 0.102907844 0.45885313
000050 70 64 e3 3e a0 68 38 3e fc 0a 03 3f 22 36 43 3e
       0.44412565 0.18008661 0.51188636 0.19063619
000060 41 34 08 3e b7 42 a0 3e 0f ca 6a 3e 58 dc ac 3e
       0.13301183 0.313009 0.22928642 0.3376186
000070 14 dd 7d 3e 0f e3 a9 3e 4f f9 16 3f 69 c9 c5 3e
       0.24791366 0.33181044 0.58974165 0.38630226
000080 0b cc e6 3d d7 2f e0 3e 74 57 ab 3e 12 ed 8a 3e
       0.11269387 0.437865 0.3346516 0.27133995
000090 86 5c 36 3e af 22 4f 3e e9 09 81 3e ad 3e ca 3e
       0.17808732 0.20228074 0.25202873 0.39500943
0000a0 bc f3 c2 3e 8d 0f 75 3e e7 4c d9 3d 02 1b a7 3d
       0.3807658 0.23931713 0.10610371 0.08159448
0000b0 50 e5 d8 3e 32 12 59 3e 06 d9 af 3e 8c ad e5 3e
       0.42362452 0.21198347 0.34345263 0.44858968
0000c0 cb 39 60 3e ac 6a 4d 3e 2c ce d2 3e f4 d9 cc 3e
       0.21897046 0.20060223 0.41172922 0.40010035
0000d0 7a 31 97 3e 3b 91 77 3e 4c de 46 3e fb a1 40 3e
       0.29529935 0.24176495 0.19420737 0.1881179
0000e0 f7 02 ac 3e 10 14 93 3e d2 99 e2 3e b7 6e ae 3e
       0.33596012 0.28726244 0.4425798 0.34068844
0000f0 2d fe a1 3e d8 a1 29 3e 11 d9 14 3e b2 b9 a2 3e
       0.31639233 0.16565645 0.1453593 0.317823
000100 db 04 b5 3e d8 02 de 3e 36 d8 58 3e 40 14 16 3f
       0.35355267 0.43361545 0.21176228 0.5862465
000110 98 44 6b 3e e7 1a 98 3e dc 66 f1 3e 72 24 b7 3e
       0.22975385 0.29708025 0.47148788 0.35769993
000120 83 f9 9c 3e 58 81 aa 3e ff 2c 04 3e 31 fa fd 3e
       0.30659112 0.33301806 0.1290779 0.49604943
000130 a6 da 3c 3e 34 82 26 3f fe 74 a8 3e 65 56 4b 3f
       0.18442783 0.65042424 0.32901758 0.794287
000140 13 54 87 3e d1 04 c0 3e a7 01 87 3d 52 36 2e 3e
       0.2643133 0.37503675 0.06592112 0.17012909
000150 59 56 e7 3e 29 50 d3 3e da de 6d 3e 97 95 05 3f
       0.45183066 0.41272095 0.23229542 0.5218138
000160 ad 34 c0 3e 12 4e c4 3e c8 cc 8e 3e ee 6c 6e 3e
       0.37540188 0.38340813 0.2789061 0.23283741
000170 a3 dc eb 3e 6b 1d 80 3e 1a 73 f1 3e 5f 2c 26 3f
       0.4606677 0.25022444 0.47158128 0.64911455
000180 6a da 9c 3e 24 d7 9e 3e 2c d1 87 3e 1e c4 56 3e
       0.30635387 0.31023514 0.26526773 0.2097325
000190 3d 02 5e 3e 6e 8a 94 3e 99 08 9f 3e 49 52 ec 3e
       0.21680541 0.29011863 0.31061247 0.4615653
0001a0 47 e0 c3 3e 94 40 af 3e 18 c4 55 3e 57 d2 7d 3e
       0.38257048 0.34228957 0.20875585 0.2478727
0001b0 99 c1 71 3e d7 ef f3 3e 92 b5 ac 3e e6 cc 52 3e
       0.23609008 0.4764392 0.33732277 0.20585975
0001c0 fb 28 c8 3e a3 33 fb 3d 67 6b 54 3e 1e 55 cc 3e
       0.39093766 0.12265708 0.20744096 0.3990869
0001d0 e8 b6 ba 3e 96 15 89 3e 61 34 a0 3e df 44 8b 3e
       0.3646767 0.2677428 0.31289962 0.27200982

model.4.weight f4 [120, 120]
000000 3c 9c 0f 3c 7b b2 89 3d 97 a4 65 3d 67 c1 7a 3d
       0.0087652765 0.067234956 0.05606517 0.0612196
000010 09 be a3 bd 2b 20 9b bb 8e fc 90 3d 84 9c 3c 3d
       -0.07995231 -0.0047340593 0.07079421 0.046047702
000020 30 3f 43 3d 45 a2 a4 3c 39 58 32 bd 64 ab f0 bc
       0.047667682 0.020096907 -0.043541167 -0.0293786
000030 40 10 69 3d 26 97 69 3d a4 dc 25 3c 2c 22 4f bd
       0.056900263 0.057028912 0.010123406 -0.0505697
000040 ab 0a 6f 3c 53 f0 5e bc d7 f8 e9 bb b4 2c 55 3d
       0.014589946 -0.013607102 -0.0071402597 0.052044585
000050 45 31 80 bd 76 1f b1 bd f4 85 b1 bc 04 c0 ca 3a
       -0.062593974 -0.08648579 -0.02167032 0.0015468602
000060 c8 26 47 3d 9d 1e 53 3d 83 c3 1a 3d 84 4f 16 3b
       0.04862097 0.051542867 0.03778411 0.0022935579
000070 bb 8d 33 bd 30 90 89 bd 63 dd 90 3d 44 cb bf 3c
       -0.043836337 -0.06716955 0.07073476 0.023412354
000080 33 3e ec bc 66 76 5a 3c 9c 40 49 bc 97 ea a4 bd
       -0.028838253 0.013333892 -0.0122834705 -0.08052557
000090 76 c1 9a 3d 38 07 13 3c 9e 54 92 bc 68 07 2d bd
       0.07556431 0.008973889 -0.017862614 -0.04224339
0000a0 92 41 b3 bd e0 64 03 3c 63 d3 0d bc 24 a4 e4 bc
       -0.08752741 0.008019656 -0.008656356 -0.0279103
0000b0 d7 4f 10 3d 5b fb 5a 3d 05 91 53 bd f5 b3 94 bd
       0.03523239 0.053462368 -0.051651973 -0.072608866
0000c0 18 62 2b 3d e5 13 8f bc 6c de 22 3c b5 05 06 bb
       0.041841596 -0.017465541 0.009940725 -0.002045018
0000d0 6c 6a 80 bd 0a 03 7b bd f7 71 60 bd b2 8f 90 bd
       -0.06270298 -0.061282195 -0.054796185 -0.07058658
0000e0 2a cb b5 bb a0 ea b2 bd f1 ab 00 bc ed da 80 bd
       -0.0055479007 -0.087361574 -0.007853494 -0.06291757
0000f0 70 9e e1 3a d7 06 0f bd 6b 1e e8 3c a0 5b 05 bd
       0.0017213356 -0.034918632 0.028334817 -0.032558084
000100 ce d4 a9 bd 8f 64 ae 3d 00 8f 09 bc 88 f2 df 3c
       -0.082925424 0.08515274 -0.00839591 0.027337328
000110 09 f9 dc 3c 31 26 50 3c 25 45 a9 bd c7 9f aa 3a
       0.026974218 0.012704418 -0.082651414 0.0013017588
000120 a1 89 9d bd d4 e2 6a bd fa 04 65 3d ea c1 b7 bd
       -0.07692266 -0.057345226 0.05591295 -0.08972533
000130 d4 61 2e bd 15 6b 9d bd f5 b7 a3 bc 52 f1 80 bb
       -0.042573765 -0.0768644 -0.019985178 -0.0039350176
000140 e2 08 f5 bc 94 ff 6b bd 59 c4 b4 3c 44 ba 39 bd
       -0.029911462 -0.057616785 0.022066282 -0.045343652
000150 c5 45 0a bd 55 50 cc 3c 61 3c 38 3d 00 ba b6 3d
       -0.033757944 0.024940649 0.044979457 0.089221954
000160 fd 68 c5 3c 0a 7c fb bb db 90 f8 3c 91 52 5a 3c
       0.024097914 -0.0076746987 0.03034251 0.013325349
000170 9c af 64 bd d3 cf 13 bd 2e 48 8f bc 90 4c 64 3d
       -0.055831537 -0.03608687 -0.017490473 0.05573708
000180 d9 a7 e0 bc ce a4 b8 3d 7f 42 c7 bc d0 4e b1 bd
       -0.027423786 0.09015809 -0.0243237 -0.086576104
000190 5f e1 96 3d 33 33 6c bd a1 8f 02 3d a9 2d ee bb
       0.07367205 -0.057666015 0.031875256 -0.0072686267
0001a0 c9 95 a1 3c 2a 6c a1 3d 29 13 0e bd dc 10 a6 3d
       0.019724743 0.07881959 -0.03468624 0.081086844
0001b0 9d 6e 60 3d ff 75 ba 3c 40 d7 2b bd 17 3a 99 3d
       0.05479299 0.022761343 -0.041953325 0.07481783
0001c0 1a c7 a0 3d 82 f0 a4 3d a6 d4 b7 3d d1 ad 55 bd
       0.078504756 0.08053686 0.08976106 -0.052167717
0001d0 ea 3a 7e 3d 71 1e 8c bc ad 14 25 3c 30 0d 52 3d
       0.062067904 -0.01710436 0.01007573 0.051282108
0001e0 1b 9e 25 bd f9 aa 58 3d 6b 97 01 3d 2b b5 2f 3d
       -0.040433984 0.052897427 0.031638544 0.042897385
0001f0 10 62 7d bd 0f 26 ae 3b 6a 0a 93 b9 81 dd b9 3d
       -0.061861098 0.0053145955 -0.00028045784 0.09075452
000200 50 a7 92 bd b5 b5 9f bc dd a9 77 bd d3 4a b1 3c
       -0.071608186 -0.019495824 -0.06046473 0.021642124
000210 eb b7 25 bd a7 74 b7 3d f0 b7 99 3d ae 20 fe 3c
       -0.0404586 0.089577965 0.075057864 0.031021442
000220 ad a0 a5 bd eb 61 8a bc b6 9f 7f bd e0 44 b0 3d
       -0.08087287 -0.016892394 -0.06240817 0.08606887
000230 11 5d be bc 9c 3d 1c 3d 41 3b 7d 3d e1 f9 83 bc
       -0.023237737 0.038144693 0.061824087 -0.016110362
000240 13 4f 52 bd a6 3e 71 bd ad 2e ac bd 8a 69 f7 ba
       -0.051344942 -0.058897637 -0.0840734 -0.0018876058
000250 1d 93 1c 3c d6 ab 1e ba 1d c0 09 3d f6 96 cf 3c
       0.009556559 -0.0006052827 0.03363048 0.025340538
000260 0f 36 80 3d 93 a0 3f 3d a9 7b 22 bd d2 f4 97 bd
       0.06260311 0.046783995 -0.039668713 -0.07419743
000270 e4 9f 23 3d 45 b6 04 3d 41 4e b3 bc 31 ce 4f 3d
       0.039947405 0.03240039 -0.0218879 0.05073375
000280 5a b4 a6 3c 83 d4 a9 3d 48 56 b1 3c 5e 02 4a 3c
       0.02034967 0.082924865 0.021647587 0.012329666
000290 44 2c a6 bc 19 c0 c8 3c 7d a7 17 bd 5d 39 8c bd
       -0.02028478 0.024505662 -0.037024964 -0.06846879
0002a0 f4 8f 60 3d 55 c8 ba 3d f2 02 6c bd d0 15 a8 3a
       0.054824784 0.091202416 -0.057619996 0.0012823883
0002b0 0a 1d 50 3d 91 b7 50 bc 4a 8d 1f bd 01 8f 6d bd
       0.050808944 -0.012739078 -0.038953103 -0.057997707
0002c0 49 8c 97 b9 ea 08 b1 3d 33 ff 1d 3d 8a a2 96 bd
       -0.00028905485 0.08644278 0.038573455 -0.073552206
0002d0 ef c6 ba 3d c3 c1 a7 bc 56 61 5e 3d f5 2a 91 bd
       0.09119975 -0.020478135 0.054292046 -0.070882715
0002e0 ca 5b 99 bd 54 1f b6 3c 68 8e aa 3d a9 c1 af bd
       -0.074882105 0.022231735 0.08327943 -0.085818596
0002f0 08 18 bb 3c 7e 70 ed bc 1b cd 92 3d 8e 41 8d bb
       0.022838607 -0.028984305 0.07168027 -0.0043107932
000300 78 59 32 3d 94 e3 80 bd 38 8e a7 bd 92 db e2 3b
       0.043542355 -0.06293407 -0.08181423 0.0069231475
000310 a0 f5 81 bc 1f b7 5a 3d 34 fe 88 3d 76 0a 85 bc
       -0.015864193 0.053397294 0.066891104 -0.01624034
000320 0f a6 bd bc d3 2a 10 bd fc 7e f8 3c aa 08 0e 3d
       -0.023150472 -0.03519709 0.030333988 0.03467623
000330 10 f6 29 bd 56 bf 76 3d 23 c5 00 3c 88 1d 89 bc
       -0.04149443 0.060241066 0.007859501 -0.016737714
000340 de 9a 25 3c 39 a5 d8 3c 8d 50 0d 3d 1f 7c 19 bd
       0.010107724 0.026445972 0.034500647 -0.037471887
000350 fc 2a 7a bd f7 9c 56 bd 1f a5 2f 3d 85 09 f0 3c
       -0.06107615 -0.052395787 0.04288208 0.029301414
000360 ce cf 69 bc 98 00 91 bd 53 48 11 bd 49 13 14 3c
       -0.014270736 -0.070801914 -0.035469364 0.009037801
000370 b5 b4 12 bd 59 58 32 3d 2a a2 c7 b9 5c b1 6c bc
       -0.035816867 0.043541286 -0.0003807706 -0.014446583
000380 48 e8 94 3c 1b b0 7e bd ea 86 a3 3d 03 f0 af bd
       0.018177167 -0.062179666 0.07984717 -0.085907005
000390 07 0d 8d bd 19 e0 7e bd c0 c4 0e bc 26 4b 68 bb
       -0.068872504 -0.062225435 -0.008713901 -0.0035445183
0003a0 29 39 58 bd b1 90 fe bc b9 89 00 bd 80 88 93 bd
       -0.052788887 -0.031074854 -0.031381343 -0.0720377
0003b0 0b 69 52 3d 89 0f 87 bc fa 56 69 bd 9b a3 44 3d
       0.051369708 -0.0164869 -0.056967713 0.04800759
0003c0 a4 2e 40 bd 40 5f 6d 3d cc 43 ab bd 60 de 65 bd
       -0.04691948 0.057952166 -0.083625406 -0.056120276
0003d0 a9 3e 38 3d 6f 6b cd bc 82 cf de bc 1c 39 93 bc
       0.044981632 -0.025075642 -0.027198557 -0.017971568
0003e0 fa 3a 08 bd 4b aa 64 bd 41 bc cf 3c fa d0 ba 3d
       -0.03325937 -0.055826467 0.025358321 0.0912189
0003f0 02 91 2c 3d 61 b7 f2 bb ec 05 9e 3d ee 12 9e bc
       0.042130478 -0.0074071144 0.07715973 -0.019296136

model.4.bias f4 [120]
000000 7d 6c 83 bd a0 2c f2 3c 02 30 72 3d bd 47 69 3c
       -0.06417177 0.029562294 0.059127815 0.014238295
000010 83 b2 28 3d 8b 0b 83 3d 7a 7f 24 3d aa 9d 87 3d
       0.041185867 0.06398686 0.040160634 0.06621869
000020 be 8d ac 3d e2 3b 46 bc 33 e8 eb 3c 0c 5a d0 3c
       0.08425473 -0.012099238 0.028797245 0.025433563
000030 ba 50 38 bd c8 c7 74 bb 72 09 fd 3b c2 e7 98 3d
       -0.04499886 -0.0037350524 0.0077220732 0.07466079
000040 0c a8 3a 3d a7 71 b6 bc 0e a2 7d bc 72 87 9f bd
       0.04557042 -0.02227099 -0.015480531 -0.07789506
000050 be f7 a2 bd 2c 9c a7 bb ff a2 ad 3d 12 c4 0e 3c
       -0.07957409 -0.0051150527 0.08478355 0.008713739
000060 5f 21 83 bc d6 7c 2a bc 63 d9 85 3d 7a e0 8a bd
       -0.016007124 -0.01040574 0.06535604 -0.06781097
000070 90 a8 24 3c a2 48 8d bd 84 d3 8a bd f1 d5 5a 3c
       0.010049954 -0.06898619 -0.06778625 0.013356672
000080 5d 8b b4 3d 77 5e b5 bd 06 70 94 3c a7 75 9a 3d
       0.08815644 -0.08855908 0.018119823 0.07541972
000090 b1 1f 87 3d 05 ae 83 3d 0b e2 13 3c f9 bf 8a 3d
       0.065978415 0.06429676 0.009026061 0.06774897
0000a0 0f a1 f1 bb be 89 43 3d d4 85 8f bd fd d1 93 3d
       -0.007373936 0.047738783 -0.070079476 0.072177865
0000b0 fe 50 9d bd a1 5a b3 bd 9e 06 3e 3c 5a a8 ce 3c
       -0.07681464 -0.087575205 0.011598257 0.02522676
0000c0 a9 73 8e 3d ad 86 e1 3c bd 03 33 bd 05 04 3d 3d
       0.06955654 0.027530039 -0.043704737 0.04614641
0000d0 a0 ef a0 3d 81 43 88 3d 9e 62 24 bc 07 21 cd 3c
       0.07858205 0.066535 -0.010033278 0.025040163
0000e0 03 13 39 3d 74 5c a0 3d c4 8c 39 3d d3 cd 6f bd
       0.045184147 0.07830134 0.04530026 -0.0585459
0000f0 0f f4 9b 3c ac 11 47 bc a5 09 88 bd 06 b0 46 3d
       0.019037275 -0.012150209 -0.066424645 0.048507713
000100 8d 7a c7 3c 2e 13 82 bd 06 6c ab bd 05 45 34 3b
       0.024350429 -0.063513145 -0.08370213 0.002750696
000110 34 d1 c1 3c 01 1f c5 bc f6 75 ca 3c aa ce 6b bd
       0.023659326 -0.024062635 0.024714451 -0.057570137
000120 da 2c f5 3c a9 5b 03 3d 84 c0 76 3d 70 08 5c 3d
       0.029928613 0.032069836 0.06024219 0.053718984
000130 7c cb 42 3b 9c 52 67 3c 6c 3c 90 bd b5 82 9b bd
       0.0029723337 0.014118817 -0.070427746 -0.0759329
000140 40 30 01 3c 17 94 10 3c 07 55 a7 3c 7e 4b 75 3d
       0.007885039 0.00882437 0.020426286 0.059886448
000150 8b 09 93 bd 96 e4 89 bd 46 11 59 bd 14 f5 75 3c
       -0.071795546 -0.067330524 -0.05299499 0.015012044
000160 84 6a 0c bd bf 45 92 bb 83 15 b8 3d d2 dd 83 3d
       -0.03428127 -0.004463881 0.08988478 0.06438793
000170 79 85 ed 3c e1 de c9 bb dc ad b6 3d f1 e8 a1 bd
       0.028994309 -0.0061606024 0.0891988 -0.07905758
000180 b2 21 89 bd 7b 19 81 bc be 67 a6 bd 5c c8 3f 3b
       -0.0669588 -0.01575922 -0.08125256 0.002926371
000190 1e f3 37 bd 19 c5 36 bc 23 31 ad bd f3 c8 56 bb
       -0.04490959 -0.01115539 -0.08456638 -0.0032773584
0001a0 19 ee 56 bd fd bd 57 3d 87 40 11 bd 0c 15 98 bb
       -0.05247316 0.05267142 -0.03546193 -0.004641181
0001b0 95 53 28 bd 05 58 83 3d 7f 2e a3 3d d7 1a ef bc
       -0.041095335 0.06413273 0.07967853 -0.029187603
0001c0 52 14 84 3d ac fd b7 3d 2c c6 a9 bc 44 67 03 bd
       0.06449188 0.08983931 -0.020724379 -0.032080904
0001d0 87 8a d6 bb 39 07 68 bc f2 25 30 3c fa 56 56 3d
       -0.0065472755 -0.014161878 0.010751234 0.05232904

model.4.weight_org f4 [120, 120]
000000 d3 ce b3 bc b5 e2 6f 3d 61 bd e5 3c 5d a4 b2 3d
       -0.021949207 0.058565814 0.028044404 0.08722756
000010 98 f4 cf bd 51 e4 7f bb a3 30 9c 3d c7 f7 34 3d
       -0.101540744 -0.0039046 0.07626464 0.04418161
000020 11 07 98 3d 52 bc c0 3c bf fc e7 bc 43 a6 96 bd
       0.07423223 0.023527298 -0.02831876 -0.07355931
000030 42 be 9f bb e7 1d db 3c e6 dc c9 ba 43 51 e8 3b
       -0.0048749754 0.026747657 -0.0015400916 0.0070897653
000040 b9 d1 10 3d 3d e0 df bc 7a 48 2b 3c be 8f 32 3d
       0.035356257 -0.027328605 0.0104542915 0.043594114
000050 e6 69 43 bd 5c 54 c8 bd 3c 9c c5 bc 38 e6 64 bb
       -0.047708414 -0.09781715 -0.02412235 -0.003492726
000060 e9 f5 3a 3d 06 6e 95 3d 69 87 57 3c 7c 8d 9e 3c
       0.045644674 0.07296376 0.013154843 0.019354574
000070 92 f0 4f bd fe b9 c8 bd a1 88 6c 3d 26 0a ed 3c
       -0.050766535 -0.098011 0.057747487 0.028935503
000080 cb b3 a3 bc 0c 6c 9f 3c 1d ee 34 bd 58 7e a7 bc
       -0.019983193 0.0194607 -0.044172395 -0.020445988
000090 37 cd 7b 3d eb a4 54 3c 47 d0 43 bd 43 8e 31 bd
       0.061475005 0.012978773 -0.04780605 -0.043348562
0000a0 26 5f 98 bd bb 37 14 bc 52 34 45 bc 49 30 10 3d
       -0.07440023 -0.00904649 -0.0120364 0.0352023
0000b0 48 ac 1a bc e7 ab c2 bc db 58 30 bd 93 b1 e4 bd
       -0.009440489 -0.02376361 -0.04305349 -0.11166682
0000c0 3c 6c 33 3d 6d 8e 24 3c dd 1e 30 bc 8e 38 24 bd
       0.043804392 0.010043723 -0.010749546 -0.040092997
0000d0 41 b0 9c bc 35 3b fb 39 bc b2 aa bd 29 3a 6e bd
       -0.019127013 0.00047918563 -0.08334872 -0.058160935
0000e0 cd c4 c2 3b d8 1c b7 bd e6 df a3 3c f4 39 88 bd
       0.0059438706 -0.089410484 0.020004224 -0.06651679
0000f0 07 b2 c1 bc a5 f8 0b bd 23 11 a0 3c 27 d3 4f bc
       -0.02364446 -0.034172673 0.019539421 -0.01268462
000100 9e df a0 bd ac 63 a7 3d 31 53 bd bc a0 ea f3 ba
       -0.078551516 0.08173308 -0.023110958 -0.0018609352
000110 0a d9 0b 3d ff 54 a9 3b 60 44 2b bd 76 2b 40 3c
       0.03414253 0.005167603 -0.041813254 0.011729112
000120 05 bc 88 bd 27 09 65 bd 74 5c 35 3d 47 b5 97 bd
       -0.06676487 -0.05591693 0.044277623 -0.07407623
000130 e1 ba e8 bc c5 99 86 bd f0 a2 b2 bc 01 00 45 3b
       -0.028409423 -0.06572298 -0.02180621 0.0030059817
000140 d7 0e 10 bd b3 41 9b bd 2f ab 31 3d 0c 7b ba bd
       -0.035170402 -0.075808905 0.043376144 -0.091055006
000150 8f 75 26 bd bf 3a 1d 3d 00 fc 93 3d 7d 78 97 3d
       -0.040639456 0.038386103 0.072257996 0.07396028
000160 28 13 33 3d ef 7d 40 bc 24 a8 2b 3d 1a d9 8c 3c
       0.04371944 -0.011748775 0.0419084 0.017193366
000170 bd 94 32 bd db 4e 2c bc 0e 12 60 bc 4c ee 81 3d
       -0.04359888 -0.0105168475 -0.01367618 0.0634428
000180 2f 7e 56 b8 56 74 97 3d 1b 66 01 bd 17 eb dd bd
       -5.1139094e-05 0.07395236 -0.031591516 -0.108358555
000190 f5 00 5e 3d b8 58 c9 bd cd f3 5a 3d 30 e1 0e 3d
       0.05420013 -0.09831375 0.053455163 0.034882724
0001a0 4e 77 a0 3c 5a eb a3 3d b1 94 40 bd cf 6f cf 3d
       0.019588139 0.08003874 -0.047016803 0.10128748
0001b0 77 01 c8 3d b4 95 f8 3c a3 98 37 bd 1e ba 5c 3d
       0.097659044 0.030344822 -0.0448233 0.053888433
0001c0 ca 7a bf 3d 8a 1c e0 3c 1a ca 87 3d 36 e8 b0 bd
       0.09349592 0.027357358 0.06630345 -0.08638041
0001d0 53 a6 6e 3d a2 be f5 3b 34 5f 68 bc 55 03 98 3d
       0.058264088 0.007499532 -0.014182854 0.074225105
0001e0 a9 7c 0f bd e1 da 41 3d 1e f8 dd 3c 3f 9b 98 3d
       -0.035030995 0.04732788 0.02709585 0.07451486
0001f0 df 94 a7 bc dd 55 9f bc 77 87 a1 bc 46 e6 97 3d
       -0.02045673 -0.019450122 -0.019717915 0.07416968
000200 83 ee 19 bd 64 46 83 bc 7b 25 b7 bd 26 52 49 3c
       -0.037580978 -0.016024776 -0.08942696 0.012287652
000210 bd bd 8a bd f9 22 ef 3d f6 48 ae 3d ee 01 9b 3c
       -0.06774471 0.116765924 0.0851001 0.018921819
000220 2c 8f 58 bd 9f 9f 3e 3c 23 19 dd bc 7b ae db 3d
       -0.052870914 0.011634736 -0.026989525 0.10726639
000230 ad 34 99 bd 1e a7 30 bb f3 e4 6f 3d 19 ae 2b bc
       -0.0748075 -0.0026955078 0.058567952 -0.01047852
000240 59 ae 86 bc 80 09 d4 bd 66 00 b9 bd 97 aa 22 bd
       -0.016440557 -0.103533745 -0.09033279 -0.03971347
000250 a1 a4 b5 bb a3 df 5d bc ca 8d 06 bd a6 3e da 3c
       -0.005543307 -0.013542089 -0.032850064 0.026641201
000260 e2 86 0d 3d fe d5 a4 3d 4f ce 66 bd 80 db 46 bd
       0.034552462 0.08048628 -0.056349095 -0.048549175
000270 4b ae ea 3c fb 18 30 3d 9d 04 32 bc c8 8d e8 3d
       0.028647562 0.042992573 -0.010865358 0.113551676
000280 9c 30 cf 3c a3 22 50 3d ee f9 f0 bc bb f0 49 bc
       0.025291733 0.050814282 -0.02941605 -0.012325461
000290 fd 9f 3f bc bd 74 0b 3b e2 02 a0 bc c8 31 7d bd
       -0.011695859 0.0021279298 -0.019532625 -0.061815053
0002a0 03 5d 75 3d 74 9b 2a 3d 54 37 ce bc 2c b2 31 3b
       0.059903156 0.041652158 -0.025172867 0.0027114255
0002b0 56 3a 91 3d e2 0f a0 3c 92 26 b2 bd 57 e9 54 bd
       0.07091205 0.019538824 -0.08698763 -0.051980343
0002c0 ab a1 d7 bb 54 55 a5 3d 4b bd 45 3d 76 0c 96 bd
       -0.0065805516 0.08072916 0.048276227 -0.073265955
0002d0 49 00 24 3e 4a 7e b6 bc bd 82 12 3d 5b a1 95 bc
       0.16015734 -0.022277016 0.035769213 -0.018265417
0002e0 51 86 72 bd 7d 80 f2 bb 0c bb 97 3d 9d 1b c6 bd
       -0.059210125 -0.007400571 0.07408723 -0.096732356
0002f0 8f 06 0d 3d 58 8a a0 bc a5 88 04 3d 56 66 93 3c
       0.034430083 -0.019597217 0.032356877 0.017993134
000300 fe 12 c0 3c 32 94 e3 bc 39 07 a8 bd c5 7b 8a ba
       0.023446556 -0.027780626 -0.082045026 -0.0010565451
000310 de 1f 91 bb 9a 22 01 3d 78 28 7a 3d 4d 78 d6 ba
       -0.0044288477 0.03152714 0.06107375 -0.0016362757
000320 4a ca 3f bc 5a 21 7c bd ca 81 94 3d 5e c2 64 3d
       -0.011705944 -0.061555244 0.07251318 0.055849425
000330 11 16 ea bb f4 8d e0 3c 57 7b c7 3c c7 b6 bb bc
       -0.007143744 0.027411439 0.024350805 -0.022914303
000340 a3 f4 3f 3c 37 19 ec 3a ac b3 85 3d f9 da 4a bd
       0.011716041 0.0018012886 0.0652841 -0.049525235
000350 d3 9f a9 bd 42 46 32 bd 4f 54 ef 3b 81 25 84 bb
       -0.08282437 -0.043524034 0.0073037515 -0.004032791
000360 c7 4d 7b 3b 1d 05 88 bd 61 1d 7f bb 8a e7 87 3c
       0.003834592 -0.066416 -0.0038927423 0.016589899
000370 9c fe a2 bd b5 de 03 3d e7 9a b8 bc 59 20 1c bd
       -0.07958719 0.03219481 -0.0225348 -0.038116787
000380 e6 d0 50 3d f7 fb 62 bd 51 74 04 3d 7e 9b b6 bd
       0.05098047 -0.055416074 0.03233749 -0.089163765
000390 5b 42 04 bd b7 3b 71 bd 06 1a 97 bc 04 cb 22 39
       -0.032289844 -0.05889484 -0.018445026 0.00015525153
0003a0 59 f2 dc bc 77 9b 00 bd 63 c6 72 39 4d 40 1b bd
       -0.02697103 -0.031398263 0.00023152823 -0.03790312
0003b0 42 43 23 3d 86 14 70 bd 5d 66 ae bd 96 4b 35 3d
       0.039859064 -0.058613323 -0.08515618 0.044261537
0003c0 1e f6 70 bb b9 3d 24 3d 1d 18 70 bd 74 4c 66 bd
       -0.003676779 0.040097926 -0.058616746 -0.056225255
0003d0 f6 66 a0 3c b8 41 00 bc e0 9d 0d 3d 6c 07 30 3c
       0.019580346 -0.007828169 0.03457439 0.010743957
0003e0 91 96 a4 bc 44 7c 55 bd e7 32 7a 3c 73 d4 c6 3d
       -0.020091327 -0.052120462 0.015270925 0.0970849
0003f0 b7 ac 7b bb 72 3f d0 3c ea ae 98 3d b5 c4 33 bd
       -0.0038402507 0.025420878 0.07455237 -0.043888766
