neural_networks/fixed_point_FP_sd_4333_8_NoBNN_0.006431.pt (torch, 256113 bytes, 12 tensors)

model.1.weight f4 [120, 16]
-0.24818021 0.005215466 0.22829193 0.06674793 -0.2322439 0.2054294 -0.018604845 -0.07253051
0.030734748 -0.14751956 -0.04475653 -0.16721582 -0.1162163 -0.09819454 -0.15476218 -0.2353378
-0.12544769 0.24080348 0.08220863 -0.1467408 0.0911293 0.09921038 -0.06378999 -0.05401936
0.13555348 0.12212995 0.14484248 -0.12012598 -0.16382134 -0.057207465 0.06806791 -0.17129385
0.18862376 -0.09958246 -0.058845222 0.08889893 -0.058864504 -0.07268962 -0.20200351 0.16719162
0.028143913 -0.08703038 0.16652104 0.11934516 0.09889099 0.15703112 0.22886923 0.13682377
0.0018650591 0.19713801 0.17849836 -0.0041359067 0.0071922243 0.16656482 -0.16249701 -0.24618769
0.015235037 0.05050686 0.1006223 -0.16792083 0.21071169 -0.13737789 0.19666463 -0.21269146
0.22690934 -0.010833323 -0.005208969 -0.04201415 -0.14916697 0.20428523 0.16192836 0.21527201
0.09387198 0.042256594 -0.1761828 -0.14846325 0.13061872 0.20615464 0.0374541 0.19036579
0.058291525 -0.09347981 0.12686247 -0.22654122 -0.14337921 0.16628847 -0.1315015 0.24595508
0.14150721 4.786253e-05 0.033070356 0.053073555 -0.23910338 -0.23335674 -0.10954645 0.14540702
-0.018607795 -0.093482256 -0.13522154 -0.075641036 -0.05342734 -0.17021728 0.16189507 -0.14750576
0.031188041 0.20386288 -0.1227102 -0.07421461 0.051342785 -0.00863409 0.003275752 0.20236081
-0.005708605 0.15470383 -0.11798534 -0.21830004 0.10993621 -0.026271999 -0.07009989 0.10121417
-0.16028428 -0.15747413 0.18099505 0.0034078658 -0.14958519 -0.07100138 -0.075353056 0.24814874
0.17521551 0.012793183 0.022344977 0.19186231 0.20767817 -0.09350291 0.101445496 0.2237314
-0.06424561 -0.08891976 -0.21767256 0.16050628 0.011167884 0.2361156 -0.03332901 -0.09752378
0.0005186498 0.089987785 0.24811047 -0.013375819 0.1636301 0.20666298 0.21409935 0.1762686
-0.16004416 0.12393463 0.10145995 0.07734555 -0.21227065 0.23333225 0.23542398 0.12034798
0.20640203 -0.109760016 -0.16040221 -0.12912363 0.11298525 -0.23172647 -0.05729726 -0.020264804
0.119926095 -0.19671032 0.20197707 0.10926077 0.17204529 -0.0076479316 0.03266114 0.2412467
-0.16926974 -0.1800291 -0.03804916 -0.10028407 -0.16350573 -0.091052204 -0.02281344 -0.22581476
-0.016447246 0.011691868 -0.24535075 -0.056224465 -0.20090851 -0.1898435 -0.2471126 0.23543033
-0.16004106 0.22092602 -0.21169454 0.038669378 -0.028556377 0.09364626 -0.07214719 0.14243531
0.026152432 -0.039539665 0.08820546 0.1607076 -0.1193836 0.23310125 -0.21801093 0.06772637
0.22161746 -0.04894781 0.03352654 -0.22925895 0.0026722848 -0.08281487 -0.16985324 -0.008142889
-0.17019972 -0.045069516 -0.17652011 0.10542402 -0.01472792 0.109326094 -0.0970324 -0.15132579
0.2436856 -0.17237327 0.13504869 -0.092947125 -0.030780882 0.05746746 -0.24774116 0.040062606
-0.24524453 -0.2203717 0.24397072 0.08988914 -0.09899831 0.2420668 -0.21246159 -0.22278866
0.04745367 -0.047463804 -0.17953044 0.06713894 -0.189233 -0.20123678 -0.11147976 -0.12779543
-0.025797218 0.087034345 0.14259669 -0.19413346 -0.2306607 0.0028527677 0.18357459 -0.24518362
00000000: f422 7ebe 80e6 aa3b 5cc5 693e 24b3 883d
00000010: 58d1 6dbe 165c 523e 3069 98bc e08a 94bd
00000020: 70c7 fb3c 5e0f 17be a052 37bd a03a 2bbe
00000030: d002 eebd 381a c9bd fa79 1ebe 64fc 70be
00000040: 5c75 00be 3095 763e 005d a83d 3843 16be
00000050: 00a2 ba3d d02e cb3d 54a4 82bd 6843 5dbd
00000060: 88ce 0a3e 441f fa3d 9651 143e 9c04 f6bd
00000070: c8c0 27be 6052 6abd 3067 8b3d a867 2fbe
00000080: 9626 413e e4f1 cbbd b007 71bd a410 b63d
00000090: e81b 71bd 4cde 94bd 02da 4ebe 4834 2b3e
000000a0: 108e e63c fc3c b2bd 7e84 2a3e 3c6b f43d
000000b0: 5c87 ca3d c4cc 203e b25c 6a3e 881b 0c3e
000000c0: 0075 f43a 8cde 493e 46c8 363e 8086 87bb
000000d0: c0ac eb3b f88f 2a3e 9e65 26be a018 7cbe
000000e0: 609c 793c 48e0 4e3d 1013 ce3d 70f3 2bbe
000000f0: cec4 573e caac 0cbe 7462 493e cacb 59be
00000100: ec5a 683e 407e 31bc 00b0 aabb 0817 2cbd
00000110: 3abf 18be 2630 513e 8cd0 253e 4470 5c3e
00000120: f43f c03d 4015 2d3d 4469 34be c006 18be
00000130: eac0 053e 341a 533e 7869 193d 40ef 423e
00000140: 18c3 6e3d 5872 bfbd 3ce8 013e 6cfa 67be
00000150: 00d2 12be 8647 2a3e 54a8 06be a6db 7b3e
00000160: 44e7 103e 00c0 4838 c874 073d a863 593d
00000170: 84d7 74be 12f5 6ebe e459 e0bd 94e5 143e
00000180: 606f 98bc a073 bfbd 8477 0abe b0e9 9abd
00000190: a0d6 5abd 704d 2ebe d2c7 253e c00b 17be
000001a0: 107e ff3c 6ec1 503e 7c4f fbbd d4fd 97bd
000001b0: d04c 523d 0076 0dbc 00ae 563b ac37 4f3e
000001c0: 400f bbbb ae6a 1e3e 4ca2 f1bd 0c8a 5fbe
000001d0: 3c26 e13d 6038 d7bc 8890 8fbd 6049 cf3d
000001e0: 9021 24be e640 21be c456 393e 8056 5f3b
000001f0: dc2c 19be 2c69 91bd b452 9abd b41a 7e3e
00000200: b26b 333e 809a 513c d00c b73c 8e77 443e
00000210: 96a9 543e 747e bfbd a8c2 cf3d d819 653e
00000220: 3493 83bd 901b b6bd 8ee5 5ebe c25b 243e
00000230: 80f9 363c 4ac8 713e 0084 08bd 8cba c7bd
00000240: 00f6 073a 844b b83d ac10 7e3e 4026 5bbc
00000250: a68e 273e 769f 533e dc3c 5b3e c27f 343e
00000260: 9ee2 23be 70d1 fd3d 3cca cf3d 5867 9e3d
00000270: 7a5d 59be a6ee 6e3e fc12 713e 0079 f63d
00000280: 0e5b 533e dcc9 e0bd 7a40 24be fc38 04be
00000290: d064 e73d b449 6dbe 88b0 6abd 6002 a6bc
000002a0: d09b f53d 6e6e 49be 14d3 4e3e 1cc4 df3d
000002b0: a42c 303e 809b fabb b0c7 053d 6009 773e
000002c0: 0c55 2dbe 8c59 38be 70d9 1bbd bc61 cdbd
000002d0: 0c6e 27be 9479 babd 40e3 babc fc3b 67be
000002e0: 60bc 86bc 408f 3f3c 3a3d 7bbe a04b 66bd
000002f0: f6ba 4dbe 5666 42be 160b 7dbe a614 713e
00000300: cee1 23be 6e3a 623e 74c6 58be c863 1e3d
00000310: 10ef e9bc 9cc9 bf3d e8c1 93bd 90da 113e
00000320: a03d d63c 58f4 21bd 10a5 b43d 8890 243e
00000330: 647f f4bd 18b2 6e3e 423e 5fbe 20b4 8a3d
00000340: b0ef 623e 807d 48bd 2053 093d dcc2 6abe
00000350: 8021 2f3b d89a a9bd 02ee 2dbe c069 05bc
00000360: d648 2ebe d09a 38bd b0c1 34be 8ce8 d73d
00000370: 604d 71bc 5ce6 df3d ecb8 c6bd 26f5 1abe
00000380: b888 793e 9e82 30be 344a 0a3e 105b bebd
00000390: 3028 fcbc 0063 6b3d dcaf 7dbe b018 243d
000003a0: 6221 7bbe 1ea9 61be 76d3 793e cc17 b83d
000003b0: a0bf cabd 5ce0 773e 888f 59be b622 64be
000003c0: c85e 423d 6869 42bd d4d6 37be 2480 893d
000003d0: 4cc6 41be 0411 4ebe 804f e4bd cedc 02be
000003e0: b054 d3bc 103f b23d de04 123e ecca 46be
000003f0: 5232 6cbe 80f5 3a3b fafa 3b3e 6a11 7bbe

model.1.bias f4 [120]
0.15026672 0.24370115 0.008445012 0.08026733 0.23005341 0.16294172 0.091098465 -0.056772783
-0.17526561 0.17132178 0.028500644 0.14499655 0.4108247 -0.002743751 -0.05434917 0.07165194
0.23930216 0.2562623 0.34131047 0.30385947 0.22143114 0.12944795 0.23632851 0.30627823
0.051232662 0.14298832 0.12854788 0.022471828 0.09081622 0.18459237 -0.30432063 0.18149257
0.27415335 0.030746048 -0.06595578 -0.17380713 0.024970226 0.27515742 0.15030931 -0.19709039
0.29528165 -0.10593489 0.00896094 -0.089559294 0.005288742 -0.060296465 -0.021679064 0.25078997
-0.15561242 0.1753022 0.38790745 0.03317797 0.20586541 0.089265764 0.097441845 0.06706011
0.22798155 0.26503885 -0.075815335 -0.013117622 0.1093105 0.1664481 0.008218981 0.19206831
-0.0065183304 0.32974812 -0.22263126 0.094959885 -0.039176628 -0.1427232 0.070216775 0.058093328
0.07414814 0.18393433 -0.14531428 0.041642837 0.1024166 -0.10423609 0.03118302 0.34105736
0.04701824 0.086148776 -0.16941988 0.020446887 0.2723085 -0.14323707 0.3449668 0.30904987
-0.0022164234 0.022231072 -0.18740551 0.10779536 0.32019886 -0.063155554 -0.16593333 0.34792316
0.1614698 0.1269478 0.026110299 0.059962563 0.09295713 0.07800066 0.23281518 0.15264216
0.21199262 0.30370086 -0.10645602 -0.16794395 0.27181143 -0.12839812 -0.08187564 0.069780186
-0.050710347 0.3413916 0.21708892 -0.1536038 0.284233 0.3163068 -0.13073738 -0.024268813
00000000: 85df 193e cb8c 793e f35c 0a3c 3363 a43d
00000010: 1f93 6b3e 32da 263e d591 ba3d 948a 68bd
00000020: d478 33be fa6e 2f3e 2f7a e93c fa79 143e
00000030: 9d57 d23e 81d0 33bb 3c9d 5ebd 41be 923d
00000040: a00b 753e d034 833e 3fc0 ae3e 7893 9b3e
00000050: d8be 623e 018e 043e 1a00 723e 80d0 9c3e
00000060: 57d9 513d 886b 123e 0ea2 033e d716 b83c
00000070: dbfd b93d c805 3d3e eacf 9bbe 30d9 393e
00000080: d45d 8c3e 23df fb3c d313 87bd 7ffa 31be
00000090: 5c8e cc3c 6fe1 8c3e afea 193e 10d2 49be
000000a0: 282f 973e 64f4 d8bd e8d0 123c dd6a b7bd
000000b0: 2f4d ad3b 6df9 76bd 4b98 b1bc 8b67 803e
000000c0: dd58 1fbe 6b82 333e ce9b c63e a0e5 073d
000000d0: 62ce 523e f8d0 b63d 978f c73d d056 893d
000000e0: ff73 693e 2cb3 873e 1245 9bbd 4beb 56bc
000000f0: 2fde df3d 5f71 2a3e e8a8 063c 8ead 443e
00000100: b897 d5bb bfd4 a83e 73f9 63be 547a c23d
00000110: ac77 20bd 0826 12be d0cd 8f3d 45f3 6d3d
00000120: fbda 973d 4859 3c3e 44cd 14be ae91 2a3d
00000130: cbbf d13d bb79 d5bd 8873 ff3c 129f ae3e
00000140: 3396 403d c56e b03d 687c 2dbe 3b80 a73c
00000150: 056c 8b3e bdac 12be 7d9f b03e c93b 9e3e
00000160: 6a41 11bb f01d b63c 3be7 3fbe d0c3 dc3d
00000170: 1bf1 a33e b357 81bd 6dea 29be fc22 b23e
00000180: 5758 253e 9bfe 013e 44e5 d53c 4e9b 753d
00000190: 4f60 be3d cfbe 9f3d 1a67 6e3e 3a4e 1c3e
000001a0: 9814 593e ae7e 9b3e 9d05 dabd 80f9 2bbe
000001b0: de2a 8b3e cc7a 03be 6aae a7bd eae8 8e3d
000001c0: a7b5 4fbd e1ca ae3e 8f4c 5e3e 514a 1dbe
000001d0: fd86 913e f7f2 a13e 05e0 05be 64cf c6bc

model.1.weight_org f4 [120, 16]
-0.36175263 0.08907045 0.35148406 0.100539625 -0.28521848 0.056171656 -0.03286372 -0.15301137
0.081986345 -0.16317396 -0.09657638 0.038005028 -0.049614817 -0.084938146 -0.089941144 -0.25171635
-0.2930079 0.41954553 0.24700244 -0.2447517 0.19039528 -0.097988896 -0.051984385 -0.101490244
0.027276795 0.027294692 0.04017157 -0.027889607 -0.10773095 -0.05459903 0.07889607 -0.11147089
0.3324372 0.0071751177 -0.047481008 0.17647937 0.02400066 0.011777771 -0.21564224 0.2460972
0.035976276 -0.0662402 0.1265218 0.019534977 0.1388875 0.26966876 0.2376028 0.13761851
-0.07895006 0.2852491 0.19184503 0.011703307 -0.1883284 0.116440564 -0.2294003 -0.32403436
0.04222968 0.090940066 0.05159139 -0.14442988 0.1817044 -0.17168936 0.22265589 -0.17240006
0.3690369 0.027873479 -0.0432022 -0.1143091 -0.041354425 0.10225335 0.040558156 0.190508
0.033842273 -0.07493704 -0.118665285 -0.054102354 0.22736977 0.19605328 0.0062645013 0.08393655
0.25420788 0.074563876 0.25285912 -0.32329148 -0.14487311 0.120361455 -0.12948073 0.17842853
0.082008146 -0.02771408 0.0091671115 0.06916304 -0.19122297 -0.14235426 -0.14661342 0.15659945
-0.0039854716 -0.073252715 -0.20708106 0.042983476 0.122187026 -0.12879412 0.18888421 -0.08158635
0.12900594 0.26419386 -0.104011446 0.08478645 0.09766964 -0.105462216 -0.11893373 0.28702176
0.035171945 0.28519613 -0.082033195 -0.23528948 -0.09038842 -0.050784227 -0.051299024 0.038420863
-0.15937924 -0.17493513 0.20702817 -0.071680315 -0.14540504 -0.03569955 -0.087824196 0.36287233
0.20728737 -0.012345172 0.084823206 0.09691154 0.26172498 -0.045514014 0.028102925 0.26955777
-0.0064189765 -0.1286876 -0.27752262 0.14433886 0.17085385 0.15242462 -0.15501286 -0.16495652
0.10404441 0.15246633 0.19743706 0.0751529 0.30655056 0.10399329 0.1676892 0.23181847
-0.21579297 0.07728844 0.13565192 0.06473885 -0.21455172 0.30244538 0.1518259 0.17484419
0.12366949 -0.15850618 -0.0039059462 -0.23038153 0.14608899 -0.21959428 -0.07403342 -0.011719107
0.12891108 -0.36806166 0.3256086 0.12742901 0.07064938 -0.15381461 0.0739617 0.3451876
-0.19666581 -0.18132855 -0.036629405 -0.20336775 -0.12756243 -0.07005939 0.008908332 -0.32225755
-0.032183785 -0.076948464 -0.31734937 0.083583094 -0.17699274 -0.2615854 -0.2080955 0.1578736
-0.30435145 0.27735847 -0.31564924 0.038027026 -0.15879364 0.07798764 -0.028396966 0.20537937
0.08843226 -0.07383276 0.07945988 0.12568109 0.031379648 0.14757764 -0.13533446 0.01705084
0.3453355 -0.25939593 0.22994228 -0.33788437 -0.12230832 0.0645576 -0.19497305 0.099989526
-0.08861066 0.0016547396 -0.32459673 0.018402457 0.027283054 0.1416866 -0.06035346 -0.21728599
0.3679706 -0.28272942 0.14923856 -0.10103946 -0.15169248 -0.034653075 -0.17287461 0.15541853
-0.24309017 -0.2658426 0.39575076 -0.121304065 -0.07744984 0.30072844 -0.2078039 -0.21485817
-0.14799127 -0.29110202 -0.18441008 0.22485892 -0.34616572 -0.0050885556 -0.23089397 -0.09328222
0.20419022 0.2775545 0.22027259 -0.30783275 -0.26797298 0.012715775 0.20683372 -0.15217485
00000000: a437 b9be 916a b63d b8f5 b33e b8e7 cd3d
00000010: 2808 92be 4014 663d 1c9c 06bd 03af 1cbe
00000020: 75e8 a73d 1317 27be d6c9 c5bd 29ab 1b3d
00000030: e838 4bbd 0df4 adbd 1033 b8bd f7e0 80be
00000040: 2205 96be acce d63e 35ee 7c3e 31a0 7abe
00000050: fbf6 423e 67ae c8bd 94ed 54bd 1eda cfbd
00000060: 9673 df3c 1e99 df3c f28a 243d bf78 e4bc
00000070: 0ba2 dcbd 3ca3 5fbd 4394 a13d da4a e4bd
00000080: 3535 aa3e 401d eb3b 727b 42bd 02b7 343e
00000090: 089d c43c 8df7 403c 52d1 5cbe e800 7c3e
000000a0: dc5b 133d f1a8 87bd ee8e 013e d107 a03c
000000b0: 8638 0e3e 0612 8a3e 264e 733e deeb 0c3e
000000c0: 92b0 a1bd 2c0c 923e 0673 443e 3abf 3f3c
000000d0: 29d9 40be 6478 ee3d eae7 6abe d5e7 a5be
000000e0: 07f9 2c3d c93e ba3d 7e51 533d 6de5 13be
000000f0: b810 3a3e 56cf 2fbe e8ff 633e a489 30be
00000100: 68f2 bc3e ec56 e43c caf4 30bd e41a eabd
00000110: 4263 29bd 346a d13d 4f20 263d 8714 433e
00000120: 329e 0a3d 9778 99bd c906 f3bd 6e9a 5dbd
00000130: 9fd3 683e 31c2 483e 7246 cd3b ede6 ab3d
00000140: 8927 823e f2b4 983d c076 813e 7686 a5be
00000150: 9e59 14be 1180 f63d 9996 04be f8b5 363e
00000160: e3f3 a73d a308 e3bc a731 163c 5aa5 8d3d
00000170: f4cf 43be 51c5 11be d421 16be 9b5b 203e
00000180: 8f98 82bb 8505 96bd 0f0d 54be 710f 303d
00000190: 313d fa3d 9be2 03be dd6a 413e bf16 a7bd
000001a0: 221a 043e 6b44 873e f403 d5bd 85a4 ad3d
000001b0: 0507 c83d 93fc d7bd 8793 f3bd 84f4 923e
000001c0: 7510 103d 3a05 923e 0501 a8bd baef 70be
000001d0: 901d b9bd 1f03 50bd ed1e 52bd 325f 1d3d
000001e0: 5034 23be 3222 33be 31ff 533e 21cd 92bd
000001f0: 0fe5 14be b139 12bd 2cdd b3bd 67ca b93e
00000200: 2443 543e 6843 4abc cab7 ad3d 8f79 c63d
00000210: d100 863e e76c 3abd 1b38 e63c 7a03 8a3e
00000220: 4756 d2bb afc6 03be 7217 8ebe 91cd 133e
00000230: 50f4 2e3e 3315 1c3e b1bb 1ebe 5dea 28be
00000240: 3c15 d53d 2220 1c3e f12c 4a3e c3e9 993d
00000250: 32f4 9c3e 6ffa d43d b8b6 2b3e d261 6d3e
00000260: d5f8 5cbe 6749 9e3d 56e8 0a3e cd95 843d
00000270: 72b3 5bbe 1fda 9a3e 4078 1b3e 5b0a 333e
00000280: 6e46 fd3d 724f 22be e7fa 7fbb 23e9 6bbe
00000290: 5a98 153e 53dd 60be d59e 97bd 7f01 40bc
000002a0: 4401 043e 9472 bcbe 2cb6 a63e c07c 023e
000002b0: 9fb0 903d 9481 1dbe 3b79 973d 6ebc b03e
000002c0: c362 49be 31ae 39be b708 16bd a33f 50be
000002d0: ba9f 02be 4c7b 8fbd 41f4 113c f1fe a4be
000002e0: 25d3 03bd 2897 9dbd 9e7b a2be 9d2d ab3d
000002f0: 963d 35be 86ee 85be fd16 55be 9ea9 213e
00000300: f4d3 9bbe ee01 8e3e c79c a1be 3ac2 1b3d
00000310: cd9a 22be fcb7 9f3d c1a0 e8bc f84e 523e
00000320: f91b b53d a135 97bd ddbb a23d 8bb2 003e
00000330: f287 003d 981e 173e 1e95 0abe 34ae 8b3c
00000340: d1cf b03e 8bcf 84be fd75 6b3e 2eff acbe
00000350: c97c fabd c636 843d 04a7 47be 4fc7 cc3d
00000360: 8179 b5bd d9e3 d83a 8b31 a6be c0c0 963c
00000370: b680 df3c 4b16 113e 3135 77bd 3880 5ebe
00000380: a466 bc3e e9c1 90be fed1 183e c7ed cebd
00000390: 4655 1bbe 62f0 0dbd 0b06 31be 0926 1f3e
000003a0: a1ec 78be 851c 88be d89f ca3e 446e f8bd
000003b0: 069e 9ebd 14f9 993e 8cca 54be c803 5cbe
000003c0: 068b 17be 530b 95be ffd5 3cbe 6b41 663e
000003d0: a23c b1be e6bd a6bb 786f 6cbe c00a bfbd
000003e0: 3e17 513e a01b 8e3e 238f 613e 419c 9dbe
000003f0: c133 89be d355 503c 38cc 533e b9d3 1bbe

model.3.weight f4 [120, 120]
-0.05812085 0.07666309 0.031986266 -0.08308712 -0.02917482 -0.019127667 0.0624174 0.0854421
0.08847486 -0.054034397 0.041083384 -0.0018734153 -0.08425444 0.002721982 0.012866749 0.069416545
0.039040793 -0.028428154 -0.05529021 -0.06385942 0.06783494 -0.090522245 0.043004945 -0.04441372
0.045517758 -0.058473557 0.089380205 0.063472405 0.025479985 0.035741016 -0.05283382 -0.044301502
-0.04619088 0.023244636 0.08642351 0.064422935 0.07362503 -0.042156965 -0.00991686 0.07922171
-0.032138225 0.08009551 0.0025652666 0.07214757 -0.0020669128 -0.00013585425 0.0012902453 -0.021554032
-0.02736537 0.050984442 -0.0758878 0.07147432 -0.07361462 0.039291304 0.01588894 -0.01964723
0.04819978 -0.050638594 0.07300256 -0.045177076 -0.03970482 0.052149184 0.06393749 0.055656005
-0.07684177 0.0033879008 -0.008223067 6.261658e-05 -0.06826729 0.043805063 -0.057200417 -0.036233388
0.002557464 0.012140423 -0.08348209 0.04203427 -0.045772392 0.026580421 0.0016832912 0.07121034
-0.06715117 0.049811587 -0.040250283 0.042279728 -0.0762616 -0.063836575 0.074618086 0.06284754
-0.018769031 0.029698888 -0.08325966 0.0740187 0.05222694 0.032475367 -0.05472665 -0.08437384
-0.014734821 -0.019095128 0.0052115843 0.0078152 -0.014140508 0.07132282 0.01757381 -0.047158543
0.010514525 0.08077666 0.021492101 0.033762153 0.018685836 -0.0064452416 -0.08886069 0.082946345
-0.052771866 0.021038517 -0.04071527 0.06055555 0.003431495 -0.022272121 0.0012975691 0.08491778
-0.07288181 -0.0617496 0.054920625 0.002603387 -0.054097697 -0.000100432466 -0.064688966 0.048227377
-0.048650905 0.029071439 0.086901486 -0.08408338 -0.08474495 0.039665446 -0.013915887 0.07288798
-0.05768183 0.040722758 0.054364227 0.072092935 -0.076945454 -0.05458012 0.00096748816 0.028700354
-0.047935363 0.05726554 -0.07802324 0.04004733 0.049784444 -0.044427756 0.05308459 -0.050037947
0.026745778 -0.004266241 -0.03678265 0.022825735 -0.019911114 0.012645425 0.054029725 0.061691314
0.047965854 -0.03526138 0.018101579 -0.014009126 0.074498974 -0.038668066 0.04280619 -0.018765483
-0.0053548818 0.05677426 -0.077363394 0.0041006133 -0.014231233 0.06985171 -0.013185807 0.07429773
0.036940604 -0.06134875 -0.026455112 -0.063155554 -0.01933899 0.012961773 0.039424166 -0.048172574
-0.08337813 0.025110183 0.056945033 -0.069962 -0.0040911674 0.073036514 -0.064861275 0.030541731
0.09053163 0.061114594 -0.007606456 0.030520368 -0.015881019 0.041292008 -0.06519718 0.02869118
0.009341569 0.028436163 -0.0087853 0.050951622 -0.011878192 0.087730624 0.04914682 0.07581229
-0.030852279 -0.026849715 0.01804253 -0.023216309 -0.027328381 0.017217219 -0.055400938 0.045040134
-0.05251177 -0.04763351 0.090575285 0.09088599 0.013308515 -0.031590585 0.08006782 0.09093298
-0.0345811 -0.0153271 0.05709807 -0.065167814 0.014197901 -0.045361467 -0.08980357 0.079743646
-0.0045772674 0.02097344 0.088344745 0.06523435 0.0016103255 -0.07247551 0.06471533 -0.010035422
-0.055416465 -0.02284048 0.013971234 0.0019003054 -0.08240868 0.054056846 -0.024234531 -0.05569637
-0.066761635 0.023661656 -0.06727962 0.03779398 0.05338703 0.002725399 0.08103335 -0.04437327
00000000: 2110 6ebd 8a01 9d3d 0804 033d 9429 aabd
00000010: 0800 efbc a0b1 9cbc 63a9 7f3d 45fc ae3d
00000020: 4f32 b53d 2c53 5dbd 0d47 283d 638d f5ba
00000030: 988d acbd 4863 323b 0fcf 523c 432a 8e3d
00000040: 3de9 1f3d 29e2 e8bc fd77 62bd bac8 82bd
00000050: 0ced 8a3d ba63 b9bd f425 303d 29eb 35bd
00000060: d470 3a3d f881 6fbd f80c b73d d2fd 813d
00000070: 67bb d03c 2c65 123d 4768 58bd 7e75 35bd
00000080: a632 3dbd 896b be3c cffe b03d 2cf0 833d
00000090: b8c8 963d c8ac 2cbd 537a 22bc fe3e a23d
000000a0: 5fa3 03bd 1d09 a43d 081e 283b 1bc2 933d
000000b0: 0b75 07bb 1974 0eb9 731d a93a 1592 b0bc
000000c0: 572d e0bc 10d5 503d 106b 9bbd 2161 923d
000000d0: 43c3 96bd ebef 203d 8629 823c 3af3 a0bc
000000e0: 226d 453d 6a6a 4fbd 5e82 953d 990b 39bd
000000f0: 85a1 22bd 629a 553d a9f1 823d 8df7 633d
00000100: 385f 9dbd 8b07 5e3b 0bba 06bc 0551 8338
00000110: b9cf 8bbd f06c 333d fc4a 6abd 7669 14bd
00000120: 209b 273b a0e8 463c a8f8 aabd 202c 2c3d
00000130: d57b 3bbd 2fbf d93c e1a1 dc3a bad6 913d
00000140: 8d86 89bd 3c07 4c3d 7bdd 24bd 822d 2d3d
00000150: 0b2f 9cbd c0bc 82bd 5ed1 983d 36b6 803d
00000160: 83c1 99bc 154b f33c 0a84 aabd 1e97 973d
00000170: eaeb 553d e404 053d 0d29 60bd 31cc acbd
00000180: 526a 71bc 636d 9cbc f0c5 aa3b 530b 003c
00000190: 97ad 67bc b311 923d f3f6 8f3c 5129 41bd
000001a0: 1d45 2c3c 3c6e a53d 3410 b03c 2f4a 0a3d
000001b0: 0a13 993c 9b32 d3bb 98fc b5bd c6df a93d
000001c0: 5027 58bd f858 ac3c 0ec5 26bd 1909 783d
000001d0: efe2 603b 0674 b6bc 3213 aa3a 5fe9 ad3d
000001e0: 0f43 95bd 26ed 7cbd 73f4 603d 969d 2a3b
000001f0: 8c95 5dbd 459f d2b8 a67b 84bd 128a 453d
00000200: 2c46 47bd 3a27 ee3c 68f9 b13d e833 acbd
00000210: c38e adbd 3c78 223d 76ff 63bc 4b46 953d
00000220: c843 6cbd e8cc 263d 06ad 5e3d 76a5 933d
00000230: 9495 9dbd 678f 5fbd 089f 7d3a 011d eb3c
00000240: df57 44bd 458f 6a3d a6ca 9fbd ab08 243d
00000250: c6ea 4b3d e1f9 35bd 3a6f 593d 97f4 4cbd
00000260: f619 db3c d3cb 8bbb 67a9 16bd 09fd ba3c
00000270: a21c a3bc c22e 4f3c 464e 5d3d 08b0 7c3d
00000280: d877 443d 3d6e 10bd c349 943c 8986 65bc
00000290: eb92 983d 6862 1ebd 8b55 2f3d 12ba 99bc
000002a0: 0178 afbb 208c 683d b370 9ebd 705e 863b
000002b0: 1e2a 69bc 6a0e 8f3d 4809 58bc 6929 983d
000002c0: 084f 173d d448 7bbd 64b8 d8bc b357 81bd
000002d0: cd6c 9ebc 9e5d 543c 3c7b 213d 9b50 45bd
000002e0: 27c2 aabd dfb3 cd3c 323f 693d 3d48 8fbd
000002f0: 330f 86bb 2b94 953d fdd5 84bd a732 fa3c
00000300: a668 b93d 4c53 7a3d 943f f9bb da05 fa3c
00000310: e918 82bc cf21 293d 1986 85bd c409 eb3c
00000320: 610d 193c f5f2 e83c 38f0 0fbc a6b2 503d
00000330: c09c 42bc 1dac b33d 2d4e 493d 7943 9b3d
00000340: ebbd fcbc eff3 dbbc eecd 933c 2130 bebc
00000350: c5df dfbc 200b 8d3c 18ec 62bd 017c 383d
00000360: 9516 57bd 5b1b 43bd 897f b93d 6f22 ba3d
00000370: f50b 5a3c 2165 01bd 99fa a33d 123b ba3d
00000380: e9a4 0dbd 841e 7bbc aadf 693d b476 85bd
00000390: 509e 683c f2cc 39bd efea b7bd a350 a33d
000003a0: e7fc 95bb 7ed0 ab3c 17ee b43d 9699 853d
000003b0: 8f11 d33a 0a6e 94bd 7989 843d 9c6b 24bc
000003c0: 60fc 62bd f51b bbbc 9ae7 643c ab13 f93a
000003d0: e2c5 a8bd b66a 5d3d 7f87 c6bc e021 64bd
000003e0: 53ba 88bd 17d6 c13c e6c9 89bd dccd 1a3d
000003f0: 5cac 5a3d 9c9c 323b d0f4 a53d bfc0 35bd

model.3.bias f4 [120]
-0.08132266 -0.035190333 0.062163875 0.0015220996 0.062056065 -0.06924937 -0.05633648 0.08966841
0.04157452 -0.06895923 -0.021479236 0.033747897 -0.11015033 0.14816442 0.12613572 -0.014833877
-0.010139001 -0.084569536 0.08210858 0.11254389 -0.07310271 0.051007044 0.0034171492 0.054600447
0.13215426 0.05373693 -0.024555169 0.06415493 -0.007996051 0.1014032 -0.1162244 -0.077925645
0.09383929 -0.062452156 -0.0345524 0.08936073 0.012400702 0.060632274 0.07562197 0.11457812
0.116827 -0.075226456 0.09158383 -0.067458674 0.028964337 -0.07138564 0.067094445 -0.06669599
-0.039645225 0.14296712 0.05947362 0.02767102 -0.06971624 0.033947516 0.098274544 -0.11927311
0.06404842 0.11112915 -0.13010831 -0.07770552 0.07116878 0.14391452 0.05006854 -0.023835687
0.017852796 0.13403222 0.008094944 0.034435213 -0.008801599 0.1524252 0.10184714 -0.023495436
0.014259723 0.1338863 0.020399349 -0.061366126 0.063563704 -0.05122753 0.01987489 0.06503188
0.01280148 -0.032866947 -0.006756164 -0.034309514 -0.092225574 -0.010790258 0.018042723 -0.020242434
-0.014950341 -0.054771233 0.036439512 0.10984041 -0.056237202 -0.0033444164 0.15404974 0.07860844
0.080279954 0.029562688 0.03892262 -0.029124137 0.102838896 0.11669591 -0.018966617 -0.13637972
-0.030838033 0.0035336684 0.06005431 -0.060339876 0.021547824 0.025630131 0.11530152 0.03402146
0.049855117 -0.01557194 -0.048954677 0.018292418 0.042043548 0.06312054 -0.0058215107 -0.061405428
00000000: 7f8c a6bd bd23 10bd 8c9f 7e3d 3081 c73a
00000010: 802e 7e3d 9dd2 8dbd 15c1 66bd 12a4 b73d
00000020: 0b4a 2a3d 7f3a 8dbd 39f5 afbc 3c3b 0a3d
00000030: 7f96 e1bd 6ab8 173e b929 013e ca09 73bc
00000040: 0d1e 26bc cb32 adbd 8b28 a83d 697d e63d
00000050: e0b6 95bd c3ec 503d 40f2 5f3b b8a4 5f3d
00000060: 7253 073e 411b 5c3d ec27 c9bc a963 833d
00000070: de01 03bc 7bac cf3d 0f07 eebd 7b97 9fbd
00000080: d02e c03d d5cd 7fbd d186 0dbd c202 b73d
00000090: 502c 4b3c 8c59 783d b1df 9a3d efa7 ea3d
000000a0: ff42 ef3d 5410 9abd 4e90 bb3d c627 8abd
000000b0: 9e46 ed3c a232 92bd d068 893d e897 88bd
000000c0: 0863 22bd f965 123e 9c9a 733d 56ae e23c
000000d0: 63c7 8ebd 8d0c 0b3d 2a44 c93d 7645 f4bd
000000e0: d12b 833d ae97 e33d 1d3b 05be 1224 9fbd
000000f0: f0c0 913d 545e 133e ab14 4d3d 0f43 c3bc
00000100: 0740 923c be3f 093e a8a0 043c f00b 0d3d
00000110: 9534 10bc 5a15 1c3e 3c95 d03d 8079 c0bc
00000120: 9da1 693c 7d19 093e 891c a73c 0c5b 7bbd
00000130: b02d 823d f5d3 51bd aad0 a23c 6f2f 853d
00000140: 4cbd 513c 7e9f 06bd d062 ddbb 2288 0cbd
00000150: c3e0 bcbd 9fc9 30bc 55ce 933c 76d3 a5bc
00000160: 46f2 74bc cd57 60bd 9941 153d 02f4 e03d
00000170: fb58 66bd ff2d 5bbb 37bf 1d3e 76fd a03d
00000180: d169 a43d 732d f23c 536d 1f3d be95 eebc
00000190: 339d d23d 44fe ee3d e15f 9bbc 20a7 0bbe
000001a0: 0ba0 fcbc 1e95 673b 82fb 753d f226 77bd
000001b0: 1085 b03c 48f6 d13c 3423 ec3d 165a 0b3d
000001c0: e134 4c3d 7321 7fbc b384 48bd fbd9 953c
000001d0: db35 2c3d 5745 813d 5fc2 bebb 4284 7bbd

model.3.weight_org f4 [120, 120]
-0.027327504 0.077124834 0.03242672 -0.073364794 -0.00096622034 -0.036053963 0.109499894 0.13280897
0.13774878 -0.05143028 0.10701624 0.012984122 -0.07527135 0.06622773 -0.0124605745 0.13520174
0.042917162 0.00830362 -0.07822889 -0.06407779 0.093137175 -0.1269664 0.049183063 -0.07853795
0.09170764 -0.008053978 0.09595538 0.12960696 0.049439613 0.07974104 -0.026032053 -0.055533398
-0.015136442 0.054903664 0.13586007 0.13778111 0.06803187 -0.039311163 0.039582536 0.09357292
-0.063373215 0.09697912 0.026394876 0.11423027 0.055199694 0.07043391 0.031214714 -0.014243235
-0.00018943654 0.070429884 -0.09360084 0.061807234 -0.05251536 0.10463564 0.016223768 0.006883206
0.08206288 -0.012126362 0.07420382 -0.028716732 -0.002922948 0.06494894 0.06279372 0.035378937
0.007992859 -0.006661442 0.091694966 0.06729268 -0.050223865 0.05779387 -0.060838256 -0.07228334
0.050137684 0.046597335 -0.070575945 0.08170352 -0.028643481 0.004766748 -0.018617738 0.08757974
-0.027300544 0.069278255 0.0118523445 0.09918466 -0.090014346 -0.03274234 0.055013668 0.057707664
0.019835826 0.06904602 -0.03627157 0.093394876 0.059927557 0.06192955 0.01768847 -0.07768235
0.020146327 0.019840226 -0.00058691454 0.055243153 0.0148974 0.12664534 0.051328447 -0.041529316
0.01632119 0.086186 0.03951217 0.06860673 0.07051515 0.009092096 -0.08423217 0.10351011
0.00242013 0.055931207 -0.013142055 0.13113306 0.017061027 -0.036009908 -0.014789034 0.12949291
0.0012658892 -0.03687894 0.0644587 0.0750614 -0.120805666 -0.17522192 -0.019935835 0.02969046
0.03442341 0.01926612 0.06074741 -0.13707823 -0.044256676 0.05696808 -0.052452262 0.03528016
0.041841514 0.032906763 0.07122036 0.012167248 0.016198564 -0.049940508 -0.11213112 -0.03164382
-0.075238444 0.07300089 -0.068656564 0.05050371 0.0559732 -0.06718738 0.22037081 -0.1165253
0.03693368 0.033808626 -0.024877653 0.18321663 -0.1480973 0.045233354 0.021445146 0.10841695
0.046688914 0.04193758 -0.033476297 0.043656807 -0.11335296 -0.020111138 0.062389925 0.04267618
0.05601615 0.07808914 -0.14551562 -0.013512429 -0.06985757 0.07466693 -0.022766808 0.18895775
0.044241667 -0.033493243 -0.034956403 -0.07127367 0.027265653 0.078983344 0.027095817 -0.006747463
0.05625567 0.00059976557 0.12787877 -0.042749565 0.027339807 0.09055491 -0.1415049 0.05463595
0.13800111 0.098584145 0.12554117 0.030702839 -0.012265228 0.15850367 -0.13702333 0.008230179
0.02287389 0.046275005 0.033833366 0.08752135 -0.020715006 0.18400536 0.058598258 0.08318379
-0.029975282 -0.20920658 0.10836786 -0.0019604203 -0.026711019 -0.06605915 -0.037537806 -0.021564975
-0.054344635 -0.05046366 0.04891659 0.1459859 -0.004755317 -0.09143756 0.06153814 0.045876022
-0.08872116 -0.0094565 0.035116654 -0.014980138 -0.01582893 -0.08984316 -0.08830975 0.14891195
-0.0012710516 0.080420785 0.091621205 0.009329814 -0.01897669 -0.04532231 0.00368667 -0.06890569
-0.036224965 0.010988318 0.0329603 0.012134001 -0.04891487 0.0589346 -0.06408842 -0.058126062
-0.12179514 0.04576896 -0.031512495 0.02865607 0.04043585 0.01581095 0.12045164 0.01021158
00000000: eedd dfbc a0f3 9d3d e1d1 043d 4840 96bd
00000010: f349 7dba 52ad 13bd 7b41 e03d 13ff 073e
00000020: 040e 0d3e 8fa8 52bd 552b db3d 5bbb 543c
00000030: de27 9abd 67a2 873d 7027 4cbc 5372 0a3e
00000040: e8c9 2f3d e80b 083c 7836 a0bd 373b 83bd
00000050: b4be be3d 7b03 02be 2e74 493d 81d8 a0bd
00000060: 37d1 bb3d d5f4 03bc 4184 c43d b0b7 043e
00000070: 3181 4a3d 454f a33d 2c41 d5bc fd76 63bd
00000080: d7fe 77bc aae2 603d e71e 0b3e 7e16 0d3e
00000090: 4b54 8b3d be04 21bd 4c21 223d 29a3 bf3d
000000a0: d1c9 81bd fd9c c63d 113a d83c 8ff1 e93d
000000b0: 1319 623d a73f 903d 00b6 ff3c 755c 69bc
000000c0: 7ca3 46b9 8b3d 903d ccb1 bfbd 9529 7d3d
000000d0: 591a 57bd 364b d63d b5e7 843c 848c e13b
000000e0: 9510 a83d a6ad 46bc 2cf8 973d 5a3f ebbc
000000f0: ee8e 3fbb f303 853d fe99 803d 81e9 103d
00000100: 7bf4 023c 3a48 dabb 92ca bb3d bfd0 893d
00000110: 8ab7 4dbd 44b9 6c3d 8931 79bd 4a09 94bd
00000120: 2c5d 4d3d d9dc 3e3d 1f8a 90bd 2d54 a73d
00000130: bca5 eabc 6132 9c3b 3a84 98bc 025d b33d
00000140: 64a5 dfbc c2e1 8d3d 5630 423c 5421 cb3d
00000150: 7159 b8bd d51c 06bd 0356 613d df5e 6c3d
00000160: be7e a23c 0068 8d3d 7f91 14bd d045 bf3d
00000170: 9976 753d d7a9 7d3d 69e7 903c ed17 9fbd
00000180: e909 a53c f887 a23c 2bdb 19ba a546 623d
00000190: 3914 743c 51af 013e c73d 523d a51a 2abd
000001a0: 04b4 853c 4982 b03d 83d7 213d af81 8c3d
000001b0: 3f6a 903d 04f7 143c ea81 acbd 1cfd d33d
000001c0: 0b9b 1e3b 1f18 653d c651 57bc bf47 063e
000001d0: 91c3 8b3c 207f 13bd b44d 72bc ca99 043e
000001e0: 31ec a53a 5f0e 17bd ec02 843d cbb9 993d
000001f0: f668 f7bd 606d 33be 7a50 a3bc 6839 f33c
00000200: 90ff 0c3d fbd3 9d3c 47d2 783d 3c5e 0cbe
00000210: 7d46 35bd 5d57 693d 2fd8 56bd ee81 103d
00000220: 0262 2b3d 3ec9 063d fbdb 913d 2359 473c
00000230: dab2 843c 6b8e 4cbd 00a5 e5bd f39c 01bd
00000240: 9d16 9abd 7e81 953d d09b 8cbd fadc 4e3d
00000250: 2744 653d 8999 89bd e3a8 613e d1a4 eebd
00000260: c547 173d ea7a 0a3d 38cc cbbc 249d 3b3e
00000270: d2a6 17be 9c46 393d bbad af3c b509 de3d
00000280: e03c 3f3d bdc6 2b3d 711e 09bd 7bd1 323d
00000290: 9925 e8bd 1dc0 a4bc 948c 7f3d 38cd 2e3d
000002a0: 3171 653d 33ed 9f3d 0c02 15be 3c63 5dbc
000002b0: 7c11 8fbd faea 983d 7581 babc 247e 413e
000002c0: c036 353d 3630 09bd 722e 0fbd eef7 91bd
000002d0: 385c df3c 05c2 a13d 0cf8 dd3c d219 ddbb
000002e0: 586c 663d 9639 1d3a a7f2 023e 2b1a 2fbd
000002f0: bbf7 df3c da74 b93d a9e6 10be f2c9 5f3d
00000300: 2a50 0d3e 7ce6 c93d dd8d 003e 8584 fb3c
00000310: 18f4 48bc c94e 223e d84f 0cbe dfd7 063c
00000320: 0662 bb3c dc8a 3d3d db94 0a3d 653e b33d
00000330: 84b2 a9bc e76b 3c3e ba04 703d 435c aa3d
00000340: b98e f5bc 403a 56be f8ef dd3d 657a 00bb
00000350: 11d1 dabc 054a 87bd 3ec1 19bd 08a9 b0bc
00000360: 7b98 5ebd fcb2 4ebd c35c 483d 547d 153e
00000370: 7dd2 9bbb 9e43 bbbd 6b0f 7c3d 7fe8 3b3d
00000380: 71b3 b5bd 70ef 1abc 7bd6 0f3d 416f 75bc
00000390: acab 81bc b1ff b7bd bedb b4bd 607c 183e
000003a0: 6a99 a6ba a7b3 a43d e6a3 bb3d 14dc 183c
000003b0: 0175 9bbc e3a3 39bd 0f9c 713b 6d1e 8dbd
000003c0: a160 14bd 5908 343c 6101 073d b0cd 463c
000003d0: f55a 48bd 6865 713d ca40 83bd 9815 6ebd
000003e0: bb6f f9bd 3c78 3b3d 3f13 01bd 22c0 ea3c
000003f0: 10a0 253d f785 813c 59af f63d 794e 273c

model.5.weight f4 [120, 120]
0.013249021 0.09003427 0.036693793 -0.0050848927 -0.07622774 -0.077247135 0.024675861 -0.058470607
0.030391708 -0.07750386 0.046616398 -0.084922984 0.06537015 -0.06467616 0.07869822 -0.0021026395
0.01426882 0.07277953 0.07289991 0.06467604 -0.036287647 0.05665391 0.08708356 -0.06244491
0.089058556 -0.044208087 -0.078561954 -0.041396804 0.0015284474 -0.08186162 -0.06340149 -0.013382372
0.026634224 -0.060427282 0.083182916 0.028855905 0.02485296 0.081376664 0.0035669575 0.014754246
-9.2629874e-05 0.06793475 -0.005038654 0.040620454 0.01982496 0.039776925 -0.048246313 -0.075825244
0.016541941 -0.07858828 -0.016037984 0.053879954 0.05996029 0.009488512 0.035193194 0.08552574
-0.030478973 0.08150808 0.07659582 0.02671201 -0.02939561 -0.05051224 0.02736536 0.023470148
0.007409672 -0.039817743 0.05716382 0.042463508 -0.0041715656 0.029094422 0.030517017 0.021487694
-0.026611065 0.01615142 -0.051252518 0.043800525 0.00088993023 -0.064100094 0.09008637 0.069342144
0.013424106 0.017314844 -0.03515181 0.03844952 0.038114984 0.025669772 0.081946656 0.04234969
-0.08039703 -0.04803436 0.04506044 0.024539953 -0.06798963 -0.011455852 -0.07056087 -0.08956396
0.07116717 0.0003247487 0.08695533 -0.04514173 0.031983513 0.06916842 0.059749503 0.02878121
-0.029648917 -0.06986611 0.0677741 0.03175701 0.021604635 0.055569623 0.050089877 0.0469298
0.070172384 -0.036823086 -0.055062726 0.06680594 0.07943451 -0.024354868 0.024453461 -0.07311528
0.04156867 0.050690547 -0.025699666 -0.041193992 0.061269786 0.00011079238 0.013715903 0.024456268
-0.046682835 -0.05031823 0.026809167 -0.015933242 -0.01905789 -0.009048531 -0.054733254 -0.0531089
-0.043110665 0.017577292 -0.015365688 0.03261254 -0.021608824 -0.06261387 0.07883591 0.008079759
-0.0025777048 0.0146324625 -0.0328876 7.790617e-05 -0.035079833 -0.029465431 0.036159083 0.04006277
0.04923947 0.032373052 -0.05590916 -0.0472456 -0.04846895 -0.067052715 -0.058048952 0.09125394
0.06618299 -0.012918124 0.04282124 0.032287627 -0.052937854 0.0024511768 0.033632576 -0.011621001
-0.0030868754 0.08565307 -0.009538146 0.048156664 -0.05260368 0.020574225 -0.0061498205 -0.0016883078
0.026456287 0.0750849 -0.07458888 -0.0012309152 -0.031399503 0.02652158 -0.059257895 0.023128882
0.022690663 0.03888757 -0.007500898 -0.027845725 -0.034093432 -0.0138229085 0.08602194 0.027457772
-0.04672026 -0.030317415 -0.014523095 0.02443002 0.029260006 -0.06284666 -0.04236907 -0.009585277
-0.08687085 0.077134594 -0.019952238 0.062326107 -0.033298243 -0.052219123 -0.05704506 0.040831253
0.08346923 0.03818966 0.07967632 -0.0012757067 0.02122567 -0.074629985 0.030138586 -0.024408495
0.01101253 -0.04161516 -0.0030375896 -0.0064849076 -0.06238807 -0.028261144 0.023840386 0.05717419
-0.07108936 -0.06540871 -0.049543306 -0.08674712 0.053599562 0.023471663 0.08550622 -0.009692511
0.06350395 -0.055499453 -0.08253522 0.009250103 0.02677453 -0.050928563 -0.0827905 0.044427976
-0.067850664 0.00083619356 -0.021967003 -0.03651652 0.005694463 -0.06029354 -0.021475626 -0.04562326
0.05107049 -0.07814629 -0.025614828 -0.027318828 -0.07353578 0.0045362087 -0.04644227 -0.0560472
00000000: 6c12 593c e363 b83d 3b4c 163d 2c9f a6bb
00000010: 4a1d 9cbd bf33 9ebd 0825 ca3c e07e 6fbd
00000020: 08f8 f83c 58ba 9ebd d6f0 3e3d 1aec adbd
00000030: c9e0 853d ef74 84bd 882c a13d 70cc 09bb
00000040: c5c7 693c 6f0d 953d 8c4c 953d df74 843d
00000050: 5ba2 14bd ee0d 683d de58 b23d 3cc6 7fbd
00000060: 5564 b63d 8a13 35bd 17e5 a0bd b28f 29bd
00000070: 2f56 c83a 11a7 a7bd a4d8 81bd bd41 5bbc
00000080: 0430 da3c 9982 77bd ce5b aa3d 3863 ec3c
00000090: 6f98 cb3c cfa8 a63d 9ec3 693b cbbb 713c
000000a0: 4942 c2b8 6021 8b3d 4b1b a5bb a261 263d
000000b0: f467 a23c 21ed 223d ed9d 45bd 444a 9bbd
000000c0: f782 873c e4f2 a0bd 1762 83bc 3ab1 5c3d
000000d0: ec98 753d b475 1b3c bd26 103d 1f28 af3d
000000e0: 0aaf f9bc b5ed a63d 45de 9c3d 25d3 da3c
000000f0: 10cf f0bc ece5 4ebd 522d e03c 7844 c03c
00000100: d5cc f23b ee17 23bd 9c24 6a3d 37ee 2d3d
00000110: a1b1 88bb 6d57 ee3c d3fe f93c f606 b03c
00000120: 73ff d9bc fc4f 843c 29ee 51bd 2e68 333d
00000130: 354a 693a e946 83bd 347f b83d 4103 8e3d
00000140: c8f0 5b3c dcd7 8d3c 58fb 0fbd 3e7d 1d3d
00000150: 751e 1c3d 6a49 d23c a6d3 a73d de76 2d3d
00000160: 33a7 a4bd adbf 44bd 4c91 383d 0308 c93c
00000170: 263e 8bbd 53b1 3bbc 3882 90bd 4f6d b7bd
00000180: 18c0 913d 0843 aa39 a315 b23d 89e6 38bd
00000190: 2501 033d 2ca8 8d3d e5bb 743d 92c6 eb3c
000001a0: 49e2 f2bc f715 8fbd 26cd 8a3d a313 023d
000001b0: 34fc b03c f99c 633d 0b2b 4d3d 7639 403d
000001c0: 8ab6 8f3d ced3 16bd 7489 61bd 8dd1 883d
000001d0: 8fae a23d dc83 c7bc a052 c83c 77bd 95bd
000001e0: e943 2a3d e4a0 4f3d 1b88 d2bc 08bb 28bd
000001f0: 07f6 7a3d 3559 e838 abb8 603c 8358 c83c
00000200: 8036 3fbd 7d1a 4ebd e69e db3c 6e86 82bc
00000210: 4b1f 9cbc 4a40 14bc fa2f 60bd b888 59bd
00000220: cf94 30bd 41fe 8f3c 5ec0 7bbc ba94 053d
00000230: fd04 b1bc b33b 80bd b974 a13d f760 043c
00000240: b6ee 28bb ffbc 6f3c 26b5 06bd 8e61 a338
00000250: dfaf 0fbd 7d61 f1bc 8c1b 143d dc18 243d
00000260: 54af 493d 9b99 043d 0101 65bd 9a84 41bd
00000270: 6187 46bd ef52 89bd bdc4 6dbd 58e3 ba3d
00000280: f38a 873d 8aa6 53bc 5365 2f3d 0840 043d
00000290: 5dd5 58bd eca3 203b 50c2 093d 0366 3ebc
000002a0: 2d4d 4abb e06a af3d e245 1cbc ec3f 453d
000002b0: f576 57bd 478b a83c 6f84 c9bb 364a ddba
000002c0: dbba d83c 1dc6 993d 0ec2 98bd a956 a1ba
000002d0: c49c 00bd c943 d93c 68b8 72bd c878 bd3c
000002e0: c5e1 b93c 9348 1f3d 18ca f5bb b81c e4bc
000002f0: 8ea5 0bbd 7b79 62bc 452c b03d 1fef e03c
00000300: be5d 3fbd 3a5c f8bc 47f2 6dbc 7721 c83c
00000310: aeb2 ef3c c0b5 80bd 318b 2dbd 910b 1dbc
00000320: 58e9 b1bd bef8 9d3d e072 a3bc a949 7f3d
00000330: bd63 08bd b8e3 55bd 15a8 69bd ac3e 273d
00000340: eaf1 aa3d c36c 1c3d 572d a33d 9d35 a7ba
00000350: 75e1 ad3c 9bd7 98bd 32e5 f63c 53f4 c7bc
00000360: e66d 343c a874 2abd 4c12 47bb 597f d4bb
00000370: a28a 7fbd ea83 e7bc ea4c c33c 7c2f 6a3d
00000380: 4c97 91bd 00f5 85bd eced 4abd 79a8 b1bd
00000390: 378b 5b3d a547 c03c e31d af3d 56cd 1ebc
000003a0: 5c0e 823d 6553 63bd 3a08 a9bd be8d 173c
000003b0: 4256 db3c 789a 50bd 118e a9bd 1cfa 353d
000003c0: 4af5 8abd 0034 5b3a 25f4 b3bc 5992 15bd
000003d0: 9e98 ba3b 5cf6 76bd a7ed afbc 75df 3abd
000003e0: 4a2f 513d 290b a0bd 30d6 d1bc bccb dfbc
000003f0: ed99 96bd 7aa4 943b 403a 3ebd c091 65bd

model.5.bias f4 [120]
0.013781627 0.014154252 0.13739748 -0.0375525 0.025499227 -0.030377746 -0.10999497 0.053577945
-0.04050215 0.07454764 0.078134656 -0.0939694 0.10266781 0.045856345 -0.07212063 0.07643288
-0.014571309 0.11330522 0.053942215 -0.059472084 -0.064285815 -0.006850627 0.04108103 -0.021999527
-0.15694939 0.06459502 0.010383539 0.019321386 0.07487853 0.110665314 -0.10310128 -0.05245007
0.06469346 -0.039007355 0.075596526 0.050669983 -0.06572367 0.06837196 -0.06336226 -0.08753587
-0.006348729 0.034941826 -0.0037330408 -0.0755357 0.0002914972 0.095868915 -0.09190179 -0.021488331
-0.039727382 0.07086436 -0.064584106 -0.095539734 0.09576839 -0.006067694 -0.06353962 0.07377566
0.058851343 -0.008641496 -0.03952658 -0.048132934 0.038728893 -0.031390585 0.14131325 0.014823831
-0.0011378636 -0.028400706 0.062433474 0.12212036 0.01334664 -0.09125695 -0.06440663 0.0136242695
-0.09585468 -0.08974541 0.053738613 0.012362405 0.08838511 0.05185152 0.056072198 0.014650697
0.07373006 0.070419915 0.08071018 0.04996895 -0.036023855 -0.020469625 -0.07824035 -0.025983293
0.07403365 -0.026967049 -0.022396704 -0.012700143 0.0017565265 0.0423924 0.10220147 0.042796742
-0.057396512 0.05353092 0.0042376695 -0.051885232 0.07856197 0.011015184 0.013813364 0.09660839
-0.00050505257 0.097722724 0.033867333 0.0032598632 0.10585918 0.029902007 0.036125734 0.12247285
0.035162605 0.11360042 -0.1295534 -0.11565691 0.0718282 -0.037721474 0.10776441 0.09951015
00000000: 55cc 613c 3ce7 673c edb1 0c3e a6d0 19bd
00000010: c1e3 d03c c0da f8bc 0b45 e1bd 8c74 5b3d
00000020: 95e5 25bd 6fac 983d 1005 a03d 0773 c0bd
00000030: 8043 d23d ddd3 3b3d fbb3 93bd d788 9c3d
00000040: 80bc 6ebc 910c e83d 83f2 5c3d 0099 73bd
00000050: 48a8 83bd 397b e0bb 9544 283d 5a38 b4bc
00000060: 57b7 20be 654a 843d b81f 2a3c e247 9e3c
00000070: ea59 993d 7fa4 e23d c426 d3bd e2d5 56bd
00000080: 017e 843d 2dc6 1fbd 5ad2 9a3d 548b 4f3d
00000090: 229a 86bd 9906 8c3d 13c4 81bd 0246 b3bd
000000a0: 0009 d0bb 291f 0f3d 08a6 74bb 76b2 9abd
000000b0: 18d4 9839 ec56 c43d 0137 bcbd 4c08 b0bc
000000c0: 2eb9 22bd 5521 913d ac44 84bd 56aa c3bd
000000d0: 3822 c43d 82d3 c6bb 0f21 82bd b117 973d
000000e0: 1b0e 713d 1095 0dbc a0e6 21bd 0a27 45bd
000000f0: 30a2 1e3d 6a93 00bd 6cb4 103e a7df 723c
00000100: 5e24 95ba 99a8 e8bc 3eba 7f3d 3d1a fa3d
00000110: deab 5a3c ece4 babd a0e7 83bd 5438 5f3c
00000120: 754f c4bd 71cc b7bd 051d 5c3d af8b 4a3c
00000130: 4103 b53d 4262 543d f6ab 653d 7a09 703c
00000140: c9ff 963d 5138 903d 614b a53d 3eac 4c3d
00000150: c08d 13bd eaaf a7bc 7a3c a0bd eada d4bc
00000160: f49e 973d 00ea dcbc 4b79 b7bc 4314 50bc
00000170: 403b e63a a7a3 2d3d 014f d13d a34b 2f3d
00000180: 9b18 6bbd 3d43 5b3d 26dc 8a3b 9c85 54bd
00000190: 19e5 a03d 0879 343c 7351 623c 9fda c53d
000001a0: 8165 04ba da22 c83d 79b8 0a3d 6ea3 553b
000001b0: b3cc d83d 0ef5 f43c 94f8 133d 0cd3 fa3d
000001c0: aa06 103d 56a7 e83d a6a9 04be 88dd ecbd
000001d0: aa1a 933d d581 1abd 96b3 dc3d facb cb3d

model.5.weight_org f4 [120, 120]
-0.04027253 0.10009263 0.04914781 -0.032987237 -0.03713894 -0.13716868 0.010011778 -0.057856053
0.079279855 -0.055485994 0.11340854 -0.059993867 -0.031497873 -0.040743437 0.10840789 0.010329495
-0.0046200207 0.17064068 0.09332981 0.08494224 -0.09336322 0.032425903 0.15581727 -0.09348382
0.115280785 -0.008791848 -0.09672982 -0.018748233 -0.011102004 -0.16789326 -0.07299152 -0.052881416
0.04354673 -0.051518638 0.08601345 0.03870286 -0.01313291 0.075680956 0.08040121 0.047146272
0.02056232 0.120154016 0.00618724 -0.029822413 0.039891787 0.05209803 -0.032068174 -0.09133294
0.055663463 -0.15496339 -0.05204737 0.07629639 0.045493834 0.029103927 -0.042145204 -0.014839761
0.047142264 0.09438738 -0.012701998 0.058683995 -0.025523428 -0.029793289 0.0064006895 0.015660575
0.02317715 -0.027890874 0.036383018 0.025550947 -0.0066061798 0.04786362 -0.03606382 -0.010867108
-0.00062890904 0.07747355 -0.08918843 -0.10558315 0.0038077105 -0.035008814 0.088321105 0.102965236
0.053984977 0.009688358 -0.01113098 0.076850705 0.050446536 0.05460526 0.13155277 0.07133722
-0.063059725 -0.027537288 0.035820577 0.06074665 -0.11374833 0.030907255 -0.111465596 -0.096941136
0.17581429 0.0013620695 0.06165053 -0.019099236 0.0791758 0.12605372 0.08074691 0.12958816
0.024240956 -0.036584806 0.04594416 0.09596481 0.038132843 0.1058482 0.073920876 0.0482672
0.10075583 -0.043012325 -0.13820276 0.1084507 0.059267234 -0.043863665 -0.00044636792 -0.05795731
0.024695061 0.11616205 -0.02217056 -0.045885287 0.085124835 -0.02937053 0.026149126 0.06166496
-0.06906607 -0.015943693 0.08832128 -0.043394323 0.024938827 0.069716305 -0.019543052 -0.052550405
-0.020622026 0.09168966 0.015811648 0.059414644 0.027236288 -0.036002215 0.13147342 0.028152246
0.019415315 0.036920667 0.024625698 0.073132046 -0.029668588 -0.024535766 0.078829415 0.04309694
0.09959684 0.03727988 -0.040451664 -0.026340893 -0.083162285 -0.09244383 -0.00029906607 0.13384724
0.08323345 0.027059026 0.025657505 -0.017473929 0.036945757 0.04295804 0.051271003 0.0027087305
0.014210673 0.10348266 0.045140315 0.06974385 -0.044024937 0.043812886 -0.009701198 -0.091905504
0.07316204 0.09085694 -0.102425896 -0.008377444 0.032912336 0.07879844 -0.033621054 0.004285266
0.014133135 0.07957114 0.012676221 -0.014596783 -0.0124534955 0.05696696 0.118714936 0.050120257
-0.052741546 0.021752711 -0.06652938 -0.0149845695 0.03299442 -0.048810452 -0.0033140886 -0.012413364
-0.09369474 0.08767844 -0.01197224 0.15129963 0.01598077 -0.01063613 -0.0017820491 0.06927872
0.10233962 0.071527645 0.13415118 0.040368754 -0.009896354 -0.054368574 0.05327785 -0.013370353
0.04797627 -0.075224444 0.0064605447 0.017898707 -0.0007147622 0.032825347 0.034879696 0.03178411
-0.035087004 -0.08039244 -0.02650184 -0.07872127 0.078994185 0.05261417 0.10639885 0.0045557735
0.08483122 -0.044571195 -0.020589232 -0.018212587 0.059714727 -0.052632354 -0.073650904 0.06456169
-0.1057767 0.048186902 0.043241043 -0.15255834 0.06463331 -0.025483204 -0.04338618 -0.118016265
0.04691178 -0.015895816 -0.054966528 0.017277999 -0.056188133 0.028800618 -0.015274767 -0.04043729
00000000: cff4 24bd 5dfd cc3d 374f 493d a01d 07bd
00000010: 001f 18bd f275 0cbe 7108 243c 78fa 6cbd
00000020: 7a5d a23d 4845 63bd bd42 e83d 21bc 75bd
00000030: ea03 01bd 97e2 26bd f504 de3d 0b3d 293c
00000040: 8b63 97bb 6ebc 2e3e b323 bf3d 32f6 ad3d
00000050: 3735 bfbd 06d1 043d 908e 1f3e 7274 bfbd
00000060: 5518 ec3d af0b 10bc 491a c6bd e595 99bc
00000070: 2ee5 35bc 36ec 2bbe 947c 95bd 2f9a 58bd
00000080: 0e5e 323d 3505 53bd d227 b03d e486 1e3d
00000090: 6b2b 57bc 9efe 9a3d 64a9 a43d 731c 413d
000000a0: 4f72 a83c 4f13 f63d 55be ca3b 224e f4bc
000000b0: 9265 233d be64 553d eb59 03bd c40c bbbd
000000c0: 5fff 633d b9ae 1ebe 9f2f 55bd 4841 9c3d
000000d0: be57 3a3d 5c6b ee3c 73a0 2cbd 7822 73bc
000000e0: 3f18 413d 2c4e c13d 0b1c 50bc a15e 703d
000000f0: 8216 d1bc 0e11 f4bc e0bc d13b 9b4a 803c
00000100: 02de bd3c 677b e4bc 5c06 153d 3850 d13c
00000110: a778 d8bb a50c 443d a8b7 13bd f40b 32bc
00000120: 5fdd 24ba 74aa 9e3d 6ca8 b6bd fb3b d8bd
00000130: c88a 793b 6765 0fbd b2e1 b43d 70df d23d
00000140: 5a1f 5d3d ebbb 1e3c b75e 36bc e763 9d3d
00000150: 07a1 4e3d c4a9 5f3d c5b5 063e 4019 923d
00000160: 7525 81bd e195 e1bc 99b8 123d 7bd1 783d
00000170: e2f4 e8bd 3631 fd3c 1348 e4bd 1389 c6bd
00000180: a908 343e 7887 b23a 4485 7c3d 0076 9cbc
00000190: ec26 a23d 3a14 013e a35e a53d c2b2 043e
000001a0: f894 c63c f3d9 15bd f22f 3c3d 3389 c43d
000001b0: 2f31 1c3d f1c6 d83d d463 973d d4b3 453d
000001c0: 1359 ce3d b12d 30bd 0685 0dbe 671b de3d
000001d0: 33c2 723d 63aa 33bd 7d06 eab9 a564 6dbd
000001e0: 4c4d ca3c 5ee6 ed3d 099f b5bc 36f2 3bbd
000001f0: ee55 ae3d 779a f0bc b136 d63c 6694 7c3d
00000200: 8372 8dbd 599c 82bc cae1 b43d 3fbe 31bd
00000210: 834c cc3c 6cc7 8e3d c018 a0bc 183f 57bd
00000220: 86ef a8bc cac7 bb3d 6e87 813c c55c 733d
00000230: a31e df3c 0f77 13bd f8a0 063e 8a9f e63c
00000240: de0c 9f3c 203a 173d d5bb c93c 41c6 953d
00000250: 8a0b f3bc 3bff c8bc 5171 a13d 6b86 303d
00000260: 6ef9 cb3d cab2 183d a5b0 25bd dbc8 d7bc
00000270: fd50 aabd 3153 bdbd f8cb 9cb9 400f 093e
00000280: 4d76 aa3d e4aa dd3c b02f d23c 7c25 8fbc
00000290: 6f54 173d c5f4 2f3d 8b01 523d f584 313b
000002a0: e2d3 683c b8ee d33d 0de5 383d ddd5 8e3d
000002b0: 7e53 34bd 2475 333d c6f1 1ebc f438 bcbd
000002c0: fbd5 953d 3413 ba3d abc4 d1bd 8c41 09bc
000002d0: 16cf 063d 1461 a13d 3bb6 09bd 6b6b 8c3b
000002e0: aa8e 673c 32f6 a23d edaf 4f3c 5827 6fbc
000002f0: bf09 4cbc 3056 693d d120 f33d e64a 4d3d
00000300: 8507 58bd be32 b23c 8e40 88bd d781 75bc
00000310: 2825 073d 78ed 47bd 2e31 59bb 6c61 4bbc
00000320: 07e3 bfbd c190 b33d 3727 44bc 4aee 1a3e
00000330: 1bea 823c 2a43 2ebc a593 e9ba 00e2 8d3d
00000340: 6f97 d13d 167d 923d ed5e 093e b559 253d
00000350: 5124 22bc 95b1 5ebd e039 5a3d 530f 5bbc
00000360: c482 443d 460f 9abd fab2 d33b 4fa0 923c
00000370: e15e 3bba df73 063d 03de 0e3d 0e30 023d
00000380: 64b7 0fbd cba4 a4bd 631a d9bc 9e38 a1bd
00000390: b4c7 a13d f581 573d a4e7 d93d 9948 953b
000003a0: febb ad3d 4990 36bd c0aa a8bc 9032 95bc
000003b0: 6e97 743d 0695 57bd 49d6 96bd eb38 843d
000003c0: 74a1 d8bd a15f 453d 851d 313d 4138 1cbe
000003d0: 785e 843d 27c2 d0bc b5b5 31bd 83b2 f1bd
000003e0: 9126 403d f137 82bc 9524 61bd 978a 8d3c
000003f0: 8725 66bd 46ef eb3c 0443 7abc 92a1 25bd
