neural_networks/fixed_point_6_6_layers_3334_st.pt (torch, 141469 bytes, 24 tensors)

model.1.weight f4 [120, 16]
000000 00 00 40 be 00 00 c0 bd 00 00 80 bd 00 00 00 3e
       -0.1875 -0.09375 -0.0625 0.125
000010 00 00 80 3d 00 00 00 3d 00 00 20 be 00 00 c0 bd
       0.0625 0.03125 -0.15625 -0.09375
000020 00 00 00 be 00 00 40 be 00 00 40 be 00 00 40 be
       -0.125 -0.1875 -0.1875 -0.1875
000030 00 00 00 be 00 00 40 3e 00 00 80 be 00 00 c0 3d
       -0.125 0.1875 -0.25 0.09375
000040 00 00 00 bd 00 00 40 be 00 00 40 be 00 00 80 bd
       -0.03125 -0.1875 -0.1875 -0.0625
000050 00 00 20 3e 00 00 20 3e 00 00 60 3e 00 00 00 be
       0.15625 0.15625 0.21875 -0.125
000060 00 00 c0 bd 00 00 c0 bd 00 00 40 be 00 00 20 3e
       -0.09375 -0.09375 -0.1875 0.15625
000070 00 00 40 be 00 00 20 be 00 00 40 be 00 00 80 3e
       -0.1875 -0.15625 -0.1875 0.25
000080 00 00 00 bd 00 00 20 be 00 00 00 be 00 00 00 bd
       -0.03125 -0.15625 -0.125 -0.03125
000090 00 00 80 be 00 00 00 3e 00 00 60 3e 00 00 80 3d
       -0.25 0.125 0.21875 0.0625
0000a0 00 00 00 be 00 00 00 bd 00 00 40 3e 00 00 c0 3d
       -0.125 -0.03125 0.1875 0.09375
0000b0 00 00 20 3e 00 00 00 be 00 00 80 bd 00 00 00 be
       0.15625 -0.125 -0.0625 -0.125
0000c0 00 00 00 be 00 00 00 00 00 00 00 80 00 00 40 3e
       -0.125 0.0 -0.0 0.1875
0000d0 00 00 60 be 00 00 80 be 00 00 80 be 00 00 80 3d
       -0.21875 -0.25 -0.25 0.0625
0000e0 00 00 20 3e 00 00 60 3e 00 00 00 be 00 00 c0 3d
       0.15625 0.21875 -0.125 0.09375
0000f0 00 00 00 00 00 00 60 be 00 00 00 3e 00 00 c0 3d
       0.0 -0.21875 0.125 0.09375
000100 00 00 c0 bd 00 00 80 3d 00 00 80 3d 00 00 20 3e
       -0.09375 0.0625 0.0625 0.15625
000110 00 00 60 3e 00 00 00 bd 00 00 40 3e 00 00 40 3e
       0.21875 -0.03125 0.1875 0.1875
000120 00 00 80 bd 00 00 00 bd 00 00 60 3e 00 00 00 3e
       -0.0625 -0.03125 0.21875 0.125
000130 00 00 60 3e 00 00 00 bd 00 00 40 be 00 00 20 3e
       0.21875 -0.03125 -0.1875 0.15625
000140 00 00 c0 bd 00 00 80 bd 00 00 40 be 00 00 00 be
       -0.09375 -0.0625 -0.1875 -0.125
000150 00 00 00 be 00 00 00 be 00 00 00 3d 00 00 c0 3d
       -0.125 -0.125 0.03125 0.09375
000160 00 00 00 3e 00 00 00 00 00 00 00 be 00 00 00 80
       0.125 0.0 -0.125 -0.0
000170 00 00 40 be 00 00 60 3e 00 00 20 3e 00 00 00 3d
       -0.1875 0.21875 0.15625 0.03125
000180 00 00 00 bd 00 00 40 be 00 00 40 be 00 00 60 3e
       -0.03125 -0.1875 -0.1875 0.21875
000190 00 00 c0 3d 00 00 00 3e 00 00 80 3e 00 00 60 3e
       0.09375 0.125 0.25 0.21875
0001a0 00 00 80 3d 00 00 20 be 00 00 00 3d 00 00 c0 3d
       0.0625 -0.15625 0.03125 0.09375
0001b0 00 00 40 3e 00 00 20 be 00 00 20 3e 00 00 c0 3d
       0.1875 -0.15625 0.15625 0.09375
0001c0 00 00 00 be 00 00 20 3e 00 00 20 3e 00 00 40 3e
       -0.125 0.15625 0.15625 0.1875
0001d0 00 00 00 00 00 00 00 3d 00 00 00 3d 00 00 80 bd
       0.0 0.03125 0.03125 -0.0625
0001e0 00 00 60 be 00 00 60 be 00 00 00 be 00 00 20 3e
       -0.21875 -0.21875 -0.125 0.15625
0001f0 00 00 00 00 00 00 00 3e 00 00 80 3d 00 00 00 bd
       0.0 0.125 0.0625 -0.03125
000200 00 00 c0 3d 00 00 00 be 00 00 60 3e 00 00 20 be
       0.09375 -0.125 0.21875 -0.15625
000210 00 00 20 be 00 00 40 be 00 00 00 80 00 00 80 3e
       -0.15625 -0.1875 -0.0 0.25
000220 00 00 00 3e 00 00 40 3e 00 00 80 be 00 00 40 3e
       0.125 0.1875 -0.25 0.1875
000230 00 00 20 be 00 00 20 be 00 00 60 3e 00 00 c0 bd
       -0.15625 -0.15625 0.21875 -0.09375
000240 00 00 60 3e 00 00 80 3d 00 00 20 be 00 00 60 be
       0.21875 0.0625 -0.15625 -0.21875
000250 00 00 60 be 00 00 20 be 00 00 00 80 00 00 80 3e
       -0.21875 -0.15625 -0.0 0.25
000260 00 00 80 bd 00 00 40 3e 00 00 40 3e 00 00 60 be
       -0.0625 0.1875 0.1875 -0.21875
000270 00 00 60 be 00 00 00 3d 00 00 c0 3d 00 00 c0 bd
       -0.21875 0.03125 0.09375 -0.09375
000280 00 00 80 3d 00 00 80 3e 00 00 20 3e 00 00 00 be
       0.0625 0.25 0.15625 -0.125
000290 00 00 60 3e 00 00 c0 bd 00 00 40 be 00 00 80 3d
       0.21875 -0.09375 -0.1875 0.0625
0002a0 00 00 20 3e 00 00 00 be 00 00 00 be 00 00 60 be
       0.15625 -0.125 -0.125 -0.21875
0002b0 00 00 80 3d 00 00 c0 bd 00 00 00 3d 00 00 40 be
       0.0625 -0.09375 0.03125 -0.1875
0002c0 00 00 20 3e 00 00 40 3e 00 00 20 3e 00 00 00 3d
       0.15625 0.1875 0.15625 0.03125
0002d0 00 00 00 3e 00 00 40 be 00 00 c0 3d 00 00 c0 3d
       0.125 -0.1875 0.09375 0.09375
0002e0 00 00 20 3e 00 00 80 3d 00 00 00 00 00 00 20 be
       0.15625 0.0625 0.0 -0.15625
0002f0 00 00 80 bd 00 00 00 3d 00 00 20 be 00 00 60 3e
       -0.0625 0.03125 -0.15625 0.21875
000300 00 00 c0 3d 00 00 00 3e 00 00 20 be 00 00 00 be
       0.09375 0.125 -0.15625 -0.125
000310 00 00 40 be 00 00 c0 bd 00 00 80 bd 00 00 c0 3d
       -0.1875 -0.09375 -0.0625 0.09375
000320 00 00 00 00 00 00 c0 3d 00 00 c0 bd 00 00 40 3e
       0.0 0.09375 -0.09375 0.1875
000330 00 00 80 3e 00 00 80 3e 00 00 00 3e 00 00 20 3e
       0.25 0.25 0.125 0.15625
000340 00 00 00 be 00 00 40 be 00 00 00 3e 00 00 20 be
       -0.125 -0.1875 0.125 -0.15625
000350 00 00 40 be 00 00 00 be 00 00 c0 3d 00 00 c0 3d
       -0.1875 -0.125 0.09375 0.09375
000360 00 00 40 3e 00 00 00 be 00 00 c0 bd 00 00 00 80
       0.1875 -0.125 -0.09375 -0.0
000370 00 00 00 3e 00 00 00 3d 00 00 80 3d 00 00 00 bd
       0.125 0.03125 0.0625 -0.03125
000380 00 00 80 3e 00 00 80 bd 00 00 00 3e 00 00 80 3e
       0.25 -0.0625 0.125 0.25
000390 00 00 c0 bd 00 00 00 3d 00 00 00 be 00 00 00 3d
       -0.09375 0.03125 -0.125 0.03125
0003a0 00 00 00 3d 00 00 20 be 00 00 40 be 00 00 40 3e
       0.03125 -0.15625 -0.1875 0.1875
0003b0 00 00 80 bd 00 00 40 3e 00 00 40 3e 00 00 00 00
       -0.0625 0.1875 0.1875 0.0
0003c0 00 00 60 3e 00 00 c0 bd 00 00 80 3d 00 00 60 be
       0.21875 -0.09375 0.0625 -0.21875
0003d0 00 00 00 be 00 00 20 3e 00 00 80 bd 00 00 60 3e
       -0.125 0.15625 -0.0625 0.21875
0003e0 00 00 20 3e 00 00 80 3e 00 00 80 be 00 00 60 3e
       0.15625 0.25 -0.25 0.21875
0003f0 00 00 00 00 00 00 00 bd 00 00 20 be 00 00 20 be
       0.0 -0.03125 -0.15625 -0.15625

model.1.bias f4 [120]
000000 11 24 3d 3c ac 2a 67 be 0c e3 e6 bb 21 6e 30 be
       0.011544243 -0.22574872 -0.007046109 -0.17229511
000010 22 39 27 be 81 07 7b 3e cf 45 f4 bd c1 11 c4 bd
       -0.16330388 0.24514581 -0.119273774 -0.09573699
000020 67 49 3c 3e 3a 6e a7 ba 82 a0 0c 3e 29 fc a6 3d
       0.18387376 -0.0012773939 0.13733104 0.081535645
000030 04 33 14 be 2f 11 2a be 21 a2 c8 3d 76 3a a6 bd
       -0.14472586 -0.16608118 0.09796549 -0.08116619
000040 16 bf 43 3e 91 5f 19 be 5d 1d 3d be 34 2a cd bd
       0.19115862 -0.14977862 -0.18468232 -0.10017815
000050 5e 65 89 3d b4 04 06 bd a2 d4 d7 3c a1 52 19 be
       0.067087874 -0.03271933 0.026346508 -0.14972927
000060 46 7d 5e bc 60 c2 a3 bd a3 f4 db 3d 2a 94 60 3e
       -0.013579672 -0.079960585 0.1074002 0.2193152
000070 5f 1e 74 be d2 3b 09 be 3e 7e 7b be a2 98 1c 3d
       -0.2383971 -0.13401726 -0.24559876 0.0382315
000080 82 17 03 be 76 2b 62 be 02 67 74 3d 2e 5c 56 be
       -0.12801936 -0.22086892 0.05966855 -0.20933601
000090 ec c4 64 be df 9c 5e be 76 50 13 3d a2 65 7f 3e
       -0.22340745 -0.21739529 0.035965405 0.24941114
0000a0 21 0a 59 be 50 7d f9 bd 51 69 24 be ad 0d 76 3d
       -0.2119527 -0.121821046 -0.160558 0.060071636
0000b0 f0 26 04 3b f1 84 ea 3d 7f 9a 4f 3e 1a 55 b9 3d
       0.002016481 0.11451138 0.2027378 0.09049435
0000c0 17 b8 03 be 21 56 40 be 22 93 54 3e 2a d0 60 3e
       -0.12863193 -0.18782856 0.20759252 0.21954408
0000d0 33 c3 a7 3c de 3d bf 3d 43 ce 2b 3e df 0f 1e 3e
       0.02047882 0.09337972 0.16777901 0.15435742
0000e0 26 70 f7 bd 25 39 24 3e 24 bf c6 3d ad 00 3c 3e
       -0.120819375 0.16037424 0.09704426 0.18359633
0000f0 30 52 e3 bd 5e 34 21 3e db e3 2d 3e b5 ed 1c 3d
       -0.110996604 0.15742633 0.16981451 0.038312633
000100 40 32 14 3e 5e 0a 07 be 8b 67 bf bc c3 14 f1 3d
       0.14472294 -0.13187549 -0.023364803 0.11771538
000110 2c 2e 02 3e 84 b6 65 bd 5f 34 47 be 5a b3 07 bd
       0.12712926 -0.056082264 -0.19453572 -0.033130027
000120 b0 62 c9 bc 00 f9 86 3d db ee bf bd 98 98 f2 bc
       -0.02458319 0.06590462 -0.0937173 -0.029613778
000130 ef 62 06 be 8c 18 d7 bc e4 d8 f3 3d a2 99 45 be
       -0.13123678 -0.026256822 0.11906603 -0.19296888
000140 a2 b7 33 3e bd 71 f9 3d 01 4b 93 bd 1a e9 27 3e
       0.17550519 0.12179897 -0.0719204 0.16397515
000150 25 a5 57 bc c1 cd 12 3e d9 56 58 3d a2 17 75 3e
       -0.013161932 0.14336301 0.0528172 0.23934796
000160 6d d2 5a be d8 ed 1f 3e 64 f1 f5 bc bf f1 29 be
       -0.21369334 0.15618074 -0.03002233 -0.16596125
000170 95 b6 49 3e 50 67 ae bd 4d 81 66 3d d7 79 01 be
       0.19698556 -0.08515799 0.056275655 -0.12644134
000180 a2 b9 5b be ff 19 56 be 69 72 2e be 44 31 cd 3d
       -0.21457532 -0.20908354 -0.17035832 0.10019162
000190 62 4e dc bd 03 78 c1 bd fe 7e 7f 3e d4 33 82 bd
       -0.10757138 -0.094467185 0.24950787 -0.06357542
0001a0 97 73 0f 3e 3b cc 4a be 4a c7 74 3d 4b a1 0a bd
       0.14008938 -0.1980447 0.05976037 -0.033845227
0001b0 45 96 70 3e 22 8d 69 3e aa 7d 31 3c 3f 6c 78 be
       0.23494823 0.22807744 0.010833183 -0.24260043
0001c0 3f fe 5b be 66 49 4b 3e 5d f2 80 bd 5b 6e a6 bd
       -0.21483706 0.19852218 -0.06296227 -0.081265174
0001d0 7b d3 38 3e 41 51 05 3e a6 c6 3f 3e 60 1a 2b be
       0.18049423 0.13019277 0.18728122 -0.1670928

model.2.weight f4 [120]
000000 6e 32 fb 3f 7f 9e 12 3f bc af dc 3e e3 90 e0 3e
       1.9624765 0.57273096 0.43102825 0.4386054
000010 e3 d1 78 3f f7 2d 23 3f 63 28 d8 3e 4a db 02 3f
       0.9719526 0.6374201 0.42218313 0.5111586
000020 65 5b 6c 3f c8 cd 6e 3f d3 00 a1 3f 3a a4 10 3f
       0.92326957 0.9328275 1.2578377 0.5650059
000030 b1 ee 9b 3f 11 5c e4 3e 78 0f 2a 3f 07 d3 62 3f
       1.2182218 0.4460149 0.66429853 0.8860325
000040 6a ca 3a 3f 0c 06 c3 3f b9 39 53 3f 51 d7 a7 3f
       0.7296511 1.523622 0.8250995 1.3112584
000050 68 d5 ab 3e 65 29 3b 3f b8 ac 15 3f f4 17 a0 3f
       0.33561254 0.7311004 0.5846667 1.250731
000060 57 4d 88 3f 91 bb 39 3e c0 f0 c1 3e f1 fe 83 3e
       1.0648602 0.18137957 0.3787899 0.25780442
000070 0f 88 da 3e 0e 8c 65 3f e4 51 65 3f a2 16 ad 3f
       0.4268193 0.8966683 0.8957808 1.3522532
000080 cb 9e 8b 3f e6 bb 8f 3f df 69 3a 3f 86 f8 6b 3f
       1.0907835 1.1229217 0.72817796 0.9217609
000090 4d ee 27 3e cb bb 49 3f 34 8f 8b 3f dd 81 aa 3e
       0.16399498 0.78802174 1.0903077 0.33302203
0000a0 0d 4f 0c 3f bf 84 4b 3f 3a 7e 5e 3e 6a 8d b7 3f
       0.5480812 0.7949943 0.21727839 1.4340031
0000b0 25 b8 0d 3f 04 c2 45 3f 06 8b 88 3f 9c 9a 99 3f
       0.5535911 0.7724917 1.0667427 1.2000308
0000c0 c7 80 b5 3f 8c 48 bb 3e 0c 44 11 3f 4b b3 d5 3e
       1.4179925 0.36578786 0.56744456 0.41738352
0000d0 5f ef 63 3f 50 d5 bd 3f 13 ad 2b 3f 2d 2f 05 3f
       0.89037126 1.4830723 0.67060965 0.5202511
0000e0 5b a4 10 3f 54 50 a6 3f f7 8f 88 3f c2 09 02 3f
       0.56500787 1.2993264 1.0668935 0.5079614
0000f0 27 1a ab 3f ff 47 0f 3f db ec 35 3f 7d b3 51 3e
       1.3367356 0.5596923 0.7106454 0.20478626
000100 78 a4 87 3e 44 c9 46 3f 29 61 a0 3f 23 98 b6 3f
       0.26492667 0.77650857 1.2529651 1.4265178
000110 87 65 7a 3f d0 2d 6d 3e c3 e8 c5 3c 2c ce a6 3f
       0.9781117 0.23162007 0.024158841 1.3031669
000120 07 7e be 3f 54 26 f4 3f 4d 5c 34 3f 85 9a 3a 3f
       1.488221 1.9074197 0.7045334 0.7289203
000130 46 a3 34 3f 92 4d 10 3f 14 75 53 3f a2 6b 67 3e
       0.70561635 0.5636836 0.8260052 0.22599652
000140 42 6a fb 3e f9 f2 a8 3f 4a 4b b1 3f b4 a9 3b 3f
       0.49104506 1.3199149 1.3851101 0.7330582
000150 00 cd 30 3f cd 66 b2 3f a3 50 1a 3f 3b 73 09 3f
       0.69062805 1.3937622 0.6027929 0.5369145
000160 27 b5 89 3f 8e c9 46 3f 92 92 09 3f 5e 2e 17 3f
       1.0758408 0.776513 0.53739274 0.59055126
000170 ed eb 28 3f 00 46 34 3f 02 99 12 3f d0 81 60 3f
       0.65984994 0.7041931 0.5726472 0.8769808
000180 e9 63 51 3f 93 fd fd 3e 1d 97 93 3f 6b 2c 29 3f
       0.81793076 0.49607524 1.1530491 0.660834
000190 ef b7 6d 3f a6 55 89 3f 04 6d e9 3e d8 25 0a 3f
       0.92858785 1.0729263 0.45590985 0.53963995
0001a0 c1 bd 1a 3f 3c 82 2e 3f c1 6c b0 3e 7e ab 1c 3f
       0.6044579 0.6816747 0.34457973 0.61199176
0001b0 bf 4c 0f 3f 36 83 e3 3e 25 64 b9 3e 1b f6 d5 3f
       0.5597648 0.44436044 0.36209217 1.671573
0001c0 53 0c 46 3f 85 55 c8 3e 95 6a 2c 3e 66 dd 00 3f
       0.77362555 0.39127746 0.16837533 0.5033783
0001d0 33 b1 dd 3f f4 c0 af 3f ba 30 1b 3f 3f 14 6a 3f
       1.7319702 1.373076 0.60621226 0.91437143

model.2.bias f4 [120]
000000 3c bc d8 3e 3a 5b af 3e f2 63 d0 be 77 73 0d 3f
       0.4233111 0.34249288 -0.40701252 0.5525431
000010 56 5a cb be 17 ad 73 be 84 5b 14 bc 25 0e 2a bf
       -0.39717358 -0.23796497 -0.009055022 -0.6642783
000020 4d 48 1b 3f ea 4f 9c 3e dd e4 4e 3d da 25 0b bf
       0.606572 0.3052972 0.05051123 -0.5435463
000030 17 88 08 be cf 27 1f bf 28 40 de bd e3 0c 56 be
       -0.13333164 -0.6217012 -0.108520806 -0.20903353
000040 87 0c c6 be f0 47 0b 3f 87 33 59 3f bd a5 cc 3e
       -0.38681433 0.5440664 0.8484425 0.39970198
000050 2a 9f ea be 89 c9 10 bf f2 f5 d3 bd a9 ef 8a 3f
       -0.45824558 -0.5655752 -0.10349645 1.0854388
000060 9a f5 02 3f 6d 2d c7 bd 82 91 e3 3e f2 a2 2f bf
       0.5115601 -0.09725461 0.4444695 -0.6860801
000070 f0 e3 93 be c6 a8 94 3d d6 93 dc bd 0a b0 9b 3e
       -0.2888484 0.072587535 -0.10770385 0.30407745
000080 40 24 1a 3d 0d e1 01 3f b6 ec 8a be c1 6f ae 3e
       0.037632227 0.50734025 -0.2713372 0.34069636
000090 50 a4 42 bf 78 b0 0a bd 0f a8 a5 3e 35 3e 05 bf
       -0.7603197 -0.0338597 0.3235478 -0.52048045
0000a0 f4 b1 1d bf 69 29 6e 3f a1 a6 db 3e 04 1b 37 3f
       -0.6159966 0.93031937 0.42900565 0.715256
0000b0 42 29 ff be 94 30 8a 3e 8f 2b 76 bd b4 78 7c 3f
       -0.49836165 0.26990187 -0.060100134 0.9862168
0000c0 13 e5 94 3f 6e 8f 34 3e 83 f8 2b 3d 4f 70 ee be
       1.1632408 0.17632839 0.041985046 -0.4657006
0000d0 92 87 63 3f f8 f4 aa bc e8 17 56 3f 9b 45 8d 3d
       0.8887874 -0.020868763 0.8363023 0.06898042
0000e0 58 d0 03 bd 52 08 19 3f 40 23 47 3f 7b 83 1b bf
       -0.032181114 0.5977832 0.7778816 -0.607475
0000f0 a5 51 29 3e ef 3c 12 3f 90 20 2a 3f 74 e4 3c bf
       0.16535051 0.5712423 0.66455936 -0.7378609
000100 99 64 21 bf 4a 77 82 be e9 d3 9d 3f 8e 69 37 3c
       -0.63044125 -0.25481635 1.2330295 0.0111946
000110 af a8 8a 3f 53 70 20 bf 51 0a 20 3e 40 aa c9 3e
       1.0832728 -0.62671393 0.15628935 0.39387703
000120 f9 6c 59 3f 20 70 a6 3f c6 b4 22 3e 45 9f 0a bf
       0.84931904 1.3002968 0.15889272 -0.54149276
000130 24 d2 1a 3f 2c 1b ce be 08 72 01 3f 50 59 71 bd
       0.604769 -0.40255105 0.5056462 -0.058923066
000140 2e 3f da be 37 20 5c 3f 07 aa 1e 3e 72 b2 77 bd
       -0.42626327 0.85986656 0.15494548 -0.060472913
000150 f7 e9 ea 3e dd c9 d1 3d 69 61 10 be 22 3f 37 bf
       0.45881626 0.102435805 -0.14099659 -0.7158071
000160 ce 38 51 3f 70 11 de 3d c6 c2 64 be e7 f0 1b be
       0.817273 0.1084317 -0.22339925 -0.15228616
000170 3c a3 de 3e 9f a2 40 be d8 82 9f be 6d 83 f3 3e
       0.43483913 -0.18812035 -0.31154513 0.47561207
000180 14 54 c9 3e cb 3c 13 bf 9d 42 b7 3f 87 72 e4 3d
       0.3932196 -0.5751464 1.4317204 0.11154657
000190 97 1d f9 3d 7e 23 ec be 71 67 08 bf 3a fb 0a 3f
       0.12163847 -0.46120828 -0.5328284 0.5428959
0001a0 9d 67 09 3f f4 90 86 bd 5f a0 14 bf eb 30 54 bd
       0.53673726 -0.06570616 -0.58057207 -0.051804464
0001b0 00 a9 82 be 75 eb 9f be a8 98 31 3f 89 6b 7c 3f
       -0.25519562 -0.31234327 0.6937356 0.98601586
0001c0 69 2a 51 3f d1 ae 92 bc 14 1f 2b bf 8d 03 c3 bd
       0.8170534 -0.017905625 -0.66844296 -0.09522162
0001d0 91 0a b8 3f 8d 58 e0 3d f2 f1 7a 3e fe eb 6b 3f
       1.4378225 0.1095439 0.24506357 0.9215697

model.2.running_mean f4 [120]
000000 f0 9e b7 3d a1 77 68 be 0c 33 05 3c ee 14 7f be
       0.08965862 -0.22701885 0.008129846 -0.24910328
000010 f2 1b 13 be 55 60 8f 3e 6a 91 3c be 39 9d f3 bd
       -0.14366129 0.28003183 -0.18414846 -0.11895222
000020 13 37 0e 3e a5 c1 aa bc 3f a0 7a 3e 86 32 02 3d
       0.13888197 -0.02084429 0.24475192 0.031786464
000030 2a 7c ee bd d7 2f ab bd 48 05 a0 bd a8 c4 23 bd
       -0.11644776 -0.08358734 -0.07813507 -0.039982468
000040 28 8a 38 3e 48 fb 34 be dc d4 78 be fa 1d 82 bd
       0.18021452 -0.17673981 -0.2429995 -0.06353374
000050 e2 5f c8 3d 8a cc 0b be 29 c3 80 bd 6e e0 a9 be
       0.09783913 -0.13652244 -0.06287224 -0.3317904
000060 8b eb bf 3d 37 93 f8 3c b5 6f 02 3e b4 4f 24 3e
       0.09371098 0.030343635 0.12737925 0.1604603
000070 3b ea 92 be cf 6d 24 be 1c 5e 8d be 61 85 8d bd
       -0.2869433 -0.16057514 -0.27610862 -0.06910206
000080 98 9e 1b be ac 44 8f be 05 c6 64 3d 71 88 10 be
       -0.15197217 -0.2798208 0.05585291 -0.14114548
000090 4c 83 3d be 97 38 e3 bd 97 97 07 3e 76 f3 8a 3e
       -0.18507117 -0.11094778 0.1324142 0.2713887
0000a0 d7 5b 4d be a2 b2 be bd 3f f8 27 bd 8e 01 40 3d
       -0.20054565 -0.09311415 -0.04100823 0.046876483
0000b0 10 3c 0c bd 78 ff 4f 3e fd 2f 53 3e df 0a 8a 3d
       -0.034236968 0.20312297 0.20623775 0.06740355
0000c0 f5 0c 3b be 7e 23 76 be 5a d2 54 3e 9a ec d1 3d
       -0.18266661 -0.24036977 0.20783368 0.10250206
0000d0 bb 61 0b 3c 94 0a 40 3c d4 a7 8a 3e 26 cf 59 3e
       0.0085071875 0.011721272 0.27081168 0.21270427
0000e0 c2 48 e6 bd 01 ee 1a 3e ec 4d 3a 3e 15 f7 53 3e
       -0.11244346 0.15129854 0.18193787 0.20699723
0000f0 66 e5 33 3d e2 dd 93 3e a3 c8 ad 3d 5c 1a db 3d
       0.043919943 0.2888022 0.08485534 0.10698387
000100 ca b5 18 3e 42 e3 1e be 28 08 01 3d 83 13 e3 3d
       0.14913097 -0.1551638 0.03150192 0.11087706
000110 f7 e6 31 3e bc 42 3e be 04 a8 92 be 3e 68 e0 bc
       0.17373262 -0.18580145 -0.2864381 -0.027393457
000120 30 bb 2b 3d 55 21 85 bd 37 ed 94 3c bb 8b db bc
       0.041926563 -0.06500498 0.01817952 -0.026800027
000130 68 35 0a be 5b 22 92 bd 62 7c 7a 3d f2 e8 b0 be
       -0.13496935 -0.07135459 0.061153777 -0.34552723
000140 11 7e 9f 3e bd 61 64 3e 7c 57 79 bd 7c 0e 23 3e
       0.3115087 0.22302909 -0.060874447 0.15923494
000150 93 2b 91 3c 10 de 43 3e 2e 1a 48 3c 8e e8 ce 3e
       0.017720973 0.19127679 0.012213273 0.404118
000160 2a 9a e8 bd 1b fc 02 3e 02 e0 1b bd 7f 2e 34 be
       -0.113575295 0.12791483 -0.038055427 -0.17595862
000170 5c 33 d7 3d 26 4d 0e bd 53 fb a1 bd 38 ec b7 bd
       0.10507843 -0.034741543 -0.079092644 -0.08980602
000180 91 04 84 be cf 1d 41 be 6c 31 2a be 5c 28 49 3e
       -0.25784734 -0.18859027 -0.16620415 0.19644302
000190 9e 70 6e 3c 6e 3f 22 bd 41 59 a7 3e ca 88 20 be
       0.014553217 -0.039611273 0.32685283 -0.15677181
0001a0 bd 2e 4e 3e a5 f7 71 be b6 1c 7b bc 6f 04 fd bd
       0.20135017 -0.23629625 -0.015326669 -0.12354361
0001b0 07 e5 43 3e ed 29 00 3e e9 11 39 bd 0d f2 17 be
       0.19130336 0.12515993 -0.045183096 -0.14838429
0001c0 44 27 8f be 14 02 5e 3e 5f b7 95 bd 41 cc b0 bd
       -0.27959645 0.2168048 -0.07310366 -0.08632708
0001d0 e1 63 7f 3d 98 8c d8 3d 7a f8 2e 3e ad b0 5e be
       0.06235111 0.10573691 0.17086974 -0.21747084

model.2.running_var f4 [120]
000000 4c a0 90 3e 94 43 9e 3e 14 4d 40 3e d4 3d de 3e
       0.28247297 0.30910933 0.18779403 0.43406546
000010 e0 a2 cf 3e 3e 7f b2 3e 70 69 ba 3e 52 a0 52 3e
       0.4055395 0.34862703 0.36408567 0.2056897
000020 38 45 ee 3e 5c a2 af 3e b4 3c fa 3e e0 10 90 3e
       0.46537185 0.34303558 0.48874438 0.28137875
000030 97 31 eb 3e 5d 61 b3 3e 1b d3 c1 3e 48 fe ef 3e
       0.45936272 0.3503522 0.37856373 0.4687369
000040 7f 04 0f 3e 03 83 20 3e 40 4b 1b 3f 84 b7 86 3e
       0.13966559 0.15674977 0.606617 0.26311886
000050 c1 15 46 3e 31 12 d9 3e cf a2 be 3e 34 dd b6 3e
       0.19344236 0.4239669 0.37233588 0.3571564
000060 94 2d 08 3f 7c ac dd 3e 97 ae 87 3e 50 2f 83 3e
       0.53194547 0.43295658 0.2650039 0.25622034
000070 63 d1 a8 3e 8e ee bf 3e bc 2c 3e 3e 6d 9b 87 3e
       0.3297225 0.3748669 0.18571752 0.26485768
000080 de b4 56 3e 50 25 df 3e 31 89 fd 3e 95 d8 fb 3e
       0.20967433 0.43583155 0.4951873 0.49188676
000090 14 d7 87 3e 5d 89 ca 3e 52 6d c0 3e 79 97 1b 3f
       0.2653128 0.39557925 0.37583405 0.60778004
0000a0 b3 34 fc 3e b0 8f b1 3e 51 4c 26 3f bb 19 af 3e
       0.49258956 0.34679937 0.649602 0.34199318
0000b0 dc e5 9d 3e 14 cf a7 3e 9c 47 7f 3e e2 c8 36 3e
       0.3083943 0.32775176 0.2492966 0.17850068
0000c0 3b 2d ab 3e 06 0e 58 3e 92 3c 0d 3f 93 fd 13 3f
       0.33432946 0.210991 0.5517055 0.578088
0000d0 19 c9 0f 3f 9b dc 9b 3e 65 72 ae 3e 72 f5 9a 3e
       0.56166226 0.30441746 0.3407165 0.30265385
0000e0 b9 42 3f 3e 27 30 bc 3e 61 40 5b 3e df d6 9c 3e
       0.18677796 0.36755487 0.21411277 0.30632684
0000f0 d0 fd 28 3f 03 cc ac 3e dd 90 5c 3e 5d 7a ca 3e
       0.6601229 0.337494 0.21539636 0.3954648
000100 b0 58 ac 3e ed 65 f0 3e c4 b7 02 3f 14 a0 3d 3e
       0.33661413 0.46952763 0.51061654 0.18518096
000110 a4 a6 8d 3e 38 43 a3 3e 93 08 a0 3e 1b a6 c6 3e
       0.276662 0.3188722 0.31256542 0.38798603
000120 e1 b7 6f 3e 13 45 af 3e fa 02 d5 3e 1f 11 b5 3e
       0.23409988 0.34232387 0.41603833 0.35364625
000130 65 5b 4b 3e bb 60 1e 3e 0e d1 6e 3e ba f9 fb 3e
       0.19859083 0.15466587 0.23321936 0.49213964
000140 44 ea de 3e 86 ed bd 3e 0a 4e 1e 3e 3f bd c6 3e
       0.43538105 0.37095279 0.15459457 0.38816258
000150 ef 62 d2 3e 20 5b d3 3e d7 2a 50 3e dd 8e c4 3e
       0.41091105 0.4128046 0.20328842 0.38390246
000160 c4 9b 95 3e c9 c3 e7 3e c2 2f b6 3e 94 c8 6e 3e
       0.29220402 0.4526656 0.3558331 0.23318702
000170 00 7a 71 3e 57 ba c5 3e a2 b4 f6 3e 21 95 a0 3e
       0.23581696 0.3861873 0.48184687 0.31363776
000180 d7 7b a1 3e 76 b8 86 3e 25 26 a5 3e 00 d9 62 3e
       0.31539795 0.26312608 0.32255664 0.22153091
000190 47 e1 21 3f ed 4c 43 3f 56 a7 ee 3e 75 7c c5 3e
       0.6323437 0.76289254 0.46612042 0.38571516
0001a0 27 2a 0b 3f 2c fe 6f 3e 30 fe c2 3e c0 ad c9 3e
       0.54361194 0.23436803 0.38084555 0.39390373
0001b0 4d a7 cb 3e e0 56 83 3e cc 73 14 3e 26 23 83 3e
       0.39776078 0.25652218 0.14497298 0.25612754
0001c0 8e 55 15 3f 8e c1 36 3e 1b b2 f4 3e 8b 6b 7d 3e
       0.5833367 0.17847273 0.47792134 0.24748056
0001d0 28 e1 a3 3e 83 8a 9f 3e c2 98 3a 3e 43 7b a4 3e
       0.32007718 0.31160364 0.18222335 0.3212529

model.4.weight f4 [120, 120]
000000 00 00 80 3d 00 00 80 bd 00 00 80 bd 00 00 80 3d
       0.0625 -0.0625 -0.0625 0.0625
000010 00 00 80 bd 00 00 00 bd 00 00 00 bd 00 00 80 bd
       -0.0625 -0.03125 -0.03125 -0.0625
000020 00 00 80 bd 00 00 00 bd 00 00 c0 bd 00 00 00 bd
       -0.0625 -0.03125 -0.09375 -0.03125
000030 00 00 00 bd 00 00 c0 3d 00 00 00 bd 00 00 80 bd
       -0.03125 0.09375 -0.03125 -0.0625
000040 00 00 80 bd 00 00 00 3d 00 00 80 3d 00 00 00 bd
       -0.0625 0.03125 0.0625 -0.03125
000050 00 00 c0 3d 00 00 c0 bd 00 00 80 3d 00 00 80 bd
       0.09375 -0.09375 0.0625 -0.0625
000060 00 00 80 bd 00 00 00 3d 00 00 80 3d 00 00 00 3d
       -0.0625 0.03125 0.0625 0.03125
000070 00 00 80 bd 00 00 00 3d 00 00 c0 bd 00 00 80 3d
       -0.0625 0.03125 -0.09375 0.0625
000080 00 00 80 3d 00 00 80 bd 00 00 00 bd 00 00 00 80
       0.0625 -0.0625 -0.03125 -0.0
000090 00 00 00 00 00 00 00 bd 00 00 00 bd 00 00 00 3d
       0.0 -0.03125 -0.03125 0.03125
0000a0 00 00 80 3d 00 00 00 00 00 00 80 bd 00 00 00 3d
       0.0625 0.0 -0.0625 0.03125
0000b0 00 00 80 3d 00 00 c0 3d 00 00 00 bd 00 00 80 bd
       0.0625 0.09375 -0.03125 -0.0625
0000c0 00 00 80 3d 00 00 00 00 00 00 80 bd 00 00 c0 bd
       0.0625 0.0 -0.0625 -0.09375
0000d0 00 00 00 bd 00 00 80 bd 00 00 00 3d 00 00 c0 3d
       -0.03125 -0.0625 0.03125 0.09375
0000e0 00 00 00 3d 00 00 00 3d 00 00 00 3d 00 00 80 bd
       0.03125 0.03125 0.03125 -0.0625
0000f0 00 00 00 3d 00 00 00 bd 00 00 80 bd 00 00 00 3d
       0.03125 -0.03125 -0.0625 0.03125
000100 00 00 80 bd 00 00 00 80 00 00 c0 3d 00 00 00 bd
       -0.0625 -0.0 0.09375 -0.03125
000110 00 00 c0 3d 00 00 c0 bd 00 00 00 3d 00 00 c0 3d
       0.09375 -0.09375 0.03125 0.09375
000120 00 00 00 3d 00 00 00 80 00 00 00 3d 00 00 c0 3d
       0.03125 -0.0 0.03125 0.09375
000130 00 00 00 bd 00 00 00 00 00 00 80 3d 00 00 00 00
       -0.03125 0.0 0.0625 0.0
000140 00 00 80 bd 00 00 80 3d 00 00 00 bd 00 00 80 bd
       -0.0625 0.0625 -0.03125 -0.0625
000150 00 00 c0 3d 00 00 00 bd 00 00 00 3d 00 00 80 3d
       0.09375 -0.03125 0.03125 0.0625
000160 00 00 80 3d 00 00 00 bd 00 00 00 bd 00 00 00 3d
       0.0625 -0.03125 -0.03125 0.03125
000170 00 00 c0 bd 00 00 00 00 00 00 00 80 00 00 00 3d
       -0.09375 0.0 -0.0 0.03125
000180 00 00 c0 3d 00 00 00 3d 00 00 c0 3d 00 00 00 80
       0.09375 0.03125 0.09375 -0.0
000190 00 00 80 bd 00 00 00 3d 00 00 c0 3d 00 00 00 3d
       -0.0625 0.03125 0.09375 0.03125
0001a0 00 00 80 3d 00 00 00 bd 00 00 00 3d 00 00 c0 bd
       0.0625 -0.03125 0.03125 -0.09375
0001b0 00 00 c0 3d 00 00 c0 bd 00 00 80 3d 00 00 00 00
       0.09375 -0.09375 0.0625 0.0
0001c0 00 00 00 bd 00 00 c0 bd 00 00 00 3d 00 00 00 bd
       -0.03125 -0.09375 0.03125 -0.03125
0001d0 00 00 c0 bd 00 00 80 bd 00 00 80 bd 00 00 80 bd
       -0.09375 -0.0625 -0.0625 -0.0625
0001e0 00 00 c0 bd 00 00 00 bd 00 00 80 3d 00 00 00 80
       -0.09375 -0.03125 0.0625 -0.0
0001f0 00 00 80 3d 00 00 00 bd 00 00 00 3d 00 00 c0 bd
       0.0625 -0.03125 0.03125 -0.09375
000200 00 00 80 bd 00 00 80 3d 00 00 00 bd 00 00 80 3d
       -0.0625 0.0625 -0.03125 0.0625
000210 00 00 00 3d 00 00 c0 bd 00 00 80 3d 00 00 c0 3d
       0.03125 -0.09375 0.0625 0.09375
000220 00 00 80 3d 00 00 80 3d 00 00 c0 bd 00 00 80 3d
       0.0625 0.0625 -0.09375 0.0625
000230 00 00 c0 3d 00 00 00 bd 00 00 80 bd 00 00 00 80
       0.09375 -0.03125 -0.0625 -0.0
000240 00 00 00 bd 00 00 80 3d 00 00 80 3d 00 00 c0 bd
       -0.03125 0.0625 0.0625 -0.09375
000250 00 00 00 80 00 00 c0 3d 00 00 80 bd 00 00 00 3d
       -0.0 0.09375 -0.0625 0.03125
000260 00 00 80 3d 00 00 00 3d 00 00 00 00 00 00 80 3d
       0.0625 0.03125 0.0 0.0625
000270 00 00 80 3d 00 00 80 3d 00 00 80 3d 00 00 00 80
       0.0625 0.0625 0.0625 -0.0
000280 00 00 80 bd 00 00 80 3d 00 00 00 bd 00 00 00 80
       -0.0625 0.0625 -0.03125 -0.0
000290 00 00 00 bd 00 00 80 3d 00 00 80 bd 00 00 c0 bd
       -0.03125 0.0625 -0.0625 -0.09375
0002a0 00 00 00 bd 00 00 00 bd 00 00 00 3d 00 00 00 00
       -0.03125 -0.03125 0.03125 0.0
0002b0 00 00 80 bd 00 00 80 bd 00 00 00 3d 00 00 80 bd
       -0.0625 -0.0625 0.03125 -0.0625
0002c0 00 00 00 80 00 00 00 3d 00 00 80 bd 00 00 00 3d
       -0.0 0.03125 -0.0625 0.03125
0002d0 00 00 80 bd 00 00 00 80 00 00 80 3d 00 00 00 80
       -0.0625 -0.0 0.0625 -0.0
0002e0 00 00 80 bd 00 00 00 3d 00 00 80 bd 00 00 00 3d
       -0.0625 0.03125 -0.0625 0.03125
0002f0 00 00 c0 3d 00 00 80 3d 00 00 00 3d 00 00 00 bd
       0.09375 0.0625 0.03125 -0.03125
000300 00 00 c0 3d 00 00 80 bd 00 00 80 3d 00 00 00 3d
       0.09375 -0.0625 0.0625 0.03125
000310 00 00 80 bd 00 00 00 bd 00 00 00 3d 00 00 00 3d
       -0.0625 -0.03125 0.03125 0.03125
000320 00 00 80 bd 00 00 80 3d 00 00 80 bd 00 00 00 bd
       -0.0625 0.0625 -0.0625 -0.03125
000330 00 00 80 bd 00 00 00 3d 00 00 80 3d 00 00 00 bd
       -0.0625 0.03125 0.0625 -0.03125
000340 00 00 80 bd 00 00 00 bd 00 00 00 bd 00 00 c0 3d
       -0.0625 -0.03125 -0.03125 0.09375
000350 00 00 00 3d 00 00 00 3d 00 00 00 3d 00 00 00 3d
       0.03125 0.03125 0.03125 0.03125
000360 00 00 80 3d 00 00 80 3d 00 00 00 bd 00 00 00 80
       0.0625 0.0625 -0.03125 -0.0
000370 00 00 00 3d 00 00 c0 bd 00 00 80 3d 00 00 80 bd
       0.03125 -0.09375 0.0625 -0.0625
000380 00 00 80 bd 00 00 c0 3d 00 00 80 bd 00 00 80 3d
       -0.0625 0.09375 -0.0625 0.0625
000390 00 00 00 00 00 00 c0 bd 00 00 00 bd 00 00 00 80
       0.0 -0.09375 -0.03125 -0.0
0003a0 00 00 c0 bd 00 00 00 00 00 00 00 80 00 00 00 bd
       -0.09375 0.0 -0.0 -0.03125
0003b0 00 00 00 3d 00 00 80 bd 00 00 00 3d 00 00 00 00
       0.03125 -0.0625 0.03125 0.0
0003c0 00 00 00 bd 00 00 80 bd 00 00 80 3d 00 00 c0 bd
       -0.03125 -0.0625 0.0625 -0.09375
0003d0 00 00 80 bd 00 00 80 3d 00 00 80 bd 00 00 c0 bd
       -0.0625 0.0625 -0.0625 -0.09375
0003e0 00 00 80 3d 00 00 80 3d 00 00 80 3d 00 00 80 3d
       0.0625 0.0625 0.0625 0.0625
0003f0 00 00 00 3d 00 00 00 3d 00 00 80 bd 00 00 80 bd
       0.03125 0.03125 -0.0625 -0.0625

model.4.bias f4 [120]
000000 83 48 3f 3d 51 ec 83 bd be 36 31 bd bd 92 ad 3d
       0.046700012 -0.06441558 -0.043265097 0.08475254
000010 83 ea 8d 3d 84 de 6e 3d 79 2b ee 3c 00 45 ac bd
       0.06929495 0.058317676 0.029073464 -0.08411598
000020 02 0b 90 3d 41 28 61 bd 28 17 1f 3d d4 00 ae bd
       0.070333496 -0.05497003 0.038840443 -0.08496252
000030 f4 9e b5 3c 79 70 a6 3c ff 95 b8 3c 82 aa 88 bd
       0.022170521 0.020317303 0.022532461 -0.06673147
000040 e9 97 66 3c 7d 22 09 3d 53 e4 a7 3d 79 55 14 3d
       0.014074304 0.033480156 0.08197846 0.036214326
000050 fd 05 1c 3d 36 a1 3a 3b 7a 24 85 bd 2f 31 1b bd
       0.03809165 0.0028477437 -0.06501098 -0.037888702
000060 fd b6 c2 bc 67 4c 3d 3d d0 4f 92 bd f1 b5 60 3c
       -0.023768896 0.04621544 -0.07144129 0.013715253
000070 7d 01 85 bd a8 00 a2 3d fd 57 ac 3c 4d fc 09 bd
       -0.064944245 0.079102814 0.02103805 -0.03368788
000080 fd 59 3c 3d 84 de 22 3d 8f 3c 75 3d 9a 24 e8 bc
       0.045984257 0.03976299 0.059872206 -0.028337765
000090 83 22 78 3d f6 56 01 3d 19 44 a8 3b f9 86 34 bd
       0.060579788 0.031577073 0.005135071 -0.044074032
0000a0 be 55 aa bd 44 f8 a9 bd 18 69 96 bc fd 0a 23 3d
       -0.08317135 -0.08299306 -0.01836066 0.0398054
0000b0 7d 8d 61 3d 5b cb 8a bd 5c 6a e5 3c f7 75 44 3c
       0.055066574 -0.06777068 0.028004818 0.011991016
0000c0 85 64 56 bd b9 44 05 bc f9 96 06 3c 00 d9 93 3d
       -0.052341957 -0.008134061 0.008214706 0.07219124
0000d0 85 00 bd bc dd 57 56 3b 09 3d 88 3c e5 e3 55 bd
       -0.023071537 0.003270618 0.016630666 -0.05221929
0000e0 03 08 6a 3d d0 be 65 3d 02 82 8a 3d ff cc 91 bd
       0.057136547 0.056090176 0.06763078 -0.07119178
0000f0 f2 8b 05 bc 6b da ce bc 15 96 14 3d 00 f3 a5 bc
       -0.008151041 -0.025250634 0.036275942 -0.020257473
000100 bd 75 c3 3c 00 c1 5c bd 0a cc 2e bd a1 4c 66 3d
       0.023859853 -0.053894997 -0.042675056 0.056225423
000110 e1 df 54 bc 7c 61 60 bd 84 26 10 bd 5f 25 45 bc
       -0.01299283 -0.05478047 -0.03519298 -0.012032836
000120 41 93 9b bc f5 8f 0a bc 08 49 93 bd c1 87 25 bd
       -0.018991115 -0.008457174 -0.07191664 -0.04041267
000130 85 c0 a2 bd 42 6f 9b 3d fc c2 fa bc 5b 00 9b bd
       -0.079468764 0.0758958 -0.030610554 -0.07568427
000140 01 ec b4 bd 61 3c c1 3c fd 0c 21 bd f6 20 94 bd
       -0.08834077 0.023588361 -0.039319027 -0.07232849
000150 b0 ad ce 3c b5 17 4c 3c 54 00 a0 3b 7f 85 89 bd
       0.025229305 0.012456824 0.0048828516 -0.067149155
000160 a9 03 6e 3d 7d 51 6e bd a7 36 e5 bb cb c0 2e 3d
       0.05810896 -0.058183182 -0.0069950405 0.04266433
000170 41 45 60 3d 01 a4 90 3d 94 6f 08 bb fa b6 1a bd
       0.054753546 0.07062531 -0.002081846 -0.037772156
000180 84 32 31 bd b5 26 ba 3d 99 f1 a0 3d 1e cc c5 bb
       -0.043261066 0.09089414 0.07858581 -0.0060362956
000190 a4 d9 0a bd 46 33 33 bc 61 7d 86 bd de 23 82 3d
       -0.033898965 -0.0109375175 -0.06566883 0.063544974
0001a0 03 0d 4c bd fa c2 02 bd 6a a1 7f bd 64 9b ba ba
       -0.049817096 -0.031924225 -0.062409796 -0.0014236984
0001b0 c4 11 c8 bb 2a 26 7c 3d dd 61 a1 bd bd d9 4a 3d
       -0.0061056335 0.061559834 -0.07879994 0.049524058
0001c0 84 ce b7 bd 1d 08 4d 3d 6d 68 0a bd 9e 58 ae bc
       -0.089749366 0.050056566 -0.033790994 -0.02128249
0001d0 84 c2 8f bd 7d 7b 5d bd 43 56 ab bd 1c 2c 1c 3d
       -0.07019523 -0.054072846 -0.083660625 0.038128003

model.5.weight f4 [120]
000000 b3 2e 7c 3e 7c 12 4b 3f ce c6 ca 3e 34 2b 5e 3f
       0.2462719 0.7932508 0.396048 0.8678467
000010 d0 82 51 3f da 55 3b 3f c8 9e d1 3e 8d 9b aa 3f
       0.8184023 0.73177874 0.40941453 1.332872
000020 4e 68 d6 3f 51 02 d3 3e 6e 0f 8d 3f 42 0f 25 3f
       1.6750581 0.41212705 1.1020334 0.64476407
000030 32 71 3c 3f 9a 3c 70 3f 6a de 40 3e 59 4d 8e 3f
       0.7361022 0.9384247 0.18834844 1.1117355
000040 6f f4 bd 3e cd c5 a9 3f 11 88 ea 3e 18 b9 0d 3f
       0.3710055 1.3263489 0.45806935 0.55360556
000050 e3 94 68 3f fd e3 3a 3f 0f 88 14 3f 68 f4 24 3f
       0.90852183 0.7300413 0.5802011 0.64435434
000060 8c 76 e9 3e 2a d4 e1 3e d2 ff 89 3f 77 f3 09 3f
       0.45598257 0.4410718 1.0781195 0.5388712
000070 64 bc 77 3e 56 b2 75 3f 2e 61 95 3f aa 0a 8b 3f
       0.24192959 0.95975244 1.1670282 1.086263
000080 ae b4 70 3f f7 81 85 3f 3f 79 99 3e 7c d9 5f 3f
       0.94025695 1.0430287 0.29975316 0.8744123
000090 da 81 02 3f 97 09 6d 3f a2 40 a5 3e 50 f0 23 3f
       0.5097939 0.9259276 0.32275873 0.6403856
0000a0 4a cb 8c 3f 83 dd a5 3f 4d ce aa 3f 69 3d c3 3f
       1.0999539 1.2958225 1.3344208 1.5253116
0000b0 eb fc 90 3e a8 99 75 3f b6 c1 b6 3e a1 9d 94 3f
       0.2831796 0.95937586 0.35694665 1.1610605
0000c0 e2 5c 81 3f 56 40 66 3f 12 df 98 3e eb d7 c2 3e
       1.010647 0.8994192 0.2985769 0.38055357
0000d0 9e 83 10 3e cc 9a 5e 3f af da 3c 3f 4b ff 45 3f
       0.14112708 0.8695495 0.73771185 0.7734267
0000e0 d9 4e b8 3f 3b 29 49 3f 8c 22 8e 3f f8 73 90 3f
       1.4399062 0.7857854 1.1104293 1.1285391
0000f0 32 a4 a2 3e 6c 09 9c 3f e4 75 c6 3f fe 5b 8d 3f
       0.31765896 1.2190375 1.5504727 1.1043699
000100 c3 35 20 3e 4b 23 3f 3f 80 3c 59 3f 3c db 80 3e
       0.15645508 0.7466323 0.8485794 0.25167263
000110 f1 60 d3 3f b5 f2 5f 3f a4 cc f8 3e 60 be 56 3f
       1.6513959 0.87479717 0.48593628 0.8388424
000120 63 1f 83 3f 37 b8 0b 3f e0 a6 1f 3f 14 b1 88 3e
       1.0243953 0.54577965 0.62364006 0.266976
000130 3d 64 3e 3f dd 63 f5 3e 1c 30 4e 3f 02 1b 7e 3e
       0.743717 0.47927752 0.8054216 0.2481499
000140 41 83 9c 3f 8c c7 7d 3e 7b e2 72 3e d0 9a 90 3f
       1.2227556 0.24783152 0.23719208 1.1297245
000150 c8 4e 30 3f 15 c8 ca 3e c0 ef f2 3f d3 4a 64 3f
       0.6887021 0.39605775 1.8979416 0.8917667
000160 08 85 d2 3e 65 be 1d 3f 4d 9d 34 3f 11 ea 90 3f
       0.4111712 0.61618644 0.7055252 1.1321431
000170 65 33 dd 3f 2b 5c f3 3f 69 bf 14 3f 2d 44 24 3f
       1.7281309 1.9012502 0.5810457 0.6416653
000180 17 78 b6 3d 0c 9c 65 3f 72 2e f6 3e 80 52 75 3f
       0.08909624 0.89691234 0.4808231 0.9582901
000190 b0 db 34 3f 24 e6 47 3f 4c 21 b6 3f 54 72 f1 3e
       0.70647717 0.7808554 1.4228911 0.47157538
0001a0 df 2a 67 3f d7 45 57 3f b5 3f 13 3f ab 10 e5 3e
       0.9029979 0.8409094 0.57519084 0.4473928
0001b0 0a 5d 8c 3f b8 50 8b 3f fd 9a 85 3f 20 82 3e 3e
       1.0965893 1.0884008 1.0437924 0.18604326
0001c0 40 e8 45 3f 1d ac af 3f b6 cd ab 3f de c6 5d 3f
       0.7730751 1.37244 1.3422153 0.8663157
0001d0 a7 a9 ec 3e c1 15 a2 3f 66 4d 89 3f 82 a7 bb 3f
       0.46223184 1.2662889 1.0726745 1.4660494

model.5.bias f4 [120]
000000 b8 cd 1c bf 8f e1 6b 3e 3d 9b fe be 49 56 1a 3f
       -0.612514 0.23035263 -0.49727812 0.6028791
000010 2b 10 cc 3e 1e 2c 1d bd fc a3 8a 3e 27 b6 83 3f
       0.39856085 -0.03837215 0.27078235 1.0289963
000020 b4 9c 68 3f d2 cc 84 be 4b 70 49 3f 2e c7 97 be
       0.9086411 -0.25937515 0.7868697 -0.2964415
000030 df 48 05 3f 3f 57 1c 3f 86 c3 34 bf fb 18 2d 3f
       0.5206432 0.61070627 -0.70610845 0.6761624
000040 0e 13 a9 be 0a 28 e9 bd cc 7e 05 3e dd 7d 09 3f
       -0.3302235 -0.1138459 0.1303665 0.5370768
000050 62 ad a5 3b 44 3d 61 3d 44 72 83 be 73 bd d1 be
       0.005056069 0.054990068 -0.25673115 -0.4096485
000060 2d 86 0e 3f 56 51 f1 be fd 4d 6a 3f 57 f5 a7 3e
       0.55673486 -0.47132367 0.9152525 0.32804367
000070 fb e0 13 bf 8d 6c 9d bd f9 b3 66 bd 0f 51 18 3f
       -0.5776517 -0.0768672 -0.05632398 0.59498686
000080 63 e7 79 be de c8 09 3f f5 71 26 bf 94 99 e3 3d
       -0.24404673 0.53822124 -0.65017635 0.11113277
000090 5b 3c 5b be 99 62 58 3f b6 6c 26 bf fb b5 40 bf
       -0.21409743 0.8452545 -0.6500963 -0.7527768
0000a0 56 27 6a 3f 1f 4a 0b 3f 20 ed d5 3e 5f eb 6f 3d
       0.9146627 0.54409975 0.41782475 0.058574077
0000b0 fd dc 18 bf 17 c0 ff 3e 78 03 11 3f 17 84 4a 3f
       -0.597122 0.4995124 0.5664592 0.79107803
0000c0 eb fe 7f 3f 87 16 1e be ae f3 08 bf 88 58 df be
       0.9999835 -0.15438281 -0.53496826 -0.4362223
0000d0 02 81 a9 bd 8e e5 bb 3e d8 fc 27 3d 1a 49 d4 3e
       -0.082765594 0.36698574 0.041012615 0.41462022
0000e0 2e 1e 8b 3e 5d e0 ba be 2f 14 4b 3f 8a a5 47 3f
       0.27171463 -0.364993 0.7932767 0.7798697
0000f0 cd a2 24 bf 50 02 44 be a6 5f 80 3f b1 18 28 3f
       -0.64310914 -0.19141507 1.002919 0.65662676
000100 88 f5 30 bf 6a 3f ff 3e 92 28 db 3d 86 a6 2b bf
       -0.6912465 0.4985307 0.107010975 -0.6705097
000110 75 71 6b 3f a0 77 a5 bd 6d f2 c9 be b6 f7 55 3f
       0.91969997 -0.08079457 -0.3944277 0.835811
000120 fa 39 e7 3d c7 ac 09 bf 94 ef ab 3d b3 af 30 bf
       0.11290355 -0.5377926 0.08395305 -0.69018096
000130 04 de 64 bd f8 ba 66 3f 8f 15 06 be 9d 0a cd bd
       -0.055875793 0.9012904 -0.13094161 -0.1001179
000140 34 1b 19 be 2a 45 33 bf 93 51 13 bf d2 c6 ab bc
       -0.14951783 -0.7002741 -0.5754635 -0.020968828
000150 aa dd c9 3e c9 be 80 3e 6b f9 91 3f c5 0b 24 3f
       0.3942693 0.25145558 1.1404241 0.6408046
000160 30 45 1c bf 15 59 98 be 2f 23 c7 be 87 8c 6f 3f
       -0.6104307 -0.29755464 -0.3889403 0.935738
000170 96 21 38 3f 00 0d cd 3e 02 3f 29 bd 11 a1 5d 3f
       0.7192625 0.4004898 -0.041319855 0.8657389
000180 ad 53 d7 3c b2 19 8b bd 30 f6 fc be ba 6e 9f bd
       0.026285017 -0.0679201 -0.49406576 -0.07784791
000190 09 13 03 bf ac 95 8a b9 be c3 26 be 40 f1 4c 3e
       -0.5120092 -0.00026432925 -0.16285607 0.20013905
0001a0 93 38 5f 3f b5 33 90 3e b2 4e 38 3f 5f 6b ea be
       0.871957 0.2816445 0.7199508 -0.45785043
0001b0 42 27 81 3e 1e 16 ff 3e 1d a7 91 3e 9f 83 3d bf
       0.25225264 0.49821562 0.2844781 -0.7402896
0001c0 b1 89 2c be a3 93 f0 3e 0b 50 a1 be 8c cc d8 3d
       -0.168494 0.46987638 -0.3150638 0.10585889
0001d0 2b 5d 99 3e c5 5a e6 3e f4 fb 09 3f d2 7e dd 3e
       0.29953894 0.44991127 0.53900075 0.4326082

model.5.running_mean f4 [120]
000000 e3 41 98 3e f3 d5 6f be ab 34 db bd a6 17 a7 be
       0.29737768 -0.23421459 -0.10703405 -0.3263523
000010 d1 75 06 3f fa b8 4e be 7b 73 51 3e af 72 73 3e
       0.52523524 -0.2018775 0.20454209 0.23774217
000020 aa dc 06 3e 59 89 a2 bd 7a a4 02 3c ce 95 0e bd
       0.13170114 -0.07936353 0.007973785 -0.034810834
000030 74 f3 a9 be 25 b0 8a 3b ef 19 93 3e 6a 46 ae bd
       -0.33193552 0.004232424 0.28730723 -0.08509524
000040 84 97 bd 3e d8 d9 77 bf 9c 95 f0 bd ff 7a a8 be
       0.3702966 -0.9681678 -0.11747286 -0.3290634
000050 e3 62 d0 3e 00 a8 88 3f 5c f4 c3 3e 9f 1a 1c bd
       0.40700445 1.067627 0.3827237 -0.038111325
000060 77 14 5b be e3 30 79 3d 68 ac 0a bb 39 83 32 bd
       -0.21394525 0.060837638 -0.002115989 -0.043582175
000070 a4 04 0b bf a3 1a 46 3d c4 1b a8 3e 5c 8d 71 be
       -0.54303956 0.048365247 0.32833683 -0.2358908
000080 e6 0c 20 3f 08 3e b5 be 2e f0 66 3e 77 a8 41 be
       0.6251968 -0.3539889 0.22552559 -0.1891192
000090 f7 03 89 be 4c f6 f2 3e 65 91 9e be ff 1d 1b bf
       -0.26760837 0.47453535 -0.30970302 -0.60592645
0000a0 c4 47 c9 be 3e ad 57 3e 06 72 45 bd 0c 86 69 3e
       -0.39312565 0.2106218 -0.048204444 0.22805041
0000b0 f2 b3 64 3e de a2 c9 3d 80 6d 91 bd ed 3c 94 3e
       0.22334269 0.098455176 -0.071009636 0.28952733
0000c0 58 0d 81 be d4 8d 8c 3a d1 6b bd bd 70 c5 f5 3e
       -0.25205493 0.001072342 -0.0924908 0.48002195
0000d0 0f 0b 4e 3e 7d e6 c6 be 06 d7 d4 be 03 97 07 bd
       0.20121406 -0.38847724 -0.415703 -0.033103
0000e0 30 49 99 3e 46 36 e2 3e 86 88 e7 3e e2 dc 9a be
       0.2993865 0.44182032 0.45221347 -0.30246645
0000f0 fb 32 e6 bd 3a af e1 be c0 de 6c 3e 95 58 0c 3d
       -0.112401925 -0.44079 0.23131847 0.034264166
000100 6e a0 b7 bc 72 85 81 be 7a b4 35 bf 76 0d bc 3e
       -0.022415366 -0.25297123 -0.7097851 0.3672902
000110 ff 39 97 be c9 8e a2 3e ec d4 bd be d1 a8 2e be
       -0.29536435 0.3174956 -0.3707651 -0.17056586
000120 6c 8f bf bc c4 bf b7 3e 38 dc 6c bf 44 bf 43 3c
       -0.023383819 0.35888493 -0.9252353 0.011947457
000130 f6 65 51 be 89 42 93 3e 0e 85 77 be d2 28 ab 3d
       -0.20449051 0.287617 -0.2417185 0.08357395
000140 78 9e 10 be d4 20 92 3e 84 1b 4b 3e 78 f9 2a bf
       -0.14122951 0.2854067 0.19834715 -0.6678691
000150 09 10 f4 be 6e 02 5a 3f 87 ee 22 bf 13 b1 86 be
       -0.47668484 0.8515996 -0.63645214 -0.26306972
000160 ff eb 62 bd 39 06 a6 3e a5 80 d3 be 50 c1 3c 3e
       -0.055400845 0.32426623 -0.41309085 0.18433118
000170 d6 0e c3 be b9 69 b3 3e ee 49 1e 3f 29 a5 0d bf
       -0.38097256 0.35041597 0.6183156 -0.5533014
000180 57 c2 99 be b0 64 b4 3e 72 98 a5 bd 41 97 b9 3e
       -0.30031082 0.35233068 -0.08085717 0.3624821
000190 ba 17 d2 3d 69 88 d8 3e ec bc 30 3d 9c 27 46 3e
       0.10258432 0.42291573 0.04314892 0.19351047
0001a0 71 31 ec be a4 29 e6 be d2 7d b8 3e 28 e5 2d bd
       -0.4613147 -0.44953644 0.36033493 -0.04245487
0001b0 a7 1e 39 3e 96 6a b1 bc a4 ae bb 3d 8c 40 31 3e
       0.18078099 -0.02165727 0.091641694 0.17309779
0001c0 85 5b 1f bf ac 61 df 3e 89 9d 32 3e 54 31 1d be
       -0.6224902 0.43629205 0.17442907 -0.15350848
0001d0 c6 b8 1f bf 6d 42 ac be 0c b7 bc 3e 11 14 78 be
       -0.62391317 -0.3364443 0.36858404 -0.24226405

model.5.running_var f4 [120]
000000 2d d6 00 3e 46 d4 9a 3d 1e 60 84 3d 19 41 c2 3d
       0.12581702 0.07560019 0.064636454 0.09485073
000010 2c 00 0d 3e 35 0e c4 3d a0 8d a8 3d 86 24 50 3e
       0.13769597 0.09573022 0.08230138 0.20326433
000020 b6 97 af 3d b1 c3 3f 3e 55 fc 1e 3e 51 2c 4f 3e
       0.085738584 0.18726994 0.15525945 0.20231749
000030 9b 1b 4d 3d 1e 84 1f 3e 8d fa f2 3c de 6c b0 3d
       0.050075155 0.15577742 0.029660488 0.08614515
000040 0f 94 1b 3e f4 da 90 3d 4d 27 08 3e dd af d2 3d
       0.15193199 0.07073012 0.13296242 0.102874495
000050 eb 0b d0 3d d9 36 17 3e 36 49 7a 3e 58 ae 12 3e
       0.10158523 0.14767016 0.2444199 0.1432432
000060 e4 b9 3b 3e 99 23 9a 3d 93 d7 46 3e 1a e1 18 3e
       0.1833263 0.07526321 0.19418173 0.1492962
000070 6a 3b 5d 3e 80 74 35 3e be a1 8b 3e b5 da f5 3d
       0.21604696 0.17720222 0.27271837 0.12004606
000080 b5 91 15 3e 39 cd 14 3e 59 00 50 3e 7b 41 7f 3d
       0.14606364 0.14531411 0.20312633 0.062318306
000090 2a 38 2f 3e a0 10 96 3d d5 0d c4 3d 07 50 a3 3d
       0.17111269 0.0732739 0.09572951 0.079742484
0000a0 4f 51 46 3e 2a ea 2b 3e d9 fd d1 3d da 8e 0d 3e
       0.19366954 0.16788545 0.10253496 0.13824025
0000b0 e7 95 1e 3e 14 4a 47 3e 1d b4 08 3e 70 c5 c2 3d
       0.1548687 0.19461852 0.13349958 0.095103145
0000c0 cc 1c ec 3d ad 3e a7 3d a6 ad 1f 3e d1 05 71 3d
       0.1152893 0.08166251 0.15593585 0.058843438
0000d0 e3 15 7a 3d 4d 70 0a 3e 64 c9 78 3e 56 3b c3 3d
       0.06105603 0.13519402 0.24295574 0.09532802
0000e0 9f 46 cc 3d a6 f5 18 3e 9d 57 f8 3d 0b 64 7b 3d
       0.099744074 0.14937457 0.12126086 0.061374705
0000f0 9d 1a df 3d 47 b0 e5 3d 08 dc 9a 3e d5 cd 8f 3d
       0.10893748 0.11215263 0.30245996 0.07021681
000100 6d 31 90 3d 4e c0 38 3e 34 82 ee 3d 2b 71 49 3e
       0.07040677 0.18042108 0.11645928 0.19672076
000110 62 a5 e7 3d 07 b1 e4 3d 5a fc a2 3d d3 ff 2c 3e
       0.11310841 0.11166578 0.079582885 0.16894464
000120 8b 53 f3 3d 47 5e 2f 3e 4a 4e c8 3d fe d1 93 3d
       0.11881169 0.17125808 0.097805575 0.07217787
000130 4f 8e 3a 3e 02 bf 95 3d 3f 08 1a 3e 19 b3 9c 3d
       0.18218349 0.073118225 0.15042208 0.07651348
000140 da 03 a9 3d c8 06 19 3e 88 a5 97 3d 12 24 fd 3d
       0.08252688 0.14943993 0.074046195 0.123603955
000150 da 1e 92 3d bf e7 2d 3e fc 66 f9 3d d5 cf 78 3d
       0.07134791 0.16982935 0.12177846 0.06074508
000160 f3 18 02 3e b0 80 4f 3e 33 ac 4e 3e 79 e7 29 3e
       0.1270483 0.20263934 0.20182876 0.16592206
000170 28 23 5e 3e b6 73 8e 3d 6b 67 0d 3e 12 b1 8b 3e
       0.21693099 0.06955664 0.13808982 0.2728353
000180 62 d6 2d 3e e7 45 a0 3d 6c 5f ba 3d e8 9f d3 3d
       0.16976312 0.07825833 0.091002315 0.10333234
000190 a3 cf fc 3d 50 1e 5c 3d b5 4a ef 3d 20 38 a8 3d
       0.12344291 0.053739846 0.11684171 0.0821383
0001a0 a3 55 40 3e cf d1 39 3e 7a 84 91 3d 2f ce b0 3d
       0.18782668 0.18146442 0.07105346 0.086330764
0001b0 c1 99 d9 3d f8 29 18 3e a0 26 30 3e c4 7b e0 3d
       0.10625029 0.1485976 0.17202234 0.109611064
0001c0 b0 83 60 3e b3 e9 cf 3d bb 8f ec 3d 4f fa c1 3d
       0.21925235 0.101519965 0.11550852 0.09471571
0001d0 f4 48 33 3e 23 e0 0f 3e e9 b7 32 3e 19 da 40 3e
       0.17508298 0.14050345 0.17452969 0.18833198

model.7.weight f4 [120, 120]
000000 00 00 c0 3d 00 00 c0 bd 00 00 c0 3d 00 00 00 3d
       0.09375 -0.09375 0.09375 0.03125
000010 00 00 80 bd 00 00 80 bd 00 00 80 3d 00 00 c0 3d
       -0.0625 -0.0625 0.0625 0.09375
000020 00 00 80 bd 00 00 00 bd 00 00 00 bd 00 00 c0 3d
       -0.0625 -0.03125 -0.03125 0.09375
000030 00 00 00 3d 00 00 c0 3d 00 00 00 80 00 00 c0 bd
       0.03125 0.09375 -0.0 -0.09375
000040 00 00 00 bd 00 00 80 bd 00 00 80 3d 00 00 80 bd
       -0.03125 -0.0625 0.0625 -0.0625
000050 00 00 00 3d 00 00 80 bd 00 00 00 80 00 00 00 00
       0.03125 -0.0625 -0.0 0.0
000060 00 00 80 3d 00 00 80 3d 00 00 80 bd 00 00 c0 bd
       0.0625 0.0625 -0.0625 -0.09375
000070 00 00 80 bd 00 00 c0 3d 00 00 80 bd 00 00 80 3d
       -0.0625 0.09375 -0.0625 0.0625
000080 00 00 80 bd 00 00 00 3d 00 00 00 80 00 00 00 bd
       -0.0625 0.03125 -0.0 -0.03125
000090 00 00 00 bd 00 00 00 80 00 00 c0 3d 00 00 c0 bd
       -0.03125 -0.0 0.09375 -0.09375
0000a0 00 00 c0 bd 00 00 c0 3d 00 00 c0 3d 00 00 00 80
       -0.09375 0.09375 0.09375 -0.0
0000b0 00 00 80 3d 00 00 00 00 00 00 80 3d 00 00 00 80
       0.0625 0.0 0.0625 -0.0
0000c0 00 00 00 3d 00 00 80 3d 00 00 00 3d 00 00 00 bd
       0.03125 0.0625 0.03125 -0.03125
0000d0 00 00 c0 bd 00 00 00 00 00 00 80 3d 00 00 00 3d
       -0.09375 0.0 0.0625 0.03125
0000e0 00 00 c0 bd 00 00 00 80 00 00 00 bd 00 00 00 3d
       -0.09375 -0.0 -0.03125 0.03125
0000f0 00 00 00 3d 00 00 c0 bd 00 00 c0 bd 00 00 80 3d
       0.03125 -0.09375 -0.09375 0.0625
000100 00 00 00 80 00 00 00 bd 00 00 00 00 00 00 80 bd
       -0.0 -0.03125 0.0 -0.0625
000110 00 00 00 80 00 00 80 bd 00 00 00 00 00 00 c0 bd
       -0.0 -0.0625 0.0 -0.09375
000120 00 00 80 bd 00 00 00 00 00 00 80 3d 00 00 00 bd
       -0.0625 0.0 0.0625 -0.03125
000130 00 00 80 bd 00 00 00 bd 00 00 c0 3d 00 00 00 bd
       -0.0625 -0.03125 0.09375 -0.03125
000140 00 00 80 bd 00 00 80 bd 00 00 80 3d 00 00 00 3d
       -0.0625 -0.0625 0.0625 0.03125
000150 00 00 00 bd 00 00 80 3d 00 00 00 3d 00 00 00 bd
       -0.03125 0.0625 0.03125 -0.03125
000160 00 00 00 00 00 00 80 bd 00 00 80 bd 00 00 80 3d
       0.0 -0.0625 -0.0625 0.0625
000170 00 00 c0 3d 00 00 80 3d 00 00 80 bd 00 00 80 bd
       0.09375 0.0625 -0.0625 -0.0625
000180 00 00 80 bd 00 00 00 bd 00 00 80 bd 00 00 00 bd
       -0.0625 -0.03125 -0.0625 -0.03125
000190 00 00 80 bd 00 00 c0 3d 00 00 80 3d 00 00 80 bd
       -0.0625 0.09375 0.0625 -0.0625
0001a0 00 00 00 80 00 00 80 bd 00 00 80 3d 00 00 00 00
       -0.0 -0.0625 0.0625 0.0
0001b0 00 00 c0 bd 00 00 00 bd 00 00 c0 bd 00 00 00 80
       -0.09375 -0.03125 -0.09375 -0.0
0001c0 00 00 00 3d 00 00 80 3d 00 00 80 bd 00 00 00 3d
       0.03125 0.0625 -0.0625 0.03125
0001d0 00 00 c0 3d 00 00 00 bd 00 00 80 3d 00 00 00 bd
       0.09375 -0.03125 0.0625 -0.03125
0001e0 00 00 80 bd 00 00 80 bd 00 00 80 bd 00 00 c0 3d
       -0.0625 -0.0625 -0.0625 0.09375
0001f0 00 00 80 3d 00 00 80 3d 00 00 80 3d 00 00 00 00
       0.0625 0.0625 0.0625 0.0
000200 00 00 80 bd 00 00 00 bd 00 00 00 bd 00 00 00 3d
       -0.0625 -0.03125 -0.03125 0.03125
000210 00 00 c0 bd 00 00 00 bd 00 00 80 3d 00 00 80 bd
       -0.09375 -0.03125 0.0625 -0.0625
000220 00 00 00 3d 00 00 00 bd 00 00 80 bd 00 00 00 3d
       0.03125 -0.03125 -0.0625 0.03125
000230 00 00 c0 3d 00 00 c0 bd 00 00 c0 bd 00 00 80 bd
       0.09375 -0.09375 -0.09375 -0.0625
000240 00 00 c0 3d 00 00 00 00 00 00 00 80 00 00 80 3d
       0.09375 0.0 -0.0 0.0625
000250 00 00 00 80 00 00 00 3d 00 00 00 bd 00 00 00 bd
       -0.0 0.03125 -0.03125 -0.03125
000260 00 00 00 00 00 00 00 3d 00 00 00 bd 00 00 00 bd
       0.0 0.03125 -0.03125 -0.03125
000270 00 00 c0 bd 00 00 00 bd 00 00 80 3d 00 00 80 bd
       -0.09375 -0.03125 0.0625 -0.0625
000280 00 00 00 80 00 00 80 bd 00 00 c0 bd 00 00 00 3d
       -0.0 -0.0625 -0.09375 0.03125
000290 00 00 80 3d 00 00 00 bd 00 00 80 bd 00 00 00 3d
       0.0625 -0.03125 -0.0625 0.03125
0002a0 00 00 00 00 00 00 00 bd 00 00 00 bd 00 00 80 3d
       0.0 -0.03125 -0.03125 0.0625
0002b0 00 00 80 bd 00 00 00 3d 00 00 80 bd 00 00 00 bd
       -0.0625 0.03125 -0.0625 -0.03125
0002c0 00 00 80 3d 00 00 c0 3d 00 00 80 bd 00 00 80 3d
       0.0625 0.09375 -0.0625 0.0625
0002d0 00 00 00 bd 00 00 00 3d 00 00 80 3d 00 00 80 3d
       -0.03125 0.03125 0.0625 0.0625
0002e0 00 00 80 bd 00 00 80 bd 00 00 00 bd 00 00 00 bd
       -0.0625 -0.0625 -0.03125 -0.03125
0002f0 00 00 00 00 00 00 00 80 00 00 c0 3d 00 00 c0 3d
       0.0 -0.0 0.09375 0.09375
000300 00 00 c0 bd 00 00 00 3d 00 00 80 bd 00 00 00 00
       -0.09375 0.03125 -0.0625 0.0
000310 00 00 80 bd 00 00 00 bd 00 00 80 bd 00 00 00 3d
       -0.0625 -0.03125 -0.0625 0.03125
000320 00 00 00 3d 00 00 00 bd 00 00 80 bd 00 00 80 3d
       0.03125 -0.03125 -0.0625 0.0625
000330 00 00 80 bd 00 00 00 3d 00 00 00 80 00 00 00 80
       -0.0625 0.03125 -0.0 -0.0
000340 00 00 80 3d 00 00 80 bd 00 00 c0 3d 00 00 00 3d
       0.0625 -0.0625 0.09375 0.03125
000350 00 00 00 3d 00 00 80 bd 00 00 80 bd 00 00 c0 bd
       0.03125 -0.0625 -0.0625 -0.09375
000360 00 00 00 00 00 00 80 3d 00 00 00 3d 00 00 00 3d
       0.0 0.0625 0.03125 0.03125
000370 00 00 00 3d 00 00 00 3d 00 00 00 3d 00 00 00 3d
       0.03125 0.03125 0.03125 0.03125
000380 00 00 c0 bd 00 00 80 3d 00 00 c0 3d 00 00 00 3d
       -0.09375 0.0625 0.09375 0.03125
000390 00 00 00 80 00 00 00 00 00 00 00 3d 00 00 80 3d
       -0.0 0.0 0.03125 0.0625
0003a0 00 00 80 bd 00 00 80 3d 00 00 c0 3d 00 00 00 00
       -0.0625 0.0625 0.09375 0.0
0003b0 00 00 80 bd 00 00 c0 3d 00 00 80 bd 00 00 00 bd
       -0.0625 0.09375 -0.0625 -0.03125
0003c0 00 00 00 00 00 00 00 bd 00 00 00 3d 00 00 80 3d
       0.0 -0.03125 0.03125 0.0625
0003d0 00 00 c0 bd 00 00 80 bd 00 00 00 3d 00 00 00 3d
       -0.09375 -0.0625 0.03125 0.03125
0003e0 00 00 00 3d 00 00 c0 bd 00 00 00 3d 00 00 80 3d
       0.03125 -0.09375 0.03125 0.0625
0003f0 00 00 c0 bd 00 00 00 3d 00 00 00 80 00 00 80 3d
       -0.09375 0.03125 -0.0 0.0625
