neural_networks/fixed_point_16_16_layers_16_sd.pt (torch, 141469 bytes, 24 tensors)

model.1.weight f4 [120, 16]
00000000: 0088 0f3e 00e0 03bd 0048 0bbe 00a0 abbd
00000010: 0010 fabd 00e0 6bbd 0080 723c 0000 e8ba
00000020: 0080 c6bd 0030 783e 0018 5b3e 00c0 82bd
00000030: 00a8 62be 00b0 1b3e 0000 483d 0048 7ebe
00000040: 00f0 903d 0080 cb3d 0000 06bb 0080 88bd
00000050: 0000 abbd 00f8 19be 0070 fa3d 00c8 323e
00000060: 0000 513c 00b0 053e 0080 66be 00a0 4e3e
00000070: 00c0 023d 00e0 473e 0080 73bc 0080 40be
00000080: 0068 453e 00f0 df3d 00e0 743e 0050 ab3d
00000090: 0070 acbd 00e0 4abe 0000 dc3c 0078 2e3e
000000a0: 0070 8cbd 0060 51be 0040 e13d 0030 bfbd
000000b0: 00f0 eebd 0078 50be 0020 4c3e 0080 883c
000000c0: 00b0 bdbd 00a8 623e 00b0 5ebe 0028 4abe
000000d0: 0040 433d 0020 73be 0060 303d 0078 153e
000000e0: 0000 293d 0020 7ebe 0098 283e 0080 793d
000000f0: 00c0 0a3e 0030 ae3d 0018 563e 0020 19be
00000100: 00c0 02be 0090 8c3d 00f8 3ebe 00a0 b2bd
00000110: 0040 60be 0040 3cbd 0080 d3bd 0058 24be
00000120: 0050 163e 0078 743e 0080 cc3c 0020 ad3d
00000130: 00a8 14be 00e0 77bd 00f0 293e 0058 42be
00000140: 0048 57be 0060 a4bd 0000 febc 0040 4f3e
00000150: 0080 32bc 00e0 4c3d 0030 a13d 00c0 0abd
00000160: 0000 40ba 0080 423c 00a0 fc3d 0060 2b3e
00000170: 0000 803a 00d0 583e 00e8 283e 0050 d13d
00000180: 00c0 77bd 00f0 22be 0088 623e 00c0 753e
00000190: 0050 97bd 0020 4d3d 00a8 033e 0000 1a3e
000001a0: 0040 563d 00c0 463e 0040 f33c 0010 463e
000001b0: 0000 7ebe 0000 bfbd 0058 69be 0070 75be
000001c0: 00a0 5abd 00c8 4e3e 0000 68ba 00e0 7e3e
000001d0: 00c8 1ebe 0080 083c 00b0 a53d 0038 193e
000001e0: 0090 3bbe 0080 08be 0008 51be 0050 d7bd
000001f0: 0098 4f3e 00f0 c53d 0080 8dbd 00a0 a4bd
00000200: 0050 73be 0080 ccbc 0080 a93d 00e0 68be
00000210: 0000 3f3c 0070 14be 0048 16be 00e0 153e
00000220: 0018 433e 00e0 c7bd 0080 343d 00f0 27be
00000230: 00f0 1dbe 0088 45be 0038 2a3e 0010 263e
00000240: 0008 5e3e 0060 fa3d 0070 40be 0058 063e
00000250: 0000 c73b 0068 2f3e 0030 a83d 0000 123d
00000260: 0048 153e 0070 653e 00d0 99bd 0090 8d3d
00000270: 0000 6dbe 0070 283e 00c8 343e 0048 60be
00000280: 00b8 09be 0000 24be 0038 693e 0060 63be
00000290: 00a0 313e 0048 5cbe 00b0 263e 0000 163b
000002a0: 0018 383e 0018 0c3e 0040 5ebe 00b0 e63d
000002b0: 0088 143e 0000 583d 0098 2dbe 0080 003d
000002c0: 0040 c03d 00b0 7d3e 0090 bd3d 00a0 ccbd
000002d0: 0038 793e 0038 60be 00f0 57be 0020 473e
000002e0: 0000 eabb 0000 f6bc 0080 ecbc 00a0 613e
000002f0: 00c8 4abe 0040 56bd 00d0 babd 0038 35be
00000300: 0078 0f3e 0070 c2bd 0040 8f3c 00d0 cebd
00000310: 0080 903c 00e8 6b3e 00a8 24be 00d0 29be
00000320: 0090 83bd 00f8 233e 0000 2bbd 00f0 7cbe
00000330: 0048 2e3e 0070 adbd 0040 003d 00e8 5fbe
00000340: 00d0 aebd 0048 65be 0060 7d3e 0098 73be
00000350: 00e0 94bd 00d0 353e 0040 aebc 00a8 373e
00000360: 0088 6fbe 0020 d33d 00f0 1a3e 0050 47be
00000370: 0040 df3d 00e0 debd 00b0 853d 00f0 6d3e
00000380: 00f8 423e 0050 5f3e 00e8 5e3e 0000 203a
00000390: 0088 2ebe 00c0 e13c 0060 523e 00e0 b5bd
000003a0: 0078 18be 00d8 5bbe 00c0 57be 0040 39be
000003b0: 00c0 79bd 0050 a83d 0070 e13d 0040 80bd
000003c0: 0000 1c3c 00f8 3cbe 0030 933d 0080 16be
000003d0: 0060 87bd 0080 243e 0090 74be 00c8 2dbe
000003e0: 0060 143e 00e8 49be 0020 443d 00b0 c73d
000003f0: 0040 82bc 0000 fa3d 00c0 c4bc 0008 473e
0.14016724 -0.032196045 -0.13601685 -0.08380127 -0.12210083 -0.05758667 0.014801025 -0.0017700195
-0.09692383 0.2423706 0.21395874 -0.06384277 -0.221344 0.15203857 0.048828125 -0.24832153
0.07077026 0.099365234 -0.0020446777 -0.06665039 -0.083496094 -0.1503601 0.122283936 0.17459106
0.012756348 0.1305542 -0.22509766 0.20178223 0.031921387 0.19519043 -0.014862061 -0.18798828
0.19277954 0.10934448 0.23913574 0.08364868 -0.084198 -0.19812012 0.026855469 0.17037964
-0.068573 -0.20446777 0.10998535 -0.09335327 -0.1166687 -0.20358276 0.19934082 0.016662598
-0.09262085 0.221344 -0.21746826 -0.19741821 0.047668457 -0.23742676 0.043060303 0.14596558
0.041259766 -0.24816895 0.16464233 0.060913086 0.13549805 0.08505249 0.20907593 -0.14953613
-0.12768555 0.06863403 -0.18649292 -0.08721924 -0.21899414 -0.045959473 -0.103271484 -0.16049194
0.14678955 0.23873901 0.024963379 0.08453369 -0.14517212 -0.060516357 0.16595459 -0.18978882
-0.2102356 -0.08026123 -0.03100586 0.20239258 -0.010894775 0.05001831 0.078704834 -0.03387451
-0.0007324219 0.011871338 0.12335205 0.1673584 0.0009765625 0.21173096 0.16494751 0.10220337
-0.06048584 -0.15911865 0.22122192 0.23999023 -0.07388306 0.050079346 0.12857056 0.15039062
0.05230713 0.1940918 0.029693604 0.19342041 -0.24804688 -0.09326172 -0.22787476 -0.23968506
-0.053375244 0.20193481 -0.00088500977 0.24890137 -0.15505981 0.008331299 0.0809021 0.14962769
-0.1831665 -0.13330078 -0.20413208 -0.10513306 0.20272827 0.09664917 -0.0690918 -0.0803833
-0.23760986 -0.024963379 0.08276367 -0.22741699 0.011657715 -0.1449585 -0.14675903 0.1463623
0.19052124 -0.097595215 0.044067383 -0.16400146 -0.15423584 -0.19290161 0.16622925 0.16217041
0.2168274 0.12225342 -0.18792725 0.13119507 0.006072998 0.17129517 0.0821228 0.03564453
0.14578247 0.22406006 -0.07510376 0.069122314 -0.23144531 0.16448975 0.17654419 -0.21902466
-0.13449097 -0.16015625 0.22775269 -0.2220459 0.17346191 -0.21511841 0.16278076 0.0022888184
0.17977905 0.1368103 -0.21704102 0.11264038 0.14505005 0.052734375 -0.16952515 0.03137207
0.09387207 0.2477417 0.092559814 -0.09991455 0.24337769 -0.21896362 -0.21087646 0.19445801
-0.0071411133 -0.030029297 -0.028869629 0.22033691 -0.19802856 -0.05230713 -0.09121704 -0.17697144
0.1401062 -0.094940186 0.017486572 -0.100982666 0.01763916 0.2303772 -0.16079712 -0.16583252
-0.0642395 0.16012573 -0.041748047 -0.24700928 0.17019653 -0.08468628 0.031311035 -0.21865845
-0.085357666 -0.22390747 0.24743652 -0.23788452 -0.07269287 0.17755127 -0.021270752 0.1793518
-0.23391724 0.10308838 0.15130615 -0.19464111 0.10900879 -0.10882568 0.0652771 0.23236084
0.19039917 0.21807861 0.21768188 0.00061035156 -0.17044067 0.027557373 0.20544434 -0.08880615
-0.14889526 -0.21469116 -0.21069336 -0.1809082 -0.06097412 0.08218384 0.110076904 -0.06262207
0.009521484 -0.1845398 0.0718689 -0.14697266 -0.066101074 0.16064453 -0.23883057 -0.16970825
0.14489746 -0.19717407 0.04788208 0.09750366 -0.015899658 0.12207031 -0.024017334 0.19436646

model.1.bias f4 [120]
00000000: 8093 393e 387e 2ebe cc07 b9bd 1155 98ba
00000010: 2ca0 7dbd 181f 36bd 76ae b5bd d53e 4e3d
00000020: 0862 4abe 1eda 323e 55b6 67be 0d25 2dbd
00000030: abbe a23d 450c 79be ae2f 8d3d 0fbe 18be
00000040: 87e2 1a3e 4545 1cbe 313b 38be cbe5 1f3e
00000050: 6233 1f3e 44f4 22be 22a5 3fbe b578 adbd
00000060: 57dd 37be 44ad a03d d31d cb3d 2a65 b1bd
00000070: f68d 993c aa1c a7bc f046 97bc aec8 04be
00000080: 99b3 173e 53ce 6ebe ff13 153e 4262 873d
00000090: 4fca 683e 8dab 75be 669b 2e3e 7d34 8ebd
000000a0: e4a7 863b 6348 3e3e 2121 273e 9f14 6cbe
000000b0: e8db 1c3d 5fdf 8f3d a157 54bd 7e7b 9dbd
000000c0: 7164 b73d 69f7 5a3e 5e8d 72bd 56f9 9b3d
000000d0: bfa2 603c 55bb 663e 8ddf 463e 69ce 213e
000000e0: 256e 32bd 94fe 083e a108 27be 74f5 4abd
000000f0: 27e2 163e 4c68 5b3e 6339 903d ba72 693d
00000100: b928 0abe b969 5a3e 4a7e bfbd 5916 d63c
00000110: beb7 90bd 4dff 933d d002 7a3e 364e 773d
00000120: f3e3 47bd 1aed 1ebe e98b 463e 70ce d2bd
00000130: 32a3 79be cb65 33be ac92 8ebc 0e1d 353e
00000140: eea5 053e bf80 1bbd b0b5 f63d 78ca 1c3e
00000150: 2c11 2e3d 89ba 63be 5d92 b0bd f63c 9f3d
00000160: 97c5 4a3e ae65 793e 0c6a 8bbc 9b63 1abe
00000170: 64cf 1e3b d608 b33c 1f84 a2bd ec4b 2dbd
00000180: ed1d 6dbe 74ce 90bc e511 31be 67f6 083e
00000190: 8ccc 4a3e 7c0d 513e 2425 40bd 5bae 9dbd
000001a0: 06f4 33be 4fea 7f3e 907b 923c a44a 223e
000001b0: 2081 5a3c b9ae 1fbe a6ce 7cbe ddc3 003e
000001c0: 7e04 28be 944a 063e 366b 1e3e c5ec 493d
000001d0: 87f6 dbbd 9aec d7bd b19f 3a3e 01bc 2d3e
0.18122673 -0.17040336 -0.0903469 -0.0011622031 -0.06192033 -0.044463247 -0.088711664 0.05035289
-0.19763958 0.17466018 -0.22628148 -0.042271663 0.07946523 -0.24321087 0.0689386 -0.14916252
0.15125476 -0.15260799 -0.1799133 0.15615003 0.15546945 -0.15913492 -0.18715337 -0.08470289
-0.17955528 0.07845548 0.09917798 -0.08661874 0.01874445 -0.02039941 -0.018466443 -0.12967178
0.14814605 -0.23320894 0.14558409 0.06610538 0.22733425 -0.23991223 0.17051467 -0.06943605
0.0041093696 0.18582301 0.16321231 -0.23054741 0.038295656 0.070250265 -0.051841382 -0.0768957
0.089547046 0.21383442 -0.05921685 0.076159164 0.013710677 0.22532399 0.19421215 0.15801395
-0.043562073 0.13378364 -0.16311885 -0.04955049 0.14734708 0.21426505 0.07042196 0.056994177
-0.13492097 0.21329392 -0.093502596 0.026133703 -0.07066296 0.07226429 0.24415135 0.060377322
-0.048801374 -0.15520135 0.19389309 -0.10293281 -0.2437866 -0.175193 -0.017403923 0.17686865
0.13051578 -0.03796458 0.12046373 0.1531161 0.042496845 -0.22239126 -0.086216666 0.07775299
0.19801937 0.24355194 -0.01701834 -0.15077059 0.00242325 0.0218548 -0.07935356 -0.042308733
-0.23155947 -0.01767657 -0.17291982 0.13375245 0.19804591 0.204153 -0.04691042 -0.07699271
-0.17573556 0.24991725 0.017881185 0.15848786 0.01333645 -0.15593995 -0.24688205 0.12574716
-0.16407964 0.13114387 0.15470585 0.049298067 -0.10740381 -0.10543175 0.1822498 0.16966249

model.2.weight f4 [120]
00000000: ba77 8c3f 8456 f73e d680 953f 8c54 0b3f
00000010: 62d7 4a3f b3cb 183e 58cc 233f d96d 773f
00000020: f3b9 143f e06b 7e3f 90e5 ae3f f9ab ff3e
00000030: 86b7 113f 6acf 813f f62f 083f 9632 893f
00000040: a1ec 2e3f 309f 533f efae 923f 3a1f 813f
00000050: 383d bd3e e166 393e 8a66 a83e ad4d 573e
00000060: fb45 9e3e 221a a23f 30e4 803f 2866 413e
00000070: 9cec 7e3f 8457 3d3f b7dc 343f e179 063f
00000080: 0881 a63f 490c 8f3f 63bf 9e3f 088e 9c3f
00000090: 9587 763f fc66 b63e d055 7a3f 7b26 893f
000000a0: c28c 333f a0b3 543f 35c3 123e f218 503f
000000b0: 3525 173f e200 f43e bf7c 143f 8c7f 3e3f
000000c0: ed33 413f 02c5 803f 271a 173f 50d4 a03f
000000d0: 7371 9a3f 7100 7e3f 85cc 353f 9dc1 e63e
000000e0: 4078 3b3e f27e cc3f f549 7b3f 4565 ca3f
000000f0: 4a69 b43f babe bc3f 3543 4f3f b8ba 323e
00000100: 29cd 663f 6053 bf3e dcf5 593f f758 ff3e
00000110: 0cc3 793f 32d3 583f 95d5 a23e 82d1 853f
00000120: 2fb2 aa3f 47c9 543f f2b5 4d3f 07a3 933f
00000130: 6102 7c3f f99b 1e3f 188f 7b3f 16fb 8b3e
00000140: 594c 8c3f 9a04 823f 0243 c33f a6d9 c63e
00000150: b7df 3c3f 71de 4a3f d9c8 143f 4e2e 0f3f
00000160: 11a6 ec3f ed33 463f 70be 543f a833 4c3f
00000170: 8279 213f 1eea 9a3f 5c73 4f3f 6d1a 523f
00000180: f7c9 463e f0e2 f13e 658e 1d3f 4685 bf3f
00000190: 2fb3 cd3e e152 883f bb8d 843f 871f 513f
000001a0: ca7c 943e 07a5 803f 26ab 823f f533 933f
000001b0: 9c4e 9e3e 15d0 533f 05f9 343f 8c38 3e3f
000001c0: 1aa6 4b3f 55b3 be3f 8cf4 c63f 0b15 343e
000001d0: 960c f73e 72b0 823f 344c 163f b743 133f
1.0974038 0.48308194 1.1679943 0.54425883 0.792349 0.14921455 0.6398368 0.9665199
0.58096236 0.99383354 1.3663807 0.49935892 0.5692066 1.0141423 0.5319818 1.0718563
0.6832982 0.82664776 1.1459635 1.0087655 0.3696077 0.18105651 0.3289073 0.21025725
0.30912766 1.2664225 1.0069637 0.18886626 0.9957979 0.73961663 0.70649284 0.5252972
1.3008127 1.1175624 1.2402157 1.2230844 0.9630063 0.35625446 0.9778719 1.0714868
0.70136654 0.83086586 0.14332278 0.81288064 0.5904115 0.47656924 0.5800285 0.7441337
0.7546986 1.0060122 0.5902428 1.2564793 1.2065872 0.99219424 0.710152 0.4506959
0.1830759 1.5976241 0.98159724 1.5812155 1.4094632 1.4745705 0.80961925 0.1745404
0.901568 0.37368298 0.85140777 0.49872562 0.9756324 0.8469726 0.31803575 1.0454562
1.3335627 0.83119625 0.8035575 1.1534127 0.9844113 0.61956745 0.9826522 0.2734
1.09608 1.0157654 1.5254824 0.38837928 0.7377886 0.7924567 0.5811897 0.5593003
1.848818 0.7742298 0.83103085 0.7976632 0.6307603 1.2102697 0.810354 0.8207157
0.19412981 0.47243452 0.615454 1.4962547 0.4017577 1.0650293 1.0355753 0.8168873
0.29001456 1.0050362 1.020848 1.1500231 0.3091935 0.82739383 0.70692474 0.74305034
0.79550326 1.4898478 1.554338 0.17586152 0.4825179 1.0210097 0.58710027 0.575252

model.2.bias f4 [120]
00000000: 512d 4a3f dd2e 20bf 8adf 683e 3222 cabc
00000010: 3ce7 2cbe aca2 1dbf f6d6 4e3f 03a6 303f
00000020: 968f bf3e e4c8 b73e 956a 453f edaf a9bd
00000030: 8e15 bcbe e294 ab3e 9137 32be 8e32 2c3f
00000040: ecc2 5abe 0342 62be 4333 a93f e413 263f
00000050: d5d8 293f 5274 39bf 0c5f 17bf f95b 2bbf
00000060: 03d8 12bf 37ff 6f3e 7ea6 6e3f 8eba 40bf
00000070: 0afd 00bd f597 613d 2500 d8be 75fc 5ebe
00000080: 0bf9 9a3f a4c4 813f d81c ac3e bce6 d73e
00000090: 54dd b3be 1d95 d5be bbf6 a43e ceaa 4d3f
000000a0: 1d65 cdbe 5b21 cabd 0170 3abf 37c3 253e
000000b0: da6d bdbe e51d 3f3f 47bc c6be 5107 653f
000000c0: 7c1b 9f3c b147 5ebd 7461 00bf b421 513f
000000d0: be80 a73e c4d6 d63d 13e0 643e 964f 613e
000000e0: 12df 3cbf a640 443f 833c 9abd bede 9c3e
000000f0: 6ca7 9f3f e806 433f 5643 85be 8856 35bf
00000100: 545c 853f 5a2e 94bb 62ca 933e 17c2 0b3e
00000110: d68d 293f 3a69 183f 9746 1bbf 72b1 6a3f
00000120: aa18 053e eeda f4be 1999 c63d c20a 4c3f
00000130: 9e91 2cbe fb48 8cbe 2b32 843d 2a31 56be
00000140: 7bdf 173f a396 933d 4920 6f3f 5a74 24bf
00000150: fd8e 52be a021 27be 2e28 18bf 97cf 303e
00000160: 9309 353f 7fae 923d 4f3c ebbe 7cb0 4a3f
00000170: d702 e5bd fc60 673c 5291 813f 7beb 883d
00000180: 23df 0cbf c455 d6bc 4683 043f 9a93 573f
00000190: ae90 febe a2a3 923f 79d4 19bd c114 d9bd
000001a0: 42ca c53e 4504 063f d14f 403f b6cc ae3f
000001b0: 0336 02bf ae99 a1bc 14dc a0bb 2368 fbbe
000001c0: bd43 1dbe 2bf8 0e3f 77a0 4d3f c860 37bf
000001d0: c6ef 09bf 41a6 a23e 082e 61be 98bb 263f
0.789754 -0.6257151 0.22741523 -0.024674509 -0.16885084 -0.6157634 0.80796754 0.69003314
0.37414235 0.35895455 0.77115756 -0.08285508 -0.36735195 0.33512026 -0.1740401 0.6726464
-0.2136342 -0.22095494 1.3218769 0.648741 0.66346484 -0.72443116 -0.59129405 -0.66937214
-0.5736086 0.234372 0.93222797 -0.7528466 -0.031491317 0.05507656 -0.4218761 -0.21775992
1.2107252 1.0138135 0.33615756 0.42168224 -0.35129797 -0.41715327 0.3221949 0.8033875
-0.40116206 -0.09869643 -0.72827154 0.1618775 -0.36997873 0.7465499 -0.3881552 0.8946429
0.019422285 -0.05426759 -0.501487 0.8169205 0.3271541 0.10490182 0.22351103 0.22003016
-0.7377788 0.76661146 -0.07531073 0.3063869 1.2472968 0.76182413 -0.26027936 -0.7083516
1.0418801 -0.004522127 0.28865343 0.13648258 0.6623205 0.59535563 -0.60654587 0.9167701
0.1299769 -0.4782328 0.0969717 0.79703915 -0.16852424 -0.2739943 0.06454881 -0.20917192
0.5932538 0.07206466 0.9340864 -0.6424004 -0.20562358 -0.1632142 -0.5943631 0.17266689
0.70717734 0.07162189 -0.4594445 0.79175544 -0.11182182 0.014122244 1.0122473 0.06685539
-0.5502798 -0.026163943 0.5176281 0.842096 -0.49719757 1.1456187 -0.037556145 -0.105996616
0.38630873 0.52350265 0.7512179 1.3656223 -0.50863665 -0.0197266 -0.004909048 -0.49102888
-0.15357871 0.55847424 0.80322975 -0.7163205 -0.5388149 0.31767467 -0.21990216 0.65129995

model.2.running_mean f4 [120]
00000000: 8e77 0e3e e40c f2bd b02f 58be 0129 093e
00000010: 1269 88bd 3244 cdbd ee81 36be f6e5 8e3d
00000020: 704f 03be 98a6 993d 18d5 b0bd 36e4 543c
00000030: 0217 f33d 0fc3 4abe ecc0 18bb 6ab4 1fbe
00000040: eee2 283e 2c0c 42be 0c46 7ebe 53fb a83d
00000050: 9076 283e 1e20 23be eb0b 19be 3788 91be
00000060: 925c 27be 8cc7 15bd b42c 123c 442d fabd
00000070: 1a24 a53d 227c 6bbd 9bba 143e 9a97 1abe
00000080: e974 123e 0e3c a6be 881c 9f3d c383 4f3d
00000090: abe8 963e e986 2fbe 422b 833e 206b c2bd
000000a0: 6e31 793d 947e bf3d 57fd dd3d 1541 3ebe
000000b0: ce8e 8dbc e305 e0bd 1af2 f73d 2bb3 d1bd
000000c0: 3d3d ad3b 6d6a eb3d 2425 f43c dec8 18bc
000000d0: b046 893c 2a65 823e d1c6 1b3e 9265 823e
000000e0: a2e6 4c3d c614 2e3c 68e9 8bbd 4ef8 b0bd
000000f0: 9b4e 803e eadd 2b3e 5d2f 973d 14cd 253d
00000100: e841 2fbd aa69 4f3e e3c4 17bd 417d 48bd
00000110: 8ac3 a4bd 86b2 943d 68ff 943e 638d df3c
00000120: a5d6 0d3d be7b 76be 6d7e 3c3e 284b 02be
00000130: f678 1cbe 5b96 dcbd 9086 49bd 4274 3d3e
00000140: 6a54 2f3d 54d4 a43c 2723 a53c b02f 753e
00000150: 9c8f 403d 78af ecbd 357b c6bd a596 bd3d
00000160: f6e6 283d a6d7 5d3e 1a70 d93d 568e 39be
00000170: 25f2 803b c734 10be bd32 b2bd c237 dbbd
00000180: 55e4 89be 5fa3 11bb 6177 39be 6f2d 873e
00000190: 0fd0 8b3e eca3 803e 5763 bb3d ac4a 7dbd
000001a0: c649 3dbe e7a3 1e3e e846 293e 2197 6f3d
000001b0: c823 0c3b b26d f4bd 9830 5dbe 070a 0d3e
000001c0: 7b7c 37be 8703 2c3e 39d9 863e 3c0f 783d
000001d0: 46d2 adbd 257b c5bd 1aba 783e 52af 2d3e
0.13912794 -0.11818865 -0.21111941 0.13394548 -0.066606656 -0.10022773 -0.17823002 0.06977455
-0.12823272 0.07502478 -0.086343944 0.012993863 0.11869623 -0.19800971 -0.002330835 -0.15596166
0.16492817 -0.18949956 -0.24831408 0.08251061 0.16451478 -0.1593022 -0.14945953 -0.28424236
-0.16343907 -0.036567256 0.008921791 -0.12215665 0.080635265 -0.05749143 0.1452431 -0.15096894
0.1430241 -0.32467693 0.07769114 0.050662767 0.29474387 -0.17141308 0.2561894 -0.09493089
0.060838155 0.09350315 0.10839336 -0.18579514 -0.017280009 -0.10938623 0.12106724 -0.10239252
0.005286841 0.114949085 0.029802866 -0.009325234 0.01675734 0.25467807 0.15212561 0.25468117
0.050024636 0.01062507 -0.06831628 -0.0864111 0.2505997 0.16783872 0.07382081 0.04047878
-0.042787462 0.20255151 -0.037053 -0.048947576 -0.080451086 0.07260613 0.2910111 0.027289098
0.03462853 -0.24070641 0.18407603 -0.12723982 -0.15280518 -0.107708655 -0.049200594 0.1850138
0.042805113 0.020120777 0.020158364 0.23943973 0.047011957 -0.115569055 -0.096914686 0.09257249
0.041235887 0.21664295 0.10617085 -0.18120703 0.003935116 -0.14082633 -0.08701084 -0.10703994
-0.26932016 -0.002222262 -0.18111946 0.2640185 0.27307174 0.25125062 0.09149807 -0.06183879
-0.18485174 0.15492211 0.16530955 0.058493737 0.0021383632 -0.11934985 -0.21600568 0.13773356
-0.1791858 0.1679822 0.26337603 0.060561404 -0.08487372 -0.096426286 0.24289742 0.1696141

model.2.running_var f4 [120]
00000000: 860f a83e af83 a33e 9efb c83e f1ea 163f
00000010: 0aae ac3e 8654 5c3e 4730 163f 0c83 163e
00000020: 8241 aa3e 23b9 a43e bf19 dd3e dde4 ac3e
00000030: 5315 b63e 03c2 ab3e 11c2 b03e 220a 9c3e
00000040: 8993 253e c87a 633e 0104 013f 7d92 c63e
00000050: 652d c93e e4f1 813e 1ace 803e f4cb 193f
00000060: 17f0 9d3e 821e a93e 84d4 913e 2f10 9a3e
00000070: c6d5 063f 2760 253e 0ff1 cd3e 63ce 953e
00000080: 8279 b73e 45b0 b03e 26f4 a23e df1a bb3e
00000090: 7f8f e43e 4e78 0d3f a6f3 e93e 55eb 6a3e
000000a0: b11d 023f b78c f83e bfb5 023f 70c5 953e
000000b0: de8a 803e c69a 143f e48b 053f 4544 a63e
000000c0: e2c8 dc3e 0602 b23e 9f70 e93e bcc8 cb3e
000000d0: 58ab 1c3e efc7 983e c39c 353e 0608 953e
000000e0: 91fe 143f 0805 163f 3766 f83e afd2 d33e
000000f0: 3627 013f 1812 e53e 684d c63e 8fd9 cf3e
00000100: e45f 123f d23a 0b3f 0c31 993e 6255 a13e
00000110: 016a 2c3e 7899 653e 6be2 fe3e a788 353e
00000120: a26b 973e 9656 803e e509 3c3e 9e47 9a3e
00000130: 820b da3e 8b1d 9a3e 46db 513e fdea b23e
00000140: ec18 cf3e 2554 8c3e c881 803e 685f d13e
00000150: 77be a63e cdfd e93e 9ee0 6f3e 1fb0 883e
00000160: ad6c 083f 1655 253e cbf9 033f 3a29 693e
00000170: ac88 de3e 51a2 bb3e 208b 8a3e 08a2 563e
00000180: fcfa ad3e 8686 ee3e e0c4 163f 6e52 023f
00000190: 2ef6 913e de62 033f 5d59 da3e 9fea 9d3e
000001a0: 5e52 053f b751 083f 546d 073f 38f1 fd3e
000001b0: e542 103f 5f99 ad3e 1d07 ba3e cb00 a73e
000001c0: 5abf db3e 0540 8e3e b964 e53e 89c2 613e
000001d0: 433d f43e 1cb9 983e 187c 8d3e 7ea8 543e
0.32824343 0.31936404 0.3925447 0.5895224 0.3372653 0.21516618 0.58667415 0.14698428
0.33253103 0.32172498 0.43183705 0.3376836 0.35563144 0.33546457 0.3452306 0.3047648
0.16169561 0.22214806 0.50396734 0.38783637 0.39292446 0.2537986 0.25157243 0.6007683
0.30847237 0.33031088 0.2848245 0.30090472 0.5266994 0.1614996 0.40222976 0.29259023
0.3583489 0.34509483 0.31826895 0.3654394 0.4464073 0.55261695 0.45693702 0.22941335
0.50826555 0.48544857 0.5105857 0.29252195 0.25105947 0.58048666 0.5216658 0.3247396
0.4312201 0.3476717 0.45593736 0.39801586 0.15299737 0.29840037 0.17735581 0.29107684
0.5820094 0.5860143 0.48515484 0.41371676 0.50450456 0.44740367 0.3873093 0.40595672
0.5717757 0.5438663 0.29920232 0.31510454 0.16837312 0.22421825 0.49782118 0.1772791
0.29574305 0.2506606 0.1836315 0.30132765 0.42586905 0.30100664 0.20493802 0.34944907
0.404487 0.27407947 0.25099015 0.40893102 0.32567188 0.45701447 0.23425528 0.2669687
0.53290826 0.16145739 0.5155303 0.22769633 0.43463647 0.36647275 0.2705927 0.20960248
0.33980548 0.46587008 0.5889416 0.5090703 0.28508133 0.51322734 0.42646304 0.30843064
0.5207881 0.53249687 0.52901196 0.49598098 0.5635207 0.33906075 0.36333552 0.32617792
0.42919427 0.27783218 0.44803408 0.22046866 0.4770299 0.29828727 0.2763374 0.207674

model.4.weight f4 [120, 120]
00000000: 0090 9abd 0030 9cbd 0080 27bc 0080 8abc
00000010: 00c0 d63c 00a0 8ebd 00b0 b3bd 0000 26bb
00000020: 0020 07bd 00c0 0bbd 0070 86bd 00d0 b63d
00000030: 00a0 6ebd 0050 adbd 00c0 863d 0020 3d3d
00000040: 0070 a9bd 00e0 7fbd 0000 f73b 00b0 a5bd
00000050: 0080 193c 0020 953d 00c0 ae3c 0080 37bd
00000060: 0040 9f3d 0000 a43a 00c0 0ebd 0060 833d
00000070: 0000 91bb 0040 f7bc 00b0 b4bd 0070 9e3d
00000080: 0080 16bc 00e0 1e3d 00e0 5e3d 00c0 17bd
00000090: 00a0 523d 0040 0a3d 0080 2dbc 00c0 2ebd
000000a0: 00e0 6cbd 0080 46bc 0080 423c 00e0 b93d
000000b0: 00b0 99bd 0090 883d 0000 923d 0000 643c
000000c0: 0060 373d 0090 8a3d 0040 a3bc 00c0 503d
000000d0: 0080 483d 0040 b83c 0010 833d 0080 f43c
000000e0: 00a0 873d 0030 90bd 0000 1a3c 0020 97bd
000000f0: 00a0 02bd 0020 91bd 0080 833d 00c0 a13d
00000100: 0000 0b3d 0000 763d 00c0 a6bc 00f0 95bd
00000110: 0000 92bc 0090 a53d 0080 1abd 0080 363c
00000120: 0080 473c 0000 a0b9 00f0 913d 0000 ebbb
00000130: 0040 993d 0040 b43d 0070 b7bd 0060 7ebd
00000140: 00e0 313d 0090 863d 0040 653d 0080 be3c
00000150: 00c0 39bd 00a0 323d 0000 a83d 0000 64bb
00000160: 0030 b9bd 0000 b0b9 0040 043d 0010 8f3d
00000170: 0020 8ebd 0000 25bc 0000 493d 0040 8cbd
00000180: 0080 3d3c 00e0 1d3d 0090 983d 0000 37bd
00000190: 00c0 29bd 0040 9abd 0000 793d 00d0 9bbd
000001a0: 0080 28bd 0030 a33d 0000 1b3d 0040 743d
000001b0: 00b0 aa3d 00c0 9ebd 00c0 8dbd 0080 b43c
000001c0: 0030 af3d 0070 b03d 0080 42bd 0000 13bc
000001d0: 0000 08bb 00d0 803d 00e0 8fbd 0000 5abd
000001e0: 0080 453c 00c0 1a3d 0000 4d3d 0000 55bd
000001f0: 00e0 aa3d 0080 be3c 00a0 0b3d 0000 7ebc
00000200: 0060 4abd 0000 923d 0080 86bc 0000 e33c
00000210: 0000 863b 0080 9abd 0000 36bb 0030 92bd
00000220: 00e0 1fbd 00a0 09bd 00c0 a73d 00a0 70bd
00000230: 0080 c0bc 00c0 b33c 0000 063b 0000 20bd
00000240: 0070 883d 0080 a13c 00c0 933d 0090 9ebd
00000250: 0080 24bd 0000 c6bb 00e0 213d 0000 4f3d
00000260: 0060 093d 00a0 723d 0030 abbd 0000 e8ba
00000270: 0000 253c 0000 343d 0090 9ebd 00d0 a13d
00000280: 0040 9d3d 0060 95bd 0020 193d 0040 eb3c
00000290: 0020 893d 00c0 16bd 0020 11bd 0000 323b
000002a0: 0080 973d 0080 b6bd 0080 99bc 0080 9b3c
000002b0: 0030 a63d 00c0 813c 00c0 02bd 0060 3fbd
000002c0: 0000 17bd 0020 883d 0050 9abd 0080 d63c
000002d0: 0040 cabc 0000 123b 0080 a53d 00e0 b8bd
000002e0: 0050 ac3d 0020 11bd 0000 ea3b 0030 ad3d
000002f0: 0060 3d3d 0020 4f3d 0000 523b 0040 b3bd
00000300: 0020 a4bd 00a0 113d 0030 a8bd 00c0 ccbc
00000310: 0000 dfbc 0080 81bd 0020 013d 0080 8b3d
00000320: 0080 673d 0060 7c3d 00f0 a33d 0000 f83b
00000330: 00c0 09bd 0000 ee3b 0040 e33c 0030 853d
00000340: 0030 9fbd 0060 52bd 0040 e6bc 0040 b0bd
00000350: 00a0 34bd 00a0 833d 0000 99bb 0060 3f3d
00000360: 0080 8fbc 0080 583d 0070 b6bd 0020 7fbd
00000370: 00c0 d4bc 00d0 853d 0000 453d 0010 923d
00000380: 0080 13bc 00e0 133d 0010 82bd 00a0 3d3d
00000390: 00c0 72bd 00c0 11bd 0080 a33c 0040 d83c
000003a0: 00c0 033d 0000 85bb 0030 883d 0040 073d
000003b0: 0000 a1bb 0080 00bd 00a0 15bd 00a0 7abd
000003c0: 00c0 31bd 0020 033d 0040 1bbd 0080 523c
000003d0: 00d0 aabd 0060 b03d 00d0 a5bd 0000 a93c
000003e0: 00a0 4abd 0000 90bc 00f0 953d 00c0 6b3d
000003f0: 00a0 373d 0000 983a 0000 4abd 0080 f5bc
-0.07546997 -0.07626343 -0.010223389 -0.016906738 0.0262146 -0.06964111 -0.08773804 -0.002532959
-0.032989502 -0.034118652 -0.06564331 0.089263916 -0.058258057 -0.084625244 0.0657959 0.046173096
-0.082733154 -0.062469482 0.007537842 -0.0809021 0.0093688965 0.07281494 0.021331787 -0.044799805
0.07775879 0.0012512207 -0.034851074 0.06414795 -0.004425049 -0.030181885 -0.08822632 0.07736206
-0.009185791 0.03878784 0.05441284 -0.03704834 0.05142212 0.03375244 -0.0105896 -0.042663574
-0.05783081 -0.0121154785 0.011871338 0.09075928 -0.075042725 0.06668091 0.07128906 0.013916016
0.044769287 0.06765747 -0.019927979 0.050964355 0.048950195 0.022491455 0.06399536 0.029846191
0.066223145 -0.07040405 0.009399414 -0.073791504 -0.03189087 -0.07086182 0.064208984 0.07897949
0.033935547 0.060058594 -0.020355225 -0.07321167 -0.017822266 0.080841064 -0.037719727 0.011138916
0.012176514 -0.00030517578 0.071258545 -0.007171631 0.0748291 0.088012695 -0.08956909 -0.06210327
0.043426514 0.065704346 0.05596924 0.023254395 -0.04534912 0.04360962 0.08203125 -0.003479004
-0.090423584 -0.00033569336 0.032287598 0.06985474 -0.06939697 -0.010070801 0.049072266 -0.068481445
0.011566162 0.0385437 0.07449341 -0.044677734 -0.04144287 -0.07531738 0.060791016 -0.07608032
-0.041137695 0.0796814 0.037841797 0.059631348 0.083343506 -0.07751465 -0.06921387 0.022033691
0.08554077 0.08615112 -0.04748535 -0.008972168 -0.0020751953 0.06289673 -0.070251465 -0.053222656
0.012054443 0.03778076 0.050048828 -0.052001953 0.08343506 0.023254395 0.034088135 -0.01550293
-0.04940796 0.07128906 -0.016418457 0.027709961 0.0040893555 -0.07543945 -0.0027770996 -0.071380615
-0.039031982 -0.033599854 0.08190918 -0.058746338 -0.023498535 0.021942139 0.0020446777 -0.0390625
0.06661987 0.019714355 0.072143555 -0.077423096 -0.040161133 -0.0060424805 0.039520264 0.05053711
0.03353882 0.05923462 -0.08358765 -0.0017700195 0.010070801 0.043945312 -0.077423096 0.07901001
0.07678223 -0.07293701 0.037384033 0.028717041 0.06695557 -0.0368042 -0.03543091 0.0027160645
0.07397461 -0.08911133 -0.018737793 0.018981934 0.08114624 0.015838623 -0.031921387 -0.046722412
-0.036865234 0.066467285 -0.0753479 0.026184082 -0.02468872 0.0022277832 0.08081055 -0.090270996
0.08413696 -0.03543091 0.0071411133 0.08456421 0.04623413 0.050567627 0.0032043457 -0.087524414
-0.08013916 0.03555298 -0.0821228 -0.024993896 -0.02722168 -0.06323242 0.03152466 0.068115234
0.056518555 0.06161499 0.08004761 0.0075683594 -0.03363037 0.0072631836 0.027740479 0.06503296
-0.07772827 -0.051361084 -0.02810669 -0.08605957 -0.0440979 0.06427002 -0.0046691895 0.046722412
-0.01751709 0.052856445 -0.08908081 -0.062286377 -0.025970459 0.065338135 0.048095703 0.07131958
-0.009002686 0.036102295 -0.06350708 0.046295166 -0.059265137 -0.035583496 0.019958496 0.026397705
0.032165527 -0.004058838 0.0664978 0.03302002 -0.00491333 -0.03137207 -0.03652954 -0.061187744
-0.043395996 0.03201294 -0.037902832 0.0128479 -0.08340454 0.086120605 -0.080963135 0.020629883
-0.049468994 -0.017578125 0.07321167 0.057556152 0.044830322 0.001159668 -0.049316406 -0.029968262

model.4.bias f4 [120]
00000000: 6889 af3d 87d6 45bc e203 b13d 2701 a9bd
00000010: 093f 903c 252e 2abd 1094 793d 6077 9a3d
00000020: 8f30 ae3d e544 ff3c 58b7 b63c f0e2 6d3d
00000030: 617c 24bd 46ad 89bd 5214 9c3d 629c 8dbd
00000040: 2a91 32bd a06e 5bbc 8e29 333c 2b96 a3bd
00000050: c966 44bd 0ac6 863d 3e68 46bd 3755 803d
00000060: 847b a13d 212c a9bd b121 133d f3a5 9fbd
00000070: 2330 763d 2386 62bd 15f2 993d 00a2 263d
00000080: 8418 6fbd 7810 6ebd 21cb 4b3d 75e5 98bd
00000090: 263a 503c c773 39bc b328 353d bc78 883d
000000a0: 232c 443d be5e 83bd 7b46 d4bc 123f 903d
000000b0: b058 973d f82a 9bbd dec1 49bd 70d5 babd
000000c0: 1b02 27bc e097 9d3c d1eb 703c 482c 1e3d
000000d0: d678 7d3d 349e 85bd 11cc 523d d599 163d
000000e0: c743 6ebc a6ed 81bd 5acc 2ebd cc05 9bbd
000000f0: 79d7 27bd 197a 383d 8d33 573d f13a acbd
00000100: aae6 efbc d317 d4bc b800 8fbc 0a42 18bc
00000110: fc53 58bd b0c1 6bbd 2c95 96bd 54b2 7e3d
00000120: 6f24 8d3d 6cf7 633d acdc 83bd 6400 413d
00000130: 2d07 233b ca81 94bd 04d0 abbd 8073 8fbd
00000140: 3dcc 37bd a841 b9bd 6a58 db3c 899b acbd
00000150: ecda ad3d b8c3 863d e19b a7bd 7807 7b3b
00000160: 66a1 9ab8 30a9 633d dafa 66bc c67a 48bd
00000170: da55 71bd ffcf 8bbd 9173 7b3d 6736 1c3c
00000180: c0fe a5bd 6fef f5bc ecb8 b43d 724b 48bd
00000190: 39dc 01bd a737 4fbd 6e98 85bc e8b8 a23d
000001a0: 447a 3d3c 6f81 7fbd 7bea ed3c 18c2 963d
000001b0: a110 b03d 1212 77bd 83aa 95bd 72b5 9abd
000001c0: 74af 693d 35f7 053d 2377 3f3c 0f26 313d
000001d0: 7529 993d bf8c 84bd 5019 4a3d 9c87 983c
0.0857113 -0.012075073 0.08643319 -0.08252173 0.017608183 -0.041547913 0.06093222 0.075423
0.085053556 0.031160781 0.022304222 0.058077753 -0.04015768 -0.067225024 0.07621063 -0.06914593
-0.04359547 -0.013393074 0.0109352 -0.07987627 -0.047949586 0.06580742 -0.048439257 0.062662534
0.07884887 -0.0826037 0.035920803 -0.07795324 0.0601045 -0.055303704 0.075168766 0.04068184
-0.05837299 -0.058121175 0.049754266 -0.074656405 0.012709176 -0.011319107 0.044228267 0.06663653
0.047893655 -0.06414555 -0.025912514 0.0704328 0.07389963 -0.07576555 -0.04925715 -0.09122741
-0.010193373 0.019237459 0.0147046605 0.03861645 0.061882816 -0.065243155 0.051464144 0.0367678
-0.014542527 -0.06344156 -0.042675354 -0.07569465 -0.040976975 0.045038316 0.052539397 -0.0840968
-0.029284794 -0.025890267 -0.017456397 -0.009293089 -0.05281447 -0.05755776 -0.07352671 0.062181786
0.06891715 0.05565588 -0.06438574 0.047119513 0.0024876103 -0.07251318 -0.08389285 -0.07004452
-0.04487251 -0.09045726 0.026775558 -0.084281035 0.08489022 0.06580299 -0.081840284 0.0038304012
-7.373355e-05 0.05558127 -0.014097894 -0.04894521 -0.058919765 -0.068267815 0.06138951 0.009534455
-0.0810523 -0.030021397 0.088243335 -0.048900075 -0.03170416 -0.050590184 -0.016308036 0.07945424
0.011564795 -0.062379297 0.029042473 0.07361239 0.08596922 -0.060319968 -0.07307913 -0.07554139
0.05705209 0.032706458 0.011686119 0.043249186 0.074786104 -0.06472158 0.049340546 0.018619351

model.5.weight f4 [120]
00000000: d96c 523f 5316 a43f e253 6b3e 5f9a bb3f
00000010: 7a24 cd3f 166b c03f ec64 ff3e 1624 8f3f
00000020: 818a 6c3f 51c9 9a3f 671e bc3e 4673 013f
00000030: 8b8f db3e c490 eb3e ed4e 753f 6252 9a3f
00000040: 55bb 0e3f f5f7 423f 1db0 213e 7f76 ab3e
00000050: 51cc 6f3f d0cb ee3f aad1 8f3f f2d9 3b3f
00000060: cf2a 093f 8098 5d3f ff9d b33f f39c 6c3f
00000070: 6bbd d03e 4a31 ae3f c273 693f 02c2 053f
00000080: 59d4 233e 36fa a73f bcfe 4d3f 6346 d53e
00000090: 6c9d 6e3e cce2 ab3f d70a c93f 7084 b53e
000000a0: 69db 683e 23ee 0a3f be41 933e 62ce 703f
000000b0: b0aa ba3e 45cf 093f e5e9 6e3f 1921 893e
000000c0: 26a5 8a3f c681 3f3f cbeb a53f 97f0 433f
000000d0: 6a71 183f cddc f63e 6054 803f b9ca 433f
000000e0: 5bde 8a3f 1224 033f 7777 753f 5354 6d3e
000000f0: c966 403f bbfc 343f ee42 793f 1232 8b3f
00000100: 39ff 8b3f f221 7f3f 269e 5d3e 2b24 863e
00000110: e90c 8a3f acd7 a33f 6740 0440 9f92 753f
00000120: abd6 f03e 07d8 c93f 8221 983f e498 a63f
00000130: 46b3 403f ce6d 4f3e 1b20 653e 07fc 973f
00000140: a8d9 513f 3773 df3e 0180 323f a632 853f
00000150: 6a38 3a3f c89d e83e 4fbe 793f fec6 953f
00000160: 731a 2a3f cba4 6a3e dc35 4b3f 74a9 743f
00000170: f9e0 393f 0c81 3a3f cea7 2c3f a216 e13e
00000180: 96ed 783f 88ec 0e3e d5a7 5f3f ad55 833f
00000190: 77bb 603f bb5d 7e3f 61de b33e 3b17 aa3f
000001a0: 2be7 523f 661e 5d3f a527 983f d45b ac3f
000001b0: 5a97 a03f 6149 a03f c2fe 3d3f 3dad 6d3f
000001c0: 0e9c 6a3f ff27 603f a7a6 473f b585 483f
000001d0: d952 333f 18f5 023f fe9a 223f b705 533f
0.8219734 1.2819313 0.22981218 1.4656485 1.6026757 1.503268 0.49881685 1.1182888
0.9239884 1.2092687 0.36741945 0.5056652 0.42882952 0.46008885 0.95823556 1.2056391
0.55754596 0.761596 0.15789838 0.33488843 0.9367114 1.8655949 1.1235859 0.73379433
0.53580946 0.8656082 1.4032592 0.92426986 0.40769514 1.3608792 0.9119226 0.5224916
0.15998973 1.3123233 0.8046682 0.41655263 0.23302239 1.3428588 1.5706433 0.35452604
0.22739948 0.5426962 0.28761095 0.94064915 0.3645835 0.53831893 0.93325645 0.26783064
1.0831649 0.74807394 1.2962583 0.76538986 0.59548056 0.48215333 1.0025749 0.76481205
1.0849108 0.51226914 0.95885414 0.23176698 0.7515684 0.70698136 0.9736775 1.0874655
1.0937263 0.9966117 0.2164236 0.2619947 1.078519 1.2800193 2.0664308 0.9592685
0.4703878 1.5769051 1.1885226 1.3015409 0.7527355 0.20256731 0.22375529 1.1873788
0.8197274 0.4364259 0.6972657 1.0406082 0.7274233 0.45432878 0.9755601 1.1701353
0.6644661 0.22914426 0.7937906 0.95571065 0.72608906 0.7285316 0.6744355 0.4396258
0.9723753 0.13957417 0.87365466 1.0260521 0.8778605 0.9936177 0.351306 1.3288339
0.82383984 0.8637451 1.1887099 1.3465524 1.2546189 1.2522393 0.74216855 0.92842466
0.9164437 0.8756103 0.77988666 0.7832902 0.7004829 0.51155233 0.6351775 0.82430595

model.5.bias f4 [120]
00000000: e90d d0be 3143 b03e e59d 26bf 5361 983f
00000010: d7c4 4b3c b8b5 933e 9ac0 b9be 566d 4d3f
00000020: be21 57bc 4a1a 623e 24a5 1f3d 3197 ab3e
00000030: 31e1 21bf 5df2 4abe 1001 c03d 5f3c 443f
00000040: 18f7 bcb8 a8d1 03be 1440 28bf 02e4 e2bc
00000050: 7bb2 383f 3980 073f 3999 a73d 5ea5 67be
00000060: 5a00 84bd d7b5 a43e 4516 dbbd cbe2 8b3e
00000070: d741 ffbe 336d 103f 22b0 59be 826a c4be
00000080: 82b5 30bf f040 5f3f dab8 c2be 649d 10bf
00000090: 22da 40bf dc96 cbbd 0f1f db3e bb6c e43e
000000a0: 5b92 db3e d6bc 22be 9c5a 36be 712b a73e
000000b0: 20e5 f3be a132 fbbe cd15 643e 6f6e 3abf
000000c0: 2669 adbe 6406 2d3f ab2e f73e c274 b33e
000000d0: ce27 9fbe d6ad e6bd cb3d 23be 03be 273f
000000e0: c792 843f 8bb1 9abe fc73 673f 7c41 34bf
000000f0: dd8e 593e 7248 54be dc37 813f 7e84 70be
00000100: bb4f d73e 75a3 b23d 4921 ffbe 1b04 01bf
00000110: 9455 0e3f aa94 ad3f 140b 853f 4450 f83e
00000120: 66e5 a7be 586c ea3e 3979 603e af96 463e
00000130: 74f8 353f d11a 40bf bd10 3abf 6f98 df3e
00000140: fb43 a53d b537 20bf 1465 4dbe 7b92 003f
00000150: fd71 1c3e f5ab 4cbe 6e6e a0be 9ab1 9a3e
00000160: ea46 a43d dedd 32bf 8929 2c3f c0f3 293d
00000170: 2548 773e efe9 03bf 9a45 72be 99e0 b53d
00000180: bc99 723f 3eff 0ebf e8b3 163e db15 273f
00000190: 44f3 97be acd1 353f a8ee f1be bdf5 863f
000001a0: d018 90be 9bcb 72be 6d06 713f cdde e93e
000001b0: 8a8f c1bb 4aa9 6d3e 20f8 babe 5ea0 923e
000001c0: ce29 123f f7d0 87be 42d0 25bd b43a 1e3f
000001d0: 9510 00bf 8295 39bf 27a3 3abe 0146 a1bd
-0.40635613 0.34426263 -0.6508468 1.1904701 0.012437067 0.28849578 -0.36279756 0.8024496
-0.013130603 0.22080341 0.03897585 0.33513787 -0.6323424 -0.19819017 0.09375203 0.7665462
-9.0105634e-05 -0.12872946 -0.65722775 -0.027696613 0.7214734 0.5293003 0.08183522 -0.22621676
-0.064453796 0.32169983 -0.10697607 0.27321467 -0.4985492 0.56416625 -0.21258596 -0.3836251
-0.6902696 0.8720846 -0.38031656 -0.5649016 -0.75332844 -0.099408835 0.42797133 0.44614205
0.42885098 -0.15892348 -0.17808002 0.3265033 -0.47635746 -0.49062064 0.22273941 -0.7282476
-0.33869284 0.67587876 0.48277792 0.35050017 -0.31085056 -0.11263625 -0.15941541 0.6552431
1.0357293 -0.3021358 0.90411353 -0.7041242 0.21245904 -0.2073076 1.0095172 -0.23488042
0.42053017 0.08722583 -0.49830082 -0.5039689 0.5559933 1.3560994 1.0394006 0.48498738
-0.32792205 0.45785785 0.21921243 0.19393419 0.71082234 -0.7504092 -0.7268179 0.43670985
0.08069607 -0.62585 -0.2005809 0.5022351 0.15277858 -0.19987471 -0.3133425 0.30213624
0.08021338 -0.6986979 0.6725088 0.041492224 0.24148615 -0.5152883 -0.23659363 0.08880729
0.9476583 -0.5585822 0.14717066 0.65267724 -0.29677784 0.7102306 -0.47252393 1.0543743
-0.2814393 -0.23710482 0.9415043 0.45677796 -0.005907004 0.2320911 -0.3651743 0.28637975
0.5709504 -0.26526615 -0.040481813 0.61808324 -0.500253 -0.72493756 -0.182263 -0.0787468

model.5.running_mean f4 [120]
00000000: 292e 2ebc fae7 9d3e a06c d7be 9a7e 073e
00000010: 3674 013f 00fa 0d3f f9f1 a53d 93b9 9f3e
00000020: 0088 a83e 70de b6bc 79ba ad3e 1c13 993e
00000030: 062e 593e 72d6 37bf ad9e 393e d0a6 18bd
00000040: 572a dcbb 2ef8 8dbe c399 f5be d9a8 89bd
00000050: 2e9f 103f a2c0 103f 582a 29bc da78 9bbe
00000060: 6ab5 d23e 8a9f 8f3c 6f7c 883d 54c8 52bd
00000070: a2d8 5e3d 71bc e33e a6f4 bc3d 5a6b 9bbe
00000080: e07c 943e 671e 55be 6a8f bb3e b3cb adba
00000090: 841f ef3d 20af d53d 4357 143d 5af9 f13e
000000a0: 6319 333e 34af b6be 76e1 c23d 4620 2f3f
000000b0: 5090 cf3e 140f 533d f4a0 32bc 42a3 d9bd
000000c0: 41af dabd 6e67 0ebf 5eef c3bc afc1 03bf
000000d0: 4813 4b3d f033 80be f3d4 48bf bae4 92bd
000000e0: cede 57bd bbc7 42be da7b 0bbe d689 3cbf
000000f0: 20c9 ba3c 0099 303e 3ede cc3e 952e ef3d
00000100: 6510 b53e af0e e4be 47ed b03e a1de 0abf
00000110: 5beb c03a bac3 2fbe 5102 a6be 4608 fe3d
00000120: b0e7 94bf 8e06 83bd c880 133e 55b1 b13e
00000130: 140e 973b df62 f33e 733f b1be 5e0f 64bf
00000140: e766 9abe 4601 02bb 1000 dcbc 2e64 413d
00000150: 04db 15be 2918 953d 3ac1 583e 8acc 153f
00000160: e0ac e4bc 2312 8b3a f07a ba3e b9a1 13bf
00000170: 1727 543e dae6 a33d e211 9f3e b36c 723e
00000180: a5c1 8dbe 4248 e8bd 942e 83be 0335 88bd
00000190: bc94 14bf 6ea2 09be 6b11 023f a758 4b3d
000001a0: d2be 9d3e 33fc 0fbf 607e a63d 666d be3e
000001b0: cc83 373f cba3 5f3f 2247 bebd a554 233e
000001c0: 5bfe 0d3e f144 4d3e 0103 853e 5c72 0e3f
000001d0: 88d0 9dbe 41a7 92be e7c4 f33e d1c5 84bd
-0.010631123 0.30841047 -0.42075062 0.13231888 0.5056795 0.55459595 0.08102793 0.3119627
0.3291626 -0.022322863 0.3393133 0.29897392 0.21208963 -0.7181159 0.18126936 -0.03726846
-0.0067189145 -0.2772841 -0.47968873 -0.06721658 0.5649289 0.56543934 -0.010325037 -0.3036564
0.41154033 0.017532129 0.06664359 -0.05146058 0.054405816 0.44479707 0.092263505 -0.3035534
0.29001522 -0.20812379 0.36632854 -0.001325956 0.11675933 0.10433793 0.03621603 0.47260553
0.17490153 -0.35680544 0.095156595 0.6840862 0.4053979 0.05152805 -0.010902632 -0.10626842
-0.10677958 -0.5562657 -0.02391785 -0.5146741 0.049578935 -0.25039625 -0.78449935 -0.071725324
-0.052702717 -0.19021504 -0.13621464 -0.7364782 0.022800982 0.17245865 0.40013307 0.11678807
0.3536407 -0.44542453 0.34556028 -0.54245955 0.0014718579 -0.17164508 -0.32423642 0.12403922
-1.1633205 -0.063977346 0.14404595 0.34705606 0.0046098325 0.4753637 -0.3461872 -0.8908595
-0.30156633 -0.0019837185 -0.026855499 0.04721468 -0.14634329 0.07279999 0.2116746 0.58515227
-0.027914464 0.0010610264 0.3642192 -0.57668644 0.20718037 0.08003016 0.3106833 0.23674278
-0.27686802 -0.11341907 -0.25621474 -0.06650736 -0.5803945 -0.13440868 0.5080783 0.049645092
0.30809647 -0.562442 0.08129573 0.3719284 0.7168548 0.87359303 -0.09290911 0.15950258
0.1386656 0.2004583 0.25978854 0.5564325 -0.3082316 -0.2864323 0.47611162 -0.06483043

model.5.running_var f4 [120]
00000000: 0268 ac3d 6498 363e bafd bf3d 37ed 103e
00000010: da67 db3d e2ad 113e 1c89 a93d 20d4 af3d
00000020: 20f1 233e 47c8 ce3d a97a 273e fbf3 fa3d
00000030: 42a2 e93d 7175 a93d 65dd d43d 06b3 963d
00000040: 76e9 6c3d 6782 1a3e c91c 223e f50e 303e
00000050: 1d94 eb3d e22d 9d3d 9c72 c43d b1c0 9e3e
00000060: c342 403e 9ed9 dd3d 66d1 bf3d 2fd2 a33d
00000070: db5f 213e 3396 863e fd9c 353e 5816 a23d
00000080: 6c40 dd3d 901e 113e 135e 613e 09f4 9b3d
00000090: 0749 c93d c45d c43d d89b 3e3d e69d 283e
000000a0: 02a5 093e 06c1 6a3d 804b 8f3d fd33 913d
000000b0: 2f53 a83d fb9d bc3d 2ad0 c73d 8fe2 223e
000000c0: 0907 843d af3f 493e 90b1 a43d 6d7d 103e
000000d0: 54b8 933d b7b0 9e3d 431f 603e 4c80 2d3e
000000e0: 514d 9d3d 89d8 033e 9942 853e f6e0 373e
000000f0: 289a a63d 56ce fc3d ef69 8b3d 0384 e93d
00000100: 2aa6 013e d295 8b3e 9d48 8a3e 86d0 c73d
00000110: 2c03 b13d 381b 3e3e 91b5 4f3e ff5d 2d3e
00000120: c2ef b53e 7fe1 de3d b22b e23d 0d01 273e
00000130: 9249 f13d 0586 f43d 32dd d43d 7d6c 053e
00000140: 0525 8c3d 7345 ae3d 538d 633e b3b2 ac3d
00000150: 76f2 e83d fd3c 0b3e 0ac1 df3d 9f78 0b3e
00000160: 2fe6 0a3e 3cb6 213e fe63 653e 1455 743e
00000170: d2d4 3f3e 11d1 d43d a4b8 213e e5d1 0b3e
00000180: 377b 123e b054 313e 2b99 6d3e 1451 e63d
00000190: 82bd 283e dc16 c93d 8f4b 063e 34e8 df3d
000001a0: e6a0 d13d 4dff 043e 5212 fc3d 750c 183e
000001b0: 761e 1a3e d1e5 b53d 1163 aa3d d1dc 033e
000001c0: c3ac 183e 3035 b63d 28ab b93d 9618 643e
000001d0: 9078 b33d 9f45 1f3e 75c6 0c3e 5316 a43d
0.084182754 0.1783157 0.093745664 0.1415299 0.107131675 0.14226487 0.08278105 0.085853815
0.1600995 0.100967936 0.16355385 0.12253567 0.11407901 0.08274353 0.1039379 0.07358365
0.057839833 0.15088807 0.15831293 0.17193206 0.1150286 0.07674767 0.095921725 0.31006387
0.18775468 0.10832523 0.093661115 0.07999074 0.15759222 0.26286468 0.17735668 0.07914418
0.10803303 0.14171815 0.22008543 0.076149054 0.09828382 0.09588197 0.046535343 0.16466483
0.13441852 0.057312988 0.06996822 0.07089994 0.08218991 0.0920982 0.09756501 0.15906738
0.06446654 0.196532 0.0804168 0.14110346 0.07212892 0.077485494 0.21886925 0.16943473
0.076807626 0.1287557 0.26027372 0.1795691 0.08134872 0.12344043 0.068073146 0.11402132
0.12661043 0.2726274 0.27008525 0.097565696 0.08643183 0.1856507 0.20284106 0.16930388
0.35534483 0.10882854 0.110434905 0.16308995 0.117816105 0.11939625 0.10393752 0.13029666
0.068429984 0.0850934 0.2222188 0.08432522 0.11374371 0.13597484 0.10925491 0.13620232
0.1356437 0.15792173 0.22401425 0.2386058 0.18733528 0.10391439 0.15793091 0.13654287
0.14304815 0.17317462 0.2320296 0.11245933 0.16478541 0.09818813 0.13114761 0.10932961
0.10235767 0.12988015 0.12308182 0.14848502 0.15050682 0.088817246 0.08319677 0.12877204
0.14909653 0.088968635 0.090658486 0.22275004 0.0876323 0.15553902 0.1374758 0.080120705

model.7.weight f4 [120, 120]
00000000: 0030 a23d 0080 203d 0000 643c 0010 85bd
00000010: 0000 8b3b 0000 74bc 00c0 573d 0040 c6bc
00000020: 00c0 17bd 0040 b4bd 00c0 5fbd 0040 abbd
00000030: 0000 f03b 00b0 90bd 0000 9e3d 0040 6f3d
00000040: 00a0 603d 0040 f9bc 0000 4a3b 0020 29bd
00000050: 0040 3f3d 00c0 f7bc 0000 0c3d 00e0 a3bd
00000060: 00e0 47bd 0040 f1bc 0000 de3c 00c0 3a3d
00000070: 0040 b13d 00a0 653d 0000 df3b 0030 9d3d
00000080: 0000 b7bc 0070 ab3d 0000 e4ba 00c0 343d
00000090: 0050 b4bd 0000 983b 0030 abbd 0020 2cbd
000000a0: 00a0 b93d 0020 6ebd 0090 b33d 0060 723d
000000b0: 0000 0fbd 00b0 a8bd 00c0 5d3d 00b0 a83d
000000c0: 0060 1c3d 00c0 bdbc 0000 013c 00a0 23bd
000000d0: 0080 54bd 0060 1cbd 00a0 233d 0020 833d
000000e0: 00c0 96bc 00c0 05bd 0060 4b3d 0080 413d
000000f0: 0000 9c3c 00c0 87bd 00c0 5bbd 0060 9d3d
00000100: 0020 b8bd 0000 6ebc 0080 2abc 0080 97bc
00000110: 0000 90bb 00a0 943d 00a0 9e3d 0040 093d
00000120: 00e0 0dbd 00b0 83bd 0000 483a 0000 f2bc
00000130: 00a0 79bd 0030 913d 0060 6d3d 0080 713d
00000140: 0030 b43d 0000 863b 0020 023d 00c0 a3bc
00000150: 0040 2b3d 0080 9ebd 00c0 31bd 00d0 9a3d
00000160: 0030 b4bd 0060 aa3d 0070 af3d 00c0 51bd
00000170: 0000 893b 0040 4fbd 0000 583c 00d0 963d
00000180: 0000 733c 00c0 9c3d 0080 a5bc 0000 18ba
00000190: 0000 afbd 0080 593c 00a0 343d 0040 1f3d
000001a0: 0000 e0b9 0080 28bd 0020 053d 00c0 6f3d
000001b0: 0000 7ebb 0060 a4bd 0040 823c 0040 dd3c
000001c0: 00a0 89bd 0020 2abd 0080 093d 0000 563c
000001d0: 00d0 b53d 0080 153d 00c0 823c 0060 5abd
000001e0: 0040 233d 0080 b33d 0080 40bc 0040 9b3d
000001f0: 00a0 753d 0080 39bc 00c0 6d3d 0000 9f3b
00000200: 00e0 51bd 0000 dd3c 00e0 52bd 00c0 b43c
00000210: 0060 59bd 0040 893c 00a0 02bd 00e0 283d
00000220: 0010 8bbd 0050 8b3d 0000 963d 00a0 5abd
00000230: 0000 b63c 0000 c7bc 00e0 793d 00f0 883d
00000240: 00c0 733d 0060 96bd 00c0 12bd 00f0 92bd
00000250: 0010 8bbd 0060 a6bd 00f0 b03d 00e0 59bd
00000260: 00a0 6a3d 0020 38bd 0040 28bd 0040 78bd
00000270: 00c0 01bd 00a0 5fbd 00c0 4bbd 0010 833d
00000280: 0020 2cbd 0000 d73b 00c0 4dbd 00a0 4fbd
00000290: 0070 8dbd 0040 58bd 00c0 7abd 00e0 65bd
000002a0: 0040 6b3d 00c0 8a3c 00c0 a8bc 0080 6bbc
000002b0: 0080 f2bc 00c0 903d 00e0 21bd 0080 9b3d
000002c0: 0030 9f3d 0080 6bbc 00e0 03bd 0040 333d
000002d0: 0000 143d 0000 253d 0040 18bd 0000 da3c
000002e0: 0000 48bd 0090 84bd 0080 e0bc 0040 7b3d
000002f0: 00f0 afbd 0080 a13d 00a0 173d 00c0 753d
00000300: 0090 823d 00e0 28bd 00c0 a33c 0000 efbb
00000310: 00e0 4b3d 00e0 49bd 0080 113c 0000 c83a
00000320: 0000 a83a 00e0 4b3d 0000 b43b 00c0 3c3d
00000330: 00c0 b23d 0060 6f3d 00d0 a4bd 0060 75bd
00000340: 0030 9abd 0020 2fbd 00b0 b63d 0090 ba3d
00000350: 0000 9a3d 00d0 a73d 0060 6a3d 00a0 aabd
00000360: 0000 a8bb 00c0 b73d 0000 89bb 00a0 873d
00000370: 00c0 d63c 00e0 3d3d 00d0 a4bd 0000 8abd
00000380: 0040 4a3d 0060 1e3d 0080 8fbd 0000 853d
00000390: 00e0 0e3d 00d0 963d 0050 8dbd 0000 833c
000003a0: 0040 93bc 0010 94bd 0080 6dbc 00c0 f2bc
000003b0: 0000 f63b 0060 103d 0000 a8bb 0040 4abd
000003c0: 0000 14bd 0040 51bd 0020 26bd 0000 2abd
000003d0: 0070 9b3d 0060 1abd 0000 963b 00a0 8fbd
000003e0: 0070 a3bd 00e0 0e3d 0080 47bd 0000 6abd
000003f0: 0000 0a3c 0080 89bc 0020 94bd 00e0 73bd
0.079193115 0.03918457 0.013916016 -0.064971924 0.0042419434 -0.014892578 0.05267334 -0.02420044
-0.03704834 -0.088012695 -0.054626465 -0.083618164 0.0073242188 -0.07064819 0.07714844 0.058410645
0.054840088 -0.030426025 0.0030822754 -0.041290283 0.046691895 -0.03024292 0.034179688 -0.08001709
-0.048797607 -0.029449463 0.02709961 0.04559326 0.08654785 0.05606079 0.00680542 0.07675171
-0.022338867 0.08370972 -0.001739502 0.044128418 -0.08804321 0.004638672 -0.08358765 -0.042022705
0.09063721 -0.058135986 0.087677 0.059173584 -0.03491211 -0.08236694 0.054138184 0.08236694
0.03817749 -0.023162842 0.007873535 -0.03994751 -0.051879883 -0.03817749 0.03994751 0.06402588
-0.0184021 -0.03265381 0.0496521 0.04724121 0.019042969 -0.06628418 -0.053649902 0.07684326
-0.089904785 -0.014526367 -0.010406494 -0.018493652 -0.0043945312 0.0725708 0.07745361 0.0335083
-0.03463745 -0.06430054 0.00076293945 -0.029541016 -0.060943604 0.070892334 0.05795288 0.05895996
0.08798218 0.0040893555 0.0317688 -0.019989014 0.041809082 -0.07739258 -0.043395996 0.07559204
-0.08798218 0.08319092 0.08566284 -0.051208496 0.004180908 -0.050598145 0.013183594 0.073638916
0.014831543 0.076538086 -0.020202637 -0.000579834 -0.08544922 0.0132751465 0.0440979 0.038879395
-0.0004272461 -0.041137695 0.03250122 0.058532715 -0.0038757324 -0.08026123 0.015899658 0.027008057
-0.06719971 -0.041534424 0.033569336 0.013061523 0.088775635 0.036499023 0.015960693 -0.05331421
0.039855957 0.087646484 -0.011749268 0.075805664 0.05996704 -0.0113220215 0.058044434 0.004852295
-0.051239014 0.026977539 -0.051483154 0.022064209 -0.05307007 0.01675415 -0.03189087 0.041229248
-0.06790161 0.06802368 0.07324219 -0.053375244 0.022216797 -0.024291992 0.06100464 0.06686401
0.059509277 -0.07342529 -0.035827637 -0.071746826 -0.06790161 -0.08123779 0.08639526 -0.05319214
0.057281494 -0.044952393 -0.04107666 -0.06060791 -0.031677246 -0.054595947 -0.049743652 0.06399536
-0.042022705 0.0065612793 -0.050231934 -0.050689697 -0.06906128 -0.05279541 -0.06121826 -0.056121826
0.057434082 0.016937256 -0.020599365 -0.014373779 -0.02960205 0.07067871 -0.039520264 0.075927734
0.07772827 -0.014373779 -0.032196045 0.043762207 0.036132812 0.040283203 -0.03717041 0.026611328
-0.048828125 -0.06472778 -0.027404785 0.061340332 -0.08590698 0.07885742 0.037017822 0.05999756
0.06375122 -0.041229248 0.019989014 -0.007293701 0.04977417 -0.04928589 0.008880615 0.0015258789
0.0012817383 0.04977417 0.005493164 0.046081543 0.08728027 0.058441162 -0.08047485 -0.059906006
-0.075286865 -0.042755127 0.08920288 0.09109497 0.07519531 0.0819397 0.05722046 -0.08331299
-0.005126953 0.08972168 -0.004180908 0.066223145 0.0262146 0.0463562 -0.08047485 -0.06738281
0.04937744 0.03866577 -0.07006836 0.064941406 0.03488159 0.073638916 -0.069000244 0.015991211
-0.017974854 -0.07229614 -0.01449585 -0.029632568 0.007507324 0.035247803 -0.005126953 -0.04937744
-0.036132812 -0.051086426 -0.04055786 -0.041503906 0.07589722 -0.03768921 0.0045776367 -0.070129395
-0.07980347 0.03488159 -0.048706055 -0.057128906 0.008422852 -0.016784668 -0.07232666 -0.059539795
