neural_networks/fixed_point_6_6_layers_3334_sd.pt (torch, 141469 bytes, 24 tensors)

model.1.weight f4 [120, 16]
0	0x3e000000	0.125
1	0xbe000000	-0.125
2	0x3e400000	0.1875
3	0xbe400000	-0.1875
4	0x3dc00000	0.09375
5	0x3d000000	0.03125
6	0xbe400000	-0.1875
7	0xbe200000	-0.15625
8	0xbe800000	-0.25
9	0x3dc00000	0.09375
10	0x3dc00000	0.09375
11	0x3d800000	0.0625
12	0xbe400000	-0.1875
13	0xbd000000	-0.03125
14	0xbe400000	-0.1875
15	0x3e000000	0.125
16	0xbe200000	-0.15625
17	0xbe400000	-0.1875
18	0xbe600000	-0.21875
19	0x3e800000	0.25
20	0x3e600000	0.21875
21	0xbe400000	-0.1875
22	0xbd800000	-0.0625
23	0x3dc00000	0.09375
24	0x3dc00000	0.09375
25	0xbe000000	-0.125
26	0xbd000000	-0.03125
27	0x3d000000	0.03125
28	0x3d800000	0.0625
29	0xbe000000	-0.125
30	0x80000000	-0.0
31	0x3e400000	0.1875
32	0x3e600000	0.21875
33	0xbe600000	-0.21875
34	0xbe800000	-0.25
35	0x3d000000	0.03125
36	0xbe600000	-0.21875
37	0x3e400000	0.1875
38	0x3d800000	0.0625
39	0x80000000	-0.0
40	0xbe200000	-0.15625
41	0x3d000000	0.03125
42	0xbdc00000	-0.09375
43	0xbe000000	-0.125
44	0x3e600000	0.21875
45	0x3dc00000	0.09375
46	0xbd000000	-0.03125
47	0x3e200000	0.15625
48	0xbe000000	-0.125
49	0xbe600000	-0.21875
50	0x3d000000	0.03125
51	0x3e400000	0.1875
52	0x3d800000	0.0625
53	0x00000000	0.0
54	0xbe400000	-0.1875
55	0x3d000000	0.03125
56	0x80000000	-0.0
57	0x80000000	-0.0
58	0xbe000000	-0.125
59	0xbe600000	-0.21875
60	0x3e400000	0.1875
61	0x3e400000	0.1875
62	0xbe400000	-0.1875
63	0xbd800000	-0.0625
64	0xbd800000	-0.0625
65	0x3e000000	0.125
66	0xbe200000	-0.15625
67	0x3e400000	0.1875
68	0xbdc00000	-0.09375
69	0x3e600000	0.21875
70	0x00000000	0.0
71	0x3d000000	0.03125
72	0xbdc00000	-0.09375
73	0x3e200000	0.15625
74	0xbe000000	-0.125
75	0xbe400000	-0.1875
76	0xbe000000	-0.125
77	0xbe400000	-0.1875
78	0xbdc00000	-0.09375
79	0x3e400000	0.1875
80	0x3d800000	0.0625
81	0x3d000000	0.03125
82	0x3d000000	0.03125
83	0x3e600000	0.21875
84	0xbe000000	-0.125
85	0x3e400000	0.1875
86	0xbd800000	-0.0625
87	0x3d800000	0.0625
88	0xbe200000	-0.15625
89	0x3e400000	0.1875
90	0xbd800000	-0.0625
91	0x3d000000	0.03125
92	0x3e000000	0.125
93	0xbd000000	-0.03125
94	0x3e200000	0.15625
95	0x3e200000	0.15625
96	0x3e200000	0.15625
97	0xbe000000	-0.125
98	0xbdc00000	-0.09375
99	0xbe400000	-0.1875
100	0xbe600000	-0.21875
101	0x3d000000	0.03125
102	0xbe200000	-0.15625
103	0x80000000	-0.0
104	0x3e000000	0.125
105	0x3e600000	0.21875
106	0x3e200000	0.15625
107	0xbe400000	-0.1875
108	0x3e400000	0.1875
109	0x3d800000	0.0625
110	0xbdc00000	-0.09375
111	0x00000000	0.0
112	0x3e800000	0.25
113	0x3dc00000	0.09375
114	0xbe800000	-0.25
115	0x3d000000	0.03125
116	0x3dc00000	0.09375
117	0xbe400000	-0.1875
118	0xbe000000	-0.125
119	0x3d000000	0.03125
120	0xbe200000	-0.15625
121	0x3e800000	0.25
122	0x3e400000	0.1875
123	0x3e000000	0.125
124	0x3e600000	0.21875
125	0xbdc00000	-0.09375
126	0x80000000	-0.0
127	0xbe200000	-0.15625
128	0xbe400000	-0.1875
129	0x3e600000	0.21875
130	0xbe000000	-0.125
131	0xbe600000	-0.21875
132	0x3e600000	0.21875
133	0xbe800000	-0.25
134	0xbe600000	-0.21875
135	0x3e600000	0.21875
136	0xbdc00000	-0.09375
137	0x3e000000	0.125
138	0xbe600000	-0.21875
139	0x3e600000	0.21875
140	0x3e600000	0.21875
141	0x3e000000	0.125
142	0x3e800000	0.25
143	0xbe000000	-0.125
144	0xbd000000	-0.03125
145	0xbe000000	-0.125
146	0xbd800000	-0.0625
147	0xbe200000	-0.15625
148	0x3d800000	0.0625
149	0x3d800000	0.0625
150	0xbdc00000	-0.09375
151	0xbe800000	-0.25
152	0xbd000000	-0.03125
153	0x3e400000	0.1875
154	0x3e000000	0.125
155	0xbe000000	-0.125
156	0x3d000000	0.03125
157	0x3dc00000	0.09375
158	0xbe000000	-0.125
159	0xbdc00000	-0.09375
160	0xbe000000	-0.125
161	0xbdc00000	-0.09375
162	0xbd000000	-0.03125
163	0x3e000000	0.125
164	0xbe200000	-0.15625
165	0xbd800000	-0.0625
166	0x3e200000	0.15625
167	0x00000000	0.0
168	0x3e000000	0.125
169	0x3d800000	0.0625
170	0xbe000000	-0.125
171	0x3e600000	0.21875
172	0xbdc00000	-0.09375
173	0x3dc00000	0.09375
174	0xbd000000	-0.03125
175	0xbd000000	-0.03125
176	0xbdc00000	-0.09375
177	0xbd800000	-0.0625
178	0x3e600000	0.21875
179	0x3e400000	0.1875
180	0xbdc00000	-0.09375
181	0xbe800000	-0.25
182	0xbe000000	-0.125
183	0xbe400000	-0.1875
184	0x3e600000	0.21875
185	0x3dc00000	0.09375
186	0xbe600000	-0.21875
187	0xbd000000	-0.03125
188	0x3e400000	0.1875
189	0x3dc00000	0.09375
190	0xbdc00000	-0.09375
191	0x3e000000	0.125
192	0xbd000000	-0.03125
193	0xbe800000	-0.25
194	0xbd000000	-0.03125
195	0x3dc00000	0.09375
196	0xbe600000	-0.21875
197	0xbdc00000	-0.09375
198	0xbe000000	-0.125
199	0xbd000000	-0.03125
200	0xbd800000	-0.0625
201	0xbe600000	-0.21875
202	0x00000000	0.0
203	0x3e800000	0.25
204	0xbdc00000	-0.09375
205	0x80000000	-0.0
206	0x3d000000	0.03125
207	0x3e600000	0.21875
208	0x3dc00000	0.09375
209	0xbdc00000	-0.09375
210	0xbd000000	-0.03125
211	0x3dc00000	0.09375
212	0xbe000000	-0.125
213	0xbdc00000	-0.09375
214	0x3e200000	0.15625
215	0xbe400000	-0.1875
216	0x3e400000	0.1875
217	0x00000000	0.0
218	0x3e000000	0.125
219	0xbe000000	-0.125
220	0xbd000000	-0.03125
221	0x3d800000	0.0625
222	0xbe600000	-0.21875
223	0xbe200000	-0.15625
224	0xbe200000	-0.15625
225	0x3d800000	0.0625
226	0x3e400000	0.1875
227	0xbd800000	-0.0625
228	0x3d000000	0.03125
229	0xbe400000	-0.1875
230	0xbdc00000	-0.09375
231	0x3e400000	0.1875
232	0xbe000000	-0.125
233	0x3e000000	0.125
234	0x3e800000	0.25
235	0x3d800000	0.0625
236	0x3d800000	0.0625
237	0x3e200000	0.15625
238	0x3e000000	0.125
239	0x3e200000	0.15625
240	0x3dc00000	0.09375
241	0x3dc00000	0.09375
242	0xbe600000	-0.21875
243	0x3d000000	0.03125
244	0xbe000000	-0.125
245	0xbe600000	-0.21875
246	0x00000000	0.0
247	0xbe000000	-0.125
248	0xbe000000	-0.125
249	0x80000000	-0.0
250	0x3dc00000	0.09375
251	0x3e600000	0.21875
252	0x00000000	0.0
253	0x3d000000	0.03125
254	0x00000000	0.0
255	0xbe600000	-0.21875

model.1.bias f4 [120]
0	0x3db56c7e	0.08858584
1	0x3e34d66a	0.17659917
2	0x3e4d1f7f	0.20031546
3	0x3e42f3a1	0.1903825
4	0xbe2295a1	-0.15877391
5	0x3e1063af	0.14100526
6	0x3de265a7	0.11054545
7	0xbced2973	-0.028950429
8	0x3d20ef36	0.03929063
9	0xbd630ab7	-0.05543014
10	0xbd013c6b	-0.03155176
11	0x3e606cbf	0.21916483
12	0x3d495534	0.04915352
13	0xbe738fbe	-0.23785302
14	0xbddcbbca	-0.107780054
15	0xbdaf59df	-0.085620634
16	0x3df7be53	0.12096848
17	0x3e4c55e6	0.19954643
18	0xbe2a38e2	-0.16623262
19	0xbdb7cd5a	-0.089747146
20	0xbe3b6dae	-0.18303558
21	0x3ce2eefa	0.027701844
22	0x3e21ca2c	0.15799779
23	0xbc492f07	-0.012279279
24	0xbd4713b7	-0.048602786
25	0xbe2a97ea	-0.16659513
26	0xbdd89e51	-0.105770715
27	0xbe138f2f	-0.14410089
28	0x3dca000c	0.0986329
29	0xbe166269	-0.14685978
30	0xbdacefed	-0.084442
31	0xbe3394ac	-0.17537183
32	0xbe78153f	-0.24226855
33	0x3e49b2fe	0.19697186
34	0xbe46d935	-0.19418795
35	0x3e6ba4df	0.23012112
36	0x3b67eae0	0.00353878
37	0xbe545567	-0.20735703
38	0xbe494152	-0.19653824
39	0xbdd8520a	-0.10562523
40	0xbe3a20ec	-0.18176621
41	0xbe067bb1	-0.13133122
42	0x3e7b3d27	0.24535047
43	0xbd2701c9	-0.040773187
44	0xbe67c5a1	-0.22633983
45	0xbd88b997	-0.066760235
46	0xbddd19d9	-0.10795946
47	0xbe2f6493	-0.1712821
48	0x3e7a1813	0.24423246
49	0xbe1854ff	-0.14876173
50	0x3c06c039	0.00822454
51	0x3e4fc54a	0.20290104
52	0xbe3df721	-0.18551303
53	0x3d24d6ba	0.04024384
54	0x3d1f4777	0.038886514
55	0xbe4d825f	-0.20069264
56	0xbdf06f5d	-0.11739991
57	0x3e35b482	0.1774464
58	0xbe7f03d6	-0.24903807
59	0x3c7eb91c	0.015547063
60	0x3e7b24fa	0.24525824
61	0x3c2cf525	0.010556494
62	0xbdcc9cbe	-0.09990834
63	0x3e6ee680	0.23330116
64	0xbd70d4b3	-0.058796596
65	0x3d465d58	0.048428863
66	0x3e34298a	0.17593971
67	0x3d962fe5	0.07333354
68	0x3e7a21f9	0.24427022
69	0xbdbbe6dc	-0.09174892
70	0x3cb6f4dc	0.022333555
71	0xbc8fd8b4	-0.017559387
72	0x3e4efda1	0.20213939
73	0xbe59a5a1	-0.21254589
74	0xbe1bba5f	-0.15207814
75	0x3d2f21bc	0.04275678
76	0xbd2ce354	-0.042208984
77	0xbd2747f2	-0.040840097
78	0xbdba08e5	-0.09083728
79	0xbdbcd0de	-0.09219526
80	0xbd5879a8	-0.052850395
81	0xbe0c165f	-0.13680409
82	0xbaa3a8c4	-0.0012486209
83	0xbe3ee329	-0.18641342
84	0xbe58f0ff	-0.21185683
85	0xbe2b4d22	-0.16728643
86	0xbe6f9e21	-0.23400165
87	0x3e749de0	0.2388835
88	0xbe02d812	-0.12777737
89	0x3d997528	0.07493049
90	0x3dd388ab	0.10328802
91	0x3e78b0ef	0.24286245
92	0x3e647d1a	0.22313347
93	0xbe57ada6	-0.21062335
94	0x3e429821	0.19003345
95	0xbe0ef021	-0.1395879
96	0x3dc92455	0.09821383
97	0xbe3ce522	-0.18446782
98	0x3b2417a0	0.0025038496
99	0xbe4bf315	-0.19916947
100	0xbddc1b4a	-0.107473925
101	0x3e741ffe	0.23840329
102	0xbe1468ae	-0.14493057
103	0xbbbca563	-0.0057570203
104	0xbe166ed4	-0.14690715
105	0x3da7956a	0.08182795
106	0x3e34b9e9	0.17649044
107	0x3d7858cc	0.06063156
108	0xbd8c4f53	-0.068510674
109	0xbe4738ec	-0.19455308
110	0xbe615bdf	-0.22007702
111	0xbdef425d	-0.1168258
112	0x3e20a825	0.15689142
113	0x3db8905f	0.090119116
114	0x3e0e0325	0.13868387
115	0x3dd9643a	0.1061482
116	0xbddbeac3	-0.107381366
117	0x3e395d29	0.18101944
118	0x3e658dfe	0.22417447
119	0xbe164ffe	-0.14678952

model.2.weight f4 [120]
0	0x3f9594bf	1.1686019
1	0x3f4e095b	0.80483025
2	0x3fb8c03b	1.4433664
3	0x3ef8f57e	0.48624796
4	0x3fb39e0f	1.4032611
5	0x3f491cc5	0.78559524
6	0x3f31efbb	0.69506425
7	0x3f132e9c	0.57492995
8	0x3f13bf04	0.5771334
9	0x3f35b445	0.70978194
10	0x3f5f4be5	0.8722518
11	0x3fab4145	1.3379294
12	0x3f4549f1	0.7706595
13	0x3edb3031	0.42810205
14	0x3ea2144a	0.31656104
15	0x3ef3cb1d	0.476159
16	0x3f73dc32	0.95257866
17	0x3f004931	0.5011168
18	0x3f9011cf	1.1255435
19	0x3f0fd753	0.56187934
20	0x3f202491	0.62555796
21	0x3fbd89cd	1.4807678
22	0x3e4e0a27	0.2012106
23	0x3fd47e23	1.6600994
24	0x3eda264f	0.42607352
25	0x3f40cf6c	0.753165
26	0x3f33be9f	0.7021274
27	0x3f5dde96	0.86667764
28	0x3f6a10c5	0.9143184
29	0x3edcdf11	0.43138936
30	0x3f717922	0.9432546
31	0x3fa91dae	1.3212183
32	0x3eeed8b1	0.46649697
33	0x3fafe68f	1.3742236
34	0x3f271026	0.65259016
35	0x3f5d2e4b	0.8639876
36	0x3e9ff1ae	0.31239074
37	0x3f40005e	0.7500056
38	0x3eb066a1	0.344533
39	0x3f8acd58	1.0843916
40	0x3fbb73b2	1.4644682
41	0x3f8b4829	1.0881397
42	0x3f02577f	0.5091476
43	0x3f39ad31	0.72529894
44	0x3ec0eebb	0.37682137
45	0x3ed9b6ae	0.42522186
46	0x3e5784da	0.21046773
47	0x3e863c72	0.2621799
48	0x3ef2eaf7	0.4744489
49	0x3f3d8bc1	0.7404137
50	0x3f83b24b	1.0288786
51	0x3f9a6667	1.2062501
52	0x3e9020a5	0.28149906
53	0x3f1ca288	0.61185503
54	0x3f29115f	0.6604213
55	0x3f1c7eb3	0.6113083
56	0x3df3293a	0.11873098
57	0x3f429d8a	0.76021636
58	0x3f276add	0.65397435
59	0x3ff028f5	1.8762499
60	0x3f92d53c	1.1471324
61	0x3f9609cf	1.1721743
62	0x3f4a5ff8	0.79052687
63	0x3f1c1ee1	0.6098462
64	0x3e9b0339	0.30275896
65	0x3f26f576	0.65218294
66	0x3f92eaa4	1.1477857
67	0x3fd64913	1.674105
68	0x3fca3344	1.5796895
69	0x3ed95f91	0.42455724
70	0x3f8d3472	1.103163
71	0x3eec76ee	0.46184486
72	0x3f50b231	0.815219
73	0x3ef07f35	0.4697205
74	0x3eb15535	0.3463532
75	0x3f48068b	0.78134984
76	0x3f303585	0.68831664
77	0x3f8bb5e5	1.0914885
78	0x3fcc2ab1	1.5950528
79	0x3e12db92	0.14341572
80	0x3fd7f995	1.6873041
81	0x3ec2ba13	0.38032588
82	0x3e8871d1	0.26649335
83	0x3f560b0c	0.83610606
84	0x3ffa9b97	1.9578732
85	0x3f42d8fd	0.7611235
86	0x3f837941	1.0271379
87	0x3f39b5f8	0.7254329
88	0x3eea8a47	0.45808622
89	0x3f24298c	0.64125896
90	0x3f19b43a	0.6004063
91	0x3f84caf7	1.037444
92	0x3f2a7a0b	0.6659247
93	0x3ec5cfbc	0.3863505
94	0x3fd77ac0	1.6834335
95	0x3f91d39f	1.1392707
96	0x3f8ba61d	1.0910069
97	0x3fbd15f2	1.4772322
98	0x3fa96fd6	1.3237255
99	0x3f6f72e2	0.9353467
100	0x3f6c96e2	0.9241773
101	0x3f820551	1.0157872
102	0x3ee1a53a	0.4407137
103	0x3eb06369	0.34450844
104	0x3ede9117	0.4347007
105	0x3f390a16	0.72281015
106	0x3f92f762	1.1481745
107	0x3e9f2946	0.31086177
108	0x3f28013c	0.65626884
109	0x3f0ddda3	0.55416316
110	0x3f494f87	0.78636974
111	0x3f0c6d03	0.5485384
112	0x3ef85fe6	0.48510665
113	0x3f45ba19	0.7723709
114	0x3f810cd2	1.0082037
115	0x3f33e4da	0.70271075
116	0x3f50b2d7	0.8152289
117	0x3f38b219	0.72146755
118	0x3f93ab0e	1.1536577
119	0x3fc1f746	1.5153587

model.2.bias f4 [120]
0	0xbf32b270	-0.69803524
1	0x3eb2215c	0.34791076
2	0x3f49acaf	0.7877912
3	0xbea2dc2b	-0.318086
4	0x3f99a28c	1.200273
5	0x3e8a4c48	0.27011323
6	0x3f1d27d9	0.6138893
7	0x3f2bb3c3	0.6707117
8	0xbebf2787	-0.37334844
9	0xbd2776aa	-0.04088465
10	0x3e85db36	0.26143807
11	0xbc2973df	-0.010342567
12	0x3f0d8254	0.5527699
13	0xbef2e5cb	-0.47440943
14	0xbd75ca1f	-0.06000721
15	0xbea751f2	-0.32679707
16	0x3f8069a2	1.0032237
17	0x3e29b142	0.16571525
18	0x3ecfddea	0.40598994
19	0x3f06ed77	0.5270609
20	0x3ec31fc1	0.38110164
21	0x3de96a70	0.113972545
22	0xbeda27fa	-0.42608625
23	0x3f1a484e	0.6026658
24	0x3ea815aa	0.32829028
25	0xbe3e7647	-0.18599807
26	0xbba7a894	-0.0051165316
27	0x3f055e00	0.5209656
28	0xbe5c4427	-0.21510373
29	0xbf01204e	-0.5043992
30	0x3f6987a5	0.912226
31	0xbe247201	-0.16059114
32	0xbe6b4498	-0.22975385
33	0xbe8a7f59	-0.27050284
34	0x3ea8b7bf	0.32952687
35	0x3f8c9d9c	1.0985599
36	0xbf1e90da	-0.61939776
37	0x3ee0cc07	0.4390566
38	0x3f11cd8e	0.56954277
39	0xbd258095	-0.04040583
40	0x3f9e8814	1.2385278
41	0xbd477654	-0.04869683
42	0xbe35e05a	-0.17761365
43	0xbecbb1f5	-0.39784208
44	0xbcdfe060	-0.02732867
45	0xbe795a5e	-0.24350879
46	0xbf19cdc3	-0.6007959
47	0xbf30248c	-0.68805766
48	0xbea3cfdc	-0.31994522
49	0x3ec283b6	0.37991112
50	0x3e745a7d	0.23862644
51	0x3e672be0	0.2257533
52	0xbec913df	-0.39272973
53	0xbd3baf5b	-0.04582153
54	0x3f51434f	0.8174333
55	0xbda4c7a2	-0.080458894
56	0xbf0b3607	-0.54379314
57	0xbeb0d2e8	-0.3453591
58	0x3f1f8440	0.6231117
59	0x3ee427b8	0.44561553
60	0x3d68af3f	0.056807753
61	0xbeab282d	-0.3342909
62	0x3eb3c68c	0.35112417
63	0xbedef869	-0.43548897
64	0xbe79162c	-0.24324864
65	0x3f1a3790	0.6024103
66	0x3eacf5f0	0.33781385
67	0x3f648c30	0.8927641
68	0x3f77f697	0.9686064
69	0xbf19448c	-0.5987022
70	0xbdef5d9c	-0.116877764
71	0xbeed4cee	-0.46347755
72	0xbec0009f	-0.37500474
73	0x3dc0ed18	0.09420222
74	0xbf37a19f	-0.7173099
75	0x3f463d07	0.7743687
76	0x3ec9a763	0.39385518
77	0xbdf0b531	-0.117533095
78	0x3f5fbae2	0.87394536
79	0xbf1e1978	-0.6175761
80	0x3f87cec9	1.0609981
81	0xbefd623c	-0.4948901
82	0xbf2f887f	-0.6856765
83	0xbda145f7	-0.07874673
84	0x3f9b0ba8	1.2112932
85	0x3e93c5d6	0.28861874
86	0xbe1d1bf9	-0.15342702
87	0x3f9965f7	1.1984242
88	0xbed1d9bf	-0.4098644
89	0xbe20b9db	-0.15695898
90	0x3e56bdfe	0.20970914
91	0xbe822fc8	-0.2542708
92	0x3ee2abab	0.44271597
93	0xbe409e34	-0.1881035
94	0x3f7b1224	0.98074555
95	0x3d878af1	0.06618298
96	0x3df495ff	0.11942672
97	0x3f49b869	0.7879701
98	0x3eb14f15	0.34630647
99	0xbe97b1f2	-0.2962795
100	0xbe9d113b	-0.30677208
101	0xbda6eb16	-0.08150308
102	0x3cf552ea	0.029946763
103	0xbf3d6327	-0.7397942
104	0xbd76ac0b	-0.060222667
105	0xbf044fa6	-0.51684034
106	0x3ee36a0d	0.44416848
107	0xbf1ff341	-0.6248055
108	0xbedd9e6e	-0.43284935
109	0x3e889e5d	0.26683322
110	0x3e89d5e6	0.26921004
111	0xbd679dd0	-0.056546986
112	0x3eddbb6b	0.4330705
113	0xbdd8f80e	-0.10594188
114	0x3faa3cdf	1.3299826
115	0xbeb15ade	-0.3463964
116	0x3ea30336	0.31838387
117	0x3e13ad2d	0.1442153
118	0x3fa089c6	1.2542045
119	0x3f82c226	1.0215499

model.2.running_mean f4 [120]
0	0x3daa47e2	0.08314492
1	0x3e2fefb2	0.1718128
2	0x3e166b83	0.1468945
3	0x3e852127	0.26001856
4	0xbe62b963	-0.22141032
5	0x3cdf51a9	0.027260618
6	0x3e186e2d	0.14885779
7	0xbcdd0275	-0.02697871
8	0x3e7526a5	0.23940523
9	0x3c9f3b30	0.019437402
10	0xbd8c488a	-0.06849773
11	0x3e541991	0.20712878
12	0xbd24b4cf	-0.040211495
13	0xbe8dfec2	-0.27733427
14	0xbda0da8b	-0.07854184
15	0xbdcf53ce	-0.10123406
16	0x3d9a25dc	0.07526752
17	0x3e92ffd0	0.28710794
18	0xbdea3633	-0.11436119
19	0xbe1285b3	-0.14308815
20	0xbe454cfd	-0.1926765
21	0xbd275d7c	-0.040860638
22	0x3e1b88ba	0.15188876
23	0xbd994da8	-0.07485515
24	0xbdacaf82	-0.08431913
25	0xbe460130	-0.1933639
26	0xbdea20d4	-0.11432043
27	0xbdf54756	-0.11976497
28	0x3e56aa1e	0.20963332
29	0xbe0f8870	-0.1401689
30	0xbcd8b2b6	-0.026452404
31	0xbe6457c5	-0.22299106
32	0xbe953fff	-0.29150388
33	0x3df6b97c	0.12047097
34	0xbe671a49	-0.2256862
35	0x3e88d4a5	0.26724735
36	0xbcbc23e3	-0.02296633
37	0xbdbd8782	-0.09254362
38	0xbe063237	-0.13105093
39	0xbdd182c4	-0.1023002
40	0xbdfd0b08	-0.1235562
41	0x3d542bff	0.05179977
42	0x3e97ff34	0.29686892
43	0xbb59ff57	-0.0033263767
44	0xbe862d2d	-0.2620634
45	0xbd57c724	-0.05268015
46	0xbe040aa7	-0.12894689
47	0xbe20fd40	-0.15721607
48	0x3e69b5fe	0.22823331
49	0xbc89aa32	-0.016804788
50	0x3deb8a0d	0.115009405
51	0x3e0a290d	0.13492222
52	0xbe84bd6f	-0.25925776
53	0x3db74a90	0.089497685
54	0x3e278fd0	0.16363454
55	0xbdd59a16	-0.1042978
56	0xbdae00f8	-0.084962785
57	0x3e17316c	0.14764947
58	0xbe19c2e8	-0.15015757
59	0xbc4da126	-0.012550628
60	0x3e9c1721	0.30486396
61	0xbd868517	-0.065683536
62	0xbe5f6d78	-0.21819103
63	0x3e572b8f	0.2101271
64	0x3cb4a7e1	0.022052707
65	0x3e0edf9d	0.13952489
66	0x3e282750	0.16421247
67	0x3d803ff4	0.06262198
68	0x3e599930	0.21249843
69	0xbe294c4c	-0.16533011
70	0x3d5bae39	0.05363295
71	0xbd66017f	-0.05615377
72	0x3e2526db	0.16128103
73	0xbe964ad4	-0.29353964
74	0xbe6a5145	-0.22882564
75	0x3d8161c0	0.063174725
76	0xbd9903e1	-0.07471443
77	0xbd20f145	-0.039292593
78	0x3d91e8e2	0.07124497
79	0xbd82330a	-0.06357391
80	0xbe47b398	-0.19502103
81	0xbd411ade	-0.047144763
82	0xbda3ff9c	-0.08007738
83	0xbda827f9	-0.08210749
84	0xbe42912b	-0.1900069
85	0xbda16476	-0.078804895
86	0xbea24545	-0.31693473
87	0x3e3d3644	0.18477732
88	0xbe265ad9	-0.16245593
89	0x3d809f14	0.06280342
90	0x3c01a2af	0.007912322
91	0x3e2d1b56	0.16904959
92	0x3e452879	0.1925372
93	0xbea776dc	-0.3270787
94	0x3db32557	0.087473564
95	0xbe0b54f8	-0.13606632
96	0x3d62efcb	0.055404466
97	0xbe7fa8a1	-0.2496667
98	0xbc2639a0	-0.010145575
99	0xbe3dfc40	-0.18553257
100	0xbdbdb9e4	-0.092639714
101	0x3e8c3329	0.27382782
102	0xbc8b167e	-0.016978499
103	0x3c78fde0	0.015197247
104	0xbdf1dc88	-0.11809641
105	0x3d34f16b	0.044175547
106	0x3e3589b5	0.17728312
107	0x3d3c5bea	0.045986094
108	0xbe54d42f	-0.20784067
109	0xbe68ed4a	-0.22746769
110	0xbe2c956f	-0.1685388
111	0xbe108786	-0.14114198
112	0x3e467478	0.19380367
113	0x3ce8f24b	0.028435847
114	0x3e32f801	0.17477418
115	0x3e007a96	0.12546763
116	0xbddd4b2c	-0.108053535
117	0x3dcaf499	0.099099346
118	0x3e81a54d	0.25321427
119	0xbda44522	-0.080209985

model.2.running_var f4 [120]
0	0x3ef76fbf	0.48327443
1	0x3ec4f41e	0.38467497
2	0x3eac3a01	0.33638003
3	0x3e7cbd39	0.24681558
4	0x3e597ca3	0.21238951
5	0x3e80a1d6	0.2512347
6	0x3ec6a78d	0.38799706
7	0x3eb81d9d	0.35960093
8	0x3f5d9657	0.86557525
9	0x3e73d060	0.23809958
10	0x3e12ce51	0.14336516
11	0x3e64d703	0.22347645
12	0x3ef87906	0.48529834
13	0x3e7277a9	0.23678459
14	0x3e950186	0.29102725
15	0x3e841e18	0.2580421
16	0x3e7ae4b8	0.24501312
17	0x3eb5ee2f	0.35533282
18	0x3e35e820	0.1776433
19	0x3e9e7828	0.30951047
20	0x3e944517	0.2895896
21	0x3eb46ff6	0.3524167
22	0x3e316525	0.1732374
23	0x3ed53328	0.41640592
24	0x3f002194	0.50051236
25	0x3eb6ba18	0.35688853
26	0x3eaa305d	0.33240023
27	0x3e80e8f5	0.25177732
28	0x3f11e1fd	0.56985456
29	0x3e63eab1	0.22257496
30	0x3e56ffc7	0.20996009
31	0x3e58b8e3	0.21164279
32	0x3e84874a	0.25884467
33	0x3ec65329	0.3873532
34	0x3e58cd5c	0.21172088
35	0x3e8d07ad	0.2754492
36	0x3e77d671	0.24202897
37	0x3f097260	0.5369015
38	0x3e382314	0.17982131
39	0x3ecfb6b1	0.4056907
40	0x3ec3b996	0.38227528
41	0x3f36f3ea	0.71465933
42	0x3ee9df6c	0.4567827
43	0x3ea4e45d	0.32205477
44	0x3e5e05e4	0.21681935
45	0x3e636bd3	0.222091
46	0x3e69acd3	0.22819833
47	0x3e5fa26f	0.21839307
48	0x3e6c207d	0.23059268
49	0x3ea18411	0.3154607
50	0x3ef95117	0.4869468
51	0x3e79ad53	0.24382524
52	0x3ee94843	0.45562944
53	0x3e86a180	0.2629509
54	0x3f241749	0.6409803
55	0x3ef5fcca	0.48044425
56	0x3e8e5a04	0.2780305
57	0x3ec86397	0.3913848
58	0x3e5a0f00	0.21294785
59	0x3eab3d5f	0.3344526
60	0x3ed8d201	0.4234772
61	0x3f24c3e2	0.64361393
62	0x3eda1585	0.42594543
63	0x3edcfac6	0.43160075
64	0x3ea45cea	0.32102138
65	0x3ed21b6f	0.41036555
66	0x3ed35d9d	0.4128236
67	0x3eef8a1c	0.46785057
68	0x3e3f8eb4	0.1870678
69	0x3e673bfc	0.22581476
70	0x3ea06ef0	0.3133464
71	0x3f18cacb	0.5968444
72	0x3eccc0e1	0.39990905
73	0x3e594bdf	0.21220349
74	0x3e905b97	0.28194878
75	0x3e93c7a9	0.28863266
76	0x3e29cc0b	0.16581742
77	0x3f1a517d	0.6028059
78	0x3f3a3f83	0.7275316
79	0x3e59bb1e	0.21262786
80	0x3eff1b36	0.49825448
81	0x3f02328a	0.50858366
82	0x3e949569	0.2902024
83	0x3ea2a1c3	0.3176404
84	0x3e8762c2	0.26442534
85	0x3eaa418a	0.33253127
86	0x3ea33232	0.31874233
87	0x3e191106	0.149479
88	0x3e8c11ea	0.27357417
89	0x3eff841f	0.49905488
90	0x3e92ce4c	0.28673017
91	0x3e7975db	0.24361365
92	0x3ea90bc4	0.3301679
93	0x3f14ae82	0.5807878
94	0x3e918025	0.2841808
95	0x3e98676f	0.29766414
96	0x3ec91167	0.3927109
97	0x3e921714	0.28533232
98	0x3e7d3f05	0.24731071
99	0x3eb2b5f5	0.34904447
100	0x3ecf6d7f	0.40513226
101	0x3ef9d7e8	0.48797536
102	0x3f090c2d	0.53534204
103	0x3e7c8b95	0.24662621
104	0x3e68ce1b	0.22734873
105	0x3e8f6cb6	0.28012627
106	0x3efd3893	0.49457225
107	0x3e9bab91	0.30404332
108	0x3f0d278f	0.55138487
109	0x3e993349	0.2992194
110	0x3e7d8200	0.24756622
111	0x3e17bd5e	0.14818332
112	0x3edd31cb	0.43202052
113	0x3e78aafe	0.24283978
114	0x3e85cd42	0.26133162
115	0x3ebc9546	0.36832637
116	0x3e1b9b41	0.15195943
117	0x3e6b193d	0.22958846
118	0x3ea09802	0.31365973
119	0x3ecdc4ec	0.40189302

model.4.weight f4 [120, 120]
0	0x00000000	0.0
1	0x3d800000	0.0625
2	0x00000000	0.0
3	0x3d800000	0.0625
4	0x3d000000	0.03125
5	0x3d800000	0.0625
6	0x3d800000	0.0625
7	0xbd000000	-0.03125
8	0xbd000000	-0.03125
9	0x3d800000	0.0625
10	0xbd000000	-0.03125
11	0xbd800000	-0.0625
12	0xbd000000	-0.03125
13	0x3dc00000	0.09375
14	0x3dc00000	0.09375
15	0xbd000000	-0.03125
16	0x80000000	-0.0
17	0xbd000000	-0.03125
18	0x3d000000	0.03125
19	0x3dc00000	0.09375
20	0xbd000000	-0.03125
21	0xbd800000	-0.0625
22	0x3d800000	0.0625
23	0x3d000000	0.03125
24	0xbd800000	-0.0625
25	0xbd800000	-0.0625
26	0x80000000	-0.0
27	0x3d800000	0.0625
28	0x80000000	-0.0
29	0xbd800000	-0.0625
30	0xbdc00000	-0.09375
31	0x80000000	-0.0
32	0x3dc00000	0.09375
33	0x80000000	-0.0
34	0xbd800000	-0.0625
35	0x3dc00000	0.09375
36	0x00000000	0.0
37	0x00000000	0.0
38	0x3d000000	0.03125
39	0x3d800000	0.0625
40	0x3dc00000	0.09375
41	0x3d800000	0.0625
42	0x80000000	-0.0
43	0xbd800000	-0.0625
44	0x3d000000	0.03125
45	0xbd000000	-0.03125
46	0x3d000000	0.03125
47	0xbd800000	-0.0625
48	0x80000000	-0.0
49	0xbd000000	-0.03125
50	0x00000000	0.0
51	0xbdc00000	-0.09375
52	0x80000000	-0.0
53	0x3dc00000	0.09375
54	0x3d000000	0.03125
55	0xbd800000	-0.0625
56	0xbd000000	-0.03125
57	0x3d000000	0.03125
58	0xbd800000	-0.0625
59	0xbd000000	-0.03125
60	0xbd800000	-0.0625
61	0xbd000000	-0.03125
62	0xbd800000	-0.0625
63	0x3d000000	0.03125
64	0xbd000000	-0.03125
65	0xbd000000	-0.03125
66	0xbd000000	-0.03125
67	0xbdc00000	-0.09375
68	0x00000000	0.0
69	0xbd000000	-0.03125
70	0xbd000000	-0.03125
71	0xbdc00000	-0.09375
72	0xbd800000	-0.0625
73	0xbd000000	-0.03125
74	0x80000000	-0.0
75	0x80000000	-0.0
76	0x00000000	0.0
77	0x3d800000	0.0625
78	0x3d000000	0.03125
79	0xbd800000	-0.0625
80	0x3d000000	0.03125
81	0xbdc00000	-0.09375
82	0x3d000000	0.03125
83	0x3d800000	0.0625
84	0x80000000	-0.0
85	0x00000000	0.0
86	0x00000000	0.0
87	0x80000000	-0.0
88	0x3dc00000	0.09375
89	0x3d800000	0.0625
90	0x80000000	-0.0
91	0x3d000000	0.03125
92	0x3dc00000	0.09375
93	0xbd000000	-0.03125
94	0xbd800000	-0.0625
95	0xbdc00000	-0.09375
96	0xbdc00000	-0.09375
97	0xbd800000	-0.0625
98	0xbdc00000	-0.09375
99	0x00000000	0.0
100	0x3d800000	0.0625
101	0xbd800000	-0.0625
102	0x3d000000	0.03125
103	0xbd800000	-0.0625
104	0x3dc00000	0.09375
105	0xbd800000	-0.0625
106	0xbd000000	-0.03125
107	0xbd800000	-0.0625
108	0x00000000	0.0
109	0x3d800000	0.0625
110	0x3d000000	0.03125
111	0x3d000000	0.03125
112	0x3d800000	0.0625
113	0xbd000000	-0.03125
114	0x3d000000	0.03125
115	0x80000000	-0.0
116	0x80000000	-0.0
117	0xbd000000	-0.03125
118	0x80000000	-0.0
119	0x3d000000	0.03125
120	0xbd000000	-0.03125
121	0x3d000000	0.03125
122	0xbd800000	-0.0625
123	0xbdc00000	-0.09375
124	0xbdc00000	-0.09375
125	0x80000000	-0.0
126	0x3d800000	0.0625
127	0x00000000	0.0
128	0x3d000000	0.03125
129	0x80000000	-0.0
130	0x3d000000	0.03125
131	0x3d000000	0.03125
132	0xbdc00000	-0.09375
133	0xbd800000	-0.0625
134	0x3d800000	0.0625
135	0x3d800000	0.0625
136	0x3dc00000	0.09375
137	0x3d000000	0.03125
138	0xbd000000	-0.03125
139	0x00000000	0.0
140	0x3d000000	0.03125
141	0xbd000000	-0.03125
142	0x3d000000	0.03125
143	0xbd000000	-0.03125
144	0xbd800000	-0.0625
145	0xbd800000	-0.0625
146	0xbdc00000	-0.09375
147	0xbdc00000	-0.09375
148	0x00000000	0.0
149	0x3d800000	0.0625
150	0xbd800000	-0.0625
151	0xbd800000	-0.0625
152	0xbd000000	-0.03125
153	0xbd800000	-0.0625
154	0x00000000	0.0
155	0xbd800000	-0.0625
156	0x3d800000	0.0625
157	0xbd800000	-0.0625
158	0xbd800000	-0.0625
159	0xbd800000	-0.0625
160	0xbd000000	-0.03125
161	0x3d000000	0.03125
162	0xbd800000	-0.0625
163	0x3d800000	0.0625
164	0x80000000	-0.0
165	0x80000000	-0.0
166	0x3d000000	0.03125
167	0xbd000000	-0.03125
168	0xbdc00000	-0.09375
169	0xbd800000	-0.0625
170	0x80000000	-0.0
171	0xbd000000	-0.03125
172	0x3d800000	0.0625
173	0x3d000000	0.03125
174	0xbdc00000	-0.09375
175	0x3d000000	0.03125
176	0x3d800000	0.0625
177	0x80000000	-0.0
178	0x3d000000	0.03125
179	0xbd000000	-0.03125
180	0x00000000	0.0
181	0xbdc00000	-0.09375
182	0x3d800000	0.0625
183	0x3d000000	0.03125
184	0x80000000	-0.0
185	0x3d000000	0.03125
186	0xbd000000	-0.03125
187	0x3dc00000	0.09375
188	0x3dc00000	0.09375
189	0x00000000	0.0
190	0x3dc00000	0.09375
191	0xbd800000	-0.0625
192	0x00000000	0.0
193	0x00000000	0.0
194	0x3d800000	0.0625
195	0x00000000	0.0
196	0x3d800000	0.0625
197	0xbd800000	-0.0625
198	0xbd800000	-0.0625
199	0x80000000	-0.0
200	0x3d000000	0.03125
201	0x00000000	0.0
202	0xbd800000	-0.0625
203	0x3dc00000	0.09375
204	0x3dc00000	0.09375
205	0xbd800000	-0.0625
206	0x3d000000	0.03125
207	0x3d800000	0.0625
208	0x3d800000	0.0625
209	0x3dc00000	0.09375
210	0x3d000000	0.03125
211	0xbd000000	-0.03125
212	0x00000000	0.0
213	0x3d000000	0.03125
214	0xbd000000	-0.03125
215	0x3d800000	0.0625
216	0xbd800000	-0.0625
217	0x3dc00000	0.09375
218	0x00000000	0.0
219	0x00000000	0.0
220	0xbd800000	-0.0625
221	0xbdc00000	-0.09375
222	0x3d000000	0.03125
223	0xbd800000	-0.0625
224	0x3d000000	0.03125
225	0x3dc00000	0.09375
226	0xbd800000	-0.0625
227	0x3d000000	0.03125
228	0x3dc00000	0.09375
229	0xbd000000	-0.03125
230	0x3d000000	0.03125
231	0x3d800000	0.0625
232	0x00000000	0.0
233	0x3d000000	0.03125
234	0x3d000000	0.03125
235	0x3d000000	0.03125
236	0x3d000000	0.03125
237	0x3d000000	0.03125
238	0x80000000	-0.0
239	0xbdc00000	-0.09375
240	0xbd800000	-0.0625
241	0x3d000000	0.03125
242	0xbd000000	-0.03125
243	0xbd000000	-0.03125
244	0x3dc00000	0.09375
245	0xbd000000	-0.03125
246	0x3d000000	0.03125
247	0x3d000000	0.03125
248	0x3dc00000	0.09375
249	0xbd000000	-0.03125
250	0x3dc00000	0.09375
251	0x3d000000	0.03125
252	0xbd800000	-0.0625
253	0xbd000000	-0.03125
254	0x3d000000	0.03125
255	0x80000000	-0.0

model.4.bias f4 [120]
0	0xbd8ca521	-0.06867433
1	0xbd8ac7b2	-0.0677637
2	0x3d34b5d4	0.044118717
3	0xba926841	-0.0011169986
4	0x3ca7b0ed	0.020470107
5	0x3db6e521	0.089304216
6	0x3da0d704	0.07853511
7	0x3d0caab7	0.034342494
8	0xbc45c45c	-0.0120707415
9	0xbd33ff98	-0.043944925
10	0x3b778827	0.0037770362
11	0xbd278edd	-0.04090773
12	0xbced25f4	-0.028948762
13	0xbbc23798	-0.0059270374
14	0x3db76404	0.08954623
15	0x3d6c5882	0.057701595
16	0x3db74d48	0.08950287
17	0xbd4a7682	-0.049429424
18	0x3da1f743	0.079084896
19	0x3d54bc87	0.051937606
20	0x3d7e1caa	0.062039055
21	0xbd81470d	-0.0631238
22	0x3c276d88	0.010218985
23	0x3ba47fe1	0.005020127
24	0xbd4543f5	-0.048160512
25	0xbccbd893	-0.024883544
26	0x3dabee5d	0.083950736
27	0xbc8be9e9	-0.01707931
28	0x3d7a24fd	0.06107043
29	0xbd219683	-0.03945018
30	0x3d569ec1	0.052397493
31	0x3c371df1	0.011176572
32	0x3d63537c	0.05549954
33	0x3d923981	0.07139874
34	0xbc775d0c	-0.015097868
35	0xbd091fb5	-0.033477504
36	0x3d98a209	0.07452781
37	0xbb4d1624	-0.0031293714
38	0xbd2ead7e	-0.042645924
39	0x3d14a100	0.036286354
40	0xbd1127fc	-0.035438523
41	0xbd3d2e4c	-0.04618673
42	0xbd9b0302	-0.07568933
43	0x3d122d06	0.03568747
44	0x3ce7f109	0.028313177
45	0xbdb86cee	-0.09005152
46	0xbce1dafb	-0.027570238
47	0x3d5a427a	0.053286053
48	0xbd060006	-0.032714866
49	0x3b70df59	0.003675422
50	0x3d828bde	0.06374334
51	0x3d2f95fe	0.042867653
52	0x3c8a2e05	0.016867647
53	0x3d7eed06	0.062237762
54	0xbd59eac4	-0.053202406
55	0xbd3f1242	-0.04664827
56	0x3c3f969e	0.011693625
57	0xbd619a03	-0.055078518
58	0x3cd07420	0.025445998
59	0xbdb85701	-0.0900097
60	0x3d4af333	0.04954834
61	0x3d4bc737	0.049750533
62	0x3dafdb92	0.085868016
63	0x3d1e2f0f	0.038619097
64	0xbd5e067c	-0.054205403
65	0xbd8a80fe	-0.067628846
66	0xbd571ca4	-0.05251755
67	0x3dadd000	0.084869385
68	0xbd87d326	-0.0663207
69	0x3d263bf7	0.04058453
70	0xbcac267a	-0.02101444
71	0x3c8a7b78	0.016904578
72	0x3d9d07aa	0.076674774
73	0xbda5bd02	-0.08092691
74	0xbda38e13	-0.07986083
75	0xbd6f65fc	-0.05844687
76	0x3da0d4be	0.07853077
77	0x3db7c04a	0.08972223
78	0x3d065a07	0.0328007
79	0xbd459774	-0.04824014
80	0xbd88d267	-0.06680756
81	0x3d94a1d2	0.07257427
82	0xbce60a16	-0.028080981
83	0xbcd85b84	-0.026410826
84	0x3d577af7	0.052607503
85	0x3d821ea2	0.06353499
86	0xbd61d319	-0.05513296
87	0x3d44c834	0.04804249
88	0x3d2d3354	0.04228528
89	0x3cf60908	0.030033603
90	0xbd309f8a	-0.0431209
91	0xbdb92a47	-0.09041267
92	0x3d4ceae0	0.05002868
93	0x3d9ef8ff	0.07762336
94	0x3daece52	0.08535446
95	0xbc609ca0	-0.013709217
96	0xbd50010e	-0.050782256
97	0xbd511cec	-0.051052973
98	0xbd9cf084	-0.07663062
99	0xbd86338f	-0.06552803
100	0x3ce2b048	0.027671948
101	0xbd81a92f	-0.06331097
102	0x3c57b501	0.013165713
103	0x3d89a8b4	0.06721631
104	0x3b6edd8d	0.0036447973
105	0xbd90fbb9	-0.07079262
106	0xbd583b08	-0.05279067
107	0xbdabc4be	-0.08387135
108	0x3c5cc417	0.013474486
109	0x3d90ecfd	0.07076452
110	0xb97808e0	-0.00023654429
111	0x3cfda577	0.030962689
112	0x3c6685f1	0.01407002
113	0x3d194851	0.037422482
114	0x3d1fd3fd	0.039020527
115	0xbdb5517d	-0.08853433
116	0xbd607b35	-0.054805
117	0x3d1125ed	0.03543656
118	0x3da992a8	0.082799256
119	0xbd0d2c09	-0.034465823

model.5.weight f4 [120]
0	0x3f00f454	0.50372815
1	0x3f0bbe86	0.5458759
2	0x3f4ad765	0.79234916
3	0x3e40542f	0.18782113
4	0x3ed89031	0.4229751
5	0x3f9c2914	1.2200036
6	0x3f2a1bf0	0.6644888
7	0x3e5d6b3d	0.2162294
8	0x3eea09f8	0.4571073
9	0x3fa7ce73	1.3109878
10	0x3f11fb77	0.5702433
11	0x3f1ebfed	0.62011606
12	0x3f4107d0	0.75402546
13	0x3f43345d	0.76251775
14	0x3fd51213	1.6646141
15	0x3eeb52bd	0.45961562
16	0x3f5db8aa	0.866099
17	0x3e28150e	0.16414282
18	0x3f8fb293	1.1226372
19	0x3fa4ba07	1.2869271
20	0x3f7b7151	0.9821978
21	0x3f4ffd09	0.81245476
22	0x3f1c9c36	0.6117586
23	0x3f4fde88	0.8119893
24	0x3f35f2d8	0.71073675
25	0x3f83e9a5	1.0305678
26	0x3eef90dd	0.4679021
27	0x3f69192d	0.9105404
28	0x3f26f56b	0.6521823
29	0x3f4f439c	0.8096254
30	0x3f95f030	1.1713924
31	0x3f9ab421	1.2086221
32	0x3f6fe6e5	0.9371169
33	0x3fb45fb1	1.4091703
34	0x3f1de9ef	0.6168508
35	0x3f45f1ba	0.7732197
36	0x3ffda656	1.9816387
37	0x3f8490f9	1.0356742
38	0x3f1ef9e1	0.62100035
39	0x3f740efe	0.95335376
40	0x3f95d70c	1.1706252
41	0x3faff2cf	1.3745974
42	0x3f47b67a	0.7801281
43	0x3eb57f7b	0.35448822
44	0x3eda542b	0.4264234
45	0x3f07721f	0.5290851
46	0x3ea64f3a	0.3248232
47	0x3f76e8a7	0.9644875
48	0x3f47c662	0.78037083
49	0x3fcd0c9d	1.6019474
50	0x3f41fbcb	0.7577483
51	0x3ef5248c	0.47879446
52	0x3f924fa2	1.1430552
53	0x3f0f440e	0.5596322
54	0x4004ab4d	2.0729554
55	0x3ea6e43c	0.32596004
56	0x3f5b83bd	0.8574789
57	0x3f32cfbb	0.6984822
58	0x3f32614c	0.69679713
59	0x3f2d1ce9	0.6762224
60	0x3f24c7b4	0.6436722
61	0x3fa43254	1.2827859
62	0x3f952dab	1.1654562
63	0x3f8a5571	1.0807325
64	0x3f7d8f9a	0.99047244
65	0x3ee7e6e6	0.4529335
66	0x3f44f51d	0.76936513
67	0x3f08efea	0.5349108
68	0x3f01b75c	0.5067041
69	0x3f8c292c	1.0950065
70	0x3f7b547d	0.98175794
71	0x3f534ec8	0.82542086
72	0x3f8866c6	1.0656364
73	0x3fd48104	1.6601872
74	0x3f008760	0.50206566
75	0x3fce121d	1.6099278
76	0x3e681d98	0.22667539
77	0x3f88fdf8	1.0702505
78	0x3fbff65f	1.4997061
79	0x3e5541e0	0.2082591
80	0x3f764789	0.96202904
81	0x3f8dcec8	1.107873
82	0x3e528379	0.20557965
83	0x3fa3f28e	1.2808397
84	0x3eab2f5d	0.33434573
85	0x3f4745af	0.77840704
86	0x3f867680	1.0504913
87	0x3f692df7	0.9108576
88	0x3e72fd01	0.23729326
89	0x3e9806b9	0.2969263
90	0x3f25e2a2	0.6479894
91	0x3f75f27d	0.9607313
92	0x3f000906	0.5001377
93	0x3ecda7a7	0.4016697
94	0x3efa5ffa	0.4890135
95	0x3e755396	0.23957667
96	0x3f8f3eb8	1.1191015
97	0x3f48f92c	0.78505206
98	0x3e844154	0.2583109
99	0x3f75672b	0.95860547
100	0x3e12de6c	0.1434266
101	0x3e45b1ab	0.19306056
102	0x3ec8db8e	0.39230007
103	0x3ecff1ba	0.4061411
104	0x3e199458	0.14997995
105	0x3f80cc05	1.0062262
106	0x3fedd9c6	1.8582084
107	0x3f2d847f	0.677803
108	0x3e57585d	0.21029802
109	0x3fc1ff8b	1.515611
110	0x3f2c4bd3	0.673032
111	0x3f2728bb	0.65296525
112	0x3f35d15c	0.7102258
113	0x3e9d99fc	0.30781543
114	0x3f718df2	0.94357216
115	0x3f3670e6	0.7126602
116	0x3fe0fe25	1.7577559
117	0x3fa1d612	1.2643454
118	0x3f4614b5	0.77375346
119	0x3f602d2e	0.8756894

model.5.bias f4 [120]
0	0xbed1f17f	-0.4100456
1	0xbe618d56	-0.22026572
2	0x3f14a9ca	0.5807158
3	0xbf06e115	-0.526872
4	0xbe85933b	-0.2608889
5	0xbe31102a	-0.17291322
6	0xbe2fe08d	-0.17175503
7	0xbf3068cf	-0.68909925
8	0xbeed6325	-0.46364704
9	0x3e06784f	0.13131832
10	0xbe43b4c9	-0.19111933
11	0x3f6b1ae8	0.9183793
12	0xbf16e048	-0.58935976
13	0x3ec01da9	0.3752263
14	0x3f85db89	1.0457622
15	0xbf20d167	-0.6281952
16	0xbe10b974	-0.14133245
17	0xbf165669	-0.587256
18	0x3f3bf1ee	0.7341603
19	0x3f2dd06e	0.67896163
20	0x3f8e7d66	1.1132019
21	0xbe6549ef	-0.22391485
22	0x3e6feaaf	0.23429368
23	0x3e9a94fe	0.30191797
24	0xbe7588a7	-0.2397791
25	0xbe3c35a0	-0.18379831
26	0x3eaa0c51	0.33212522
27	0x3f199932	0.5999938
28	0xbe427243	-0.189889
29	0xbdd39bb0	-0.103324294
30	0x3f280d00	0.65644836
31	0x3f991d37	1.1962041
32	0x3e3e6ecf	0.18596958
33	0x3f59547b	0.8489453
34	0xbe75be6f	-0.23998426
35	0xbf003848	-0.5008588
36	0x3fa7ec8a	1.3119061
37	0x3f22e017	0.63623184
38	0xbde72d93	-0.112879895
39	0x3f3f6e4d	0.7477768
40	0xbe5d1e7f	-0.21593665
41	0x3e7e36b2	0.24825552
42	0x3db9239f	0.09039997
43	0xbf0d5bfe	-0.55218494
44	0xbf146518	-0.57966757
45	0xbeef7f90	-0.4677701
46	0xbd81ef82	-0.063445106
47	0xbda3bb66	-0.07994728
48	0xbeddb6d5	-0.43303552
49	0x3f4dc971	0.803855
50	0xbe3d1cf9	-0.18468083
51	0xbf17fd02	-0.59370434
52	0x3dae8e8d	0.08523283
53	0xbe05b18e	-0.13056013
54	0x3f826eaa	1.0190022
55	0xbf1f7b0d	-0.62297136
56	0x3e3f023d	0.18653198
57	0x3f3f1675	0.7464364
58	0x3f41e24f	0.75735945
59	0x3f10b042	0.5651895
60	0x3f3b8250	0.73245716
61	0xbe8984ca	-0.26859123
62	0x3f5276ba	0.8221241
63	0x3f662f03	0.89915484
64	0x3f16aa91	0.58854014
65	0xbd1dffc4	-0.038573995
66	0xbd5b5b64	-0.053553954
67	0x3fa14970	1.2600536
68	0x3e2295d5	0.15877469
69	0xbe52f7c9	-0.20602335
70	0x3f4e1ed1	0.8051577
71	0x3dc935e9	0.09824736
72	0x3ebdf864	0.3710357
73	0x3f306c6e	0.6891545
74	0xbeab6e2a	-0.33482486
75	0x3eb56e67	0.35435793
76	0xbf35bf81	-0.70995337
77	0x3d284632	0.04108257
78	0x3da8189b	0.08207818
79	0xbf3821c5	-0.7192653
80	0x3f8ea557	1.1144208
81	0x3e5ef8bb	0.2177457
82	0xbf3eb3a3	-0.74492854
83	0x3f37c6f1	0.71787935
84	0x3e20fb7a	0.1572093
85	0xbeb6c03e	-0.35693544
86	0xbcb2b877	-0.021816475
87	0xbe044429	-0.12916626
88	0xbf35f23a	-0.71072733
89	0xbf1f90b0	-0.6233015
90	0xbf1bc780	-0.6085129
91	0x3f51393b	0.8172795
92	0xbd9b56a6	-0.07584886
93	0xbec6d881	-0.38837054
94	0xbe84681a	-0.25860673
95	0xbf4f8e69	-0.81076676
96	0x3f4f11a9	0.8088632
97	0x3d676d01	0.05650044
98	0xbf1ef25b	-0.62088555
99	0x3f07fd4b	0.5312087
100	0xbef8d1ce	-0.48597568
101	0xbf2039d3	-0.6258823
102	0x3f7a3f74	0.9775307
103	0x3f6ed7a7	0.9329781
104	0xbf256575	-0.64607936
105	0x3c948efc	0.018134587
106	0x3f411d58	0.754354
107	0x3bd1feb3	0.0064085363
108	0xbf220ce6	-0.6330093
109	0x3f839d0c	1.0282302
110	0xbed09a54	-0.40742743
111	0x3ef8d3ef	0.48599193
112	0xbc431d1a	-0.011908794
113	0xbe3d5f40	-0.18493366
114	0x3eff7bcd	0.4989914
115	0xbdd56032	-0.104187384
116	0x3f34500b	0.70434636
117	0x3e1783d7	0.14796387
118	0x3de9d286	0.11417107
119	0xbe8a7594	-0.2704283

model.5.running_mean f4 [120]
0	0xbde0f93c	-0.10985038
1	0xbe92cd04	-0.2867204
2	0xbc21905d	-0.009861079
3	0xbe09c3af	-0.13453554
4	0x3d3dbd33	0.046323013
5	0x3e34ea22	0.1766744
6	0x3f003c1c	0.5009172
7	0x3ea96745	0.330866
8	0xbf2c5293	-0.673135
9	0x3ee07517	0.43839332
10	0xbebedc23	-0.37277326
11	0xbf0e36c8	-0.5555234
12	0x3f38f59f	0.7224979
13	0x3e245aad	0.16050215
14	0x3f15298e	0.5826653
15	0xbe27a376	-0.16370949
16	0x3ef906d8	0.48638034
17	0xbe583e0b	-0.21117418
18	0xbe926434	-0.28592074
19	0xbeb8ff77	-0.36132404
20	0x3c74537d	0.014912483
21	0xbca6edab	-0.020377
22	0x3e94c1f0	0.29054213
23	0x3ee8cb91	0.4546781
24	0xbe98cca3	-0.29843625
25	0x3e792123	0.24329047
26	0xbdef8636	-0.116955206
27	0x3e64b57b	0.22334854
28	0x3e998c0a	0.29989654
29	0xbea52d89	-0.32261303
30	0xbe825f33	-0.25463256
31	0x3e55192f	0.20810388
32	0x3e6f5f23	0.23376136
33	0xbe044a48	-0.12918961
34	0xbe428f5a	-0.18999997
35	0xbd7b1924	-0.061303273
36	0x3f18a61f	0.5962848
37	0x3f02eedf	0.5114574
38	0x3d09d9ea	0.033655085
39	0xbee9ff60	-0.45702648
40	0x3ed22402	0.41043097
41	0xbdacdd01	-0.08440591
42	0xbefb3434	-0.49063265
43	0x3f30e540	0.6909981
44	0xbeb31dcf	-0.3498368
45	0x3d5694b3	0.052387904
46	0x3eb0b5ec	0.34513795
47	0x3e6968e9	0.22793926
48	0x3eb1cdf8	0.34727454
49	0xbddc6aee	-0.10762583
50	0x3e4ba363	0.19886546
51	0x3e0aaec1	0.13543226
52	0xbe8c2490	-0.27371645
53	0xbf2bbc71	-0.67084414
54	0xbddf34d9	-0.10898752
55	0x3e1488ac	0.14505261
56	0x3dd3b380	0.10336971
57	0xbece5009	-0.40295437
58	0x3f0a8700	0.54112244
59	0xbf13bbdb	-0.5770852
60	0xbf14ee9d	-0.58176595
61	0xbd954d4c	-0.07290134
62	0x3f1e71e6	0.61892545
63	0xbe3f745b	-0.1869673
64	0xbe957e6b	-0.29198012
65	0x3e190657	0.14943825
66	0x3d47709e	0.048691384
67	0xbdef99c0	-0.11699247
68	0x3e19e13f	0.15027331
69	0xbee41f39	-0.4455507
70	0xbe14316f	-0.14471982
71	0x3e158f3c	0.14605421
72	0x3dc9a371	0.09845627
73	0x3e4286f8	0.18996799
74	0x3e038162	0.12842324
75	0xbf1daec9	-0.61594826
76	0x3ed479e2	0.4149924
77	0x3f09258b	0.5357291
78	0xbea7cf0e	-0.32775158
79	0xbeaaa94a	-0.33332282
80	0xbdd113f2	-0.102088824
81	0x3d5884bb	0.052860957
82	0xbf3bf474	-0.7341988
83	0xbe91c240	-0.28468513
84	0x3f192eca	0.5983702
85	0x3ee8f4e6	0.45499343
86	0xbeeb4c30	-0.45956564
87	0x3e18ab16	0.14909014
88	0xbc9fa877	-0.01948951
89	0xbe8f1463	-0.2794524
90	0xbe0f2db4	-0.13982278
91	0x3ea0471b	0.3130425
92	0x3ee6a2b1	0.45046
93	0x3f035445	0.5130046
94	0xbef3102a	-0.4747327
95	0x3cacb9da	0.021084715
96	0x3f08a96a	0.53383505
97	0x3f0be285	0.54642516
98	0x3ee01fc6	0.4377424
99	0x3d0af546	0.033925317
100	0x3d03b138	0.03215143
101	0x3ad1c92f	0.0016005392
102	0xbe484733	-0.1955841
103	0xbeea7627	-0.45793268
104	0x3d32f018	0.043686002
105	0xbea49a2d	-0.32148877
106	0xbea6c794	-0.3257414
107	0x3e9d4931	0.30719903
108	0x3f04b9ce	0.51846015
109	0x3f0b7a80	0.54483795
110	0xbebc35c4	-0.3675977
111	0x3ee2bbf9	0.44284037
112	0x3ec173b7	0.37783596
113	0x3e094dcf	0.13408588
114	0x3d303d12	0.04302699
115	0xbf4fa87c	-0.8111646
116	0xbf1bac98	-0.6081023
117	0xbe3d56d2	-0.1849015
118	0x3ee11d64	0.43967736
119	0x3eebbe40	0.46043587

model.5.running_var f4 [120]
0	0x3e34dc46	0.17662153
1	0x3db2a8ad	0.087235786
2	0x3e4d20fc	0.20032114
3	0x3e0bfbd0	0.13670278
4	0x3d9c7f9a	0.076415256
5	0x3e15ce52	0.14629486
6	0x3d5868a8	0.052834183
7	0x3e172d40	0.14763355
8	0x3d9b4c63	0.07582929
9	0x3de15040	0.110016346
10	0x3db1cf71	0.086821444
11	0x3da39e92	0.07989229
12	0x3e81a05c	0.25317657
13	0x3dc8d4bb	0.098062
14	0x3dbbf321	0.091772325
15	0x3dad13a1	0.084510095
16	0x3e58f80e	0.21188375
17	0x3e36133e	0.17780778
18	0x3e0cc45c	0.1374678
19	0x3d8d6908	0.06904799
20	0x3e11cbd9	0.14237918
21	0x3e3e973f	0.18612383
22	0x3d954482	0.072884575
23	0x3e0c9f1f	0.13732575
24	0x3da6b248	0.08139473
25	0x3dc7030b	0.09717377
26	0x3e2fa97b	0.17154495
27	0x3dfa1da4	0.12212685
28	0x3d838d00	0.06423378
29	0x3e81c705	0.25347152
30	0x3dc78d36	0.09743731
31	0x3e8aacad	0.27084866
32	0x3e16b3da	0.14717045
33	0x3e3ca045	0.18420513
34	0x3e11ff54	0.14257556
35	0x3e0840a1	0.13305904
36	0x3e5f53ce	0.21809313
37	0x3d96a590	0.07355797
38	0x3da1aa4e	0.07893811
39	0x3e64961f	0.22322892
40	0x3e32b12b	0.17450397
41	0x3e0cc82f	0.13748239
42	0x3e14a864	0.14517361
43	0x3e047418	0.12934911
44	0x3da3826b	0.0798386
45	0x3daff494	0.085915715
46	0x3e8d953a	0.27652913
47	0x3e1cd3bb	0.15315144
48	0x3e744064	0.23852688
49	0x3e3d3f3d	0.18481155
50	0x3de978bd	0.11399982
51	0x3e236764	0.15957409
52	0x3e22a8d7	0.1588472
53	0x3e075bd5	0.13218625
54	0x3e204b51	0.15653731
55	0x3d985919	0.07438869
56	0x3e043a7f	0.1291294
57	0x3dbc02e7	0.09180241
58	0x3e13329f	0.14374779
59	0x3e031802	0.12802127
60	0x3dbab377	0.091162615
61	0x3d56663a	0.052343585
62	0x3e3c3268	0.18378603
63	0x3ddeea59	0.10884542
64	0x3e083a50	0.13303494
65	0x3d4afd01	0.04955769
66	0x3dacf256	0.084446594
67	0x3dd1e013	0.10247817
68	0x3e59dd46	0.21275815
69	0x3e2dcbc5	0.16972263
70	0x3ddffb80	0.10936642
71	0x3e1379b5	0.14401896
72	0x3e55e684	0.20888716
73	0x3e29d449	0.16584887
74	0x3e275663	0.16341548
75	0x3d68b1e4	0.056810275
76	0x3dee8952	0.116472855
77	0x3ddee1f1	0.10882939
78	0x3e2a6854	0.1664136
79	0x3e4a9f7c	0.19787401
80	0x3e05fe6b	0.13085334
81	0x3dfb2346	0.12262587
82	0x3db4b61f	0.08823799
83	0x3ddf1877	0.10893338
84	0x3e1614d5	0.14656384
85	0x3dac39b7	0.08409446
86	0x3e30bc41	0.17259313
87	0x3dbe970c	0.09306154
88	0x3dfed878	0.12443632
89	0x3de5cddd	0.11220906
90	0x3deabed0	0.11462176
91	0x3d8e38a0	0.06944394
92	0x3db816c2	0.08988716
93	0x3d90a558	0.07062787
94	0x3dc77012	0.097381726
95	0x3dc7ac3a	0.097496465
96	0x3dc5aeec	0.09652504
97	0x3e120d08	0.14262784
98	0x3e2284a6	0.15870914
99	0x3dae113f	0.08499383
100	0x3d82ff9a	0.063964084
101	0x3e31f5cf	0.17378925
102	0x3d8f3e8d	0.069943525
103	0x3d5da6c6	0.054114126
104	0x3d79d233	0.060991477
105	0x3dde00e7	0.10840016
106	0x3e3576c4	0.17721087
107	0x3e63815b	0.22217314
108	0x3d8eac78	0.069664896
109	0x3db65cbd	0.08904407
110	0x3d9beea3	0.07613876
111	0x3da07291	0.07834352
112	0x3dc96471	0.09833611
113	0x3e820c7b	0.25400147
114	0x3e32c1bd	0.17456718
115	0x3e0ced5c	0.1376242
116	0x3dee0498	0.1162197
117	0x3da99639	0.08280606
118	0x3d634022	0.055481084
119	0x3e03abef	0.12858556

model.7.weight f4 [120, 120]
0	0x3d800000	0.0625
1	0x3d800000	0.0625
2	0x3d800000	0.0625
3	0x80000000	-0.0
4	0xbd000000	-0.03125
5	0xbd800000	-0.0625
6	0x3dc00000	0.09375
7	0x80000000	-0.0
8	0x3d000000	0.03125
9	0x80000000	-0.0
10	0xbdc00000	-0.09375
11	0x3d800000	0.0625
12	0x3d000000	0.03125
13	0x3d800000	0.0625
14	0xbd000000	-0.03125
15	0x80000000	-0.0
16	0xbdc00000	-0.09375
17	0x3d000000	0.03125
18	0x3d800000	0.0625
19	0x00000000	0.0
20	0x3d000000	0.03125
21	0xbd800000	-0.0625
22	0xbdc00000	-0.09375
23	0xbd000000	-0.03125
24	0x3d800000	0.0625
25	0x80000000	-0.0
26	0xbd800000	-0.0625
27	0x00000000	0.0
28	0xbdc00000	-0.09375
29	0xbd800000	-0.0625
30	0x3dc00000	0.09375
31	0xbd800000	-0.0625
32	0x3d000000	0.03125
33	0xbd000000	-0.03125
34	0x3d000000	0.03125
35	0xbd800000	-0.0625
36	0x00000000	0.0
37	0xbdc00000	-0.09375
38	0x00000000	0.0
39	0x3d800000	0.0625
40	0x3dc00000	0.09375
41	0x80000000	-0.0
42	0x3dc00000	0.09375
43	0x3d800000	0.0625
44	0x3d800000	0.0625
45	0xbd800000	-0.0625
46	0xbd000000	-0.03125
47	0x3d000000	0.03125
48	0x3d000000	0.03125
49	0x3d000000	0.03125
50	0x00000000	0.0
51	0x3d800000	0.0625
52	0xbd000000	-0.03125
53	0x3d800000	0.0625
54	0x3d000000	0.03125
55	0xbd000000	-0.03125
56	0x80000000	-0.0
57	0x3d000000	0.03125
58	0xbdc00000	-0.09375
59	0xbdc00000	-0.09375
60	0xbd000000	-0.03125
61	0x80000000	-0.0
62	0xbd800000	-0.0625
63	0x3d800000	0.0625
64	0xbd800000	-0.0625
65	0x3d800000	0.0625
66	0xbd000000	-0.03125
67	0x00000000	0.0
68	0x3d800000	0.0625
69	0x3dc00000	0.09375
70	0xbd800000	-0.0625
71	0xbd800000	-0.0625
72	0x00000000	0.0
73	0x3d800000	0.0625
74	0x00000000	0.0
75	0x3d800000	0.0625
76	0x3d800000	0.0625
77	0xbd800000	-0.0625
78	0x00000000	0.0
79	0xbd800000	-0.0625
80	0x3d000000	0.03125
81	0x3dc00000	0.09375
82	0x00000000	0.0
83	0x3d800000	0.0625
84	0x3d800000	0.0625
85	0x3d000000	0.03125
86	0x3d800000	0.0625
87	0x3d000000	0.03125
88	0x80000000	-0.0
89	0xbdc00000	-0.09375
90	0xbd800000	-0.0625
91	0xbd800000	-0.0625
92	0x3d000000	0.03125
93	0x3d000000	0.03125
94	0xbdc00000	-0.09375
95	0xbd000000	-0.03125
96	0x3d800000	0.0625
97	0x00000000	0.0
98	0x3d800000	0.0625
99	0x3d800000	0.0625
100	0x00000000	0.0
101	0x3d000000	0.03125
102	0xbdc00000	-0.09375
103	0x3d000000	0.03125
104	0x80000000	-0.0
105	0x3d000000	0.03125
106	0xbdc00000	-0.09375
107	0x3d800000	0.0625
108	0xbdc00000	-0.09375
109	0xbd000000	-0.03125
110	0xbd800000	-0.0625
111	0xbd000000	-0.03125
112	0x80000000	-0.0
113	0x00000000	0.0
114	0xbd800000	-0.0625
115	0xbd800000	-0.0625
116	0x3d800000	0.0625
117	0xbd800000	-0.0625
118	0x3d000000	0.03125
119	0x80000000	-0.0
120	0xbd800000	-0.0625
121	0xbdc00000	-0.09375
122	0xbd800000	-0.0625
123	0xbd000000	-0.03125
124	0xbd000000	-0.03125
125	0xbd800000	-0.0625
126	0x3d000000	0.03125
127	0x80000000	-0.0
128	0xbd800000	-0.0625
129	0x80000000	-0.0
130	0x3dc00000	0.09375
131	0xbd800000	-0.0625
132	0xbd800000	-0.0625
133	0x3d800000	0.0625
134	0x3d800000	0.0625
135	0x3d800000	0.0625
136	0x3d000000	0.03125
137	0x3d000000	0.03125
138	0xbdc00000	-0.09375
139	0xbd000000	-0.03125
140	0xbd000000	-0.03125
141	0xbd000000	-0.03125
142	0x3d000000	0.03125
143	0xbd800000	-0.0625
144	0x00000000	0.0
145	0x80000000	-0.0
146	0x3d000000	0.03125
147	0x3dc00000	0.09375
148	0xbd800000	-0.0625
149	0xbd000000	-0.03125
150	0x00000000	0.0
151	0x3d000000	0.03125
152	0xbd000000	-0.03125
153	0xbd800000	-0.0625
154	0x80000000	-0.0
155	0x80000000	-0.0
156	0x3d000000	0.03125
157	0xbd800000	-0.0625
158	0xbd000000	-0.03125
159	0xbd800000	-0.0625
160	0xbd800000	-0.0625
161	0x3d800000	0.0625
162	0x3d000000	0.03125
163	0x00000000	0.0
164	0xbd000000	-0.03125
165	0x3dc00000	0.09375
166	0xbd800000	-0.0625
167	0x80000000	-0.0
168	0xbd800000	-0.0625
169	0x3d800000	0.0625
170	0xbd800000	-0.0625
171	0xbd800000	-0.0625
172	0xbd000000	-0.03125
173	0xbd800000	-0.0625
174	0xbd000000	-0.03125
175	0x3dc00000	0.09375
176	0x3d000000	0.03125
177	0xbd000000	-0.03125
178	0x00000000	0.0
179	0xbd800000	-0.0625
180	0xbd800000	-0.0625
181	0x3d800000	0.0625
182	0x80000000	-0.0
183	0x3d000000	0.03125
184	0x3d000000	0.03125
185	0x3d000000	0.03125
186	0x3d000000	0.03125
187	0x3dc00000	0.09375
188	0xbd000000	-0.03125
189	0xbdc00000	-0.09375
190	0x3d000000	0.03125
191	0x3d800000	0.0625
192	0x3d000000	0.03125
193	0x3d800000	0.0625
194	0xbdc00000	-0.09375
195	0x3d000000	0.03125
196	0xbd000000	-0.03125
197	0xbd000000	-0.03125
198	0x3d800000	0.0625
199	0x3d800000	0.0625
200	0xbd000000	-0.03125
201	0x00000000	0.0
202	0xbd800000	-0.0625
203	0xbd000000	-0.03125
204	0xbd800000	-0.0625
205	0xbd000000	-0.03125
206	0x3d800000	0.0625
207	0xbd800000	-0.0625
208	0x3d800000	0.0625
209	0x3d800000	0.0625
210	0x80000000	-0.0
211	0xbd800000	-0.0625
212	0xbdc00000	-0.09375
213	0x3d000000	0.03125
214	0x3d800000	0.0625
215	0x3d800000	0.0625
216	0xbdc00000	-0.09375
217	0xbd800000	-0.0625
218	0xbd800000	-0.0625
219	0xbd000000	-0.03125
220	0xbd800000	-0.0625
221	0xbd000000	-0.03125
222	0x00000000	0.0
223	0x3d000000	0.03125
224	0x3d000000	0.03125
225	0xbd000000	-0.03125
226	0x3d000000	0.03125
227	0x3d800000	0.0625
228	0xbd000000	-0.03125
229	0xbd800000	-0.0625
230	0x3d800000	0.0625
231	0x3d800000	0.0625
232	0x3d000000	0.03125
233	0x3d800000	0.0625
234	0xbd800000	-0.0625
235	0xbd000000	-0.03125
236	0x00000000	0.0
237	0xbdc00000	-0.09375
238	0x3d800000	0.0625
239	0x3d000000	0.03125
240	0x00000000	0.0
241	0xbd000000	-0.03125
242	0x3d800000	0.0625
243	0x3d000000	0.03125
244	0xbd800000	-0.0625
245	0x3d000000	0.03125
246	0x80000000	-0.0
247	0x3d000000	0.03125
248	0x3d800000	0.0625
249	0x3d800000	0.0625
250	0x3d000000	0.03125
251	0x3d800000	0.0625
252	0x3d000000	0.03125
253	0xbd800000	-0.0625
254	0xbd800000	-0.0625
255	0xbd800000	-0.0625
