neural_networks/HOVER_TO_HOVER_NOMINAL1.pt (torch, 130029 bytes, 8 tensors)

1.weight f4 [120, 16]
0	0xbd9942d7	-0.07483452
1	0x3e37694f	0.17911266
2	0x3c90ecd8	0.01769106
3	0x3e45696d	0.19278498
4	0xbd6d9b49	-0.05800942
5	0x3e6f2c3e	0.23356721
6	0x3d508044	0.050903574
7	0x3e5d6e2b	0.21624057
8	0x3dbe9803	0.09306338
9	0xbd02815f	-0.03186166
10	0xbe1e3f57	-0.1545385
11	0xbe32060c	-0.17385119
12	0xbe07a6b4	-0.13247186
13	0xbe3d03bb	-0.18458454
14	0xbe20b28f	-0.15693115
15	0xbe02b55c	-0.12764496
16	0x3cc42973	0.023945546
17	0xbe375904	-0.1790505
18	0x3e21020f	0.15723442
19	0x3de69576	0.11258976
20	0xbe73bd9a	-0.23802796
21	0x3de9d88d	0.11418257
22	0x3d632ae8	0.05546084
23	0xbdb57495	-0.08860127
24	0xbd46abc9	-0.04850367
25	0x3d023cf2	0.031796403
26	0x3e096834	0.13418657
27	0x3e10e8af	0.14151262
28	0xbe486a31	-0.19571759
29	0xbe27f8ad	-0.16403456
30	0xbc85522c	-0.016274534
31	0x3e219a82	0.15781596
32	0xbe6479a8	-0.22312033
33	0xbe1e6a6b	-0.15470283
34	0xbe453c09	-0.19261183
35	0xbe0affdd	-0.13574167
36	0x3e1e5af3	0.15464382
37	0x3db7c9ab	0.08974012
38	0x3e4a1794	0.19735557
39	0x3dcc92c1	0.099889286
40	0x3ca955de	0.020670827
41	0xbe6240f6	-0.22095093
42	0x3e21c2c9	0.15796961
43	0x3e5b1274	0.21393758
44	0xbde6bdfc	-0.112667054
45	0xbdef235b	-0.116766654
46	0xbe698540	-0.22804737
47	0x3ddecd57	0.10879009
48	0x3e75a2fd	0.23987956
49	0x3dc20d4f	0.09475195
50	0xbda8ae0b	-0.08236321
51	0xbd420999	-0.047372434
52	0xbde1d2bd	-0.11026523
53	0x3dbd0429	0.09229309
54	0xbde74258	-0.11291951
55	0xbdddc960	-0.10829425
56	0x3d961509	0.07328231
57	0xbddd1636	-0.10795252
58	0xbe215b53	-0.15757494
59	0xbd9907b8	-0.07472175
60	0xbe17ae9a	-0.14812699
61	0xbcc91fdf	-0.02455133
62	0x3e72e2e6	0.23719367
63	0xbdcd2dec	-0.100185245
64	0xbe41aee4	-0.18914372
65	0x3e35aae0	0.17740965
66	0xbd5856cd	-0.052817155
67	0xbdd046e0	-0.10169768
68	0x3e0aff1a	0.13573876
69	0xbd660dbb	-0.05616544
70	0x3d18c21f	0.037294503
71	0x3e69010e	0.22754309
72	0x3e024906	0.12723169
73	0x3df35ac5	0.11882547
74	0xbd7833fa	-0.060596444
75	0x3b0f5f11	0.0021876732
76	0x3e391a7b	0.18076508
77	0x3c0c8056	0.00857552
78	0xbdd60ccc	-0.104516596
79	0xbc77def9	-0.015128844
80	0xbd7420f7	-0.05960175
81	0xbd26ce7b	-0.04072426
82	0x3dcc6de7	0.099819
83	0xbe01ab52	-0.1266301
84	0x3e4e22b0	0.2013042
85	0x3de30aee	0.11086069
86	0xbe149c72	-0.14512804
87	0x3c6c7e66	0.014434433
88	0xbe4e561d	-0.20150037
89	0x3e3b7db0	0.18309665
90	0x3e38cecc	0.18047637
91	0x3d69399b	0.056939702
92	0xbe747cc8	-0.23875725
93	0xbd442c43	-0.047893774
94	0xbe17a798	-0.14810026
95	0xbd8b8f4c	-0.06814441
96	0x3a37c380	0.0007010028
97	0xbe8177e7	-0.2528679
98	0xbdff0f8b	-0.124541365
99	0x3e3ba2ff	0.18323897
100	0x3e5fa3bf	0.21839808
101	0xbe3e975f	-0.18612431
102	0x3e4008cd	0.18753357
103	0xbb9f4f34	-0.0048617367
104	0x3e4a7dad	0.19774504
105	0xbe2cd120	-0.1687665
106	0x3dbe2953	0.09285226
107	0x3cb1bd3c	0.02169668
108	0xbd2fe631	-0.042944137
109	0xbd78dad1	-0.060755555
110	0xbe486509	-0.19569792
111	0xbda16bb6	-0.07881872
112	0xbe353621	-0.1769643
113	0xbe522bef	-0.20524572
114	0xbde58f33	-0.11208954
115	0xbe1b28bb	-0.15152256
116	0x3c4b243f	0.012398778
117	0x3e75028b	0.23926751
118	0xbd1cd912	-0.038292952
119	0xbdcefb30	-0.10106504
120	0x3e2a373d	0.16622634
121	0x3e0312c4	0.12800127
122	0xbe3b6537	-0.18300329
123	0x3d9b9b3e	0.075979695
124	0x3dce8c61	0.10085369
125	0xbd61106c	-0.0549473
126	0xbe5af339	-0.21381845
127	0x3dd98054	0.1062018
128	0x3e768a90	0.24076295
129	0xbe77814d	-0.24170418
130	0x3e4857bb	0.19564717
131	0x3e3c5908	0.18393338
132	0xbdde1a4f	-0.10844862
133	0xbe13325f	-0.14374684
134	0xbe25fa89	-0.16208853
135	0x3d0783f5	0.03308483
136	0xbe1231fd	-0.14276882
137	0xbe459801	-0.19296266
138	0xbe45f48e	-0.19331571
139	0x3d97729f	0.07394909
140	0xbe612395	-0.2198623
141	0x3e3f2ef6	0.18670258
142	0x3e13dfb3	0.14440803
143	0xbcd11558	-0.025522873
144	0x3e4baaef	0.19889425
145	0xbe2dcf4c	-0.16973609
146	0xbd1ae947	-0.037820127
147	0x3e118ec4	0.14214617
148	0x3db4097c	0.087908715
149	0x3e58f6a9	0.21187843
150	0xbe4bc8c4	-0.19900805
151	0xbd29c824	-0.041450635
152	0x3e1c6569	0.1527306
153	0xbdf69c47	-0.12041526
154	0x3dce76cb	0.10081252
155	0x3d1241d0	0.035707295
156	0xbc96b839	-0.018398391
157	0x3dc38795	0.095473446
158	0xbb6b16ac	-0.0035871668
159	0xbe7ef734	-0.24898988
160	0xbe5ebf59	-0.21752681
161	0x3dead58f	0.11466514
162	0xbdf536a8	-0.119733155
163	0xbe48beb9	-0.19604005
164	0xbe2dab75	-0.16959937
165	0x3e703aeb	0.23459975
166	0xbc37cbb7	-0.011218003
167	0xbcf585ce	-0.02997103
168	0x3e61472c	0.21999806
169	0x3ca4d786	0.0201223
170	0x3c76fa07	0.01507426
171	0x3dd01a8e	0.10161315
172	0xbe207b3e	-0.15672013
173	0x3e2b5d98	0.16734922
174	0x3d8cbb21	0.068716295
175	0xbe394d42	-0.18095878
176	0xbd0aee22	-0.033918507
177	0x3e196711	0.14980723
178	0xbe04284f	-0.12906002
179	0xbe0b9df5	-0.13634475
180	0x3be6daba	0.007045117
181	0xbe32e8e6	-0.17471656
182	0x3e092a96	0.13395151
183	0x3e41c659	0.1892332
184	0xbe579d9d	-0.21056218
185	0x3e562c4b	0.20915334
186	0x3e567d59	0.20946254
187	0x3bd24db5	0.006417955
188	0x3e3084af	0.17238115
189	0x3e7a0fae	0.24420044
190	0x3e0a1f58	0.13488519
191	0xbe17c2dd	-0.14820428
192	0x3e530ea7	0.20611058
193	0x3d740ba8	0.05958143
194	0x3d8f8379	0.07007498
195	0x3c587d54	0.013213474
196	0xbe56a4c5	-0.20961292
197	0xbe25ac8e	-0.16179106
198	0x3d4d6a76	0.050150357
199	0x3d2be0b2	0.041962333
200	0xbd64495d	-0.055734027
201	0xbd5e6e7b	-0.05430458
202	0xbd3b46ed	-0.045721937
203	0xbe438179	-0.19092359
204	0x3d70ee7b	0.058821183
205	0x3dbbb57f	0.09165477
206	0x3ccb137c	0.024789564
207	0x3e46bcbd	0.19407935
208	0xbda6ef35	-0.08151094
209	0x3cc30c57	0.023809595
210	0xbdfe66ec	-0.124219745
211	0xbdcd37b2	-0.10020389
212	0x3da6b1b3	0.08139362
213	0xbc7bc671	-0.015367136
214	0x3e6c9272	0.2310274
215	0x3cc8a6c6	0.024493586
216	0xbe49e47f	-0.1971607
217	0x3c6d3859	0.014478766
218	0xbd6e2a4a	-0.0581458
219	0xbe058645	-0.13039501
220	0x3e628da8	0.2212435
221	0x3d97f158	0.074190795
222	0x3e02dafc	0.12778848
223	0x3d853e7e	0.0650606
224	0x3d128bcf	0.035777863
225	0x3e5b381b	0.21408121
226	0xbdac6227	-0.084171586
227	0x3d11acb5	0.035565097
228	0xbd8b99f8	-0.068164766
229	0x3d7178c7	0.058953073
230	0x3e745c01	0.23863222
231	0xbe1d21ce	-0.15344927
232	0xbd2683e8	-0.04065314
233	0x3ca8d83c	0.020610921
234	0xbd2d9d9c	-0.042386636
235	0xbda87907	-0.08226209
236	0xbe1f8717	-0.15578876
237	0xbe4719a7	-0.1944338
238	0xbe6d7b7f	-0.23191641
239	0x3cce9a4d	0.02522006
240	0xbdd8f83c	-0.10594222
241	0x3ce56fbb	0.028007379
242	0xbe8340b8	-0.25635314
243	0x3d022255	0.031771023
244	0x3e6108fc	0.21976084
245	0x3d9a4659	0.07532949
246	0xbd678991	-0.056527678
247	0x3d225c68	0.039638907
248	0x3e1dcd22	0.15410283
249	0x3d042b71	0.03226799
250	0xbdd08dc3	-0.10183289
251	0x3dc2fabb	0.09520479
252	0x3e0a4610	0.13503289
253	0xbd79e8e9	-0.061013136
254	0xbde3127d	-0.11087511
255	0x3dee6250	0.11639845

1.bias f4 [120]
0	0xbdf86fb9	-0.121306844
1	0x3d86a0da	0.06573649
2	0xbe2d0f8b	-0.1690046
3	0x3e5b1e3c	0.21398252
4	0x3db794cc	0.089639276
5	0x3e0ad470	0.13557601
6	0x3e778bf4	0.24174482
7	0xbdc36cf0	-0.095422626
8	0x3e50526a	0.20343938
9	0x3e60e27b	0.21961395
10	0xbe3cccbc	-0.18437475
11	0xbe2fed9e	-0.17180488
12	0xbe320878	-0.17386043
13	0x3d5cc15a	0.053895332
14	0x3e43108d	0.19049282
15	0xbe355508	-0.17708218
16	0x3e7d92e6	0.24763069
17	0x3e496846	0.19668683
18	0x3e59b046	0.21258649
19	0xbe0ea390	-0.13929582
20	0xbe30ab75	-0.17252906
21	0x3d8e5197	0.06949156
22	0x3bb872e2	0.0056289295
23	0x3db91b35	0.090383925
24	0xbd70b4e3	-0.058766257
25	0xbddcfc41	-0.10790301
26	0x3d126ab0	0.035746276
27	0xbdf776cc	-0.120832056
28	0xbe5ebfe2	-0.21752885
29	0xbe3bf234	-0.18354112
30	0x3cfe9418	0.031076476
31	0xbcfda8c8	-0.03096427
32	0xbe27a19b	-0.16370241
33	0x3d92a2cb	0.071599565
34	0xbe1fc5a7	-0.15602742
35	0x3e5b2862	0.21402124
36	0xbe2be97f	-0.1678829
37	0xbd8bc01e	-0.06823753
38	0xbe766bf3	-0.24064617
39	0xbe811bb6	-0.25216454
40	0xbdcec5d6	-0.10096328
41	0xbd72d3d5	-0.05928405
42	0xbe606e7b	-0.21917145
43	0xbd8bde47	-0.068295054
44	0x3ca5306c	0.02016469
45	0x3e73bf8c	0.23803538
46	0x3de1a721	0.110182054
47	0x3e806993	0.25080547
48	0xbc6afa42	-0.014341893
49	0xbe0bdf23	-0.13659339
50	0xbe5c2316	-0.21497759
51	0xbe4573c4	-0.19282442
52	0xbc684051	-0.0141754905
53	0xbdcb6543	-0.099314235
54	0x3e1e4b6b	0.15458457
55	0xbe4b7854	-0.1987012
56	0xbdc44dda	-0.095851615
57	0xbe052678	-0.13002956
58	0x3e746f4e	0.23870584
59	0xbdfcd7e6	-0.12345867
60	0x3e14b614	0.14522582
61	0xbe8adcca	-0.27121574
62	0xbe29892b	-0.16556232
63	0x3e7aff2b	0.24511401
64	0xbdbfc3fa	-0.093635514
65	0xbe295d31	-0.16539456
66	0xbd2e1473	-0.04249997
67	0xbbc66116	-0.006054054
68	0x3e780d24	0.24223763
69	0xbddf3319	-0.10898418
70	0xbe636d8f	-0.22209762
71	0xbe30b25c	-0.17255539
72	0xbe7ce06a	-0.24694982
73	0x3dbfed7e	0.0937147
74	0xbcfbc0f2	-0.030731652
75	0x3db2ad6c	0.08724484
76	0xbd7b112f	-0.061295684
77	0xbe845ea0	-0.25853443
78	0xbe7aa287	-0.24476062
79	0xbe462009	-0.19348158
80	0x3d9574b7	0.07297652
81	0x3e31dc42	0.17369178
82	0x3e27f6cd	0.16402741
83	0x3e445a85	0.19175155
84	0xbdae4ddd	-0.08510945
85	0x3d9197ca	0.071090296
86	0x3d6a5952	0.05721409
87	0x3d7e8e66	0.06214752
88	0xbc3f824e	-0.011688782
89	0xbe63d485	-0.22249039
90	0x3e164075	0.14673026
91	0x3e809a7f	0.2511787
92	0x3e4f48d5	0.20242627
93	0xbd6cf3b9	-0.05784962
94	0xbde5e616	-0.11225526
95	0x3df47a39	0.119373746
96	0x3e1e8ca1	0.15483333
97	0x3e1fea07	0.15616618
98	0x3e56e646	0.2098628
99	0xbd35c1a3	-0.04437412
100	0x3d729e8c	0.059233233
101	0x3e4490c3	0.19195847
102	0xbe333dfb	-0.17504112
103	0x3e169a7a	0.14707366
104	0xbb4fd011	-0.003170971
105	0x3d9098c2	0.07060386
106	0x3d4da94d	0.050210286
107	0x3e636c85	0.22209366
108	0xbe0edfdf	-0.13952588
109	0xbdd31791	-0.10307229
110	0x3d31e968	0.043435484
111	0xbd78b7a3	-0.060722005
112	0x3dc1312c	0.09433207
113	0x3dbe8db4	0.093043715
114	0xbe09d386	-0.13459596
115	0x3bdb8412	0.0066990936
116	0xbe755e6d	-0.23961802
117	0xbd1c2df9	-0.03812978
118	0x3d7fccb8	0.062451094
119	0xbe1366cd	-0.14394684

3.weight f4 [120, 120]
0	0x3d313be8	0.04327002
1	0x3da9b2b3	0.08286037
2	0xbd17a2da	-0.03702054
3	0xbd9d600a	-0.076843336
4	0xbdd3d3b8	-0.103431165
5	0x3db817bf	0.08988904
6	0x3d7c79d0	0.061639607
7	0xbd6c6967	-0.057717707
8	0x3b28d548	0.002576189
9	0x3c060226	0.008179223
10	0x3ba06838	0.0048952363
11	0x3d35ef5e	0.04441773
12	0x3ccae7cd	0.024768734
13	0x3d85202a	0.065002754
14	0x3cfcc5ec	0.030856095
15	0xbd457a11	-0.048212115
16	0xbcac217e	-0.021012064
17	0x3d5d4772	0.054023214
18	0xbc44e4d7	-0.01201745
19	0xbcbe8c33	-0.023260212
20	0xbcf2788a	-0.029598493
21	0xbd1a2b8b	-0.037639182
22	0x3d900aa1	0.07033277
23	0xbd793cc6	-0.060848974
24	0xbd6ad8ed	-0.057335783
25	0x3ac9fd24	0.0015410525
26	0xbd968dda	-0.07351275
27	0xbcb74b88	-0.022374883
28	0x3d98e104	0.07464793
29	0x3d75b3fa	0.059986092
30	0xbd672823	-0.05643476
31	0xba32ac6d	-0.00068158546
32	0xbd362571	-0.0444693
33	0xbd19169b	-0.037375074
34	0x3ca01ecb	0.019545933
35	0xbdb2793d	-0.087145306
36	0x3da24500	0.07923317
37	0x3b767b70	0.0037610196
38	0x3d007f38	0.031371325
39	0xbb8e6a02	-0.004346133
40	0xbdaada7a	-0.08342452
41	0xbd50f44c	-0.05101423
42	0x3d4c2a16	0.049844824
43	0xbd48da90	-0.049036562
44	0x3d4f6c76	0.050640546
45	0xbdb6ff08	-0.08935362
46	0xbd713190	-0.058885157
47	0xbd41e1af	-0.04733437
48	0xbd015d84	-0.031583324
49	0xbcdf9253	-0.027291453
50	0x3db4e717	0.088331394
51	0xbd41b558	-0.047292084
52	0xbdb50698	-0.08839148
53	0xbd2f2e7c	-0.04276894
54	0xbcaf4402	-0.021394733
55	0x3d163325	0.03666987
56	0x3d4fda60	0.050745368
57	0x3cbd1333	0.023080444
58	0xbc1d2e31	-0.009593532
59	0xbd81e873	-0.06343164
60	0x3d09a313	0.033602785
61	0xbd825fdf	-0.06365942
62	0xbc16e71b	-0.009210373
63	0x3d4f688b	0.05063681
64	0x3b33516e	0.0027361768
65	0xbd77bf2d	-0.060485054
66	0xbb8b15d0	-0.0042445436
67	0x3c9be5fb	0.019030562
68	0x3c746d78	0.0149186775
69	0x3d4ec056	0.050476395
70	0xbc984ed8	-0.018592283
71	0xbd87a52e	-0.066233024
72	0x3d9d491d	0.07679961
73	0x3d811793	0.063033246
74	0x3b68b396	0.0035507432
75	0x3c8118e3	0.015758937
76	0xbcad7d5d	-0.021177942
77	0x3d81612d	0.06317363
78	0xbd89d0e7	-0.06729298
79	0x3c82a94f	0.015949873
80	0x3baf8162	0.005356
81	0xbbd92856	-0.006627123
82	0xbd13a95f	-0.036050197
83	0xbc6564cc	-0.014001083
84	0xbd9e2cdb	-0.07723399
85	0x3d28995d	0.041161884
86	0x3b9eec59	0.004849952
87	0xbd9751fd	-0.07388685
88	0x3d66d458	0.05635485
89	0x3cae6391	0.021287711
90	0x3c35451a	0.011063838
91	0xbd4c1f80	-0.04983473
92	0x3d949476	0.07254879
93	0x3d07cf2e	0.033156566
94	0x3c0d2010	0.008613601
95	0xbd3fbb51	-0.0468095
96	0x3d450478	0.048099965
97	0xba9f7a05	-0.0012167102
98	0xbda31f07	-0.07964902
99	0xbdcacb1c	-0.09902021
100	0xbd7bb0f8	-0.061448067
101	0x3dabaf55	0.08383051
102	0xbdb33d59	-0.087519355
103	0x3d0c3fcc	0.03424053
104	0xbd31808e	-0.04333549
105	0xbcac8f5d	-0.021064455
106	0x3d4ac4ac	0.049503967
107	0xbd94655a	-0.07245894
108	0xbc01d4b6	-0.007924249
109	0xbc4242d8	-0.011856757
110	0x3d63f3bd	0.05565237
111	0x3c3e6c59	0.011622512
112	0x3b97be6e	0.0046308553
113	0xbd832452	-0.06403412
114	0xbd2315c6	-0.039815687
115	0xbc3da98f	-0.01157607
116	0x3d9234aa	0.07138951
117	0xbc50c2fc	-0.0127418
118	0xbc816522	-0.015795294
119	0x3c944e6f	0.018103806
120	0xbcb1343a	-0.021631349
121	0x3dbbc77f	0.0916891
122	0xba88368b	-0.0010392232
123	0x3db22a85	0.08699516
124	0x3d8d8db7	0.069117956
125	0xbdb2b7af	-0.08726441
126	0xbdc7b459	-0.097511955
127	0xbdc927f0	-0.098220706
128	0x3d697e34	0.057005122
129	0x3990f05d	0.00027644905
130	0xbd7a8fd1	-0.06117231
131	0xbc038539	-0.008027368
132	0xbd4afa63	-0.049555194
133	0xbd97980b	-0.07402047
134	0xbce18882	-0.027530912
135	0xbbfa1204	-0.007631542
136	0x3da8ae32	0.0823635
137	0x3c74d88b	0.014944206
138	0x3d69d8cd	0.057091523
139	0x3da83391	0.082129605
140	0xbc80177c	-0.015636198
141	0x3c129928	0.008947648
142	0xbc0581b2	-0.008148598
143	0xbd8dd952	-0.06926216
144	0xbdc4816a	-0.09594996
145	0x3ba319b9	0.0049774316
146	0x3d7dbea1	0.061949376
147	0x3b337c05	0.0027387154
148	0x3d9713e1	0.073768385
149	0x3b8750e4	0.004129516
150	0x3ca89ada	0.020581651
151	0xbd90f65c	-0.07078239
152	0xbda6e349	-0.0814882
153	0x3d4f0d57	0.05054983
154	0x3d9f6cd6	0.07784431
155	0x3c740de3	0.014895889
156	0x3c27a393	0.01023187
157	0xbdcb1f75	-0.09918109
158	0xbca2716a	-0.01982947
159	0xbcef7d4e	-0.029234555
160	0xbdc07411	-0.09397138
161	0x3db1b5e7	0.08677273
162	0x3c3e4bbb	0.011614735
163	0x3d6453a8	0.055743843
164	0xbce52389	-0.027971046
165	0x3cbbfbdc	0.022947244
166	0xbc9f9fa2	-0.019485299
167	0xbb983178	-0.004644569
168	0x3d663b7e	0.05620908
169	0x3d5b4690	0.05353409
170	0x3d840de1	0.0644796
171	0xbc650182	-0.01397741
172	0xbd7d5cf0	-0.06185621
173	0xbd970250	-0.07373488
174	0xbb925c7e	-0.0044665923
175	0xbd3fcf4e	-0.04682856
176	0xbc81576c	-0.015788756
177	0x3c7486b2	0.014924692
178	0xbc851352	-0.016244564
179	0x3d0778b2	0.03307409
180	0xbd332928	-0.04374042
181	0x3d585826	0.05281844
182	0xbc50ddb4	-0.012748171
183	0x3c1dfe44	0.009643141
184	0xbc5fe31f	-0.01366499
185	0xbcaa24a7	-0.02076943
186	0xbd9d7325	-0.07687978
187	0xbb52e82b	-0.003218184
188	0xbd5ee776	-0.054419957
189	0x3b76b21b	0.003764278
190	0xbdb18ece	-0.08669816
191	0x3c9709f6	0.018437367
192	0x3c864c72	0.016393874
193	0xbda88931	-0.08229292
194	0x3d9588bd	0.073014714
195	0x3d2a2cd8	0.041546673
196	0x3d934987	0.071917586
197	0xbc39f259	-0.011349284
198	0x3d902bf1	0.07039631
199	0xbd41756c	-0.047231123
200	0x3b824624	0.0039756466
201	0xbc0c2f59	-0.00855621
202	0x3d225670	0.039633214
203	0x3ce0b15c	0.027428322
204	0xbc9995c7	-0.018748177
205	0xbd90cac3	-0.07069924
206	0x3d8ac930	0.06776655
207	0x3dab269a	0.08356972
208	0xbcdc78f1	-0.026913138
209	0x3d5211a7	0.051286366
210	0x3d86241d	0.06549857
211	0xbcf718ff	-0.030163286
212	0xbd46155a	-0.048360206
213	0x386bf7b3	5.6259054e-05
214	0x3d8eae99	0.069668956
215	0x3d3c3012	0.04594428
216	0xbd622a98	-0.0552164
217	0x3da4969c	0.08036539
218	0xbd477391	-0.048694197
219	0x3db7d921	0.08976961
220	0x3d5aba1e	0.05340015
221	0xbd817834	-0.06321755
222	0xbd77cc92	-0.060497828
223	0xbd95ffc6	-0.073241755
224	0xbdbff53d	-0.09372947
225	0xbc836d69	-0.016043382
226	0x3bbc25ef	0.0057418267
227	0xbcd48b67	-0.025945378
228	0xbdb6207f	-0.08892917
229	0x3d2c7d0d	0.042111445
230	0xbd8dcc7c	-0.06923768
231	0xbd7507ff	-0.05982208
232	0xbd9a2c9d	-0.075280406
233	0xbd48b498	-0.049000353
234	0x3bd2cf04	0.0064333696
235	0x3c504d8e	0.012713803
236	0xbd2f5052	-0.04280121
237	0x3cbc83cf	0.02301207
238	0x3d39ea46	0.045389436
239	0x3d0a91b2	0.033830352
240	0x3d0ac840	0.03388238
241	0xbd109f01	-0.035307888
242	0xbd529276	-0.051409207
243	0xbd768136	-0.06018182
244	0xbbaa6848	-0.0052004196
245	0x3c09aad0	0.008402541
246	0x3db08fca	0.086211756
247	0xbd9bae41	-0.07601596
248	0xbd0680fd	-0.032837857
249	0x3bd3c404	0.006462576
250	0x3d03b231	0.03215236
251	0xbdc8a3b3	-0.09796848
252	0x3d58ccea	0.052929796
253	0xbc9acd0b	-0.0188966
254	0xbd587bd0	-0.05285245
255	0x3ce28271	0.02765009

3.bias f4 [120]
0	0xbd527615	-0.051382143
1	0x3d929318	0.07156962
2	0x3cdd2baa	0.02699836
3	0x3ce70919	0.02820258
4	0x3c4e3e8d	0.012588155
5	0x3d0b7448	0.03404644
6	0xbd3386ef	-0.043829855
7	0x3c868cbe	0.016424533
8	0xbb4ccd27	-0.003125021
9	0xbd4fb24b	-0.050707143
10	0x3d322df9	0.043500874
11	0xbc608933	-0.013704586
12	0x3c7feef8	0.015620939
13	0xbda100b8	-0.07861465
14	0xbd418273	-0.047243547
15	0x3d8f2f81	0.069914825
16	0xbc3c73c3	-0.011502209
17	0xbd5c0ba8	-0.053722054
18	0x3daee295	0.08539311
19	0xbd54d9f5	-0.051965673
20	0x3c743319	0.014904761
21	0xbd6e04c8	-0.05811003
22	0xbd0ac4b2	-0.03387899
23	0x3d04b245	0.032396574
24	0xbb8e4c35	-0.0043425807
25	0xbd29522b	-0.041338127
26	0xbc81e0e9	-0.015854316
27	0xbcf4d806	-0.029888164
28	0x3cb1430f	0.021638421
29	0xbdae3ed2	-0.08508076
30	0x3d61b8aa	0.05510775
31	0xbb571e93	-0.003282462
32	0x3d34d7b0	0.044151008
33	0xbd567fae	-0.05236786
34	0xbd3e42af	-0.046450313
35	0x3b8c78c7	0.0042868587
36	0xbd9e15af	-0.077189796
37	0xbd9fa1e4	-0.0779455
38	0xbd0c7c08	-0.034297973
39	0x3dbf8b2e	0.09352718
40	0xbd6344ef	-0.055485662
41	0xbc1b3cef	-0.009474977
42	0xbdbc5c33	-0.09197273
43	0x3cbdff9a	0.02319317
44	0xbcf9d5f5	-0.03049753
45	0xbd165bc4	-0.03670861
46	0xbdb7510f	-0.089510076
47	0xbd314ef9	-0.043288205
48	0x3da96fb8	0.08273262
49	0x3b6b1403	0.0035870082
50	0x3d653706	0.055960678
51	0xbd3ab9ce	-0.045587353
52	0x3d903fa4	0.070433885
53	0xbd82bb8c	-0.06383428
54	0xbd9876fe	-0.07444571
55	0x3c89f585	0.016840706
56	0x3d0413a7	0.032245304
57	0xbbc680d4	-0.006057838
58	0x3dc31259	0.09524984
59	0xbd8e468c	-0.069470495
60	0x3d9a822f	0.07544362
61	0x3c39195d	0.011297551
62	0x3da54822	0.08070399
63	0xbc81e4e9	-0.015856223
64	0xba977749	-0.0011555935
65	0x3d92b296	0.07162969
66	0x3d80ee82	0.06295492
67	0xbd929954	-0.07158151
68	0x3b994cd1	0.0046783467
69	0x3ce97c9b	0.0285018
70	0xbc044a6f	-0.008074387
71	0x3d6ef899	0.05834255
72	0x3d68bc11	0.05681998
73	0xbdbe290a	-0.09285171
74	0xbdbffb5a	-0.093741134
75	0xbd8fee67	-0.070278935
76	0x3d4951b5	0.049150188
77	0xbca91362	-0.020639125
78	0xbd554405	-0.05206682
79	0xbd957c24	-0.072990686
80	0x3cff82db	0.031190326
81	0xbe00d2e6	-0.12580451
82	0x3da8cb18	0.08241862
83	0x3cdebb52	0.02718893
84	0xbd86190f	-0.06547748
85	0x3cabb08e	0.020958211
86	0xbdb52ef0	-0.08846843
87	0x3d469772	0.048484273
88	0x3d47005b	0.048584323
89	0xbcb23d76	-0.021757822
90	0xbd82f36a	-0.06394084
91	0x3d8a0270	0.06738746
92	0x3d35b7b9	0.044364665
93	0xbd93c0f8	-0.0721454
94	0x3d6d4536	0.057927333
95	0xbcf513e5	-0.029916713
96	0xbd086026	-0.03329482
97	0xbd11b452	-0.035572357
98	0xbd38f669	-0.04515687
99	0x3c024d0e	0.007952942
100	0xbd0536a9	-0.03252283
101	0xbb52c1d8	-0.0032158997
102	0x3c976965	0.018482873
103	0x3d8bee7b	0.06832596
104	0xbda8fe31	-0.08251608
105	0x3d8d433d	0.0689759
106	0xbdb8d384	-0.090247184
107	0xbcf331fa	-0.029686917
108	0xbd8e2ff8	-0.06942743
109	0xbbeb114b	-0.0071736923
110	0xbd87db11	-0.066335805
111	0x3d854abd	0.06508396
112	0x3db0442a	0.08606751
113	0x3cc572e7	0.024102641
114	0x3da3e386	0.08002381
115	0xbd2167db	-0.039405685
116	0xbdb3caa4	-0.08778885
117	0x3d53de34	0.05172558
118	0xbd56cd43	-0.052441847
119	0xbcf44119	-0.029816197

5.weight f4 [120, 120]
0	0x3d893a5a	0.06700583
1	0xbd6d4b4d	-0.05793314
2	0xbcb193c9	-0.021676915
3	0x3d99f098	0.07516593
4	0xbdbc20d0	-0.09185946
5	0xbda4d653	-0.080486916
6	0xbd8ed446	-0.06974082
7	0xbd57e572	-0.05270905
8	0xbd81f459	-0.06345434
9	0x3bb453cb	0.005503153
10	0x3d8b4bf0	0.06801593
11	0xbd238834	-0.039924815
12	0x3d93fe89	0.07226283
13	0xbd471708	-0.04860595
14	0xbc356c2a	-0.011073152
15	0xbd074e38	-0.03303358
16	0x3d2a5791	0.041587416
17	0x3d7fe619	0.062475298
18	0x3cd04274	0.025422312
19	0x3d68dc07	0.05685046
20	0xbd21fdfa	-0.03954885
21	0xbd53c1b1	-0.05169839
22	0x3c9ce749	0.019153254
23	0xbd87dff5	-0.06634513
24	0x3da4e8f5	0.080522455
25	0xbd80bd06	-0.06286053
26	0xbda08bd2	-0.078391686
27	0xbd3c5f62	-0.0459894
28	0xbc5354d1	-0.01289864
29	0x3d2b7385	0.041858215
30	0xbd92b776	-0.07163899
31	0x3da8ba94	0.08238712
32	0x3d0be80b	0.03415684
33	0x3d966889	0.07344157
34	0xbd5d702c	-0.054062054
35	0xbbe7c4d4	-0.0070730243
36	0xbd9c9d2a	-0.07647164
37	0xbb65aa4b	-0.003504413
38	0x3d749482	0.05971194
39	0x3be03e33	0.006843352
40	0xbd251837	-0.040306296
41	0xbd9fbd08	-0.07799727
42	0xbd9eeb20	-0.0775969
43	0x3cbadd48	0.022810593
44	0xbd8916d7	-0.066938095
45	0xbd7c7d00	-0.061642647
46	0x3d48c5b4	0.04901667
47	0xbc37f34f	-0.011227443
48	0x3d40701f	0.046981927
49	0x3d3c2dbf	0.045942064
50	0xbd04fb72	-0.03246636
51	0xbcc8b146	-0.024498593
52	0x3d8df858	0.069321334
53	0x3d1b1b80	0.037868023
54	0x3cde63a8	0.02714713
55	0x3d8361d6	0.06415145
56	0xbd651bad	-0.055934597
57	0x3d53df51	0.051726643
58	0xbd9612f6	-0.07327835
59	0xbc57a9da	-0.013163054
60	0xbcbb97d9	-0.022899555
61	0xbd627f5d	-0.055297244
62	0xbaffd939	-0.0019519693
63	0xbd3edb31	-0.046595756
64	0x3d8af085	0.06784157
65	0xbcf265c5	-0.029589543
66	0x3da238c5	0.07920984
67	0xbd760a07	-0.060068157
68	0xbda99770	-0.082808375
69	0xbb9a542f	-0.0047097425
70	0x3c01ddac	0.007926386
71	0xbcf54b33	-0.029943084
72	0x3cb39eed	0.021926368
73	0xbdbb575c	-0.09147522
74	0xbc1536a7	-0.009107268
75	0x3c6ca119	0.014442706
76	0xbd330080	-0.04370165
77	0x3d94d291	0.07266725
78	0xbd832589	-0.06403644
79	0xbd77c466	-0.060490035
80	0xbd436a00	-0.04770851
81	0xbd97818c	-0.07397756
82	0x3d109054	0.035293892
83	0xbddd8734	-0.108168036
84	0xbcc79de3	-0.024367278
85	0xbd8c0046	-0.0683599
86	0x3d85c5c6	0.06531863
87	0xbd5c0851	-0.05371887
88	0xbcd00963	-0.025395101
89	0xbd8769b6	-0.0661196
90	0xbdb789f8	-0.08961862
91	0xbb347520	-0.0027535632
92	0xbce15deb	-0.027510604
93	0xbd2d9303	-0.04237653
94	0x3d68a6da	0.056799747
95	0x3d86c065	0.06579665
96	0xbcb6c0cc	-0.02230873
97	0x3d9473b8	0.07248634
98	0x3d39cc8b	0.045361083
99	0x3b5904c0	0.0033114403
100	0x3b959468	0.0045648105
101	0x3d58e1c9	0.0529497
102	0xbd017024	-0.031601086
103	0xbd156878	-0.036476582
104	0x3d83f569	0.06443293
105	0x3d9b22c8	0.07574993
106	0x3d78c9b1	0.060739223
107	0x3d6f553b	0.05843089
108	0x3d440b67	0.047862437
109	0x3dce9458	0.10086888
110	0x3ca0b102	0.019615654
111	0x3c44b9fb	0.012007232
112	0xbd13ac49	-0.036052976
113	0x3d5a73d9	0.053333137
114	0xba97cb3b	-0.0011580953
115	0x3b7cf96c	0.0038600815
116	0xbd15e578	-0.03659579
117	0x3d266a4d	0.04062872
118	0xbdb298e8	-0.08720571
119	0xbd954473	-0.07288446
120	0x3c43b6ae	0.01194541
121	0xbd421f39	-0.047393057
122	0x3d4044c7	0.04694059
123	0x3c35f3b4	0.011105467
124	0xbc07ecd6	-0.008296212
125	0xbd123822	-0.035698064
126	0xbc69f984	-0.014280681
127	0x3d9d2aae	0.07674156
128	0xbd47e337	-0.048800673
129	0xbd189155	-0.037247974
130	0xbd171a5d	-0.036890376
131	0x3d853099	0.0650341
132	0xbd5513db	-0.05202089
133	0x3cac29ed	0.021016086
134	0x3c9bf5a8	0.019038036
135	0xbd83a54a	-0.06428011
136	0xbd173f45	-0.036925573
137	0x3cde14e8	0.027109578
138	0x3ceb8e62	0.028754417
139	0x3cc81c48	0.024427548
140	0x3d92a803	0.07160952
141	0xbd28c919	-0.041207407
142	0x3d84b278	0.06479353
143	0xbc968e72	-0.01837847
144	0xbda3f92d	-0.08006511
145	0x3d1e2964	0.038613692
146	0x3cb01aa6	0.021497082
147	0xbd481101	-0.04884434
148	0x3d65a387	0.056064155
149	0xbd38de66	-0.04513397
150	0xbc2bd5e2	-0.010488005
151	0xbd7ac50b	-0.06122307
152	0xbd23683f	-0.03989434
153	0xbd03f2b1	-0.03221387
154	0x3cac918a	0.021065492
155	0x3d39d555	0.045369465
156	0xbd5e1479	-0.054218743
157	0x3d22d379	0.039752457
158	0x3cec95fe	0.028880116
159	0x3da57683	0.08079245
160	0xbd987276	-0.07443707
161	0xbd3a5bc0	-0.045497656
162	0x3cf04e23	0.029334133
163	0x3d2d24cb	0.042271417
164	0x3ca2973b	0.019847503
165	0x3cb4494e	0.02200761
166	0xbd809f28	-0.06280357
167	0xbc0a25ad	-0.008431834
168	0x3d3b57f5	0.04573818
169	0xbcbf804d	-0.023376608
170	0x3c75f7ee	0.015012724
171	0x3cfa9b2a	0.030591566
172	0x3db82ca9	0.08992893
173	0xbd47a1ed	-0.04873841
174	0xbd4254ba	-0.047444083
175	0xbc13abd0	-0.009013131
176	0x3c794297	0.01521363
177	0x3db17584	0.086649925
178	0x3b53adaf	0.0032299568
179	0x3cd6b3de	0.026208814
180	0xbd24dde3	-0.04025067
181	0x3d48a335	0.04898377
182	0x3dac2bba	0.08406778
183	0x3d9bd871	0.07609642
184	0xbb55bbad	-0.0032613084
185	0xbd8d5b54	-0.06902185
186	0xbb88ebeb	-0.0041785142
187	0x3d463331	0.048388664
188	0x3c80628e	0.015671995
189	0xbd823dcc	-0.06359443
190	0x3d1182c2	0.03552509
191	0xbd00e71c	-0.031470403
192	0x3c9173f3	0.017755484
193	0xbd5e8ba0	-0.054332376
194	0xbd7ccd62	-0.061719306
195	0xb988ea90	-0.00026114704
196	0x3b9c14ab	0.004763206
197	0x3d98f034	0.0746769
198	0x3d5ced53	0.053937268
199	0x3d6ab217	0.057298746
200	0x3cc7d7ff	0.024394987
201	0xbd924e99	-0.071438976
202	0x3ce70856	0.028202217
203	0x3d5bcb0e	0.053660445
204	0x3cae202c	0.021255575
205	0xbb70f357	-0.0036766136
206	0xbbe86df0	-0.0070931837
207	0xbd012a94	-0.031534746
208	0x3d4c269a	0.0498415
209	0x3aeeca26	0.0018218204
210	0xbd46a9c7	-0.048501756
211	0x3d02f9a5	0.03197636
212	0x3d8426cc	0.064527124
213	0x3db99619	0.09061832
214	0xbd49e5ce	-0.049291424
215	0x3cdc0f16	0.026862662
216	0x3d6ad1a8	0.05732885
217	0x3d9653a3	0.07340171
218	0x3d8ac04a	0.067749575
219	0xbd3ba558	-0.04581198
220	0xbdae7b34	-0.08519593
221	0xbaa5e578	-0.0012656888
222	0xbd81dd88	-0.06341082
223	0xbd63db06	-0.0556288
224	0xbcfe1a68	-0.03101845
225	0xbc026cab	-0.007960479
226	0xbd40b722	-0.04704965
227	0xbd8064ba	-0.06269212
228	0x3bdfbd40	0.0068279803
229	0x3da42028	0.08013946
230	0xbdac6951	-0.08418525
231	0x3cc1a3c5	0.023637662
232	0x3d8ae1c8	0.067813456
233	0xbd9696cb	-0.0735298
234	0xbcf8ce47	-0.030371798
235	0x3d957c54	0.07299104
236	0x3c9cdaa5	0.019147227
237	0xbd14a4e4	-0.036290064
238	0xbd964b60	-0.073385954
239	0x3d685974	0.056725934
240	0xbd8cc8a9	-0.068742104
241	0x3cab8329	0.020936565
242	0xbd72f89d	-0.059319127
243	0xbc871eb8	-0.01649414
244	0x3d714730	0.05890578
245	0x3ce6eebe	0.028190013
246	0x3d97a6c4	0.07404855
247	0x3d82522f	0.063633315
248	0x3d38a8ca	0.045082845
249	0xbd23595a	-0.039880134
250	0xbcb56b19	-0.022145795
251	0x3c6ed5ad	0.014577311
252	0x3d407a6f	0.04699176
253	0x3be593cf	0.0070061455
254	0xbd2a8342	-0.041629083
255	0xbd7b723d	-0.061388243

5.bias f4 [120]
0	0xbd910600	-0.070812225
1	0x3d533202	0.051561363
2	0x3da27b27	0.07933646
3	0xbdbdb813	-0.09263625
4	0xbbb43204	-0.0054991264
5	0x3c060419	0.008179688
6	0xbceba80e	-0.028766658
7	0xbc85e7e8	-0.016345933
8	0x3d36d62b	0.04463784
9	0x3c961d01	0.018324377
10	0x3d05abb1	0.03263444
11	0x3ccf5cde	0.025312837
12	0x3c72ca33	0.014818716
13	0x3d65b671	0.056082193
14	0x3baa0b87	0.0051893624
15	0x3c981453	0.018564379
16	0x3d2fcb26	0.042918347
17	0xbce59136	-0.028023344
18	0xbd5d65d9	-0.054052208
19	0xbc9feaa0	-0.019521058
20	0xbd7c8714	-0.061652258
21	0xbbc9aa37	-0.0061543244
22	0x3cc24d32	0.02371845
23	0xbd39faa4	-0.045405045
24	0x3caeeb27	0.021352364
25	0xbd447dda	-0.047971584
26	0xbdd5fda2	-0.10448767
27	0x3d4d0afc	0.050059304
28	0xbd9ddccc	-0.07708129
29	0x3da5d923	0.08098056
30	0xbdcce45e	-0.10004495
31	0xbdb62022	-0.088928476
32	0x3ac310f7	0.0014882375
33	0x3d3893ad	0.04506271
34	0xbd1748cb	-0.036934655
35	0xbbe98a1f	-0.007127061
36	0xbd46b56f	-0.048512872
37	0x3c03e7c9	0.008050867
38	0x3c286457	0.010277829
39	0x3d87630c	0.066106886
40	0xbd7758b3	-0.060387325
41	0xbcde3a75	-0.027127484
42	0x3d9fc367	0.07800942
43	0x3d5f7186	0.054551624
44	0x3d194b9f	0.037425634
45	0xbd01ca92	-0.031687327
46	0xbcd9f1b9	-0.02660452
47	0x3da2d7be	0.07951306
48	0x3d605913	0.054772448
49	0x3d3efdbe	0.046628706
50	0x3da71dfd	0.08160017
51	0xbd8f4dc4	-0.069972545
52	0xbd89a30d	-0.067205526
53	0xbd979986	-0.07402329
54	0x3d921144	0.071321994
55	0x3d62d554	0.055379227
56	0xbc0a29e0	-0.008432835
57	0x3d182f46	0.03715446
58	0xbc98914e	-0.018623974
59	0x3d2225ef	0.039586958
60	0xbc9e1fc0	-0.019302249
61	0xbc2c471d	-0.010515002
62	0xbdad6713	-0.084669255
63	0x3d84e29a	0.06488533
64	0x3d248464	0.04016532
65	0xbc4c4741	-0.01246816
66	0xbcc0f16b	-0.023552617
67	0xbd473a1d	-0.048639406
68	0x3c9943fa	0.018709172
69	0x3d9af7c5	0.075667895
70	0xbcfa24f7	-0.030535204
71	0x3d31b8ef	0.043389257
72	0xbd6f013f	-0.058350798
73	0x3dab1cae	0.083550796
74	0x3dcddb6c	0.10051617
75	0xbcebfe56	-0.0288078
76	0xbdbc070c	-0.091810316
77	0x3d17b174	0.037034467
78	0x3cfb82d3	0.03070203
79	0xbd759427	-0.059955742
80	0xbd6bd4ad	-0.05757587
81	0xbd86d897	-0.0658428
82	0x3cdde6dc	0.027087621
83	0xbd5eefff	-0.054428097
84	0x3d50d063	0.050979983
85	0xbd483e9c	-0.048887834
86	0x3d221b19	0.039576624
87	0x3cfd4fb0	0.030921787
88	0x3db17c70	0.08666313
89	0xbd9a6126	-0.07538061
90	0xbbdd6864	-0.006756829
91	0xbd925b43	-0.07146313
92	0xbdb49dcf	-0.08819162
93	0xbda4e79b	-0.08051988
94	0x3d6a81da	0.057252742
95	0x3d51d15e	0.05122506
96	0xbd28fa66	-0.041254424
97	0x3d728d31	0.059216682
98	0x3d96fb80	0.073721886
99	0xbd19ef73	-0.037581872
100	0xbc8bd8a9	-0.017071085
101	0xbcfc921c	-0.03083139
102	0xbdc99276	-0.09842388
103	0xbcf03dc3	-0.029326325
104	0x3d5f6e81	0.054548744
105	0x3d91a652	0.07111801
106	0xbdcd12be	-0.100133404
107	0x3d160ca2	0.03663314
108	0xbcb613d6	-0.022226255
109	0xbb423e7d	-0.0029639297
110	0xbda6e71d	-0.0814955
111	0xbc19942c	-0.009373706
112	0xbd816d7e	-0.06319712
113	0xbd55caf2	-0.052195497
114	0x3cbb01d2	0.022828016
115	0x3d24a7ab	0.040198963
116	0x3d803cf4	0.06261626
117	0x3d039275	0.032122094
118	0x3c580c3b	0.01318651
119	0x3d655058	0.055984825

7.weight f4 [4, 120]
0	0xbd32a666	-0.04361572
1	0xbd0c24cb	-0.034214776
2	0xbcb6e190	-0.022324353
3	0xbd604a48	-0.05475834
4	0xbd77fa34	-0.060541347
5	0x3d601d94	0.054715708
6	0xbd520c63	-0.051281344
7	0xbd41b10e	-0.047287993
8	0x3bc2a9b0	0.0059406385
9	0x3d421a9b	0.047388654
10	0x3d7eca10	0.06220442
11	0xbd042796	-0.032264315
12	0xbd33b3a3	-0.043872487
13	0xbcbe8278	-0.023255572
14	0x3c352556	0.011056265
15	0xbd702781	-0.058631424
16	0x3d821f8b	0.063536726
17	0xbc03538f	-0.008015527
18	0xbc699ce4	-0.014258597
19	0xbd1f0dc2	-0.03883148
20	0xbd469d5b	-0.04848991
21	0x3d8bb509	0.06821639
22	0xbcdd0fdb	-0.0269851
23	0xbc9fac60	-0.019491374
24	0x3c387808	0.011259086
25	0xbb930e5e	-0.0044877967
26	0xb9963815	-0.00028652014
27	0xbca081f3	-0.019593215
28	0x3d761e20	0.060087323
29	0xbbae8c34	-0.005326772
30	0x3d44002a	0.04785172
31	0x3d5a41c4	0.053285375
32	0x3d8c4869	0.06849749
33	0x3cd976a2	0.026545826
34	0x3c9c7c0b	0.019102117
35	0xbcf4f252	-0.029900704
36	0xbca587a3	-0.020206278
37	0x3ba13813	0.0049200146
38	0xbad339bd	-0.001611523
39	0x3cb4c434	0.022066213
40	0x3c33a010	0.010963455
41	0x3d75aced	0.059979368
42	0x3d5f8631	0.054571334
43	0xbce42565	-0.027849862
44	0xbbf8d3ef	-0.007593624
45	0xbc20fb8a	-0.009825597
46	0xbc230ebb	-0.0099522425
47	0xba942829	-0.0011303473
48	0xbca5a94e	-0.020222332
49	0x3b808966	0.003922629
50	0xbcdbbfa7	-0.026824785
51	0x3d24f00c	0.04026799
52	0x3c80745b	0.015680483
53	0xbc86dbae	-0.016462173
54	0x3d980732	0.074232474
55	0x3cfc9ee4	0.030837484
56	0x3a2f9e32	0.0006699293
57	0x3d3f3e4b	0.046690267
58	0xbcaeabb2	-0.021322105
59	0xbbcb71bb	-0.006208626
60	0x3d2181bb	0.03943036
61	0x3d2bf2c6	0.041979574
62	0xbce458c9	-0.027874367
63	0xbd57d93b	-0.0526974
64	0x3c80a631	0.015704246
65	0x3d181ba4	0.037135735
66	0x3cf0bf35	0.02938805
67	0xbc86e6a9	-0.01646741
68	0x3bf90506	0.007599476
69	0x3cd3474d	0.025790835
70	0x3c56963f	0.013097345
71	0x3d24c12e	0.040223293
72	0xbd8b61a8	-0.06805736
73	0x3cc70662	0.024295036
74	0xbca8db4d	-0.020612383
75	0x3c5bd94a	0.013418505
76	0xbd6113f6	-0.054950677
77	0x3d48cce8	0.04902354
78	0x3bf0160b	0.0073268465
79	0x3b6762e2	0.0035306741
80	0xbd51cd1b	-0.051220994
81	0xbda111ae	-0.078647
82	0x3d9ad5ca	0.07560308
83	0x3c1ea49e	0.0096828025
84	0x3d57eca3	0.05271591
85	0x3d2994a8	0.041401535
86	0xbadbe076	-0.0016775269
87	0x3d502a1e	0.050821416
88	0xbbb90d23	-0.005647318
89	0xbbc6d687	-0.006068054
90	0xbc2d7620	-0.010587245
91	0xbb91e140	-0.0044519007
92	0x3d8100fa	0.062990144
93	0xbbae93ad	-0.005327663
94	0x3d3a8ee9	0.045546446
95	0x3ca25430	0.019815534
96	0x3d3a06a1	0.045416478
97	0xbc9cc3b5	-0.01913629
98	0xbc804d92	-0.015661988
99	0x3da43965	0.0801876
100	0xbd2e58c6	-0.04256513
101	0xbd0d973f	-0.034568068
102	0x3cbacb0b	0.022801897
103	0x3c460c51	0.012087897
104	0xbd619223	-0.055071007
105	0x3c0ef357	0.008725009
106	0x3ca69e86	0.020339262
107	0x3c7c28e3	0.0153906075
108	0xbc73e511	-0.014886157
109	0x3bb71caa	0.005588134
110	0x3d09b4f5	0.03361984
111	0xbc10b913	-0.008833188
112	0x3d4fd01a	0.05073557
113	0x3d0e32a5	0.034716267
114	0x3d7accba	0.0612304
115	0x3cae07c0	0.02124393
116	0xbd370103	-0.0446787
117	0x3c4ab4b7	0.012372187
118	0x3cd03ab5	0.025418619
119	0xbd1585cc	-0.03650455
120	0xbd854307	-0.06506925
121	0xbc83f25c	-0.016106777
122	0x3ce3c917	0.027805848
123	0x3d59b9eb	0.05315582
124	0xbca4bbab	-0.020109018
125	0xbd3c5ee2	-0.045988925
126	0xbd2955be	-0.041341536
127	0x3d22eaa8	0.039774567
128	0xbb34c1c3	-0.0027581311
129	0x3d4bd1e4	0.049760714
130	0xbd392182	-0.04519797
131	0xbcf23ff8	-0.029571518
132	0x3c367c76	0.011138072
133	0xbc8e05b9	-0.017336713
134	0xbd03e205	-0.03219797
135	0x3be9e1d5	0.007137517
136	0x3cdafda3	0.026732272
137	0xbd3a1888	-0.04543355
138	0x3c850ba8	0.01624091
139	0x3b86cc99	0.0041137454
140	0xbd048a43	-0.03235842
141	0x3d24f283	0.04027034
142	0xbc4a9c56	-0.012366375
143	0x3d36868c	0.044561908
144	0x3cd3a318	0.025834605
145	0xbc5887b2	-0.013215946
146	0xbc4f6bdc	-0.012659993
147	0xbbaa06ec	-0.0051888134
148	0x3d56dbe7	0.05245581
149	0x3d5c4a03	0.05378152
150	0x3d8f6c17	0.070030384
151	0x3d9c11f5	0.076206125
152	0xbd18a5a5	-0.037267346
153	0xbd1802f2	-0.037112184
154	0x3caedfa4	0.021346875
155	0x3b137a35	0.002250326
156	0x3cbab2b1	0.022790285
157	0xbd38065e	-0.044927947
158	0x3d2f41de	0.042787425
159	0xbcd7b514	-0.026331462
160	0xbc482b82	-0.012217404
161	0xbc2c21e1	-0.010506124
162	0xbd8f54f4	-0.069986254
163	0xbc40a5f9	-0.011758321
164	0xbcd41d4b	-0.025892874
165	0x3d30b70f	0.04314333
166	0xbb174328	-0.00230808
167	0xbd76d8a7	-0.06026521
168	0x3b96b811	0.004599579
169	0xbbbdcb40	-0.0057920516
170	0xbd7050e7	-0.058670904
171	0x3c34843a	0.011017853
172	0xbd42de2c	-0.04757516
173	0xbd0a1c6a	-0.033718504
174	0xbcb947d0	-0.02261725
175	0xbd05cd91	-0.032666747
176	0xbd3d793f	-0.046258207
177	0xbcc3f46a	-0.023920257
178	0xbd14e203	-0.036348354
179	0x3d531e02	0.05154229
180	0xbb155924	-0.0022788728
181	0x3d18b578	0.037282437
182	0x3d23e60b	0.040014308
183	0x3c9ab6f2	0.018886063
184	0x3c26fc1d	0.010191944
185	0x3c58c2b7	0.013230017
186	0xbd1d3663	-0.038381945
187	0x3d16c499	0.036808584
188	0xbcf6d757	-0.030131979
189	0xbc1ff99a	-0.0097640995
190	0xbc92f9e1	-0.017941417
191	0xbc8bc3c1	-0.017061116
192	0x3c12662d	0.008935493
193	0xbcbdb75e	-0.023158725
194	0x3c1939ef	0.009352191
195	0xbc34a84c	-0.011026453
196	0xbc671d38	-0.014106087
197	0xbc95521d	-0.018227631
198	0xbd2c568e	-0.042074732
199	0xbc5a4fbd	-0.013324675
200	0x3bee425b	0.007271094
201	0x3c0c9202	0.008579733
202	0x3d4f0d2a	0.050549664
203	0x3d28c7cf	0.041206177
204	0x3d88a48e	0.06672011
205	0x3cf555a2	0.02994806
206	0x3d197da0	0.03747332
207	0x3c44bc5a	0.012007797
208	0xbd0e5493	-0.034748625
209	0xbc896e70	-0.016776294
210	0xb8a515c0	-7.871864e-05
211	0x3c9323ee	0.017961469
212	0x3c8ed9b6	0.017437797
213	0x3d479197	0.04872283
214	0xbdb5df52	-0.088804856
215	0xbca5b4b6	-0.020227771
216	0x3da5a84d	0.080887415
217	0xba9e24a5	-0.0012065364
218	0x3d416f84	0.04722549
219	0xbd1d5e1f	-0.03841984
220	0x3d31e406	0.04343035
221	0x3c269668	0.010167696
222	0x3d2b78d8	0.041863292
223	0xbd516efc	-0.051131234
224	0xbd5bbc7c	-0.05364655
225	0x3b99d867	0.0046949866
226	0xbbdb94b9	-0.0067010787
227	0x3c83c30b	0.016084215
228	0xbc9991ed	-0.01874634
229	0xbd2c3b6d	-0.04204886
230	0x3cf9c440	0.030489087
231	0xbca2a9c8	-0.019856349
232	0x3d00df96	0.03146323
233	0xbd667fbc	-0.05627416
234	0xbcdd459a	-0.027010728
235	0x3d11ff0f	0.035643633
236	0x3c468a64	0.012117956
237	0xbd0131e1	-0.03154171
238	0xbc8816fa	-0.016612519
239	0xbd5b3ed6	-0.053526722
240	0x3d9471d1	0.07248271
241	0x3d73cc8b	0.05952124
242	0xbab759ca	-0.0013988551
243	0xbd9b89e3	-0.07594659
244	0xbc8cf383	-0.01720596
245	0xbd8683d5	-0.06568114
246	0xbcfa028a	-0.030518789
247	0x3d16b264	0.03679122
248	0x3d772f90	0.060348094
249	0xbcfe3886	-0.031032812
250	0x3d5b7631	0.053579513
251	0xbd31ffac	-0.04345672
252	0x3d18cd8d	0.037305404
253	0xbd854b53	-0.065085076
254	0x3d6148df	0.055001136
255	0x3d1efaac	0.038813278

7.bias f4 [4]
0	0x3be60233	0.007019305
1	0x3cc20632	0.023684595
2	0xbd66ccce	-0.05634766
3	0x3d00c7e0	0.031440616
