neural_networks/HOVER_TO_HOVER_NOMINAL_256_4096_0.0001_100.pt (torch, 133365 bytes, 10 tensors)

mean f4 [16]
000000 ee a4 87 3b 88 ac 54 ba 77 7e 00 ba 45 62 aa b8
       0.004139534 -0.00081128674 -0.0004901657 -8.124536e-05
000010 a2 fd 4f b9 e5 43 1c b8 f7 60 4f ba 93 aa c5 39
       -0.00019835544 -3.725653e-05 -0.0007910872 0.00037701856
000020 c6 e7 b6 ba 37 e6 d0 38 53 14 1d 3a 09 0d c7 3a
       -0.0013954572 9.961094e-05 0.0005992103 0.001518638
000030 b4 5d ac 45 44 65 ac 45 96 51 ac 45 77 4f ac 45
       5515.713 5516.658 5514.198 5513.933

std f4 [16]
000000 05 24 5a 3e df 5c 76 3e 35 25 03 3e 7a b7 ae 3c
       0.21302803 0.24058865 0.12807162 0.021327723
000010 7e 8a ce 3c c7 6e b2 3c d2 b9 08 3d e0 62 f7 3c
       0.025212523 0.021781338 0.033380337 0.030198514
000020 16 cf 06 3e bc a1 43 3d 83 cd 46 3d f5 da 45 3d
       0.13164935 0.047761664 0.048535835 0.048304517
000030 cf 30 39 43 28 d9 3a 43 15 d0 26 43 03 69 24 43
       185.19066 186.84827 166.81282 164.4102

weight f4 [120, 16]
000000 a9 61 9a 3d fd 3d f8 3d 12 62 07 3e 64 17 29 3e
       0.075381584 0.12121198 0.13221005 0.16512829
000010 f4 b1 f2 3d f8 6d 6a 3e 49 e1 0e be 81 dd 53 be
       0.11850348 0.22893512 -0.13953127 -0.20689966
000020 75 66 5d 3c 0c ff 11 be d2 8c 20 be b6 09 78 3e
       0.013513197 -0.14257449 -0.15678719 0.24222454
000030 06 47 0a bc e2 77 06 be 3a cb 60 3e 29 a9 d6 3d
       -0.008439785 -0.13131669 0.21952525 0.104814835
000040 fb 87 34 3e a5 14 14 be 0c 7c ab bc b9 e7 10 3e
       0.17629997 -0.14461 -0.020933174 0.14150895
000050 51 e3 ff 3d 5f 17 13 3d 5d 33 be 3d 4d c4 54 be
       0.12494529 0.03591096 0.092871405 -0.20778008
000060 76 d3 22 be 22 ba 15 3e 57 8b 6d bd 7e da 3d be
       -0.15900978 0.14621785 -0.057994213 -0.1854038
000070 76 80 21 bd 34 2b 20 be 37 31 38 be 34 b8 e1 bd
       -0.03942915 -0.1564148 -0.17987524 -0.11021462
000080 a3 4d 08 3e 3e b6 b0 3d d8 5d 6c be c9 36 12 be
       0.13310866 0.0862851 -0.23082674 -0.14278711
000090 00 98 4c be 11 a8 31 be b8 d0 ff bd 14 1c 33 be
       -0.19979858 -0.17349268 -0.12490982 -0.1749118
0000a0 72 8e 00 be 6b 17 c9 bd bb 68 ac bd 25 25 ff bd
       -0.12554339 -0.0981892 -0.08418413 -0.12458257
0000b0 d8 28 5b bd 36 21 11 be aa ab 4d 3d 20 c2 4c 3d
       -0.05350575 -0.14172825 0.05021254 0.04998982
0000c0 de ab 16 be 10 e7 5c 3e 79 dd 16 be cc 03 81 bd
       -0.14714 0.21572518 -0.14732923 -0.06299552
0000d0 3e 30 0b 3e 76 aa 81 3d f7 f1 a0 bc 8d 5b 1e 3d
       0.13592622 0.06331341 -0.019646628 0.03866153
0000e0 d9 e4 2f 3e 82 5b a4 bd 02 b5 d6 bd 96 f7 dd 3d
       0.17177142 -0.08025266 -0.10483743 0.10838239
0000f0 66 df 7c 3d 5d e2 90 bd bd e9 f7 3d 57 6f 1f be
       0.061736487 -0.07074425 0.12105129 -0.15569817
000100 76 78 cc bd f6 7d 08 bd ba 39 1a 3b e7 5f 0e be
       -0.099839136 -0.03332325 0.0023532943 -0.13903771
000110 11 b4 53 3c f7 b8 44 be cc cd 44 3e 6b fd 02 3d
       0.012921349 -0.19211183 0.1921913 0.03197996
000120 76 69 e6 3d 17 4b 66 3e 15 c9 e5 3d 7a 53 61 be
       0.11250584 0.22489582 0.11219994 -0.220045
000130 cc f2 ae bd cb 76 d7 bc 44 a9 ad bd dd 25 22 3e
       -0.085424036 -0.026301762 -0.084795505 0.15834756
000140 3f 42 fa 3d 53 5d 3f 3c ee f4 17 3e 5e 65 41 3e
       0.12219667 0.011679965 0.14839527 0.18886325
000150 f9 9e 21 be 26 bb 37 be e0 21 a8 bd c5 48 32 be
       -0.157833 -0.17942485 -0.08209586 -0.17410572
000160 00 9c 13 3e bf ce 9f 3c c9 27 ed bc ef d9 83 3d
       0.14414978 0.019507764 -0.028949635 0.06438052
000170 7f 0f 64 3e 42 d2 88 3d ad 1d 07 be 37 37 0b 3e
       0.22271536 0.066807285 -0.13194914 0.13595282
000180 da e1 7e bc 45 f2 58 bd 96 35 2c be 1c f0 4e 3e
       -0.015556777 -0.05296542 -0.16817316 0.20208782
000190 77 85 ab bc 52 c7 b0 3d bf 0a 5e 3d d3 40 0d be
       -0.020937664 0.08631767 0.054209467 -0.1379426
0001a0 1d 7d e5 bd 09 a5 0e be 93 ea 11 3d 72 cc 39 be
       -0.11205504 -0.13930143 0.035624098 -0.18144396
0001b0 b1 d1 75 bd f0 63 88 bb 45 a6 33 3d e1 9a c1 bd
       -0.06001443 -0.004162304 0.04385974 -0.09453369
0001c0 cf 66 54 3d 47 d2 29 be 02 24 02 3e d0 f7 f8 bd
       0.05185586 -0.1658412 0.12709048 -0.121566415
0001d0 0b 8e eb bd 93 4c 39 3e 1a d2 21 be 0b 2f 5d be
       -0.11501702 0.18095617 -0.15802804 -0.21599977
0001e0 56 e9 51 be 5f 51 4a be 45 fc c7 bc 2f 07 ed 3d
       -0.20499167 -0.19757603 -0.024412284 0.11573636
0001f0 33 b4 52 3e b8 80 09 3e 0f 73 57 be cd 3d db 3d
       0.20576553 0.13428009 -0.21039985 0.10705147
000200 01 83 c0 bd b1 cf 36 3e fd 6c 86 bc c8 5e f7 3d
       -0.09399987 0.17852665 -0.016409392 0.12078625
000210 5a 7a 83 3d 8b 44 76 be e6 97 28 3e 00 a7 61 3d
       0.06419821 -0.24049585 0.16464195 0.055090904
000220 82 df a7 3d a9 b5 8f 3c 1a c7 b1 bd b0 48 65 be
       0.081969276 0.017542677 -0.08680554 -0.2239101
000230 94 bc 23 be 8f 4c 3e be bd 77 51 3d 06 f0 81 3d
       -0.15989906 -0.18583892 0.051139582 0.06344609
000240 97 7c ed bd 99 96 ef 3d de e6 4f be f1 f8 aa 3d
       -0.11596029 0.11698646 -0.20302913 0.08348263
000250 78 ea 09 3e 81 e8 f4 3d de 37 9a bd 78 97 94 bc
       0.13468349 0.11958409 -0.07530187 -0.018138632
000260 ef 67 83 3b d9 39 b5 3d 5b 68 1c be 2f 4f cd 3d
       0.0040101926 0.08848924 -0.15274183 0.10024869
000270 50 59 7d be bf bc 9b 3d c8 6e 08 3d 1d 3b 11 3e
       -0.24741101 0.0760436 0.033308774 0.14182706
000280 eb f4 79 3e 62 b7 10 bd 8f 78 3d 3e 15 6b 0f bd
       0.24409835 -0.035331137 0.1850302 -0.03501423
000290 67 ef 11 3d 45 be a1 bd 07 9b de bd 05 62 70 bd
       0.035628702 -0.07897619 -0.10869413 -0.05868723
0002a0 f1 b7 25 3e 70 79 61 bb cb 80 0d 3e 30 34 d2 3d
       0.1618345 -0.0034404658 0.13818662 0.1026386
0002b0 38 ff fa bd d3 9c 45 3e 7d 81 2b 3c 9d bb 11 be
       -0.1225571 0.19298105 0.010467884 -0.14231725
0002c0 f7 40 15 be 03 e5 5b 3e 3a 8a f5 3d 10 b0 ce 3d
       -0.14575563 0.2147408 0.11989255 0.10092175
0002d0 64 3f 2f 3e 8f aa ab bc 64 aa 00 3e a3 a2 0e be
       0.17114025 -0.020955352 0.12564999 -0.13929228
0002e0 03 17 08 be b9 f9 56 be 6d b9 f1 bd 91 f6 30 3e
       -0.13290028 -0.20993699 -0.11802945 0.17281558
0002f0 95 2c 00 be e5 a0 ea bc e7 d7 5e be 55 de 44 be
       -0.12517007 -0.028641174 -0.21762048 -0.19225438
000300 e7 6d 5a be 5a ca c4 3d 2a 12 d1 bd 2c c2 5c be
       -0.21330987 0.09608908 -0.10208543 -0.21558446
000310 bb 40 c6 bc 5b 15 55 be e1 7c e2 3d 62 f8 84 bd
       -0.024200788 -0.20808928 0.11058975 -0.06492688
000320 b4 98 27 be 3d 03 db 3c 8c 25 e8 bd 54 8b 31 bd
       -0.16366845 0.026734943 -0.113352865 -0.043345764
000330 9a e7 c1 bd af e4 f3 3d 67 1f 6b bd d2 b5 bc bd
       -0.094680026 0.11908852 -0.057402994 -0.09214367
000340 aa dc d5 bd 04 df 51 be 7d 53 47 3d ee a6 3c 3e
       -0.10442479 -0.2049523 0.048663605 0.18423054
000350 b1 a9 f6 3d 58 be 25 3d d2 37 8a 3d 38 70 14 3e
       0.12044085 0.04046473 0.06748928 0.14495933
000360 21 e2 44 3e f1 ad a0 3d ab 2a b0 3c d0 97 14 be
       0.19226886 0.07845677 0.02150472 -0.14511037
000370 f4 d8 50 bd ba 92 9d bc f8 28 ae 3d 79 49 14 be
       -0.050988153 -0.019235004 0.08503908 -0.14481153
000380 2c 77 09 3e 2e 84 47 3e 05 c0 ac 3d 0c 78 bb 3d
       0.13424367 0.19484016 0.08435062 0.091537565
000390 2c 38 8a 3d 69 7b 7a 3e d0 d9 42 be 87 3a fa 3d
       0.06748995 0.2446114 -0.19028401 0.122181945
0003a0 0c 76 3e 3e 85 c7 ba 3d 1c 91 d4 3d 63 45 4e bd
       0.18599719 0.091200866 0.1037924 -0.05035914
0003b0 08 87 92 bc 10 ab 82 bd fd 23 c9 3c a0 a2 38 be
       -0.017886654 -0.06380284 0.024553293 -0.18030787
0003c0 f1 0d a0 bd 7f e4 16 bd 92 1b 66 be f9 1a 8e bd
       -0.07815159 -0.036839005 -0.22471455 -0.069387384
0003d0 00 5b cb bd ca fe 31 bd 97 fa 4d bd 35 01 c9 bc
       -0.09929466 -0.043455876 -0.05028781 -0.024536708
0003e0 25 9a 65 be 9f d7 6b bd f8 01 f5 bd bd a7 7a 3e
       -0.22422083 -0.05757868 -0.11963266 0.2447805
0003f0 1d 5f 2f bb b5 18 10 3e 01 9b 30 be ab 14 3e be
       -0.0026759573 0.14071925 -0.1724663 -0.18562572

bias f4 [120]
000000 37 b6 13 be ac 49 8c be 8e 4c ce bb 63 1d 0d 3e
       -0.14424978 -0.27399957 -0.006295747 0.13780741
000010 bc 93 ed 3d 87 91 9a 3c ca 9b 89 3c 13 b1 5d 3e
       0.11600444 0.018868221 0.016797919 0.2164958
000020 bf 3e 75 3e 3e 2d 4a be 76 a0 11 be b0 a1 63 be
       0.23949717 -0.19743821 -0.14221367 -0.22229648
000030 22 42 49 3e 3a 33 7f 3e 6a 87 fc 3d da 07 36 3e
       0.19654134 0.24921885 0.12330516 0.17776433
000040 7b cc 22 3e 03 93 6d be ba 2b 94 3d cc a6 2a be
       0.15898316 -0.23200612 0.07234903 -0.1666519
000050 4b 46 1a 3e 7f d7 39 3e fe c1 01 be 93 23 f1 bd
       0.15065877 0.18148611 -0.12671658 -0.11774363
000060 ca 44 76 3e 9f 9e 5e be af 8f 19 bd 1e a6 2f 3e
       0.24049678 -0.21740197 -0.037490543 0.17153212
000070 97 82 34 bd 92 f7 55 3e a0 07 12 3e 7b 96 21 be
       -0.044069853 0.20895222 0.14260721 -0.1578006
000080 1e 66 43 3d b7 f0 33 bd 34 fa 49 be 75 d5 2f 3e
       0.04770481 -0.043930735 -0.19724351 0.17171271
000090 ce 9a 1b 3d d3 f7 38 3e 16 ce 49 be f2 44 62 be
       0.03798943 0.18063287 -0.19707522 -0.22096613
0000a0 07 9d 9a 3d 43 e7 01 be 1c 0f 14 3e 16 ef 56 bd
       0.07549482 -0.12685876 0.14458889 -0.052474104
0000b0 44 77 f7 3d 94 88 5d 3d c3 31 0b 3e 9b 80 5b 3e
       0.12083295 0.05408533 0.13593201 0.21435778
0000c0 51 dd 7f be 01 1d 0e bd 0f c9 4a 3e d9 14 11 be
       -0.2498677 -0.03469563 0.1980326 -0.14168109
0000d0 5b d6 9d 3d 1b 34 09 be bc 9f b0 bd 10 58 03 3e
       0.07706901 -0.13398783 -0.08624217 0.12826562
0000e0 66 df 80 be d0 cb 6d be 90 b8 f0 bd 62 db ad 3d
       -0.2517044 -0.2322228 -0.117539525 0.084891096
0000f0 4b 89 6e be e4 5f 92 3d ae cc 3b be 04 9b 88 3d
       -0.2329456 0.07147196 -0.18339798 0.06670192
000100 e0 e9 a5 3d c2 1e 62 be b9 65 af 3d e8 3c 96 bd
       0.08101249 -0.22082046 0.08564324 -0.07335836
000110 12 84 5b 3e 6b 50 ee 3d b9 c5 60 3e d9 0a d1 bb
       0.214371 0.11636432 0.21950425 -0.006379467
000120 22 ea d1 bd 1f f6 56 3d 5c bd e8 3d 4a 50 81 3e
       -0.102497354 0.052480813 0.113642424 0.25256568
000130 6e b7 ad bd 2e 28 2d bc d8 b3 28 be 7c 66 42 3e
       -0.08482252 -0.010568662 -0.16474855 0.18984407
000140 32 23 ab bd 6c 18 7d 3e f3 a4 4d be 6f b6 36 bd
       -0.08356322 0.24716347 -0.20082454 -0.044607576
000150 6c 58 6e be c9 89 7a 3e 07 34 50 be 65 00 79 be
       -0.23275918 0.24466623 -0.20332347 -0.24316557
000160 3f 9c bb 3c 8d a5 e6 bd 59 f9 31 be c8 ba a5 3d
       0.022901652 -0.11262045 -0.17380275 0.08092266
000170 9f 5f 04 be 93 ab 0b bd 93 bf 25 be bf 86 05 be
       -0.12927102 -0.034099173 -0.16186361 -0.13039683
000180 5c f0 81 bb 04 3b 01 bc 15 7a ad bd 9c e4 6b 3e
       -0.0039654206 -0.007887606 -0.08470551 0.23036426
000190 10 0e 72 3d 70 73 0f 3d f5 d6 80 3e 3a ea 7b 3e
       0.059095442 0.0350222 0.25164 0.24601069
0001a0 97 9b 58 bd 66 c5 84 be 5a 52 3a be 07 37 74 be
       -0.052882757 -0.25931853 -0.18195477 -0.23849116
0001b0 bb b1 9e bd 68 6b 5a 3e b8 c4 d9 3d 05 72 5d bd
       -0.07748743 0.21330035 0.10633224 -0.054063816
0001c0 bb 35 a5 bd 2e c2 5f be 9e c1 0e 3e ca 16 4a 3e
       -0.08066889 -0.21851417 0.13941047 0.19735256
0001d0 4b 87 63 3e fb 04 15 3e 33 87 5c be 82 ac f9 3d
       0.22219579 0.14552681 -0.2153595 0.121911064

weight f4 [120, 120]
000000 b4 d2 96 3d ed a7 cb 3b 6a 4c fb 3c ae 3c bb bc
       0.07364407 0.0062150867 0.030676086 -0.022856083
000010 33 74 a1 bd b1 51 86 3d eb f8 b6 3d 55 8a 5f bd
       -0.07883491 0.0655855 0.08934196 -0.054575283
000020 8b 6c 1e 3d 04 b8 65 3c 11 3e 18 3d f7 68 81 3c
       0.038677733 0.0140209235 0.037168566 0.015797121
000030 b9 5d 69 3c 7d 4b 8f bd 9d 43 74 3d bb 17 47 3d
       0.014243537 -0.0699682 0.059634794 0.048606616
000040 3c 61 b2 bc 3e 94 c4 bd e8 72 99 bd 89 b3 e3 bc
       -0.02177488 -0.095985875 -0.0749262 -0.02779557
000050 80 59 54 3d b2 2d 13 bc c6 ea ed 3c 7c e1 5f 3d
       0.051843166 -0.008983063 0.029042613 0.054658398
000060 14 bb 39 bd 94 d3 a1 bc c8 1b 05 3c 2c 69 c4 3b
       -0.045344427 -0.019754209 0.008124299 0.005993983
000070 d9 07 11 3d 1c f1 a7 3d ab 57 8c 3c a2 98 3e 3c
       0.035407875 0.08200285 0.017131647 0.01163307
000080 5f 1a 89 bd b2 23 6d 3d 1e a3 88 3d 4d 23 ed 3c
       -0.06694483 0.05789537 0.06671737 0.028947497
000090 28 d4 09 3d 9c f7 d9 3c a6 32 8c 3c 84 f9 a4 bb
       0.033649594 0.026607327 0.017113995 -0.0050346274
0000a0 6a 6a 29 bd f6 96 e7 3c 88 52 9a bd 37 4f 8b 3d
       -0.04136125 0.028270226 -0.07535273 0.068022184
0000b0 89 e4 81 3c 7a 86 94 bd 90 05 29 3d 96 a3 18 bd
       0.015856044 -0.07252212 0.04126507 -0.037265383
0000c0 7e 0c b2 bc c1 17 bf bc 20 52 80 bb 14 8a 9a bc
       -0.021734472 -0.023326756 -0.00391604 -0.018864669
0000d0 e5 07 80 3d 55 dc 94 3d 69 e9 cb bb 41 85 f8 3c
       0.06251506 0.072685875 -0.006222893 0.030336978
0000e0 f9 89 ee 3b ee 18 af bd 88 82 a0 bd 80 93 a8 bd
       0.007279631 -0.08549677 -0.07837397 -0.082312584
0000f0 87 95 b4 3d d0 f2 21 bd ea 94 d3 3b 55 d4 2d bd
       0.088175826 -0.039538205 0.006456961 -0.042438824
000100 f6 47 b0 3b 06 1e 15 bd 49 76 32 3d 25 ce 22 3d
       0.005379672 -0.036405586 0.043569837 0.039747376
000110 bb 38 9e bd b7 c0 71 bd d2 ae 5e bc dd 3d 4b 3d
       -0.07725664 -0.059021678 -0.013591485 0.049619544
000120 78 4f 1f 3d 45 5d 02 bd 6a ee 00 3d fb 55 00 3d
       0.038894147 -0.03182723 0.03147737 0.031331997
000130 92 dc 48 3d 0f 46 29 3d 68 36 6b 3d 3f 38 19 3c
       0.049038477 0.04132658 0.057424933 0.009351789
000140 96 f3 6b 3d 5e 3e 4b bd 88 b0 d3 bc 55 43 d1 bb
       0.05760535 -0.049620025 -0.025841013 -0.0063862004
000150 be 1b 5c 3d 2c 12 b3 3c 97 d3 8d bd 82 47 cb bc
       0.053737395 0.021859251 -0.06925123 -0.024814371
000160 86 ec 50 bd 20 95 9d bd bc e1 9f 3d 3f d4 6f 3d
       -0.051006816 -0.07694459 0.07806727 0.058552023
000170 52 94 a3 bd 72 95 60 bd eb 05 e6 3c 6d 12 d2 bd
       -0.07987274 -0.054830022 0.028078994 -0.10257421
000180 18 17 ab 3d c4 57 86 bd 13 b8 bc bc e6 ff 5a 3d
       0.08354014 -0.06559709 -0.023036992 0.0534667
000190 b9 fb 84 3d c9 ce 6e 3d ff 8f 36 bd 55 07 42 bd
       0.06493325 0.058302674 -0.04457092 -0.047370274
0001a0 00 66 53 3d a4 bb 60 3d 5c f5 67 3d cb b8 91 bd
       0.051610947 0.054866448 0.056630477 -0.071153246
0001b0 9d 7e a0 3d ee 3e b5 bd 66 a6 08 bd d1 e6 11 bc
       0.078366496 -0.088498935 -0.033361815 -0.008905129
0001c0 53 d6 76 bc d5 6e e7 3c 1f 8c 82 bd 6c b7 30 3c
       -0.015065747 0.028251091 -0.06374382 0.010785919
0001d0 4d 7e f6 bc d3 ff c3 3a 08 d9 43 bd ab 10 47 bd
       -0.030089522 0.0014953561 -0.0478144 -0.04859988
0001e0 19 6d 3b bc a6 f0 a1 bd bf 04 01 3d 0e 5b b1 3c
       -0.011439585 -0.07907228 0.031498667 0.021649864
0001f0 1e 01 60 bd 1a 9c 9e 3d 8d c2 28 bd 08 9b a2 bd
       -0.054688565 0.07744618 -0.041201163 -0.07939726
000200 1c 8f e9 bb b8 29 84 3d 4c b2 b1 bd 20 6a 1d 3d
       -0.0071276557 0.0645327 -0.086765856 0.038431287
000210 0c 63 93 bc 97 c3 11 bd 62 d0 d3 3c 32 3c a2 bd
       -0.017991565 -0.03558692 0.0258562 -0.079216376
000220 f4 fc 20 3c 71 f4 a5 bd 62 b4 19 3d 6a b5 c9 bd
       0.009825934 -0.08103264 0.037525542 -0.09849055
000230 03 b8 a3 3d 49 86 26 39 41 97 4b 3c 40 dd 5a 3c
       0.07994082 0.00015881019 0.012426198 0.013358414
000240 a0 36 2f bd 99 f1 64 bd 66 b9 57 bd fb d0 4f 3d
       -0.042776704 -0.055894468 -0.052667044 0.05073641
000250 ae 8f 1f 3d 5d a4 bf 3d 80 e9 16 3d a1 c8 80 bd
       0.038955383 0.09357522 0.036843777 -0.06288267
000260 50 07 f3 bc a7 bd 3b 3d 5b cc b4 3d 26 99 29 bd
       -0.029666573 0.045835163 0.0882804 -0.04140582
000270 1e bd 1c 3d c4 97 4d bd ef 5d 11 bd c2 8f c3 bc
       0.038266294 -0.050193563 -0.035489973 -0.02387226
000280 e1 7c 68 bd 2b b5 db 3c b7 83 20 3d e9 ec 61 3d
       -0.05675972 0.026819786 0.039188113 0.055157576
000290 e6 80 a1 3c 71 ed 3a bd 84 0f cf bc d6 e3 1c 3d
       0.019714784 -0.045636598 -0.025275953 0.03830322
0002a0 7f 51 1c 3c 1e 97 9e 3d 21 e9 76 bc ef b1 6f bd
       0.009540915 0.07743667 -0.015070231 -0.0585193
0002b0 50 d6 8a 3d aa 41 54 3d 79 f5 ed bc 52 93 e1 bc
       0.06779158 0.051820435 -0.029047715 -0.027536068
0002c0 ea ef 99 3d 19 20 5e bd 52 00 1c bd b2 7e b2 bc
       0.07516463 -0.05422983 -0.038086243 -0.021788929
0002d0 29 b6 65 bd 1d b2 2c bd 0f 67 a3 3d db 86 31 3d
       -0.056081925 -0.04216205 0.07978641 0.0433415
0002e0 20 83 9e 3d a3 38 a2 3d e9 7d 7e 3d a6 8c 5f bd
       0.07739854 0.07920959 0.062131796 -0.054577492
0002f0 6c 56 c6 bb 6f 5a a9 bd c8 53 fd bb 3e 76 d2 3c
       -0.0060527828 -0.08269202 -0.007730935 0.025691148
000300 9f 82 2f 3c 2f ce 87 3d e4 41 aa bd 08 49 86 3a
       0.010712295 0.06631123 -0.08313349 0.0010245154
000310 3d 42 1f bd 95 2a 82 3c ef 5c 50 bb 6c b6 4a 3d
       -0.03888153 0.015889445 -0.0031793674 0.049490377
000320 a4 f2 3e 3c fe 59 e1 ba c1 4e 79 3c 31 5a a5 ba
       0.01165453 -0.0017192957 0.01521653 -0.001261538
000330 e1 a9 72 3d 7a 61 d3 bc 63 e3 c2 3c 35 2b 49 3c
       0.05924404 -0.025803316 0.023790067 0.012278368
000340 0d ae 09 bd 5d 5d 05 3d a4 32 ac bd 5c fe 8b bd
       -0.033613253 0.03255974 -0.084080964 -0.068356246
000350 c3 cb 8b 3d d4 a3 b1 3d de c7 28 bd 1c 46 94 bd
       0.06825974 0.08673826 -0.041206233 -0.07239935
000360 24 11 f5 bc b3 a9 a3 3c 2a 02 96 bd 4a a7 9b 3d
       -0.0299154 0.01997838 -0.073246315 0.07600267
000370 40 4b 7b bd d1 1b 7d 3d c8 95 8f bd ce f1 96 bc
       -0.06135106 0.061794106 -0.070109904 -0.018425848
000380 18 b8 58 3d af 59 1c bd 5f b3 e3 bc c9 44 9a 3d
       0.05290994 -0.038171466 -0.027795492 0.07532651
000390 3d 81 d7 3c f2 8e a3 bd 4e 97 95 bd a4 82 66 3d
       0.026306743 -0.07986249 -0.0730425 0.056276932
0003a0 90 7d 1a bd cb ee 14 bc 95 6a 39 3d 96 f3 a4 bd
       -0.037717402 -0.009090136 0.04526766 -0.08054273
0003b0 1f 78 94 bd 9f af 27 3d d8 41 4a bd 42 34 2e bd
       -0.07249474 0.04093897 -0.0493792 -0.042530306
0003c0 2d 97 4b 3d 51 79 99 3c 97 f1 86 bd 5e fd 08 bb
       0.04970472 0.018734606 -0.06589048 -0.0020902972
0003d0 a6 f0 ee 3c e5 88 5e bd e4 1c a4 3d a4 2e 5f 3d
       0.029167484 -0.05432977 0.08013323 0.05448784
0003e0 fa 98 92 bd 34 d9 c9 bd 1f 82 95 bd 12 35 95 bd
       -0.07158084 -0.09855881 -0.07300209 -0.07285513
0003f0 80 74 c8 3c f3 1e d7 3c d7 f4 b2 3c fc fd 78 bd
       0.024469614 0.026259875 0.021845264 -0.060789093

bias f4 [120]
000000 b9 30 b7 3d 2a 4d 5a bd 40 b5 a5 3d 94 8f 87 bd
       0.0894484 -0.053296246 0.08091211 -0.06619182
000010 1f c9 6c 3d 8d b7 5f bb 77 09 b3 3d 2f e0 37 3c
       0.05780899 -0.0034136504 0.0874204 0.011222883
000020 bf 8d c8 bd 29 67 87 3d 18 76 87 3d 1c 87 71 3d
       -0.09792661 0.06611473 0.066143215 0.05896674
000030 0a 21 b0 bd 91 1b c1 bc 5d 21 59 bc 85 45 51 3d
       -0.08600052 -0.023572715 -0.013252583 0.05109169
000040 eb 6d 73 ba b7 a8 89 3d de 68 b3 3a e8 d6 05 3d
       -0.00092860934 0.06721633 0.0013687869 0.032675654
000050 a1 86 39 3d b7 fb 81 3a ce bb 78 3c 4d 69 21 3c
       0.045294408 0.0009916936 0.015181495 0.009851766
000060 70 dc 4a bd c9 e8 4b bb 64 b5 59 3d ae 02 4a bb
       -0.04952663 -0.0031114093 0.053151503 -0.003082435
000070 c5 9b a5 3d 0e 76 95 3c ec be 58 3d 47 f4 74 bd
       0.08086351 0.01824477 0.052916452 -0.059803274
000080 ae 19 72 bd 68 8b c8 bd 46 c2 aa 3c d7 d1 5f 3c
       -0.05910652 -0.09792215 0.02084459 0.01366087
000090 2d fd 13 3c 17 50 7b 3b 21 da a5 bd cb 70 b9 bd
       0.00903253 0.0038347298 -0.080982454 -0.09054717
0000a0 fe 1e 8f 3d bf b1 b5 bd 34 96 d4 bc 14 5a 56 bd
       0.06988333 -0.08871793 -0.025950529 -0.052332
0000b0 09 8c 60 bd bd 3c 86 bd 66 30 6b bd 8d a8 ab bc
       -0.054821048 -0.06554554 -0.057419203 -0.020954395
0000c0 0a 18 98 3d b3 33 83 bd fa f7 d0 3c 1d f1 8e 3c
       0.0742646 -0.06406345 0.02550887 0.017448956
0000d0 95 bf 8e 3d 72 bb 85 3d 66 2d f2 bd b9 c4 f6 3c
       0.06970135 0.06529893 -0.11825065 0.030123102
0000e0 3c 6f 84 bd 2f 8a ee bd 9f e6 57 3d e1 cc 5e bd
       -0.06466529 -0.1164745 0.05271017 -0.054394607
0000f0 89 15 c3 3c b9 49 be 3d ba f7 8e 3d 10 b2 bc bd
       0.02381398 0.09291405 0.06980844 -0.0921365
000100 1a cb 1b 3d 1c 39 2c bd 24 58 ef bc e0 b4 aa bd
       0.03803549 -0.04204665 -0.029216833 -0.083352804
000110 ea 69 b6 bd 5d e8 aa 3d 12 18 93 3d a9 08 e5 3c
       -0.0890692 0.08345101 0.071823254 0.027958231
000120 95 83 81 bd 9f fe ca bb 65 0a 01 bd 59 5b a2 bc
       -0.063239254 -0.006194904 -0.031504054 -0.019818949
000130 81 33 8c 3d 32 09 bd 3c 11 09 78 3d 76 d5 c8 3d
       0.06845761 0.023075674 0.06055552 0.098063394
000140 f7 b2 18 3d 6f 44 3a 3c 9d 05 38 3c bb 0c ad bd
       0.03728005 0.011368855 0.011231807 -0.08449694
000150 dc ac a3 bc 29 20 b6 bc 5d a0 c7 3c 75 fb 87 bd
       -0.019979887 -0.022232132 0.02436846 -0.066397585
000160 e0 c1 d3 bd b0 57 19 3d 12 ab 11 3d b2 5f 83 bd
       -0.10339713 0.03743714 0.035563536 -0.06414737
000170 5e 2e 47 bd 87 f7 17 bd ae ee ed bc 25 8c 0e 3c
       -0.048628204 -0.037101295 -0.029044475 0.008700405
000180 17 ba a9 3c 58 36 9e bd 76 2a 29 bd c3 25 8a 3d
       0.020718617 -0.07725209 -0.04130026 0.06745484
000190 ed 22 c8 bd d2 90 f4 3c 89 03 39 bc df 55 b4 3c
       -0.097722866 0.029854212 -0.011292347 0.022013603
0001a0 f5 2b 4c bd 69 4a c8 3d 38 3a 32 bd 48 b9 83 3d
       -0.04984661 0.097798176 -0.043512553 0.06431824
0001b0 f9 45 8c 3d 38 60 37 bd e0 33 97 bd 27 34 e0 3c
       0.06849284 -0.044769496 -0.07382941 0.027368618
0001c0 5b 50 14 bd 4f 99 ad 3d d9 35 9c bd dc e4 8d bd
       -0.036209445 0.08476507 -0.07627458 -0.06928417
0001d0 0e ae 8d 3d 51 a5 c4 b9 27 b8 5a bc 58 93 2b bd
       0.06917964 -0.00037507204 -0.013349569 -0.041888565

weight f4 [120, 120]
000000 f5 e3 7d bd 3d 11 08 3d 53 9d 6b 3d 45 52 8d bd
       -0.061984975 0.033219565 0.057523083 -0.06900457
000010 4e 07 97 3d 01 d4 33 bd a2 da 72 3d 13 a7 21 3d
       0.0737444 -0.043903355 0.059290536 0.039465975
000020 16 c1 58 3d b4 73 6c 3d e8 76 1f bd f6 8d b2 bd
       0.052918516 0.05772753 -0.038931757 -0.08718483
000030 3c 3e f4 bc 9d 75 8a 3d 8c 1f 25 bc 85 b3 f5 bc
       -0.029814832 0.06760714 -0.010078322 -0.029992828
000040 b7 09 9d bc 3e da 32 bc 40 3e 91 bc 32 80 fc bc
       -0.019169671 -0.010916291 -0.017729878 -0.030822847
000050 01 0b 67 bd c6 59 6f bd 29 b4 b5 bd 8b 25 79 bd
       -0.05640698 -0.058435224 -0.088722534 -0.06082682
000060 39 5a 55 3d dc 30 82 3d 7b 2d 18 3c 80 9f cb 3c
       0.052087996 0.063569754 0.009288187 0.024856329
000070 f3 ce 8d bc a2 01 c9 bc 87 98 9a bc 01 61 8a bd
       -0.017310595 -0.024536911 -0.018871559 -0.06756783
000080 8b 6f 54 bd 2c 99 b8 bb 82 70 88 bd e4 a0 51 bd
       -0.05186419 -0.005633494 -0.06662084 -0.051178828
000090 f0 fa c3 bb c3 a5 35 3d 59 3c a3 bd dd 68 77 bd
       -0.005980842 0.044347536 -0.07970495 -0.06040274
0000a0 6e fd c6 3c c0 9e 5b 3d f4 b4 97 3d d0 7f c1 bd
       0.024290767 0.053618193 0.07407561 -0.094482064
0000b0 f4 7c 88 bd 73 a5 90 3c 49 e9 c6 3d de af db bc
       -0.06664458 0.017657017 0.09712464 -0.026817258
0000c0 d7 e9 3a 3d 34 49 a0 3d 3b 98 07 3c f8 98 85 3d
       0.045633163 0.078264624 0.008276041 0.06523317
0000d0 29 82 8c bd 76 24 87 bc b4 e7 c2 3c f5 0f 3e bc
       -0.068607636 -0.016496878 0.023792125 -0.011600484
0000e0 7d cb 8f 3c 49 4b 7b 3d 4b 06 c2 bd da 58 ab 3c
       0.017553085 0.061351094 -0.094738565 0.020916391
0000f0 69 76 35 3d b3 c4 1d bd 88 cb e4 bc c9 bb 79 bd
       0.044302378 -0.038517665 -0.027929083 -0.0609701
000100 6f 9d 73 bd 33 eb 10 3d 4f 26 94 bb 3c 12 eb 3b
       -0.059476312 0.035380553 -0.0045211683 0.0071738046
000110 38 05 32 bd 53 72 c6 bc 70 a2 9e bd e0 08 a6 bd
       -0.04346201 -0.024224436 -0.07745826 -0.081071615
000120 91 0c 3d bc 21 35 a9 3d 2e 94 82 3d e1 3c 19 3d
       -0.011538641 0.08262087 0.06375919 0.037411574
000130 ae e1 b7 bd 59 fb bc 3d 05 53 98 bd 33 c8 4a bd
       -0.08978592 0.09227628 -0.0743771 -0.04950733
000140 2f b9 2f 3d 82 87 68 3d 90 b8 98 bc 1f 53 b2 3d
       0.042901214 0.056769855 -0.018642694 0.0870726
000150 f6 fa 97 bd 67 89 70 bd 2a eb cc 3d 09 25 8b 3d
       -0.07420914 -0.058724787 0.100057915 0.06794173
000160 d0 d6 7a 3d 03 23 c4 3d 91 02 51 bd 78 65 52 3d
       0.061240017 0.095769905 -0.05102784 0.0513663
000170 45 f2 2c 3d 91 c6 4a bd 4e 0f ac bd cc 46 84 bd
       0.042223234 -0.049505774 -0.08401357 -0.06458816
000180 b5 eb 9b bc ab d7 14 3d f0 96 28 3c a6 8a 55 bd
       -0.019033292 0.03633849 0.010289893 -0.05213418
000190 5a 2a 8c 3d c8 95 76 bd 1c 02 8b 3d 97 5e 1d 3d
       0.068440154 -0.060201436 0.06787512 0.038420286
0001a0 16 aa a6 bc 9d 1a f9 bc 2a ed 32 bd a1 e9 a0 3d
       -0.020344775 -0.030408198 -0.04368321 0.07857061
0001b0 b6 bb 1e bc c8 fa 82 bd 6f c3 07 bd 0d 15 95 3c
       -0.009688308 -0.06395489 -0.033145364 0.018198514
0001c0 70 64 9c bd 77 c7 8d bc 5a 39 38 bc 32 46 26 3d
       -0.076363444 -0.017307026 -0.011244142 0.040594287
0001d0 06 a5 09 bb 7c 77 fe 3c 2b 67 39 bd d0 74 99 bd
       -0.0021002903 0.031062834 -0.045264404 -0.07492983
0001e0 d4 39 ad 3c fb f7 d4 bd 47 ad 53 bd b9 11 80 bd
       0.021145739 -0.10398861 -0.051678922 -0.0625338
0001f0 92 34 0e 3d 6a ac a6 3d af c2 a0 bd a6 3a 6b 3d
       0.034718104 0.08138354 -0.07849633 0.05742898
000200 fb d0 99 3d 00 33 04 bd 2c 9d e8 3c 74 c5 f0 3c
       0.07510563 -0.0322752 0.028395258 0.029391028
000210 1c 2a 51 bd 01 40 4c 3d 90 79 73 3c 79 86 9d bd
       -0.05106555 0.049865726 0.014860526 -0.07691664
000220 30 b4 58 3d 92 da 84 bd 83 6c 5c bc ad 03 a7 bc
       0.052906215 -0.064870015 -0.013453606 -0.020387495
000230 81 88 8e 3d 0e 16 c4 ba ba 92 80 bd 9e 67 4d 3d
       0.0695963 -0.0014960186 -0.06277986 0.050147645
000240 fa 62 72 bc 4a ce 83 ba 2c a1 40 3d 5f e0 41 3d
       -0.014794106 -0.0010055986 0.047028705 0.047333118
000250 d8 fe a7 3d dd ee 7a 3d a6 43 56 3d a9 ba 3b bd
       0.082029045 0.061262954 0.05231061 -0.04583231
000260 c8 1b c6 bc 4f d2 0d 3c aa 33 9c 3d 33 ef 9a 3c
       -0.024183169 0.0086560985 0.07627042 0.018912887
000270 45 f9 16 3d 9c e1 10 3d 88 38 7f 3b 1e f5 a3 3d
       0.036858816 0.035371408 0.0038943607 0.08005737
000280 3b 83 f7 3c 18 a9 51 3d 80 02 af bd 8e 5b b8 3c
       0.030213943 0.05118665 -0.08545399 0.022504594
000290 71 72 2b bd 24 fe 0a 3a be ad 0c 3d e0 59 f0 3c
       -0.041857187 0.0005302152 0.03434538 0.02933973
0002a0 99 a6 58 3d c4 43 86 3d 67 ef 80 3c 41 2d 78 bd
       0.052893255 0.06555894 0.015739156 -0.060590032
0002b0 07 56 7c bc a2 5c e5 3c 36 94 6d 3b df 0f 14 3d
       -0.01540137 0.027998272 0.003625167 0.03614795
0002c0 8f 16 9c 3d 0b 67 02 3d b5 fb 29 bd e9 00 81 bd
       0.0762149 0.03183655 -0.041499812 -0.06299002
0002d0 3a 17 05 3d a2 f4 06 3d b8 00 92 3d 10 7d 8d 3d
       0.032492854 0.032948144 0.07129043 0.069086194
0002e0 77 e7 08 3d e1 e0 a2 3d ac 56 4e 3c 87 94 f0 bc
       0.033423867 0.079530485 0.012593906 -0.029367698
0002f0 4e 4c 4f bd 17 ae dd 3c 8f a1 34 3d ac b6 91 3c
       -0.05060988 0.027060552 0.044099387 0.0177873
000300 c2 cb b2 bc 33 f2 98 bc c2 da 5d 3d bd 98 47 bc
       -0.021825675 -0.018670177 0.0541637 -0.012182412
000310 05 94 ac 3d c1 33 8d 3d be 47 a5 3d f3 fc 81 3b
       0.0842667 0.06894637 0.08070324 0.0039669215
000320 e0 69 a0 bd 83 7d a8 bd a1 52 5a bc f9 6b 20 3c
       -0.07832694 -0.082270645 -0.013325364 0.009791368
000330 bb c5 bd 3b 8e d4 ba bb fd f5 3c bd 1f 87 96 3d
       0.0057913936 -0.005701608 -0.04613303 0.07349991
000340 9d 72 50 ba 46 02 83 bd cd 58 f4 bc 2c aa 66 3d
       -0.0007951649 -0.06396918 -0.0298275 0.056314632
000350 0c 5c 18 3d 58 c8 9f 3d 67 85 6d bd 9c 31 3e bc
       0.037197158 0.078018844 -0.05798855 -0.0116085075
000360 43 60 29 bc b6 47 05 3c 47 be f8 3c bd e5 82 3d
       -0.010337892 0.008134773 0.030364169 0.06391475
000370 f5 51 76 bd 1e 62 90 bd 93 64 6a bd 0e 6d 33 3d
       -0.060136754 -0.07049964 -0.05722482 0.043805175
000380 0a 70 0d bd 85 24 28 3d 4b 87 67 bd 7b 4f 8d bd
       -0.034530677 0.041050453 -0.05652551 -0.06899925
000390 e2 8d 7a bd 2e 1e 70 3d be 51 b3 bb c4 87 14 3d
       -0.061170466 0.05862253 -0.005472391 0.03626229
0003a0 1a 69 93 3d 26 89 23 3d b8 0d e1 bc 49 d2 9f bd
       0.07197781 0.039925717 -0.027472362 -0.078037806
0003b0 48 73 f8 bc 69 16 04 bd 79 92 48 bd 67 86 94 bd
       -0.030328408 -0.032247934 -0.048967812 -0.07252198
0003c0 58 4c 1e 3d 67 49 b2 bb dd 3d e4 bb 8a 81 19 bd
       0.038647026 -0.005440879 -0.0069653825 -0.037477054
0003d0 ea 25 ce bc 1d 5b f6 3c fd 77 4d 3c c1 54 18 bd
       -0.025164563 0.030072743 0.0125408145 -0.037190203
0003e0 e7 7b 73 bd 79 98 e5 3b d0 e8 75 bd 5b 57 93 3d
       -0.059444334 0.0070067015 -0.06003648 0.07194396
0003f0 10 49 b4 bc 8a 74 63 3d ca 19 89 ba e5 45 40 bd
       -0.022007495 0.055531062 -0.0010459956 -0.046941657

bias f4 [120]
000000 89 e1 88 bd f2 fd a8 bd 5e 99 69 bd f8 12 2a 3d
       -0.066836424 -0.08251561 -0.057031028 0.041521996
000010 3b f7 c0 bd a2 63 cf 3d 1e 70 50 bd 85 b0 af bd
       -0.094221555 0.10126425 -0.050888173 -0.0857859
000020 bf d8 4a bd 23 d8 90 bd cf ea cf bc 97 97 94 bd
       -0.04952311 -0.07072475 -0.02538052 -0.07255476
000030 55 55 39 3d c1 a7 81 3d cd b6 23 3d 11 e5 9c 3d
       0.045247395 0.06330825 0.039969254 0.076608784
000040 ce 26 46 bd 10 e9 99 3d c8 2a 60 bd 75 18 a5 bd
       -0.04837685 0.07515156 -0.0547283 -0.080613054
000050 9c 7c f4 bc e6 8e f0 bc 0c b1 c2 bc 4c 30 72 bd
       -0.029844575 -0.029365014 -0.023766063 -0.05912809
000060 e9 86 8f 3d 61 84 38 3d 24 8f 37 3c 26 03 97 bd
       0.07008154 0.04504812 0.011203561 -0.073736474
000070 22 36 bf bc 8c 54 30 3d f2 d4 83 bd 76 c9 89 bc
       -0.023341242 0.04304938 -0.064371005 -0.016819697
000080 22 69 b0 bd 36 6d 36 bd 4e 18 83 bc ff 05 64 bc
       -0.086138025 -0.044537745 -0.0160028 -0.013917445
000090 c8 6d 7d bd 55 c9 d6 bc a8 b2 82 bd 7b cb 9c 3d
       -0.061872274 -0.02621905 -0.06381732 0.07655998
0000a0 08 98 06 bd 66 73 a4 3c 65 25 5a bd 9d dd ab 3d
       -0.032859832 0.020074558 -0.05325832 0.08391879
0000b0 d1 c4 97 bd 23 81 00 3d b1 94 80 3d 33 1c 81 3d
       -0.074105866 0.031373154 0.06278361 0.06304207
0000c0 89 08 ce 3c 57 41 b6 3d c7 c9 93 3c d5 b6 e4 3b
       0.025150554 0.08899181 0.01804055 0.006979803
0000d0 58 33 75 3d fd 4e 48 3c a5 aa 1f bd 02 9f 23 bc
       0.05986342 0.0122258635 -0.0389811 -0.009986641
0000e0 5b 21 0b bc d1 5c 5a bd 9d 22 c3 bb d0 cb a3 3d
       -0.008491839 -0.053311173 -0.005955054 0.079978585
0000f0 7b a0 9e 3d 32 30 77 3d b3 a5 40 3d 78 2d 32 3d
       0.07745453 0.060348697 0.047033023 0.043500394
000100 8f 1a 94 bd 39 7e 91 3d 41 33 4d 3d ee 8b 9e 3d
       -0.07231628 0.07104153 0.050097708 0.07741533
000110 16 23 0f 3d b0 2e 37 bd f7 32 15 3d de 15 0d be
       0.03494557 -0.04472226 0.036425557 -0.13777873
000120 6b 22 de bd 06 33 60 3d de ff a7 bb be 92 35 3d
       -0.108464085 0.05473616 -0.0051269373 0.044329397
000130 79 73 10 3d a6 81 50 bc 59 fe 52 bd d4 83 d9 3d
       0.035266373 -0.012726223 -0.051512096 0.10620847
000140 77 ce 39 bd 07 3c b7 bd fb c7 40 3c 70 c3 84 3d
       -0.045362916 -0.08946996 0.011766429 0.06482589
000150 03 ce 52 bd 4d cf 64 bc d7 50 88 3c d1 c7 77 bd
       -0.051466 -0.01396544 0.01664011 -0.060493294
000160 1e ec 4c bc 76 32 94 bc 4c 17 3c bc 33 12 84 bd
       -0.012507467 -0.018090468 -0.011480164 -0.06448784
000170 23 83 64 bd 4e ec 2a 3c 00 0d f0 bc 5a 32 92 3d
       -0.055789124 0.010432316 -0.029303074 0.0713851
000180 75 79 59 3d 13 83 15 be b7 20 0e bd 49 33 a1 3d
       0.053094346 -0.14600782 -0.034699168 0.0787111
000190 f2 a7 8f bd dc bb 3c 3d ec 96 f0 bd 27 d4 05 bc
       -0.07014455 0.046077594 -0.11747536 -0.008168257
0001a0 a1 04 a9 bd 26 3d 5e 3d 1e fb ca bb 5f 80 69 3d
       -0.08252836 0.054257534 -0.0061944863 0.05700719
0001b0 f0 a7 81 bc 8c 38 6f 3d 2f 3b b2 3d f9 01 c4 bd
       -0.01582715 0.058403537 0.087026946 -0.09570689
0001c0 cd 57 7d bb 5e 5a 70 3d 17 72 e0 bc 65 26 b1 3c
       -0.003865707 0.05867993 -0.027398152 0.021624753
0001d0 fc cf 92 bd d1 4f b9 bc 52 b4 5e bc b9 f9 38 3d
       -0.07168576 -0.022621067 -0.013592796 0.04516003

weight f4 [4, 120]
000000 68 10 2c bc 4b 4f e0 bc fa 68 6b bd dc 6e 04 bd
       -0.010501958 -0.02738156 -0.05747316 -0.032332286
000010 70 16 9f 3b 56 ad 3f bc 5e ef d5 3c 88 d3 71 bb
       0.0048549697 -0.011699041 0.026115116 -0.0036899764
000020 df 55 35 bd 00 27 4f bd e6 82 19 bd c5 f2 b6 bb
       -0.044271346 -0.050574303 -0.03747835 -0.0055831396
000030 08 96 44 bd 70 69 2f bc 08 5b 13 3d 04 45 89 3d
       -0.047994643 -0.010706291 0.035975486 0.06702617
000040 51 6a 28 3d aa 34 13 bd 31 43 a9 3d 0f f7 3c 3c
       0.041117016 -0.035938896 0.08264769 0.011533513
000050 15 1c a2 3c b9 a2 80 bd 82 84 af bc 8a 65 29 bd
       0.019788781 -0.06281037 -0.02142549 -0.0413566
000060 6b f6 37 bd eb 7e 28 3c 61 9a e8 bc 83 01 a4 3b
       -0.044912737 0.010284166 -0.028393926 0.005005063
000070 a1 28 b0 3c 38 cf 15 3d d6 b4 83 3d d5 21 e3 3c
       0.021503748 0.036574572 0.06430976 0.027726093
000080 4d ce 2a 3a ff 7b 8b 3d c8 4a 9b 3d e8 00 09 3d
       0.00065157266 0.0681076 0.07582623 0.03344813
000090 ab fd 48 bd 68 e1 11 bc f5 28 4a bd 77 4b 91 bc
       -0.04907004 -0.008903839 -0.049355466 -0.01773618
0000a0 b6 56 50 3d f3 58 07 3d a5 a7 be ba 1e 00 99 bd
       0.050863944 0.033043813 -0.0014545812 -0.074707255
0000b0 0e 8d f9 3b 80 45 2f bc 50 13 a3 ba 1c 8b 83 3d
       0.007615692 -0.010697722 -0.0012441669 0.064230174
0000c0 21 0f 19 bd 9f 3d b3 3d 59 c7 95 bb 23 62 97 bc
       -0.037367944 0.08751988 -0.0045708832 -0.018479412
0000d0 53 4a 2c 3d 6b 5d 13 ba 54 c5 96 3c 1d ee 84 bd
       0.04206307 -0.00056215253 0.01840464 -0.06490729
0000e0 54 b7 c7 3c 09 f0 0a 3b 8e 0c ec 3c a7 a6 1d 3d
       0.02437941 0.00212002 0.02881458 0.03848901
0000f0 0e f5 2c 3c 07 2b 7c bc 26 d2 89 3d 61 f0 d2 bc
       0.010556472 -0.015391118 0.06729536 -0.025749387
000100 22 d9 fd bc 4d 42 e0 bc 39 99 87 3d 77 e5 b1 bc
       -0.030987326 -0.027375365 0.06621022 -0.021715863
000110 1e 2b 68 3b 70 45 7c 3c c7 4d 12 bd f5 c6 3f bd
       0.003542609 0.015397415 -0.035718706 -0.0468206
000120 ca e3 00 bd 49 c2 c1 3c 08 27 3b 3b b1 3f 8a bd
       -0.031467237 0.023652213 0.00285572 -0.067504294
000130 72 81 5a bd 21 48 96 bb 46 37 ce 3b 25 23 84 3c
       -0.053346105 -0.004586235 0.00629321 0.01613004
000140 be fa 27 3d 63 07 88 bc 79 a4 55 3d b4 43 e3 3c
       0.04101061 -0.016605085 0.052158806 0.027742244
000150 0f f1 1c bd 13 f8 36 bc 7d e6 01 bd 70 87 b7 bc
       -0.03831583 -0.011167544 -0.03171395 -0.022403449
000160 9e 9f 1e bd 58 55 0f 3d 74 cc cc 3c 42 0e 52 bd
       -0.03872644 0.0349935 0.024999835 -0.05128313
000170 c0 6d 31 3d 84 a8 4a 3d 48 69 90 3c 1a 90 33 3d
       0.043317556 0.049477115 0.017628327 0.043838598
000180 2b 5f 50 bd 66 37 11 bd 78 c7 64 3d 94 2b 4d 3d
       -0.05087201 -0.035453223 0.05585429 0.050090387
000190 a9 16 20 bc 04 c2 66 bc e3 20 1c bd 6d 0f a0 3b
       -0.009771028 -0.014084343 -0.0381173 0.0048846514
0001a0 03 31 a9 bc db e7 5d bd b3 02 27 3b 2e 7c 3b bd
       -0.020653253 -0.054176193 0.0025483787 -0.045772724
0001b0 7c 17 ec 3c 0b 3b 73 3d 1e c4 7f 3d 9a a7 01 3d
       0.028819792 0.05938248 0.06244289 0.031653978
0001c0 8a df 24 3d 49 20 10 3d 50 2a 86 3d ba b2 92 bd
       0.040252246 0.03518704 0.06551039 -0.07162996
0001d0 f7 2d 8f 3c c4 70 c8 3b 64 7a 29 bd 4d 29 25 3d
       0.017477972 0.0061169583 -0.041376486 0.04032259
0001e0 7b 70 48 3d d9 51 81 3c bf 7d 08 bb 69 cd 3a 3d
       0.048935395 0.015786098 -0.0020826904 0.04560605
0001f0 15 4e 8a 3d f1 6f 8c bb f7 78 41 bd 51 6e 8f 3c
       0.06753174 -0.0042858054 -0.0472345 0.017508658
000200 0a 13 f4 bc c9 5a 80 3d 32 79 29 3b bc 95 01 3d
       -0.029794235 0.06267316 0.0025859592 0.03163694
000210 bb 9f a7 bd fb 21 44 3d 6b 97 36 3c 8a fc 9b b9
       -0.08184763 0.04788397 0.011144499 -0.0002975206
000220 4f 4d 97 3c c8 4f 34 3d f3 d8 fd bc 29 d8 1e bd
       0.01846948 0.044021398 -0.030987239 -0.038780365
000230 0d 6b fa bc 48 18 0a bd 4a b0 d3 bc f7 7b 98 3d
       -0.030568624 -0.033714563 -0.025840897 0.074455194
000240 b6 bc 28 bd 7f 94 e3 3c ce d5 21 3d 66 76 89 bd
       -0.041195594 0.02778077 0.03951054 -0.06712036
000250 2a b7 35 bd 45 f6 3f bd 71 43 10 bd ec c9 12 3b
       -0.044364132 -0.04686572 -0.035220567 0.0022398187
000260 b1 a1 fb 3c 51 92 4a bd 5e e0 a6 bc fc 21 6a 3c
       0.030716749 -0.049455944 -0.020370658 0.014290329
000270 32 cf 59 3d 29 05 10 3d 18 e0 30 bd 7e ec 2d 3d
       0.053176112 0.03516117 -0.043182462 0.042461865
000280 af 2b 1d bd b8 ab ad 3b 3c 90 b0 3c 5c a0 a6 3d
       -0.038371738 0.0053000115 0.021553151 0.08136055
000290 18 98 6e 3d 78 dd 36 3d 98 08 48 3d e5 e9 5b bd
       0.058250517 0.044644803 0.04883632 -0.053689856
0002a0 1b f0 4c bd c9 69 90 bd 50 83 61 3d 36 cf 55 bd
       -0.05003367 -0.07051427 0.05505687 -0.052199565
0002b0 d0 ed fa 3c 5a 9d 33 bc 0f ee ee 3c f8 d2 4d bd
       0.030630976 -0.0109628085 0.02916625 -0.050250024
0002c0 1d b8 28 bd 4e 12 ac 3d 34 5a d8 bc 42 3a ec bc
       -0.04119121 0.08401929 -0.0264102 -0.028836373
0002d0 64 4c 3f 3d 20 93 1e bd 49 3a 01 3c 18 23 c0 3c
       0.04670371 -0.038714528 0.007887431 0.023454234
0002e0 64 9c 10 3c 97 20 88 3d 70 c5 06 bd 1b 58 e6 bc
       0.008826349 0.06646841 -0.032903135 -0.028118184
0002f0 e5 ee b5 3d 41 fe 9e 3c 76 47 07 bc 4c 38 cb bc
       0.08883456 0.019408347 -0.008256784 -0.024807118
000300 e0 7c c3 bb 5d be fa bc 69 be aa bc 25 30 17 bd
       -0.005965814 -0.03060835 -0.020842748 -0.03691115
000310 85 ab 89 bb 62 8a d1 bc 25 14 85 3c 6a d9 37 3d
       -0.004201355 -0.025578681 0.016244957 0.044885077
000320 33 2d 85 3c 1f 9f 4b 3d 17 e3 a7 bc 81 53 1b 3d
       0.016256904 0.049712297 -0.020494027 0.037921432
000330 c1 7a 32 3d e6 e8 8c bc 8b c1 81 bc c3 26 0e 3d
       0.0435741 -0.017200898 -0.015839359 0.034704935
000340 76 a1 41 bd 57 3f fd 3b b3 6f aa 3c c3 d6 eb bc
       -0.04727312 0.007728498 0.020805215 -0.02878893
000350 58 46 23 3d ff 8e f3 bc 0d b3 fc ba 49 1e 2f 3c
       0.039862007 -0.029731272 -0.0019279436 0.010688373
000360 68 dc ed 3b 03 1e c2 3c 7f bd 4f bd 5e 29 d9 3c
       0.0072589405 0.023695951 -0.050717827 0.026508983
000370 d8 eb 20 bd 4e f4 68 bb 4b ed 83 bd 0d 70 49 bd
       -0.039287418 -0.0035546008 -0.064417444 -0.049179126
000380 28 23 de bc 24 06 27 bc ba 80 3d 3d 91 a2 4b bb
       -0.027116373 -0.010194335 0.04626534 -0.003107224
000390 a3 65 86 3c 70 92 fd 3b 9c d1 36 3d bd 3c 94 3b
       0.016405886 0.007738404 0.044633493 0.004523842
0003a0 81 1c 86 bd 2b 1a 35 3c 1e 98 85 3d c7 a6 48 3d
       -0.065484054 0.011053602 0.06523155 0.048987176
0003b0 d1 fe 6a bd 80 81 99 3d 08 95 11 3c c0 ec 66 3d
       -0.057371918 0.07495403 0.0088856295 0.056378126
0003c0 ac 37 03 bb e8 03 16 3d ea 29 02 3d 0c 88 88 bd
       -0.0020022197 0.03662482 0.031778254 -0.06666574
0003d0 f7 de 9c bd 8c 25 6c bd 44 df 1f bd cf 65 47 3c
       -0.07659715 -0.057652995 -0.039031282 0.012170269
0003e0 a7 ad 33 3c a3 1d 4d ba 20 fb 85 3a 0b 87 15 3d
       0.010966695 -0.00078245456 0.0010221936 0.03650574
0003f0 9b c6 96 3d 13 b5 66 3d 24 d7 54 3d 15 a8 f0 3c
       0.073621 0.05632503 0.051962987 0.029377023

bias f4 [4]
000000 a7 d1 62 bd aa ec 00 bd 0a 6a 56 3d 94 0c 11 bc
       -0.05537572 -0.0314757 0.05234722 -0.0088530965
