neural_networks/HOVER_TO_HOVER_NOMINAL_.pt (torch, 142047 bytes, 12 tensors)

mean f4 [16]
0.004139534 -0.00081128674 -0.0004901657 -8.124536e-05 -0.00019835544 -3.725653e-05 -0.0007910872 0.00037701856
-0.0013954572 9.961094e-05 0.0005992103 0.001518638 5515.713 5516.658 5514.198 5513.933
00000000: eea4 873b 88ac 54ba 777e 00ba 4562 aab8
00000010: a2fd 4fb9 e543 1cb8 f760 4fba 93aa c539
00000020: c6e7 b6ba 37e6 d038 5314 1d3a 090d c73a
00000030: b45d ac45 4465 ac45 9651 ac45 774f ac45

std f4 [16]
0.21302803 0.24058865 0.12807162 0.021327723 0.025212523 0.021781338 0.033380337 0.030198514
0.13164935 0.047761664 0.048535835 0.048304517 185.19066 186.84827 166.81282 164.4102
00000000: 0524 5a3e df5c 763e 3525 033e 7ab7 ae3c
00000010: 7e8a ce3c c76e b23c d2b9 083d e062 f73c
00000020: 16cf 063e bca1 433d 83cd 463d f5da 453d
00000030: cf30 3943 28d9 3a43 15d0 2643 0369 2443

weight f4 [120, 16]
0.17865576 0.16574082 -0.15378697 0.0987033 0.16340385 -0.16291887 0.23851635 -0.21004225
-0.22685182 -0.018470539 0.22583048 -0.22925368 -0.1227138 0.08683674 0.1619311 0.22896223
-0.13858768 -0.22690077 -0.10073113 0.15617138 0.1776782 -0.09338551 0.15267123 0.15839688
-0.012450573 0.06956407 0.16854954 -0.16764994 0.015678247 -0.21868458 0.08683342 0.044280533
-0.025747737 -0.1284587 -0.028097942 -0.016933646 0.08985903 0.09070044 0.03705127 0.09489814
-0.19656509 -0.025583696 -0.20348454 0.13963598 0.140149 0.06406867 -0.12916498 0.17339742
-0.09953435 0.0010061222 0.13577212 -0.039184045 -0.22475357 0.22142218 -0.053426422 0.10027953
0.05855712 -0.055754114 0.02426821 0.25077218 -0.18194833 0.007542262 -0.19776925 -0.22565192
-0.036379363 -0.13309962 0.168303 -0.054388955 0.087479144 -0.07397961 0.1783289 0.0030985551
0.13403156 -0.08088063 -0.09492748 -0.2179048 0.09111645 -0.08508808 0.0821769 0.1350524
0.08870484 -0.068133526 -0.07145957 0.110643506 -0.04736253 0.18251082 0.11830642 0.13336138
0.26033354 0.039869882 0.2207922 0.1742168 -0.038750574 0.119115934 0.21154743 -0.20184605
0.10252258 0.23024084 -0.15378438 0.020680131 0.07898086 -0.091486566 -0.1725065 0.16086762
-0.11215585 0.10566413 0.22962524 0.18093236 -0.17130113 0.19159725 0.13164072 0.012183103
0.048488867 -0.08815397 -0.2235416 -0.18658823 -0.22765058 0.15781434 -0.12514734 0.23329051
0.0632905 0.030375136 0.19136526 0.20835567 -0.04029989 0.17681731 -0.17515576 0.104399815
-0.07114604 0.15708297 0.17217058 -0.17225192 -0.19031304 -0.049423758 0.123809814 -0.20009162
0.012997396 -0.041404918 -0.049971916 -0.05635475 0.1423061 -0.16394399 -0.13475215 -0.0075409045
-0.21601039 0.085479446 -0.12311192 0.05893456 -0.025052175 -0.22989526 -0.14032264 0.005973314
-0.060452968 -0.14472088 -0.18798977 0.15635395 -0.0821641 -0.009573227 -0.102010004 0.17596047
-0.23453018 -0.06911003 0.09911143 0.032108855 0.2064471 0.1053651 -0.030770628 -0.13024361
-0.2088295 -0.15585461 0.026721003 -0.14404702 -0.1001472 -0.23583768 -0.12310267 0.22467692
-0.10045909 0.14691055 0.036583755 0.22711086 0.058223207 0.17634797 -0.015159999 -0.18920295
0.20800686 -0.124100626 -0.07516452 0.22183594 -0.26550278 -0.23768155 -0.2175333 0.110648796
-0.025345938 -0.022856174 0.113022245 0.23774663 -0.15880565 0.22886474 0.03194842 -0.14768961
-0.16412953 0.14645065 -0.06335261 0.21325737 -0.06595629 0.16099034 -0.006226937 0.19616963
0.15003987 -0.08718521 0.15033162 -0.22593124 0.19099997 -0.14519674 0.054132603 -0.09453424
-0.08660272 -0.079574525 -0.15113692 0.088428125 0.04140335 -0.17758615 -0.23687665 -0.24305063
-0.021718945 -0.16316138 -0.08522853 0.2148244 -0.036490686 0.09012984 -0.08949318 -0.0023476186
-0.043606404 -0.20305817 -0.04010698 -0.08757435 -0.19289085 0.048601486 0.22555242 -0.22133586
0.22266962 0.19177933 0.23071514 0.19467172 0.10316003 0.104748294 -0.050886586 -0.22470844
0.04006391 -0.107175425 0.15899017 -0.19331226 -0.055067625 -0.032661922 -0.028549245 -0.16939428
00000000: 89f1 363e f6b7 293e 557a 1dbe f524 ca3d
00000010: 5753 273e 34d4 26be a13d 743e 5115 57be
00000020: d84b 68be 874f 97bc 1b40 673e 7ac1 6abe
00000030: 5f51 fbbd 76d7 b13d 44d1 253e 1375 6a3e
00000040: eee9 0dbe ad58 68be 1f4c cebd 64eb 1f3e
00000050: 46f1 353e e740 bfbd d955 1c3e cb32 223e
00000060: 7dfd 4bbc 9b77 8e3d 4098 2c3e 6dac 2bbe
00000070: ab6f 803c daee 5fbe b8d5 b13d 815f 353d
00000080: ebec d2bc ad8a 03be a82d e6bc 6eb8 8abc
00000090: 0308 b83d 27c1 b93d 13c3 173d f559 c23d
000000a0: 5c48 49be e694 d1bc 405e 50be bcfc 0e3e
000000b0: 3883 0f3e 6f36 833d d343 04be 188f 313e
000000c0: aad8 cbbd dcdf 833a d907 0b3e 737f 20bd
000000d0: cd25 66be 7fbc 623e aad5 5abd 5b5f cd3d
000000e0: 97d9 6f3d 6d5e 64bd 20ce c63c 3665 803e
000000f0: aa50 3abe 1425 f73b 0684 4abe 4c11 67be
00000100: 8702 15bd 444b 08be 9f57 2c3e f4c6 5ebd
00000110: 4428 b33d 9f82 97bd da9b 363e 2111 4b3b
00000120: 923f 093e bea4 a5bd 5769 c2bd 7022 5fbe
00000130: 439b ba3d a942 aebd 5d4c a83d 2d4b 0a3e
00000140: e2aa b53d 9789 8bbd 6559 92bd 1099 e23d
00000150: 36ff 41bd 1ee4 3a3e a34a f23d e38f 083e
00000160: 704a 853e 9a4e 233d 5a17 623e e465 323e
00000170: ecb8 1ebd 0ef3 f33d e49f 583e bbb0 4ebe
00000180: 5cf7 d13d 41c4 6b3e a779 1dbe 6169 a93c
00000190: b8c0 a13d 4f5d bbbd 8ba5 30be 7bba 243e
000001a0: f7b1 e5bd 6f66 d83d e122 6b3e 5546 393e
000001b0: 9069 2fbe 1232 443e d3cc 063e a39b 473c
000001c0: 439c 463d 128a b4bd 17e8 64be fc10 3fbe
000001d0: 3c1d 69be 159a 213e a026 00be b5e3 6e3e
000001e0: 739e 813d 47d5 f83c 41f5 433e 305b 553e
000001f0: 7f11 25bd 990f 353e 085c 33be 92cf d53d
00000200: 04b5 91bd 5cda 203e 7c4d 303e cf62 30be
00000210: 6ce1 42be 9170 4abd 0090 fd3d d1e4 4cbe
00000220: 08f3 543c 3498 29bd 5aaf 4cbd 3dd4 66bd
00000230: b1b8 113e efe0 27be 78fc 09be b119 f7bb
00000240: d431 5dbe d90f af3d 1a22 fcbd 5d65 713d
00000250: 383a cdbc aa69 6bbe bdb0 0fbe cabb c33b
00000260: 889d 77bd b631 14be 6480 40be 401b 203e
00000270: a745 a8bd 06d9 1cbc 9fea d0bd fb2e 343e
00000280: ae28 70be 8f89 8dbd effa ca3d 9384 033d
00000290: de66 533e a8c9 d73d af12 fcbc 955e 05be
000002a0: 67d7 55be 5a98 1fbe 01e6 da3c 1081 13be
000002b0: fa19 cdbd 6f7f 71be 411d fcbd b511 663e
000002c0: 7fbd cdbd b86f 163e d9d8 153d c08f 683e
000002d0: 757b 6e3d 9094 343e a561 78bc 6bbe 41be
000002e0: c0ff 543e 7828 febd dbef 99bd f628 633e
000002f0: fbef 87be cb62 73be 0dc1 5ebe d69b e23d
00000300: 49a2 cfbc df3c bbbc 3578 e73d da73 733e
00000310: f39d 22be 855b 6a3e 59dc 023d f23b 17be
00000320: 9211 28be 29f7 153e 03bf 81bd 2460 5a3e
00000330: 1714 87bd a7da 243e 550b ccbb b1e0 483e
00000340: 0da4 193e 298e b2bd 88f0 193e 855a 67be
00000350: 7f95 433e 74ae 14be 26ba 5d3d 2b9b c1bd
00000360: c45c b1bd f8f7 a2bd a3c3 1abe ce19 b53d
00000370: 8f96 293d 25d9 35be cb8f 72be 44e2 78be
00000380: eeeb b1bc c713 27be 4c8c aebd edfa 5b3e
00000390: 4277 15bd fe95 b83d 3348 b7bd 81da 19bb
000003a0: a19c 32bd 7bee 4fbe 3747 24bd 2e5a b3bd
000003b0: 2e85 45be 5a12 473d 37f7 663e dea5 62be
000003c0: 8103 643e cd61 443e 9740 6c3e 0658 473e
000003d0: 9145 d33d 4686 d63d 746e 50bd f819 66be
000003e0: 0e1a 243d ca7e dbbd 52ce 223e a6f3 45be
000003f0: 978e 61bd 82c8 05bd 1be0 e9bc b275 2dbe

bias f4 [120]
-0.17224656 0.08183442 0.101617195 0.08831716 0.2250812 0.029094186 -0.016791806 -0.20234552
0.055313695 0.23199548 -0.00551807 -0.17629336 -0.015262189 0.013536882 -0.09683691 0.21782085
-0.12037942 -0.24327491 0.12271185 -0.15501368 -0.11492089 0.04803462 -0.013800067 0.0075956895
0.010301711 -0.22504078 0.11610764 -0.1719965 -0.18748225 0.007034131 -0.0071767857 -0.07090523
-0.19275704 -0.24516235 0.12776089 -0.012600736 -0.11866588 0.19409822 0.19266605 0.24902284
-0.047689624 -0.003921285 -0.24657527 -0.25160784 0.022217644 -0.07663886 0.16554503 0.21726203
-0.0056310543 -0.19692397 -0.14838393 -0.09668719 0.21091537 0.15847866 -0.04778785 -0.24971396
-0.049624354 -0.22062096 -0.22663982 0.046539556 0.19188206 0.02756288 0.1259714 0.05183753
0.03607938 0.0402119 0.17688043 -0.17823784 0.121947125 0.14137737 -0.12187117 -0.18265563
0.11007315 -0.18899558 -0.099772274 0.2237302 0.2019376 0.24350432 0.020330716 -0.011960478
0.17577916 -0.08177388 -0.10180014 -0.22311805 0.21630295 -0.21904618 -0.25930688 0.06008289
0.051440462 -0.21390854 0.04945238 -0.0840824 0.15216516 0.17853819 0.19618224 0.12975316
-0.09902742 -0.054547243 -0.01684515 -0.015070043 0.012099948 0.12801738 -0.099736415 -0.15833232
-0.11790233 -0.059940416 -0.20264421 -0.10692532 -0.064851925 0.1991597 -0.15148172 0.14235023
0.0670029 0.062182236 -0.20959955 -0.009442641 0.14001618 -0.20542508 0.01949079 -0.046989802
00000000: 6761 30be ce98 a73d ad1c d03d a1df b43d
00000010: b07b 663e ee56 ee3c f88e 89bc aa33 4fbe
00000020: 9d90 623d 3990 6d3e edd0 b4bb 3f86 34be
00000030: 430e 7abc ccc9 5d3c 6e52 c6bd 6e0c 5f3e
00000040: 7c89 f6bd 0f1d 79be 5a50 fb3d e8bb 1ebe
00000050: a55b ebbd f3bf 443d ad19 62bc 43e5 f83b
00000060: 82c8 283c 1771 66be d8c9 ed3d da1f 30be
00000070: 59fb 3fbe 917e e63b 3e2b ebbb c336 91bd
00000080: 1a62 45be d70b 7bbe c0d3 023e 5173 4ebc
00000090: 1907 f3bd afc1 463e 404a 453e d8ff 7e3e
000000a0: 3256 43bd 1f7e 80bb 3a7e 7cbe bed2 80be
000000b0: c701 b63c d6f4 9cbd a384 293e f079 5e3e
000000c0: b584 b8bb 70a6 49be f5f1 17be ef03 c6bd
000000d0: 33fa 573e 3b48 223e 31bd 43bd 04b5 7fbe
000000e0: e842 4bbd 76ea 61be 4514 68be 43a0 3e3d
000000f0: bb7c 443e 8dcb e13c a6fe 003e 9753 543d
00000100: f9c7 133d 3cb5 243d 2520 353e fb83 36be
00000110: 6abf f93d 3bc5 103e 9897 f9bd 140a 3bbe
00000120: 086e e13d 0f88 41be 6855 ccbd 8819 653e
00000130: bbc8 4e3e 3259 793e 9a8c a63c e1f5 43bc
00000140: 74ff 333e 1079 a7bd 987c d0bd 0f79 64be
00000150: 857e 5d3e a44d 60be dfc3 84be 7a19 763d
00000160: 3cb3 523d d70a 5bbe 948e 4a3d 6533 acbd
00000170: 2fd1 1b3e b7d2 363e ffe3 483e 03de 043e
00000180: e3ce cabd ee6c 5fbd d7fe 89bc 57e8 76bc
00000190: dc3e 463c fd16 033e 9b42 ccbd de21 22be
000001a0: c776 f1bd 1584 75bd f781 4fbe aafb dabd
000001b0: 16d1 84bd 85f0 4b3e 061e 1bbe 42c4 113e
000001c0: d138 893d cdb2 7e3d 44a1 56be 4fb5 1abc
000001d0: 6760 0f3e f45a 52be 26ab 9f3c 6178 40bd

weight f4 [120, 120]
-0.045442346 -0.1081062 0.06228272 0.028382638 -0.039388515 -0.044540234 -0.044302344 0.049601212
-0.05814555 -0.070593804 -0.041501522 0.040070646 -0.06563114 -0.081319004 0.0071225637 0.03898186
-0.06352944 0.02367617 -0.022277812 -0.0421469 0.011682585 -0.0070126774 -0.094891466 -0.0031553614
0.06965299 -0.049488254 0.06763326 0.0028731185 -0.07351107 0.03099073 -0.017398253 -0.021566922
-0.038857937 0.08865093 -0.04828911 -0.059395943 -0.08306322 0.06649993 0.0668585 0.03918336
0.008374317 0.034651875 -0.06251005 0.0342026 0.04528911 -0.05801591 -0.024958668 0.016318537
-0.045926105 0.08136302 0.0015787119 -0.011008204 0.057291705 0.006869247 -0.04526306 0.041466363
0.051532265 -0.03586859 0.036869865 -0.06741689 -0.043181196 0.085058406 -0.0996028 0.07657462
-0.085746914 0.04875839 -0.0681455 -0.009161655 0.06046464 0.040719446 -0.004231207 0.060110226
0.0038530529 0.07788443 0.038858235 0.06032237 0.061771147 -0.030059602 -0.047855753 0.023604916
0.00013827761 0.027883084 -0.037087586 0.005407231 0.01416189 0.06385246 0.035270166 -0.014154506
-0.08998163 0.027617378 0.006075848 0.06482666 0.09747443 -0.019730926 -0.04783822 -0.021844378
0.017723357 -0.02830201 0.033313323 0.008233218 0.07154259 -0.014979019 -0.052633204 -0.0062363367
0.011926634 -0.025677202 0.0478318 -0.024872126 -0.02653418 0.05690776 0.05813727 -0.018991705
-0.04568594 -0.002473829 -0.07942722 -0.0024867442 0.07343129 -0.03255907 0.0064417063 0.052679863
-0.0064554214 0.04934743 0.07558504 0.02654792 0.053585675 0.010947234 -0.084864125 -0.039224014
0.059075072 0.051705718 -0.0009554424 -0.06118388 -0.013301979 -0.04755699 0.0062717847 0.0011629112
-0.016222985 0.00044799954 0.055838868 0.020776493 0.04234678 -0.057900637 -0.02665335 0.06464532
-0.06623246 0.07838386 0.07367208 0.008791327 0.07645342 -0.09553663 0.012784781 0.07424266
-0.0071578515 -0.066570975 -0.025063418 0.07349543 0.011992366 -0.0069083073 0.009672018 0.048296496
0.016769383 -0.02968968 -0.047694802 -0.06362083 -0.0068946425 0.052600194 0.08325697 -0.018542169
-0.0134348525 0.075558566 -0.08963492 -0.012518565 -0.031240314 -0.077665366 -0.019771596 0.0057726307
0.073279485 0.06085588 0.012403901 0.019768165 -0.039809506 -0.025519397 -0.03407328 0.024753366
0.03292308 0.01531675 -0.067325026 -0.04921076 0.061294455 -0.057345986 0.08127113 -0.07658815
-0.0074748183 -0.0091718435 0.020726454 0.0024683871 0.028439311 0.0488927 0.052347284 0.020435432
0.0656851 0.075262144 -0.05436453 0.02978932 -0.00422518 -0.0028313177 0.032245718 -0.046591237
-0.046298914 0.09015537 -0.04547176 0.06617868 0.011695972 0.021635719 0.0033814053 -0.015598174
-0.09018619 0.06584505 -0.0569248 -0.056964766 -0.03076809 -0.0069393283 -0.08893244 -0.03441076
0.04768606 -0.001163581 -0.031073006 -0.09254599 -0.030081023 -0.0050337836 -0.023305956 0.07175012
0.0037072096 -0.016545244 0.037610628 -0.07247365 0.051219516 -0.00995122 -0.009363872 0.018533066
0.05174277 -0.08804272 -0.048252083 0.07260362 0.034663994 -0.03562219 -0.07054869 -0.031135645
0.04622975 0.03725685 0.00032893047 0.06572376 -0.010963922 -0.06275856 -0.03034276 0.052939393
00000000: c121 3abd c966 ddbd 2a1c 7f3d b582 e83c
00000010: da55 21bd d26f 36bd 6076 35bd a42a 4b3d
00000020: 072a 6ebd 7c93 90bd 80fd 29bd 1e21 243d
00000030: 9e69 86bd 948a a6bd 6564 e93b 71ab 1f3d
00000040: b91b 82bd 87f4 c13c f57f b6bc 3aa2 2cbd
00000050: 5068 3f3c 9aca e5bb 7556 c2bd 2eca 4ebb
00000060: 3aa6 8e3d 32b4 4abd 4e83 8a3d ee4a 3c3b
00000070: f98c 96bd 45e0 fd3c c886 8ebc 1dad b0bc
00000080: 8029 1fbd 9e8e b53d cdca 45bd 2949 73bd
00000090: 0d1d aabd 1e31 883d 1ced 883d bb7e 203d
000000a0: 6e34 093c 20ef 0d3d 4505 80bd 0718 0c3d
000000b0: 1381 393d 17a2 6dbd 1f76 ccbc 74ae 853c
000000c0: 031d 3cbd a8a1 a63d c8ec ce3a c15b 34bc
000000d0: b5aa 6a3d 6c17 e13b c265 39bd a2d8 293d
000000e0: 7f13 533d f1ea 12bd db04 173d de11 8abd
000000f0: c4de 30bd 1a33 ae3d 8efc cbbd 28d3 9c3d
00000100: 149c afbd e1b6 473d de8f 8bbd c41a 16bc
00000110: c5a9 773d 6fc9 263d f0a5 8abb 2436 763d
00000120: 8083 7c3b df81 9f3d d029 1f3d 9714 773d
00000130: be03 7d3d 8e3f f6bc 6504 44bd 195f c13c
00000140: 9dfe 1039 116b e43c 27e9 17bd 242f b13b
00000150: 4607 683c 14c5 823d 7377 103d 4de8 67bc
00000160: 4a48 b8bd d73d e23c e817 c73b d7c3 843d
00000170: ada0 c73d c0a2 a1bc 02f2 43bd fbf2 b2bc
00000180: 9330 913c 9ed9 e7bc 8d73 083d 9fe4 063c
00000190: ec84 923d 8f6a 75bc ea95 57bd 2f5a ccbb
000001a0: ee67 433c ff58 d2bc 47eb 433d a1c0 cbbc
000001b0: 355e d9bc 1d18 693d 5921 6e3d 7e94 9bbc
000001c0: 2e21 3bbd f71f 22bb bdaa a2bd a5f8 22bb
000001d0: 2563 963d a95c 05bd f314 d33b d7c6 573d
000001e0: 0088 d3bb 8820 4a3d 54cc 9a3d 067b d93c
000001f0: a77c 5b3d 075c 333c 3ecd adbd 5ca9 20bd
00000200: b4f8 713d 60c9 533d a776 7aba f39b 7abd
00000210: 8bf0 59bc 1ecb 42bd 8b83 cd3b d36c 983a
00000220: 11e6 84bc 7be1 ea39 4cb7 643d 7733 aa3c
00000230: d173 2d3d 3829 6dbd 2058 dabc c464 843d
00000240: e2a4 87bd b887 a03d 63e1 963d 7f09 103c
00000250: 9c93 9c3d b5a8 c3bd 4277 513c 890c 983d
00000260: 698c eabb 5d56 88bd cc51 cdbc c684 963d
00000270: a17b 443c 155f e2bb 6277 1e3c 8cd2 453d
00000280: f25f 893c c637 f3bc a05b 43bd a34b 82bd
00000290: 74ec e1bb 4d73 573d a182 aa3d bfe5 97bc
000002a0: db1d 5cbc 73be 9a3d 8392 b7bd ab1a 4dbc
000002b0: b0eb ffbc 050f 9fbd 0bf8 a1bc 5628 bd3b
000002c0: 8e13 963d 0444 793d bb39 4b3c d9f0 a13c
000002d0: 4b0f 23bd 0e0e d1bc 6c90 0bbd 92c7 ca3c
000002e0: 5ada 063d 1bf3 7a3c b4e1 89bd 3991 49bd
000002f0: e50f 7b3d a0e3 6abd 7a71 a63d 3fda 9cbd
00000300: 52ef f4bb 8045 16bc 86ca a93c aac4 213b
00000310: 8ff9 e83c b643 483d 1b6a 563d 3568 a73c
00000320: e985 863d 0a23 9a3d 57ad 5ebd bb08 f43c
00000330: 6173 8abb a18d 39bb 1614 043d 74d6 3ebd
00000340: eea3 3dbd 61a3 b83d 9940 3abd b088 873d
00000350: 76a0 3f3c 643d b13c 919a 5d3b 7c8f 7fbc
00000360: 8ab3 b8bd c5d9 863d fb29 69bd e353 69bd
00000370: 5d0d fcbc 4e63 e3bb 3622 b6bd 4cf2 0cbd
00000380: 7552 433d 4d83 98ba d18c febc c188 bdbd
00000390: 7a6c f6bc 70f2 a4bb 22ec bebc baf1 923d
000003a0: a8f4 723b e489 87bc 9a0d 1a3d 116d 94bd
000003b0: 8ecb 513d 710a 23bc ed6a 19bc a8d2 973c
000003c0: 3af0 533d be4f b4bd faa3 45bd 35b1 943d
000003d0: d5fb 0d3d 93e8 11bd d57b 90bd 2e10 ffbc
000003e0: 685b 3d3d a49a 183d 4d74 ac39 2e9a 863d
000003f0: 06a2 33bc 8f87 80bd 6191 f8bc fad6 583d

bias f4 [120]
-0.058069926 -0.0033700995 0.042996224 0.07935962 0.06185052 0.08543184 -0.070617594 -0.09149274
-0.011840318 -0.062172692 -0.00014943343 -0.03228668 0.07487803 0.063709944 0.07440165 0.085495755
0.05646024 -0.084136695 0.017029896 0.05200926 0.041892238 -0.04267461 0.0073644225 -0.023001755
-0.027997464 -0.030744817 -0.08884018 -0.08662688 -0.076877244 -0.05489856 -0.047770564 0.018212218
0.053366873 -0.063741036 0.045048747 -0.07362608 0.0076523176 -0.049334716 0.08038282 0.038819905
-0.03304002 0.080328174 0.1049039 0.050457533 -0.012380133 -0.022537913 0.077563204 -0.02520987
-0.00023205669 0.004000382 0.037620045 -0.0483739 0.005836725 0.058940746 0.054917026 -0.07282346
0.036806226 0.024381947 -0.067462526 -0.03294671 0.0113327345 0.06658283 0.06395939 -0.0901279
-0.06491806 0.043468397 0.0061903596 -0.0045409263 0.0030833296 0.03938171 0.0123306485 0.027713314
0.0066296184 0.031864263 -0.056170378 -0.089776665 0.05549658 0.01862939 -0.052888405 0.062397912
-0.06530144 0.05644027 0.06616771 -0.027908731 -0.06799972 0.08205735 -0.021421416 0.08412519
-0.05501639 -0.028062653 -0.012415119 -0.09202673 -0.005374509 0.021638297 -0.094708696 0.037840247
-0.087468654 -0.02858436 0.025485015 -0.035470262 0.060463578 0.056508422 0.058937557 -0.07047609
-0.0551635 -0.051340986 -0.06254761 0.054318268 0.059173968 0.033816524 -0.04959416 -0.066601306
0.04268539 0.05269393 -0.037671365 -0.013135699 0.005119862 -0.06746565 0.032828815 0.02534759
00000000: bbda 6dbd e3dc 5cbb cf1c 303d 4c87 a23d
00000010: f956 7d3d e3f6 ae3d f59f 90bd 8c60 bbbd
00000020: e5fd 41bc cba8 7ebd 3bb1 1cb9 0a3f 04bd
00000030: a759 993d 5c7a 823d e45f 983d 6618 af3d
00000040: da42 673d dc4f acbd 4882 8b3c a907 553d
00000050: 3297 2b3d 92cb 2ebd 4151 f13b 2d6e bcbc
00000060: f05a e5bc 8edc fbbc d7f1 b5bd 6f69 b1bd
00000070: d171 9dbd 50dd 60bd 11ab 43bd ca31 953c
00000080: 3997 5a3d a98a 82bd 0985 383d 45c9 96bd
00000090: 4bc0 fa3b 3313 4abd bf9f a43d 9f01 1f3d
000000a0: f954 07bd 1983 a43d dbd7 d63d 8fac 4e3d
000000b0: 0bd6 4abc 6ea1 b8bc 75d9 9e3d ee84 cebc
000000c0: 3e54 73b9 a315 833b 7a17 1a3d b623 46bd
000000d0: ff41 bf3b da6b 713d adf0 603d 7724 95bd
000000e0: 20c2 163d a6bc c73c cb29 8abd 21f3 06bd
000000f0: efac 393c 945c 883d 24fd 823d fa94 b8bd
00000100: c3f3 84bd eb0b 323d 80d8 ca3b 0dcc 94bb
00000110: b011 4a3b b74e 213d 7d06 4a3c 0807 e33c
00000120: 453d d93b 1a84 023d e912 66bd d4dc b7bd
00000130: 6250 633d aa9c 983c 83a1 58bd f494 7f3d
00000140: c3bc 85bd ea2d 673d f082 873d daa0 e4bc
00000150: 7043 8bbd af0d a83d f77b afbc d449 ac3d
00000160: de58 61bd a6e3 e5bc c968 4bbc 8378 bcbd
00000170: a61c b0bb cc42 b13c a2f6 c1bd 60fe 1a3d
00000180: c422 b3bd bf29 eabc f3c5 d03c 4449 11bd
00000190: a8a8 773d 6075 673d 8268 713d c555 90bd
000001a0: 1ff3 61bd ed4a 52bd f618 80bd d57c 5e3d
000001b0: 6760 723d 3283 0a3d 3f23 4bbd 4466 88bd
000001c0: e0d6 2e3d 97d5 573d 4a4d 1abd 1d37 57bc
000001d0: 84c4 a73b 6e2b 8abd 8277 063d c0a5 cf3c

weight f4 [120, 120]
-0.09202826 0.030989427 0.0706098 0.09130263 -0.059277788 -0.045757562 0.012857924 -0.05694766
0.0005495443 -0.00068173336 0.05861615 -0.06823666 0.06929146 -0.07592868 -0.03018768 0.032297295
-0.03806546 0.030458653 -0.06607849 -0.05980269 -0.016739124 -0.05911837 -0.0513822 -0.008940929
-0.0018654574 0.02417529 0.061964676 -0.030562038 0.06493978 -0.039797094 0.016549509 0.053539366
0.061157536 0.04584604 0.07587238 -0.026617274 -0.0118170185 -0.045935214 -0.08729943 0.054846566
0.048695695 0.032372292 -0.060031418 0.006945088 -0.027745146 -0.024628341 0.055437025 0.009153179
-0.010536558 -0.004932622 -0.050672032 -0.057376813 -0.058164287 -0.0067887674 0.022497015 -0.07591825
0.074392565 0.0053233122 0.035626836 -0.06355812 -0.02747869 -0.01660602 0.07658755 -0.035303224
0.018516688 0.0779624 -0.01647277 0.0550929 -0.066349186 0.0057030236 0.06800171 0.07524529
0.021045122 -0.0030504589 -0.039765317 -0.03734731 -0.028655129 0.07982235 -0.01746792 0.02368924
-0.04386536 0.08506069 -0.01876867 0.019573746 -0.067848146 0.03829986 0.07181856 0.051471952
0.061221115 -0.008634442 0.026406303 -0.033379816 0.026387442 0.05824038 -0.009618988 0.0015549151
0.015386955 0.020712664 0.0051084273 -0.04316839 -0.075927876 -0.024660993 -0.007980004 0.013914096
-0.008346859 0.076144814 0.019669466 -0.042326283 0.06295792 -0.07405019 -0.07422237 0.048820205
-0.077624306 0.0677695 0.05756576 -0.02204704 0.08509748 0.017547198 0.059925996 0.01043905
-0.059340525 0.017483776 -0.010640353 0.08719419 -0.019139165 -0.044113472 0.032066282 0.03366629
0.015883585 -0.026056465 0.05758815 -0.059972543 -0.08392867 -0.062091727 0.03702305 -0.06968605
-0.07432861 -0.009188885 0.059925843 -0.05132059 -0.04608074 -0.092388384 -0.052016355 -0.023775652
-0.060794722 -0.027203888 0.0022006342 -0.08185651 -0.028845685 0.038861465 0.032565627 0.011574196
-0.037773207 0.059549186 -0.01823798 0.048479635 -0.013919802 -0.0033530346 -0.07834355 0.07575544
-0.09072843 0.045276016 -0.063760675 0.019385867 0.056072753 -0.0039055012 -0.07724929 -0.08329056
-0.08128487 -0.040047843 0.020341652 0.05140947 -0.013727791 0.03359319 -0.0659088 0.001619081
0.03447751 0.023625603 0.005381911 -0.006460943 0.041656513 -0.086733975 0.05619161 -0.025226872
-0.018415846 0.02950124 0.08684839 -0.086057365 -0.05101537 -0.09381119 0.057609487 -0.098967165
0.05721181 -0.0315112 -0.02699012 -0.0055267834 0.030163037 -0.065476924 -0.0072344705 -0.024084117
-0.0416564 -0.043717373 -0.025254134 -0.045239557 -0.056542482 0.043382384 0.019548891 0.07278712
-0.043653198 -0.001358147 0.086430214 0.043562427 -0.005629972 0.08693214 -0.04514339 0.0046989126
-0.02798235 0.0046470743 0.017339783 0.05541157 0.06893236 0.058608472 -0.041129988 0.0027448353
0.08012088 0.04195504 0.078483954 -0.018100377 0.05465379 -0.068258606 0.0567101 -0.049509283
-0.09365242 0.09249976 -0.068410285 0.03546726 -0.049898032 -0.07311006 -0.006709299 0.044729646
0.027479941 -0.01272655 -0.041304577 -0.07037415 -0.011105196 0.022016734 0.06594069 0.045974776
-0.07166305 -0.016156487 -0.0034363547 0.050280403 0.01737171 -0.08587034 -0.039927434 0.026281938
00000000: 5079 bcbd 8add fd3c df9b 903d e0fc ba3d
00000010: 44cd 72bd 486c 3bbd 0baa 523c f341 69bd
00000020: 4b0f 103a 5ab6 32ba 7d17 703d a9bf 8bbd
00000030: aee8 8d3d 7f80 9bbd 274c f7bc 2b4a 043d
00000040: 87ea 1bbd 6d84 f93c 2954 87bd aaf3 74bd
00000050: 7d20 89bc 1b26 72bd 2476 52bd f97c 12bc
00000060: 5d82 f4ba 420b c63c acce 7d3d 3d5d fabc
00000070: 26ff 843d 4702 23bd d692 873c 184c 5b3d
00000080: 5380 7a3d 0fc9 3b3d fa62 9b3d 780c dabc
00000090: 2b9c 41bc 9026 3cbd 0bca b2bd cba6 603d
000000a0: 2375 473d cf98 043d 81e3 75bd 9f93 e33b
000000b0: ca49 e3bc 60c1 c9bc ef11 633d 37f7 153c
000000c0: 87a1 2cbc d5a1 a1bb 7a8d 4fbd f303 6bbd
000000d0: ad3d 6ebd 4f74 debb a94b b83c 077b 9bbd
000000e0: 215b 983d 2e6f ae3b 72ed 113d c22a 82bd
000000f0: fd1a e1bc 5909 88bc efd9 9c3d 1d9a 10bd
00000100: 4fb0 973c c0aa 9f3d e7f1 86bc 18a9 613d
00000110: 15e2 87bd 6ee0 ba3b 7b44 8b3d 341a 9a3d
00000120: d266 ac3c 35ea 47bb f5e0 22bd 7ef9 18bd
00000130: 29be eabc e679 a33d e218 8fbc f00f c23c
00000140: 2aac 33bd 4d34 ae3d c1c0 99bc 1f59 a03c
00000150: f8f3 8abd 50e0 1c3d 9c15 933d 41d4 523d
00000160: fec2 7a3d 7a77 0dbc 0852 d83c 46b9 08bd
00000170: 7a2a d83c 778d 6e3d f698 1dbc 4bce cb3a
00000180: 9119 7c3c 9bad a93c 9864 a73b 56d1 30bd
00000190: 1380 9bbd da05 cabc 90be 02bc f3f7 633c
000001a0: 44c1 08bc d0f1 9b3d dc21 a13c 535e 2dbd
000001b0: 15f0 803d a0a7 97bd e601 98bd b2f7 473d
000001c0: 7ef9 9ebd bcca 8a3d 13ca 6b3d fe9b b4bc
000001d0: 9647 ae3d 24bf 8f3c f674 753d 8d08 2b3c
000001e0: 0d0f 73bd 233a 8f3c e054 2ebc de92 b23d
000001f0: bdc9 9cbc 54b0 34bd ef57 033d aae5 093d
00000200: 4b1e 823c 5e74 d5bc 8de1 6b3d c5a5 75bd
00000210: cbe2 abbd e553 7ebd 7ba5 173d 8fb7 8ebd
00000220: 9939 98bd fa8c 16bc cd74 753d 8a35 52bd
00000230: 28bf 3cbd 1f36 bdbd 1a0f 55bd 28c5 c2bc
00000240: e303 79bd b0da debc 8438 103b 63a4 a7bd
00000250: c94d ecbc 332d 1f3d 8963 053d b2a1 3d3c
00000260: 14b8 1abd d9e9 733d d167 95bc 9592 463d
00000270: e20f 64bc 96be 5bbb 9572 a0bd ab25 9b3d
00000280: d4cf b9bd 5873 393d f594 82bd 1ccf 9e3c
00000290: 8bac 653d 70f3 7fbb e034 9ebd 3e94 aabd
000002a0: af78 a6bd 3509 24bd 89a3 a63c bd92 523d
000002b0: 87ea 60bc 0399 093d 31fb 86bd 5837 d43a
000002c0: 4a38 0d3d 7b8a c13c be5a b03b 51b6 d3bb
000002d0: 05a0 2a3d 95a1 b1bd 2c29 663d 96a8 cebc
000002e0: d4dc 96bc 96ac f13c 92dd b13d d83e b0bd
000002f0: 7ef5 50bd 1520 c0bd edf7 6b3d 4caf cabd
00000300: ee56 6a3d e311 01bd 621a ddbc 051a b5bb
00000310: 7918 f73c c418 86bd 230f edbb 0e4c c5bc
00000320: e79f 2abd fd10 33bd c2e1 cebc 1d4d 39bd
00000330: 1799 67bd bab1 313d ff24 a03c 6a11 953d
00000340: b2cd 32bd da03 b2ba 5302 b13d 846e 323d
00000350: a17b b8bb 7a09 b23d 46e8 38bd 56f9 993b
00000360: 3e3b e5bc 7c46 983b 290c 8e3c 3ef7 623d
00000370: 692c 8d3d 700f 703d eb77 28bd b2e2 333b
00000380: 6a16 a43d 0cd9 2b3d 32bc a03d 3e47 94bc
00000390: a7dc 5f3d 2bcb 8bbd da48 683d 3fca 4abd
000003a0: d7cc bfbd 8470 bd3d b11a 8cbd 1e46 113d
000003b0: e161 4cbd baba 95bd aed9 dbbb 6f36 373d
000003c0: 9d1d e13c 0583 50bc fd2e 29bd 5320 90bd
000003d0: 91f2 35bc 705c b43c ea0b 873d 0c50 3c3d
000003e0: 14c4 92bd 9c5a 84bc 7734 61bb d3f2 4d3d
000003f0: 1e4f 8e3c cadc afbd f38a 23bd 384d d73c

bias f4 [120]
-0.10742574 0.01390363 0.020002319 0.07245546 0.02668103 0.06047542 0.086185366 -0.100663796
-0.020343026 -0.054821316 0.044287313 -0.020631274 0.0029896141 -0.030864712 -0.036501437 0.021922287
0.074631885 0.05535181 0.06910888 -0.040246602 -0.055008244 -0.027501404 -0.08540685 -0.042440888
-0.113032825 -0.026508324 -0.046391033 -0.09014339 0.057683147 -0.048726533 -0.033751298 0.072755866
-0.017708367 0.07398275 0.06626906 -0.05015359 -0.047251925 0.033602294 -0.024916422 -0.033239517
0.075452305 -0.0034776432 0.06810079 -0.03439562 -0.07563208 0.07883415 0.041382506 0.06637342
-0.03315209 0.02708722 -0.09667005 0.007611138 -0.080452934 0.021603197 0.04962632 -0.08526315
0.05491244 0.052532643 -0.00236723 -0.031438235 0.01594932 0.047565944 0.063501865 0.04327868
-0.014813766 -0.039734397 0.044636846 -0.03427014 0.0557667 -0.025411326 -0.014661262 -0.052521616
0.05456167 0.03513512 0.10093906 -0.019397175 0.045571778 0.036678106 -0.036436133 0.08109006
-0.06278336 0.09077037 -0.009680303 0.074123345 -0.052177146 -0.008041387 -0.00866793 -0.010656559
0.047327094 0.064889364 -0.06369443 -0.07739887 -0.021924023 -0.049470566 0.070238344 0.042879015
0.028926883 -0.05498426 -0.05666885 -0.029570572 -0.033513207 -0.02201615 -0.01997212 0.027096638
-0.053224348 0.075206175 -0.012958149 0.071408495 -0.042511705 0.061392922 0.017563323 -0.05954006
-0.08619771 -0.06325578 0.08030297 -0.051940538 -0.049767137 -0.016292993 0.055152882 0.009011385
00000000: 0702 dcbd 0dcc 633c e7db a33c 8763 943d
00000010: 2d92 da3c 13b5 773d f481 b03d d228 cebd
00000020: 6ba6 a6bc 518c 60bd 9d66 353d eb02 a9bc
00000030: 67ed 433b fed7 fcbc 8882 15bd 5e96 b33c
00000040: 9ad8 983d 94b8 623d f588 8d3d 9fd9 24bd
00000050: 5350 61bd a04a e1bc c9e9 aebd 7fd6 2dbd
00000060: c17d e7bd fc27 d9bc 8604 3ebd 199d b8bd
00000070: 2a45 6c3d 7995 47bd cd3e 0abd 0701 953d
00000080: 2311 91bc 4584 973d 13b8 873d da6d 4dbd
00000090: 3c8b 41bd 8fa2 093d 861d ccbc 2926 08bd
000000a0: bd86 9a3d 2ce9 63bb 6d78 8b3d 6ce2 0cbd
000000b0: fee4 9abd cd73 a13d b480 293d caee 873d
000000c0: 7cca 07bd 05e6 dd3c f2fa c5bd da66 f93b
000000d0: 82c4 a4bd 30f9 b03c f844 4b3d 729e aebd
000000e0: deeb 603d 782c 573d 8723 1bbb 61c5 00bd
000000f0: 26a8 823c 82d4 423d 440d 823d fc44 313d
00000100: 70b5 72bc 89c0 22bd 20d5 363d d95e 0cbd
00000110: a06b 643d 6a2b d0bc ca35 70bc e820 57bd
00000120: 0f7c 5f3d d8e9 0f3d 23b9 ce3d d3e6 9ebc
00000130: 79a9 3a3d c83b 163d 0e3e 15bd 8c12 a63d
00000140: 9094 80bd d1e5 b93d 229a 1ebc fbcd 973d
00000150: b4b7 55bd 06c0 03bc ef03 0ebc d998 2ebc
00000160: 0eda 413d b7e4 843d 3a72 82bd 4c83 9ebd
00000170: 029a b3bc a6a1 4abd 1fd9 8f3d e8a1 2f3d
00000180: 12f8 ec3c 2d37 61bd 991d 68bd fc3d f2bc
00000190: 2545 09bd 375b b4bc 929c a3bc c5f9 dd3c
000001a0: c601 5abd b205 9a3d 6b4e 54bc 9e3e 923d
000001b0: c120 2ebd 2577 7b3d f5e0 8f3c 47e0 73bd
000001c0: 6d88 b0bd 3f8c 81bd e275 a43d 9abf 54bd
000001d0: a0d8 4bbd e278 85bc fde7 613d 7da4 133c

weight f4 [4, 120]
0.036721107 -0.002628404 -0.05766348 -0.0068504545 0.02841414 0.0038923174 -0.024156652 -0.010453009
0.014205882 0.04248659 0.00997845 0.056573138 0.0468266 -0.031560797 0.0041187224 -0.015234569
0.047883015 -0.036955606 -0.017460056 -0.035076194 0.024019262 -0.022749659 0.029203933 -0.02788652
-0.00419808 -0.035214014 -0.051319804 -0.0022288044 -0.033802513 0.05622594 -0.028765557 -0.027532702
-0.025883036 -0.028790588 -0.04521522 0.03943863 -0.03803185 0.0031690542 0.066133186 0.07502248
-0.023775509 -0.020136196 0.026513003 0.059058707 -0.024994055 -0.011958161 0.037883066 0.05398738
0.008811882 -0.026161795 0.016989045 0.057028633 -0.00067551766 -0.04328258 0.04259776 -0.035845507
-0.0012094327 0.045015976 -0.05919991 -0.0082601225 -0.056066815 -0.03361321 0.03209541 -0.032167826
-0.061111677 -0.026861088 -0.013543525 -0.0055991868 -0.053387716 -0.066110745 -0.02160692 0.029181577
-0.036502518 -0.06257813 -0.01755706 0.04152862 -0.0395527 0.034202147 -0.049635224 0.02794786
-0.076404184 -0.021498844 -0.037637133 -0.063015476 -0.087572 -0.035541564 0.031122694 -0.03808203
0.018491931 -0.04479896 -0.013409238 -0.030986145 0.03177989 -0.019381654 -0.046530176 0.007689788
0.06759719 -0.05783189 -0.031298324 0.0042356835 0.0032025196 0.052425507 0.07083876 0.032925405
-0.060780704 -0.020255052 -0.0030425636 0.019494649 0.022881366 -0.0059803 0.030528309 0.039294142
0.04697573 0.033112053 0.088405184 0.06353859 0.024546988 -0.0027074746 -0.041007075 0.04358198
0.0035576206 -0.03537056 0.06397792 0.05027031 -0.004107417 0.04433114 0.0044899276 0.014562924
-0.016402211 -0.013704809 0.020218382 -0.0351305 -0.057763036 0.046950616 0.044787113 0.0419761
-0.08039154 -0.042331357 0.042866383 -0.040668994 0.049894538 0.060332973 -0.014330269 0.003826325
0.06314732 -0.061980605 -0.0012021327 -0.024422124 0.020777022 -0.018901337 0.018561818 0.0463031
0.042620428 0.052966714 -0.066888675 0.018236626 -0.038206775 0.030651802 -0.047383223 -0.031082619
-0.005057641 0.003768944 -0.024070516 -0.07721192 -0.018219689 -0.06299531 -0.0022981404 -0.06049663
-0.00883933 0.01676337 0.033986308 -0.003310682 -0.035451442 -0.020210028 -0.010169684 0.027472978
0.04568221 -0.036138322 -0.0156133035 0.030811934 -0.039811 -0.011154009 0.020929072 -0.016742287
0.020548338 0.022633338 -0.054322425 0.018391093 0.04619095 -0.020002829 0.044377048 0.063232124
-0.07299493 -0.04991409 0.0018128911 -0.005920732 0.03778461 -0.03860801 0.038334567 0.008957693
0.0060541765 -0.01019474 -0.030520152 -0.005386184 -0.034257557 -0.04686583 -0.035934467 0.006681299
0.0112690125 0.055225395 -0.011770088 -0.05632952 -0.033205897 0.05023988 -0.01683471 -0.04342076
0.025134206 -0.046707295 0.016833732 0.026255403 -0.024702927 -0.014654094 -0.032061547 0.005322319
0.069542944 0.0026987253 0.065444954 0.045565985 0.0039863293 -0.06516864 -0.040176127 -0.046086937
0.04667106 0.05199444 -0.051358085 -0.050196126 0.08295819 -0.04412508 0.024344217 0.014322232
0.03344577 0.0032161288 -0.064763136 -0.05612303 -0.039010607 0.012738488 -0.010864305 0.04087395
-0.0451029 -0.043234967 -0.024976293 -0.029410467 -0.026024772 -0.031176835 -0.04772534 -0.034522906
00000000: df68 163d 4d41 2cbb 8b30 6cbd c779 e0bb
00000010: c5c4 e83c 4016 7f3b 2ce4 c5bc 1943 2bbc
00000020: cabf 683c 6b06 2e3d a77c 233c 3cb9 673d
00000030: 40cd 3f3d e545 01bd 59f6 863b 6a9a 79bc
00000040: fb20 443d c35e 17bd 6408 8fbc 0eac 0fbd
00000050: 0bc4 c43c 7e5d babc 163d ef3c 4572 e4bc
00000060: 0c90 89bb 923c 10bd b734 52bd 2211 12bb
00000070: 8174 0abd 2c4d 663d bfa5 ebbc 438c e1bc
00000080: a908 d4bc 3dda ebbc 9833 39bd 678a 213d
00000090: 49c7 1bbd e8af 4f3b d670 873d 63a5 993d
000000a0: dbc4 c2bc aaf4 a4bc cc31 d93c 8be7 713d
000000b0: 55c0 ccbc 2aec 43bc 462b 1b3d df21 5d3d
000000c0: b65f 103c 4351 d6bc 9c2c 8b3c db96 693d
000000d0: 3915 31ba 1349 31bd fd7a 2e3d bdd2 12bd
000000e0: d485 9eba ac62 383d 9b7b 72bd 7755 07bc
000000f0: 51a6 65bd 01ae 09bd 7a76 033d 69c2 03bd
00000100: 3d50 7abd c90b dcbc a9e5 5dbc 6279 b7bb
00000110: 14ad 5abd 1265 87bd ff00 b1bc 340e ef3c
00000120: aa83 15bd f628 80bd d3d3 8fbc ea19 2a3d
00000130: 0302 22bd 8d17 0c3d 4e4e 4bbd e9f2 e43c
00000140: cc79 9cbd 581e b0bc 6529 1abd 420e 81bd
00000150: f358 b3bd 0894 11bd 05f5 fe3c e7fb 1bbd
00000160: 647c 973c 1d7f 37bd 6cb2 5bbc a8d6 fdbc
00000170: a12b 023d 46c6 9ebc 6d96 3ebd 9efa fb3b
00000180: 6570 8a3d 22e1 6cbd ac32 00bd 7dcb 8a3b
00000190: 5de1 513b 21bc 563d e913 913d cadc 063d
000001a0: 30f5 78bd eced a5bc bf65 47bb 3eb3 9f3c
000001b0: b471 bb3c 64f6 c3bb 8116 fa3c e5f2 203d
000001c0: a069 403d 81a0 073d c70d b53d 8520 823d
000001d0: c416 c93c e36f 31bb 09f7 27bd 0583 323d
000001e0: f826 693b b8e0 10bd db06 833d 3ee8 4d3d
000001f0: 8397 86bb 9294 353d 3e20 933b 5599 6e3c
00000200: ee5d 86bc 238a 60bc 05a1 a53c 00e5 0fbd
00000210: ef98 6cbd 4a4f 403d b172 373d 22ef 2b3d
00000220: 52a4 a4bd a563 2dbd a994 2f3d 8894 26bd
00000230: 375e 4c3d b51f 773d 81c9 6abc 15c3 7a3b
00000240: 6253 813d 60df 7dbd e190 9dba e810 c8bc
00000250: 9334 aa3c fad6 9abc f40e 983c 52a8 3d3d
00000260: c292 2e3d a0f3 583d eefc 88bd fa64 953c
00000270: b57e 1cbd 7d19 fb3c e914 42bd faa0 febc
00000280: 91ba a5bb 6300 773b 882f c5bc 4821 9ebd
00000290: 7541 95bc af03 81bd 669c 16bb 50cb 77bd
000002a0: d6d2 10bc 5653 893c 3a35 0b3d 07f8 58bb
000002b0: 8835 11bd 808f a5bc bf9e 26bc 030f e13c
000002c0: 451d 3b3d c705 14bd f1ce 7fbc 4f69 fc3c
000002d0: dc10 23bd 4ebf 36bc 7273 ab3c 1f27 89bc
000002e0: fd54 a83c 8d69 b93c 3181 5ebd eba8 963c
000002f0: b932 3d3d f9dc a3bc b5c4 353d d87f 813d
00000300: 5e7e 95bd b872 4cbd 889e ed3a b302 c2bb
00000310: 09c4 1a3d 6f23 1ebd b504 1d3d 4ac3 123c
00000320: 1d62 c63b d707 27bc 6605 fabc 967e b0bb
00000330: a751 0cbd 62f6 3fbd 0530 13bd ccee da3b
00000340: aaa1 383c 0634 623d 54d7 40bc c8b9 66bd
00000350: e802 08bd 55c8 4d3d f2e8 89bc f8d9 31bd
00000360: 40e6 cd3c 2650 3fbd e5e6 893c 9215 d73c
00000370: cb5d cabc ba17 70bc f852 03bd d966 ae3b
00000380: 886c 8e3d 19dd 303b 0108 863d 66a3 3a3d
00000390: c19f 823b 2377 85bd b98f 24bd a8c5 3cbd
000003a0: 272a 3f3d 1ff8 543d db5c 52bd 749a 4dbd
000003b0: fce5 a93d 80bc 34bd 866d c73c cca7 6a3c
000003c0: 6ffe 083d b0c5 523b 89a2 84bd 43e1 65bd
000003d0: 96c9 1fbd 17b5 503c 3300 32bc 716b 273d
000003e0: d2bd 38bd 2617 31bd 159b ccbc 38ee f0bc
000003f0: e731 d5bc 9066 ffbc a57b 43bd e467 0dbd

bias f4 [4]
0.011836255 0.016080204 0.020549301 0.049370363
00000000: daec 413c a2ba 833c 0257 a83c 9438 4a3d

min f4 [1000]
5500.0 5500.0 5500.0 5500.0 5500.0 5500.0 5500.0 5500.0
5500.0 5500.0 5500.0 5500.0 5500.0 5500.0 5500.0 5500.0
5500.0 5500.0 5500.0 5500.0 5500.0 5500.0 5500.0 5500.0
5500.0 5500.0 5500.0 5500.0 5500.0 5500.0 5500.0 5500.0
5500.0 5500.0 5500.0 5500.0 5500.0 5500.0 5500.0 5500.0
5500.0 5500.0 5500.0 5500.0 5500.0 5500.0 5500.0 5500.0
5500.0 5500.0 5500.0 5500.0 5500.0 5500.0 5500.0 5500.0
5500.0 5500.0 5500.0 5500.0 5500.0 5500.0 5500.0 5500.0
5500.0 5500.0 5500.0 5500.0 5500.0 5500.0 5500.0 5500.0
5500.0 5500.0 5500.0 5500.0 5500.0 5500.0 5500.0 5500.0
5500.0 5500.0 5500.0 5500.0 5500.0 5500.0 5500.0 5500.0
5500.0 5500.0 5500.0 5500.0 5500.0 5500.0 5500.0 5500.0
5500.0 5500.0 5500.0 5500.0 5500.0 5500.0 5500.0 5500.0
5500.0 5500.0 5500.0 5500.0 5500.0 5500.0 5500.0 5500.0
5500.0 5500.0 5500.0 5500.0 5500.0 5500.0 5500.0 5500.0
5500.0 5500.0 5500.0 5500.0 5500.0 5500.0 5500.0 5500.0
5500.0 5500.0 5500.0 5500.0 5500.0 5500.0 5500.0 5500.0
5500.0 5500.0 5500.0 5500.0 5500.0 5500.0 5500.0 5500.0
5500.0 5500.0 5500.0 5500.0 5500.0 5500.0 5500.0 5500.0
5500.0 5500.0 5500.0 5500.0 5500.0 5500.0 5500.0 5500.0
5500.0 5500.0 5500.0 5500.0 5500.0 5500.0 5500.0 5500.0
5500.0 5500.0 5500.0 5500.0 5500.0 5500.0 5500.0 5500.0
5500.0 5500.0 5500.0 5500.0 5500.0 5500.0 5500.0 5500.0
5500.0 5500.0 5500.0 5500.0 5500.0 5500.0 5500.0 5500.0
5500.0 5500.0 5500.0 5500.0 5500.0 5500.0 5500.0 5500.0
5500.0 5500.0 5500.0 5500.0 5500.0 5500.0 5500.0 5500.0
5500.0 5500.0 5500.0 5500.0 5500.0 5500.0 5500.0 5500.0
5500.0 5500.0 5500.0 5500.0 5500.0 5500.0 5500.0 5500.0
5500.0 5500.0 5500.0 5500.0 5500.0 5500.0 5500.0 5500.0
5500.0 5500.0 5500.0 5500.0 5500.0 5500.0 5500.0 5500.0
5500.0 5500.0 5500.0 5500.0 5500.0 5500.0 5500.0 5500.0
5500.0 5500.0 5500.0 5500.0 5500.0 5500.0 5500.0 5500.0
00000000: 00e0 ab45 00e0 ab45 00e0 ab45 00e0 ab45
00000010: 00e0 ab45 00e0 ab45 00e0 ab45 00e0 ab45
00000020: 00e0 ab45 00e0 ab45 00e0 ab45 00e0 ab45
00000030: 00e0 ab45 00e0 ab45 00e0 ab45 00e0 ab45
00000040: 00e0 ab45 00e0 ab45 00e0 ab45 00e0 ab45
00000050: 00e0 ab45 00e0 ab45 00e0 ab45 00e0 ab45
00000060: 00e0 ab45 00e0 ab45 00e0 ab45 00e0 ab45
00000070: 00e0 ab45 00e0 ab45 00e0 ab45 00e0 ab45
00000080: 00e0 ab45 00e0 ab45 00e0 ab45 00e0 ab45
00000090: 00e0 ab45 00e0 ab45 00e0 ab45 00e0 ab45
000000a0: 00e0 ab45 00e0 ab45 00e0 ab45 00e0 ab45
000000b0: 00e0 ab45 00e0 ab45 00e0 ab45 00e0 ab45
000000c0: 00e0 ab45 00e0 ab45 00e0 ab45 00e0 ab45
000000d0: 00e0 ab45 00e0 ab45 00e0 ab45 00e0 ab45
000000e0: 00e0 ab45 00e0 ab45 00e0 ab45 00e0 ab45
000000f0: 00e0 ab45 00e0 ab45 00e0 ab45 00e0 ab45
00000100: 00e0 ab45 00e0 ab45 00e0 ab45 00e0 ab45
00000110: 00e0 ab45 00e0 ab45 00e0 ab45 00e0 ab45
00000120: 00e0 ab45 00e0 ab45 00e0 ab45 00e0 ab45
00000130: 00e0 ab45 00e0 ab45 00e0 ab45 00e0 ab45
00000140: 00e0 ab45 00e0 ab45 00e0 ab45 00e0 ab45
00000150: 00e0 ab45 00e0 ab45 00e0 ab45 00e0 ab45
00000160: 00e0 ab45 00e0 ab45 00e0 ab45 00e0 ab45
00000170: 00e0 ab45 00e0 ab45 00e0 ab45 00e0 ab45
00000180: 00e0 ab45 00e0 ab45 00e0 ab45 00e0 ab45
00000190: 00e0 ab45 00e0 ab45 00e0 ab45 00e0 ab45
000001a0: 00e0 ab45 00e0 ab45 00e0 ab45 00e0 ab45
000001b0: 00e0 ab45 00e0 ab45 00e0 ab45 00e0 ab45
000001c0: 00e0 ab45 00e0 ab45 00e0 ab45 00e0 ab45
000001d0: 00e0 ab45 00e0 ab45 00e0 ab45 00e0 ab45
000001e0: 00e0 ab45 00e0 ab45 00e0 ab45 00e0 ab45
000001f0: 00e0 ab45 00e0 ab45 00e0 ab45 00e0 ab45
00000200: 00e0 ab45 00e0 ab45 00e0 ab45 00e0 ab45
00000210: 00e0 ab45 00e0 ab45 00e0 ab45 00e0 ab45
00000220: 00e0 ab45 00e0 ab45 00e0 ab45 00e0 ab45
00000230: 00e0 ab45 00e0 ab45 00e0 ab45 00e0 ab45
00000240: 00e0 ab45 00e0 ab45 00e0 ab45 00e0 ab45
00000250: 00e0 ab45 00e0 ab45 00e0 ab45 00e0 ab45
00000260: 00e0 ab45 00e0 ab45 00e0 ab45 00e0 ab45
00000270: 00e0 ab45 00e0 ab45 00e0 ab45 00e0 ab45
00000280: 00e0 ab45 00e0 ab45 00e0 ab45 00e0 ab45
00000290: 00e0 ab45 00e0 ab45 00e0 ab45 00e0 ab45
000002a0: 00e0 ab45 00e0 ab45 00e0 ab45 00e0 ab45
000002b0: 00e0 ab45 00e0 ab45 00e0 ab45 00e0 ab45
000002c0: 00e0 ab45 00e0 ab45 00e0 ab45 00e0 ab45
000002d0: 00e0 ab45 00e0 ab45 00e0 ab45 00e0 ab45
000002e0: 00e0 ab45 00e0 ab45 00e0 ab45 00e0 ab45
000002f0: 00e0 ab45 00e0 ab45 00e0 ab45 00e0 ab45
00000300: 00e0 ab45 00e0 ab45 00e0 ab45 00e0 ab45
00000310: 00e0 ab45 00e0 ab45 00e0 ab45 00e0 ab45
00000320: 00e0 ab45 00e0 ab45 00e0 ab45 00e0 ab45
00000330: 00e0 ab45 00e0 ab45 00e0 ab45 00e0 ab45
00000340: 00e0 ab45 00e0 ab45 00e0 ab45 00e0 ab45
00000350: 00e0 ab45 00e0 ab45 00e0 ab45 00e0 ab45
00000360: 00e0 ab45 00e0 ab45 00e0 ab45 00e0 ab45
00000370: 00e0 ab45 00e0 ab45 00e0 ab45 00e0 ab45
00000380: 00e0 ab45 00e0 ab45 00e0 ab45 00e0 ab45
00000390: 00e0 ab45 00e0 ab45 00e0 ab45 00e0 ab45
000003a0: 00e0 ab45 00e0 ab45 00e0 ab45 00e0 ab45
000003b0: 00e0 ab45 00e0 ab45 00e0 ab45 00e0 ab45
000003c0: 00e0 ab45 00e0 ab45 00e0 ab45 00e0 ab45
000003d0: 00e0 ab45 00e0 ab45 00e0 ab45 00e0 ab45
000003e0: 00e0 ab45 00e0 ab45 00e0 ab45 00e0 ab45
000003f0: 00e0 ab45 00e0 ab45 00e0 ab45 00e0 ab45

max f4 [1000]
9500.0 9500.0 9500.0 9500.0 9500.0 9500.0 9500.0 9500.0
9500.0 9500.0 9500.0 9500.0 9500.0 9500.0 9500.0 9500.0
9500.0 9500.0 9500.0 9500.0 9500.0 9500.0 9500.0 9500.0
9500.0 9500.0 9500.0 9500.0 9500.0 9500.0 9500.0 9500.0
9500.0 9500.0 9500.0 9500.0 9500.0 9500.0 9500.0 9500.0
9500.0 9500.0 9500.0 9500.0 9500.0 9500.0 9500.0 9500.0
9500.0 9500.0 9500.0 9500.0 9500.0 9500.0 9500.0 9500.0
9500.0 9500.0 9500.0 9500.0 9500.0 9500.0 9500.0 9500.0
9500.0 9500.0 9500.0 9500.0 9500.0 9500.0 9500.0 9500.0
9500.0 9500.0 9500.0 9500.0 9500.0 9500.0 9500.0 9500.0
9500.0 9500.0 9500.0 9500.0 9500.0 9500.0 9500.0 9500.0
9500.0 9500.0 9500.0 9500.0 9500.0 9500.0 9500.0 9500.0
9500.0 9500.0 9500.0 9500.0 9500.0 9500.0 9500.0 9500.0
9500.0 9500.0 9500.0 9500.0 9500.0 9500.0 9500.0 9500.0
9500.0 9500.0 9500.0 9500.0 9500.0 9500.0 9500.0 9500.0
9500.0 9500.0 9500.0 9500.0 9500.0 9500.0 9500.0 9500.0
9500.0 9500.0 9500.0 9500.0 9500.0 9500.0 9500.0 9500.0
9500.0 9500.0 9500.0 9500.0 9500.0 9500.0 9500.0 9500.0
9500.0 9500.0 9500.0 9500.0 9500.0 9500.0 9500.0 9500.0
9500.0 9500.0 9500.0 9500.0 9500.0 9500.0 9500.0 9500.0
9500.0 9500.0 9500.0 9500.0 9500.0 9500.0 9500.0 9500.0
9500.0 9500.0 9500.0 9500.0 9500.0 9500.0 9500.0 9500.0
9500.0 9500.0 9500.0 9500.0 9500.0 9500.0 9500.0 9500.0
9500.0 9500.0 9500.0 9500.0 9500.0 9500.0 9500.0 9500.0
9500.0 9500.0 9500.0 9500.0 9500.0 9500.0 9500.0 9500.0
9500.0 9500.0 9500.0 9500.0 9500.0 9500.0 9500.0 9500.0
9500.0 9500.0 9500.0 9500.0 9500.0 9500.0 9500.0 9500.0
9500.0 9500.0 9500.0 9500.0 9500.0 9500.0 9500.0 9500.0
9500.0 9500.0 9500.0 9500.0 9500.0 9500.0 9500.0 9500.0
9500.0 9500.0 9500.0 9500.0 9500.0 9500.0 9500.0 9500.0
9500.0 9500.0 9500.0 9500.0 9500.0 9500.0 9500.0 9500.0
9500.0 9500.0 9500.0 9500.0 9500.0 9500.0 9500.0 9500.0
00000000: 0070 1446 0070 1446 0070 1446 0070 1446
00000010: 0070 1446 0070 1446 0070 1446 0070 1446
00000020: 0070 1446 0070 1446 0070 1446 0070 1446
00000030: 0070 1446 0070 1446 0070 1446 0070 1446
00000040: 0070 1446 0070 1446 0070 1446 0070 1446
00000050: 0070 1446 0070 1446 0070 1446 0070 1446
00000060: 0070 1446 0070 1446 0070 1446 0070 1446
00000070: 0070 1446 0070 1446 0070 1446 0070 1446
00000080: 0070 1446 0070 1446 0070 1446 0070 1446
00000090: 0070 1446 0070 1446 0070 1446 0070 1446
000000a0: 0070 1446 0070 1446 0070 1446 0070 1446
000000b0: 0070 1446 0070 1446 0070 1446 0070 1446
000000c0: 0070 1446 0070 1446 0070 1446 0070 1446
000000d0: 0070 1446 0070 1446 0070 1446 0070 1446
000000e0: 0070 1446 0070 1446 0070 1446 0070 1446
000000f0: 0070 1446 0070 1446 0070 1446 0070 1446
00000100: 0070 1446 0070 1446 0070 1446 0070 1446
00000110: 0070 1446 0070 1446 0070 1446 0070 1446
00000120: 0070 1446 0070 1446 0070 1446 0070 1446
00000130: 0070 1446 0070 1446 0070 1446 0070 1446
00000140: 0070 1446 0070 1446 0070 1446 0070 1446
00000150: 0070 1446 0070 1446 0070 1446 0070 1446
00000160: 0070 1446 0070 1446 0070 1446 0070 1446
00000170: 0070 1446 0070 1446 0070 1446 0070 1446
00000180: 0070 1446 0070 1446 0070 1446 0070 1446
00000190: 0070 1446 0070 1446 0070 1446 0070 1446
000001a0: 0070 1446 0070 1446 0070 1446 0070 1446
000001b0: 0070 1446 0070 1446 0070 1446 0070 1446
000001c0: 0070 1446 0070 1446 0070 1446 0070 1446
000001d0: 0070 1446 0070 1446 0070 1446 0070 1446
000001e0: 0070 1446 0070 1446 0070 1446 0070 1446
000001f0: 0070 1446 0070 1446 0070 1446 0070 1446
00000200: 0070 1446 0070 1446 0070 1446 0070 1446
00000210: 0070 1446 0070 1446 0070 1446 0070 1446
00000220: 0070 1446 0070 1446 0070 1446 0070 1446
00000230: 0070 1446 0070 1446 0070 1446 0070 1446
00000240: 0070 1446 0070 1446 0070 1446 0070 1446
00000250: 0070 1446 0070 1446 0070 1446 0070 1446
00000260: 0070 1446 0070 1446 0070 1446 0070 1446
00000270: 0070 1446 0070 1446 0070 1446 0070 1446
00000280: 0070 1446 0070 1446 0070 1446 0070 1446
00000290: 0070 1446 0070 1446 0070 1446 0070 1446
000002a0: 0070 1446 0070 1446 0070 1446 0070 1446
000002b0: 0070 1446 0070 1446 0070 1446 0070 1446
000002c0: 0070 1446 0070 1446 0070 1446 0070 1446
000002d0: 0070 1446 0070 1446 0070 1446 0070 1446
000002e0: 0070 1446 0070 1446 0070 1446 0070 1446
000002f0: 0070 1446 0070 1446 0070 1446 0070 1446
00000300: 0070 1446 0070 1446 0070 1446 0070 1446
00000310: 0070 1446 0070 1446 0070 1446 0070 1446
00000320: 0070 1446 0070 1446 0070 1446 0070 1446
00000330: 0070 1446 0070 1446 0070 1446 0070 1446
00000340: 0070 1446 0070 1446 0070 1446 0070 1446
00000350: 0070 1446 0070 1446 0070 1446 0070 1446
00000360: 0070 1446 0070 1446 0070 1446 0070 1446
00000370: 0070 1446 0070 1446 0070 1446 0070 1446
00000380: 0070 1446 0070 1446 0070 1446 0070 1446
00000390: 0070 1446 0070 1446 0070 1446 0070 1446
000003a0: 0070 1446 0070 1446 0070 1446 0070 1446
000003b0: 0070 1446 0070 1446 0070 1446 0070 1446
000003c0: 0070 1446 0070 1446 0070 1446 0070 1446
000003d0: 0070 1446 0070 1446 0070 1446 0070 1446
000003e0: 0070 1446 0070 1446 0070 1446 0070 1446
000003f0: 0070 1446 0070 1446 0070 1446 0070 1446
