neural_networks/HOVER_TO_HOVER_NOMINAL_256_256_0.0001_100.pt (torch, 146003 bytes, 24 tensors)

weight f4 [120, 16]
-0.23750684 0.08003224 1.0039062 0.056751613 0.012397606 -0.6366232 0.23037302 0.20281844
0.37323534 0.37510207 -0.16729671 -0.18956189 -0.113337405 0.14038293 -0.15206824 -0.13033183
-0.29547206 -0.10508321 -0.46445006 -0.04304326 0.6325783 0.47817624 0.32380837 -0.5097449
-0.42403337 0.5471449 -0.85506195 0.30243912 0.09303231 0.012880697 0.18109418 -0.084837124
-0.3284575 -0.5053594 0.7419708 -0.40589917 -0.6630045 -0.6700467 -0.03669828 0.24602582
-0.20043258 0.22096054 -0.78156894 -0.46228883 -0.08107965 0.06100278 -0.025793694 -0.12861037
-0.122924924 0.52052003 1.2315159 0.061197724 -0.032165177 -0.18117268 -0.43282178 -0.7619086
0.10540319 -0.45505437 -0.25121003 -0.07146976 0.18868904 0.08649526 0.21813136 0.231525
0.24951665 -0.17745847 -0.8855596 0.08442039 0.19185111 0.28259608 0.3241703 0.28677797
-0.34950453 0.6088391 0.5240544 -0.034506034 0.13586445 0.14737275 -0.100189656 0.15149176
0.0103477705 -0.18622847 -0.8369032 -0.31281707 0.500194 0.2901113 0.4074447 0.73706174
-0.005346846 0.16376658 0.057211183 0.15807483 0.0013217607 -0.004138871 -0.0044904347 -0.11124179
-0.03232073 -0.444095 -0.26532027 -0.23066643 0.07703787 0.42381772 1.0985377 0.12627949
0.37943143 0.8826063 0.11400366 -0.15633893 0.06998747 0.2341616 0.122599676 -0.15929432
-0.12958851 -0.25170562 -0.7956464 -0.24608992 0.08677707 0.9226272 -0.26729718 0.6465995
-0.24514018 -0.31086558 0.09662099 0.07754953 0.079952426 -0.011377105 0.086206034 0.17283995
0.002231969 0.5236227 0.5882338 -0.21268578 -0.01955885 -0.2952416 -1.0558115 -0.07235314
-0.21650694 -0.47282976 0.14740583 0.48797527 0.020057831 -0.027618885 -0.042533502 -0.068899654
0.05393522 -0.48007676 -0.948014 0.04333083 -0.21047343 0.48168793 -0.18026495 0.037065204
-0.52600735 0.45336875 0.51821643 0.09269263 0.01774169 0.06710157 -0.013136256 0.08257882
0.15512608 0.31871954 0.03439673 0.029194195 0.20248254 0.16693504 -0.1106632 -0.20649111
-0.41161337 -0.34923226 0.112448946 -0.56373656 -0.23083974 -0.14442274 -0.11793627 0.19215478
-0.06622599 -0.33658198 -0.61258423 -0.33925352 -0.01580628 0.50646544 0.09989939 -0.06109314
-0.26392862 0.074994504 0.32970974 -0.12663814 0.21540329 0.10766167 -0.13074483 0.227125
-0.15899375 -0.39161894 0.10247366 -0.6785923 -0.12494257 0.2529941 0.25276348 0.28243417
0.30619252 0.3709584 0.34940705 0.2890106 -0.028434724 -0.016735375 0.18959819 -0.068127565
-0.28512064 0.36476913 0.6911146 -0.016527995 -0.3058539 -0.65348846 -0.22701593 -0.3312609
-0.17171626 0.39532346 -1.0535897 0.3552999 -0.058972 0.2345527 0.17805374 0.13905661
0.22189906 -0.18687837 0.020703098 0.3119996 -0.2839543 0.53914434 -0.09512425 -0.59042996
-0.08719449 -0.89645505 -0.5760162 0.5410494 -0.065295786 -0.19441485 0.0019054778 0.005730815
0.40207538 0.06609827 -1.0873036 -0.2024688 0.20195849 0.2033349 0.27764606 0.6498396
-0.17550698 -0.5557829 0.4818217 -0.15086156 -0.20659521 0.09772118 0.22105117 0.14911693
00000000: fe34 73be f1e7 a33d 0080 803f 6174 683d
00000010: 541f 4b3c bdf9 22bf e8e6 6b3e a3af 4f3e
00000020: b418 bf3e 610d c03e d44f 2bbe 831c 42be
00000030: 711d e8bd 8bc0 0f3e c7b7 1bbe b575 05be
00000040: 1d48 97be de35 d7bd 66cc edbe 214e 30bd
00000050: a7f0 213f 84d3 f43e 36ca a53e a47e 02bf
00000060: e71a d9be b011 0c3f 57e5 5abf 4dd9 9a3e
00000070: b987 be3d 8f09 533c c170 393e 16bf adbd
00000080: 952b a8be 3c5f 01bf ccf1 3d3f 04d2 cfbe
00000090: aaba 29bf 2e88 2bbf f050 16bd 31ee 7b3e
000000a0: 333e 4dbe 7b43 623e e714 48bf 1fb1 ecbe
000000b0: 160d a6bd 0dde 793d 4c4d d3bc 70b2 03be
000000c0: 10c0 fbbd cd40 053f 50a2 9d3f 77aa 7a3d
000000d0: a2bf 03bd 5585 39be d19a ddbe 710c 43bf
000000e0: a1dd d73d e3fc e8be 9a9e 80be bd5e 92bd
000000f0: b337 413e 6d24 b13d d45d 5f3e e414 6d3e
00000100: 4b81 7f3e acb7 35be 09b4 62bf 99e4 ac3d
00000110: 9e74 443e 6fb0 903e a6f9 a53e 90d4 923e
00000120: 42f2 b2be e1dc 1b3f 6e28 063f 3356 0dbd
00000130: 0d20 0b3e e2e8 163e 3c30 cdbd a820 1b3e
00000140: b289 293c adb2 3ebe 4a3f 56bf 8f29 a0be
00000150: b70c 003f 7889 943e 979c d03e 14b0 3c3f
00000160: 9834 afbb 6db2 273e 4656 6a3d 5ede 213e
00000170: ee3e ad3a 5e9f 87bb 7f24 93bb bcd2 e3bd
00000180: be62 04bd 6b60 e3be 0fd8 87be d233 6cbe
00000190: 08c6 9d3d a3fe d83e e29c 8c3f 694f 013e
000001a0: d644 c23e 7df2 613f c07a e93d 5017 20be
000001b0: 9755 8f3d 0fc8 6f3e 8a15 fb3d 0d1e 23be
000001c0: dab2 04be 8fdf 80be 7caf 4bbf fffe 7bbe
000001d0: 2db8 b13d 4c31 6c3f 2ddb 88be 8b87 253f
000001e0: 0706 7bbe c629 9fbe 3ae1 c53d 4ad2 9e3d
000001f0: 19be a33d 0967 3abc ca8c b03d f5fc 303e
00000200: 3a46 123b 230c 063f 7e96 163f 4dca 59be
00000210: e239 a0bc e829 97be d524 87bf e22d 94bd
00000220: ffb3 5dbe be16 f2be 8ef1 163e e5d7 f93e
00000230: 5250 a43c 0041 e2bc 9c37 2ebd 431b 8dbd
00000240: 2deb 5c3d 9fcc f5be 0cb1 72bf ab7b 313d
00000250: 5986 57be cd9f f63e 6097 38be afd1 173d
00000260: 6ba8 06bf f31f e83e d5a9 043f a2d5 bd3d
00000270: 0557 913c 8c6c 893d 7339 57bc 161f a93d
00000280: 5fd9 1e3e 352f a33e 96e3 0c3d aa28 ef3c
00000290: 9557 4f3e 05f1 2a3e 63a3 e2bd 6872 53be
000002a0: fdbe d2be 92ce b2be a24b e63d 0a51 10bf
000002b0: 4161 6cbe 8ee3 13be 9288 f1bd 39c4 443e
000002c0: 7ea1 87bd 7954 acbe 52d2 1cbf a3b2 adbe
000002d0: 2c7c 81bc b8a7 013f 0d98 cc3d cd3c 7abd
000002e0: a721 87be b896 993d b7cf a83e 6ead 01be
000002f0: ae92 5c3e b97d dc3d f9e1 05be 7593 683e
00000300: 42cf 22be 4782 c8be b6dd d13d 3ab8 2dbf
00000310: e4e1 ffbd 7188 813e 376a 813e 369b 903e
00000320: 44c5 9c3e 42ee bd3e 7be5 b23e 33f9 933e
00000330: f0ef e8bc a018 89bc 0726 423e 7786 8bbd
00000340: 55fb 91be 05c3 ba3e e3ec 303f b865 87bc
00000350: e298 9cbe 054b 27bf dd76 68be 079b a9be
00000360: 63d6 2fbe d667 ca3e 07dc 86bf dee9 b53e
00000370: a08c 71bd 952e 703e b853 363e db64 0e3e
00000380: 8239 633e 0b5d 3fbe 8b99 a93c 69be 9f3e
00000390: 7562 91be 5d05 0a3f 81d0 c2bd 6b26 17bf
000003a0: 0693 b2bd 147e 65bf cc75 13bf 3782 0a3f
000003b0: ccb9 85bd b014 47be 3ac1 f93a 90c9 bb3b
000003c0: d3dc cd3e 885e 873d c42c 8bbf fb53 4fbe
000003d0: 35ce 4e3e 0637 503e a027 8e3e e35b 263f
000003e0: 1ab8 33be ca47 0ebf 55b1 f63e 747b 1abe
000003f0: b28d 53be 0b22 c83d 3d5b 623e 1cb2 183e

bias f4 [120]
-0.22799072 -0.05591212 0.21581551 0.025837017 -0.027972328 -0.1279362 -0.14935626 0.22390524
-0.24952032 0.015043989 0.12606175 -0.19275983 -0.039382957 0.18853289 0.03137867 -0.19494493
-0.10549508 0.2264542 0.0983098 -0.14404726 -0.2112687 0.18971503 -0.24887511 0.18382537
0.00933894 0.10164352 -0.14400163 -0.19955002 0.12890252 -0.21816313 -0.16636871 0.19893366
-0.24229555 -0.10410768 -0.13252737 -0.06931796 0.2567279 -0.14266007 -0.04799704 -0.07066545
-0.16065961 -0.15356137 -0.15767074 0.050213248 0.23022263 0.15105505 -0.10232947 -0.19285607
-0.24251105 0.07179979 -0.13491814 -0.14365682 0.048666757 0.09624883 -0.17632973 0.0047601946
0.14333057 -0.042232484 0.034860842 0.121895865 -0.046961445 0.24607076 0.03774731 0.16790712
-0.21368326 -0.21969023 -0.22303984 0.25687295 -0.07316875 0.22076112 0.0061966386 0.0486356
0.14196284 -0.20094183 0.11592709 -0.11248389 -0.019891324 -0.07980497 0.13642351 0.15598346
0.04979673 0.18797927 -0.06986741 0.115368046 0.22644353 0.026165169 0.056594886 0.21229012
0.23579359 -0.2550339 0.20219867 -0.11453155 0.22397934 0.080558695 0.0032743146 0.117670424
0.09745241 -0.19282204 -0.10283075 -0.03945225 0.2057192 0.046598993 -0.1630412 0.11140601
-0.16447157 -0.2162456 -0.19527307 -0.1486711 -0.18818012 0.20814662 0.05735585 -0.23288774
-0.11791589 -0.08257468 -0.24752966 -0.1540581 -0.13592014 -0.15143147 0.14230575 0.23091197
00000000: 6676 69be 1b04 65bd befe 5c3e 27a8 d33c
00000010: 3926 e5bc b501 03be d9f0 18be 6a47 653e
00000020: 4182 7fbe 107b 763c 5516 013e d562 45be
00000030: 0650 21bd c40e 413e ec86 003d a59f 47be
00000040: ce0d d8bd 9ce3 673e a656 c93d 2081 13be
00000050: d256 58be a844 423e 1ed9 7ebe b83c 3c3e
00000060: 5a02 193c 7a2a d03d 2a75 13be d756 4cbe
00000070: 06ff 033e 2866 5fbe 8f5c 2abe 44b5 4b3e
00000080: 531c 78be 6836 d5bd 41b5 07be 93f6 8dbd
00000090: d771 833e 7b15 12be 8b98 44bd 0cb9 90bd
000000a0: f483 24be 313f 1dbe 7074 21be 68ac 4d3d
000000b0: 7bbf 6b3e 2dae 1a3e 1d92 d1bd 107c 45be
000000c0: d154 78be c50b 933d fb27 0abe c61a 13be
000000d0: cb56 473d 1b1e c53d c88f 34be 68fb 9b3b
000000e0: 40c5 123e f8fb 2cbd 3eca 0e3d 8aa4 f93d
000000f0: a55a 40bd f9f9 7b3e ec9c 1a3d d8ef 2b3e
00000100: c9cf 5abe 7af6 60be 8e64 64be da84 833e
00000110: 7fd9 95bd 340f 623e 2c0d cb3b 1f36 473d
00000120: b55e 113e b2c3 4dbe 2f6b ed3d f45d e6bd
00000130: 21f3 a2bc ca70 a3bd 9bb2 0b3e 21ba 1f3e
00000140: a8f7 4b3d a37d 403e a516 8fbd 1546 ec3d
00000150: d0e0 673e 5658 d63c 0ad0 673d 9562 593e
00000160: e073 713e ce93 82be 2b0d 4f3e 848f eabd
00000170: d75a 653e f5fb a43d e295 563b 31fd f03d
00000180: 2195 c73d 2473 45be ee98 d2bd af98 21bd
00000190: 0ea8 523e 96de 3e3d 46f4 26be d628 e43d
000001a0: 3c6b 28be 7d6f 5dbe aaf5 47be 3d3d 18be
000001b0: 4ab2 40be 6324 553e f8ed 6a3d 207a 6ebe
000001c0: e37d f1bd ea1c a9bd 6a78 7dbe 68c1 1dbe
000001d0: a62e 0bbe da10 1bbe 99b8 113e 3074 6c3e

weight f4 [120]
0.97985196 0.98495346 0.99212813 1.001154 0.9838424 0.99952024 0.9858698 1.0000056
1.0122027 1.0238419 0.95189905 0.9786285 0.9768662 1.013029 0.9969611 1.0103642
0.98453206 0.99608034 1.0266757 0.9963498 0.99092984 0.973947 1.005446 1.0823088
0.9926033 0.997768 0.9955656 0.9881214 0.98424804 0.9839412 1.0070413 0.99005306
1.0128741 0.98595273 0.9887852 1.0293498 0.9938188 0.9925495 1.0729702 0.99814904
0.9853058 1.0062933 0.98807675 1.0009601 1.0000743 1.0039915 1.0062604 1.0137439
1.0609776 1.0047961 1.0115812 0.98822623 0.9694816 0.9905358 1.0002306 0.9862322
0.97408444 0.99044436 0.99263865 0.98949474 0.99659586 1.0036098 0.99974644 1.0044847
1.0089599 0.9759504 1.0257282 0.9825527 1.0013882 0.9956471 1.0012327 0.982511
0.99519837 0.9961329 1.0066683 0.9900593 0.9917824 1.0168561 0.99448556 0.9775125
0.9891961 1.0285089 0.97527504 0.9892991 0.9887658 0.99066585 1.0029519 1.0266236
1.0080525 0.9790517 0.98967505 0.9949011 0.9947644 0.99538964 0.98538864 1.0023346
1.003537 0.98667 0.98393416 1.0212495 1.7219974 0.98448074 0.9961752 1.0071629
1.0228813 1.000064 0.98798245 1.0191666 1.0024594 0.9939074 0.99016607 1.0444224
1.0199828 0.993252 0.9937127 1.033539 0.9936305 0.99149436 1.01702 0.9961448
00000000: 94d7 7a3f e925 7c3f 1cfc 7d3f d025 803f
00000010: 18dd 7b3f 8fe0 7f3f f761 7c3f 2f00 803f
00000020: dc8f 813f 400d 833f a8af 733f 6687 7a3f
00000030: e713 7a3f efaa 813f d838 7f3f 9d53 813f
00000040: 4b0a 7c3f 1fff 7e3f 1c6a 833f c810 7f3f
00000050: 94ad 7d3f 9754 793f 74b2 803f 1889 8a3f
00000060: 401b 7e3f b96d 7f3f 63dd 7e3f 86f5 7c3f
00000070: aef7 7b3f 92e3 7b3f bbe6 803f 1e74 7d3f
00000080: dca5 813f 6667 7c3f 0721 7d3f bcc1 833f
00000090: e96a 7e3f b917 7e3f 1657 893f b286 7f3f
000000a0: 003d 7c3f 38ce 803f 99f2 7c3f 761f 803f
000000b0: 6f02 803f cb82 803f 24cd 803f 5cc2 813f
000000c0: 1dce 873f 299d 803f 7e7b 813f 65fc 7c3f
000000d0: f22f 783f c193 7d3f 8e07 803f b779 7c3f
000000e0: 995d 793f c38d 7d3f 911d 7e3f 874f 7d3f
000000f0: e820 7f3f 4976 803f 62ef 7f3f f492 803f
00000100: 9925 813f e3d7 793f 104b 833f 9388 7b3f
00000110: 7d2d 803f bae2 7e3f 6528 803f d785 7b3f
00000120: 52c5 7e3f 9102 7f3f 82da 803f 8774 7d3f
00000130: 74e5 7d3f 5728 823f 9b96 7e3f 423e 7a3f
00000140: f53b 7d3f 2ea6 833f a0ab 793f b542 7d3f
00000150: c11f 7d3f 479c 7d3f ba60 803f 6768 833f
00000160: dd07 813f 22a3 7a3f 585b 7d3f d7b1 7e3f
00000170: e1a8 7e3f dbd1 7e3f 6e42 7c3f 804c 803f
00000180: e773 803f 6896 7c3f 1ce3 7b3f 4eb8 823f
00000190: 696a dc3f ee06 7c3f 5705 7f3f b7ea 803f
000001a0: c6ed 823f 1902 803f 6bec 7c3f 0d74 823f
000001b0: 9750 803f b770 7e3f 867b 7d3f a2af 853f
000001c0: cc8e 823f c345 7e3f f563 7e3f 024b 843f
000001d0: 925e 7e3f 93d2 7d3f b62d 823f 5803 7f3f

bias f4 [120]
0.017756047 0.0019538742 0.021354448 -0.013967572 -0.034546413 0.006430547 0.0022269294 0.018988958
0.0040472257 -0.0013250987 0.002501096 -0.008475851 0.07659785 0.006090674 -0.029646104 0.0032565622
0.008205922 0.032803986 0.043924715 0.0039061469 0.004239194 -0.015015331 0.008701442 -0.0019206537
-0.003497896 0.017544689 0.004381944 0.009411379 0.0034966203 -0.008624971 0.024880439 0.018630723
0.0004179722 -0.0011136013 -0.016600762 0.023196831 -0.015724704 0.012550849 0.026064768 0.016932454
0.011126103 0.011827685 -0.012666318 -0.0023831124 -0.00040298997 0.029291624 0.0038459122 0.0066558556
0.006539421 -0.0075898347 -0.0068020634 -0.00047312307 -0.028514437 0.0032555035 0.0016114349 -0.004512777
0.02360485 0.009268386 -0.0015574148 0.0416624 -0.004217613 0.04288816 0.006080964 0.010593564
0.013989495 0.0039734324 0.0018162121 0.0046028225 -0.013090672 -0.002378715 -0.0020793113 -0.006527155
0.003080278 0.03843657 -0.008282662 -0.0017199061 -0.009884617 0.011032062 -0.014302919 -0.03784121
0.022360297 0.010387661 0.00759954 -0.0051415814 -0.01073719 0.013025417 0.0087568695 0.011561079
-0.019175312 0.04826689 0.0056102364 0.04723861 -0.011172882 0.01715473 -0.0050402125 -0.004684768
0.017458318 0.0055641844 -0.023699785 -0.016696021 0.08219318 -0.04094998 0.009886705 -0.019565398
0.0077418834 0.011849342 -0.0257579 0.020238044 0.015003497 0.020395141 -0.007582489 0.02122084
0.017304422 0.0045341984 0.001045912 0.008851108 0.037704155 0.036166877 0.018587032 0.008598372
00000000: 2175 913c 920c 003b 86ef ae3c 3ed8 64bc
00000010: 8a80 0dbd 57b7 d23b adf1 113b bb8e 9b3c
00000020: 979e 843b efae adba 6ee9 233b 4cde 0abc
00000030: 55df 9c3d 4794 c73b 63dc f2bc 0c6c 553b
00000040: 2272 063c 795d 063d 67ea 333d 45fe 7f3b
00000050: f0e8 8a3b dd02 76bc 7e90 0e3c 72be fbba
00000060: f53c 65bb e1b9 8f3c 6996 8f3b 2f32 1a3c
00000070: 8e27 653b c04f 0dbc 10d2 cb3c 759f 983c
00000080: 4723 db39 42f6 91ba 52fe 87bc 4807 be3c
00000090: 18d1 80bc 13a2 4d3c c885 d53c eeb5 8a3c
000000a0: 424a 363c e8c8 413c 6386 4fbc fe2d 1cbb
000000b0: 6648 d3b9 fdf4 ef3c b30b 7c3b 5d19 da3b
000000c0: a448 d63b 26b4 f8bb d8e3 debb 810d f8b9
000000d0: 1c97 e9bc 495a 553b c836 d33a ebdf 93bb
000000e0: f55e c13c 6eda 173c 2b22 ccba 31a6 2a3d
000000f0: e733 8abb 7fab 2f3d d342 c73b a190 2d3c
00000100: 3234 653c 9133 823b f70d ee3a 46d3 963b
00000110: 427a 56bc 37e4 1bbb 0e45 08bb bfe1 d5bb
00000120: 7dde 493b aa6f 1d3d 01b4 07bc 796e e1ba
00000130: 17f3 21bc d2bf 343c ca56 6abc 62ff 1abd
00000140: f12c b73c 0231 2a3c 9005 f93b b67a a8bb
00000150: 0aeb 2fbc 8f68 553c f978 0f3c ae6a 3d3c
00000160: 8b15 9dbc 81b3 453d 13d6 b73b 467d 413d
00000170: 770e 37bc 1488 8c3c 5e28 a5bb af82 99bb
00000180: bf04 8f3c c353 b63b 0d26 c2bc 18c6 88bc
00000190: e654 a83d 2bbb 27bd d9fb 213c 9d47 a0bc
000001a0: a0af fd3b be23 423c 3b02 d3bc 41ca a53c
000001b0: 3ad1 753c b613 a73c 8776 f8bb 54d7 ad3c
000001c0: 01c2 8d3c 9d93 943b fc16 893a 3d04 113c
000001d0: ac6f 1a3d b823 143d d543 983c 30e0 0c3c

running_mean f4 [120]
-0.3554819 0.04509113 0.12872876 0.38746592 0.13900724 -0.18700798 -0.01579505 0.38740218
-0.30887586 0.09204545 -0.02437573 0.016578969 -0.0012989722 0.43424156 -0.094430834 -0.06473073
0.06083608 0.086062506 0.07479903 -0.018183956 -0.39507884 0.24952146 -0.27457446 -0.050524797
0.056072697 0.2625388 -0.13568449 -0.39745685 0.15950282 -0.22399388 -0.011683582 0.25210574
0.030938786 -0.23350641 -0.11394074 -0.08042075 0.107369766 -0.011320124 -0.009432167 -0.25485134
-0.37965512 -0.08936777 -0.46577963 0.06259462 0.14077136 0.26715106 0.11556705 -0.29893097
-0.3987772 -0.12309849 -0.35354188 -0.112611875 0.082245685 -0.15711053 -0.415958 0.1268211
0.09448985 -0.18150416 -0.21086977 -0.00071289996 -0.06714317 0.20102742 0.054885767 0.32398504
-0.34477368 -0.09490274 -0.021850651 0.28833067 -0.006837367 0.30395013 0.09537629 -0.07114822
0.3852263 -0.41139498 0.23005633 -0.057272773 0.1011323 -0.033882942 0.115048446 0.15248871
-0.013813581 0.31257182 -0.08044193 0.044231173 0.07850898 -0.1078903 0.02575655 0.13630426
-0.030411942 -0.23267208 0.15067649 -0.08630105 0.27013734 -0.056153737 0.019722175 0.22376873
0.20366877 -0.17057146 0.022228716 0.15288943 0.18707332 0.21601139 -0.17246501 0.16001815
-0.25294217 -0.19036248 -0.10661601 -0.21232672 0.12993735 0.3602667 0.039799705 -0.22083777
-0.056288175 -0.18474862 -0.26629812 0.12330662 0.036748804 -0.10676845 -0.06293337 0.18312001
00000000: b901 b6be 7ab1 383d 79d1 033e ef61 c63e
00000010: ea57 0e3e 057f 3fbe 9f64 81bc 9459 c63e
00000020: fa24 9ebe 5382 bc3d 9caf c7bc 9ed0 873c
00000030: 4642 aaba e954 de3e f464 c1bd 8c91 84bd
00000040: 412f 793d 8a41 b03d 3c30 993d 85f6 94bc
00000050: c647 cabe 8e82 7f3e 0695 8cbe 17f3 4ebd
00000060: 7cac 653d 7c6b 863e e0f0 0abe 777f cbbe
00000070: b554 233e a75e 65be 7f6c 3fbc 0114 813e
00000080: 5673 fd3c 4e1c 6fbe c359 e9bd a2b3 a4bd
00000090: aee4 db3d 0b78 39bc 6089 1abc e07b 82be
000000a0: 2862 c2be 7306 b7bd ab7a eebe 9c31 803d
000000b0: 5e26 103e 06c8 883e 6bae ec3d 7b0d 99be
000000c0: 862c ccbe 101b fcbd 7103 b5be 0ea1 e6bd
000000d0: 6d70 a83d 95e1 20be 72f8 d4be 64dd 013e
000000e0: e583 c13d 3adc 39be 3fee 57be e8e1 3aba
000000f0: 5c82 89bd 22da 4d3e e6cf 603d 5ee1 a53e
00000100: 2d86 b0be 5e5c c2bd 2300 b3bc 14a0 933e
00000110: fe0b e0bb 5a9f 9b3e a554 c33d 28b6 91bd
00000120: 623c c53e 5da2 d2be e393 6b3e db96 6abd
00000130: 741e cf3d d7c8 0abd 859e eb3d 0026 1c3e
00000140: 5c52 62bc 6a09 a03e bdbe a4bd bf2b 353d
00000150: 51c9 a03d 97f5 dcbd 66ff d23c 5893 0b3e
00000160: 7722 f9bc 9741 6ebe f04a 1a3e 9bbe b0bd
00000170: 714f 8a3e 7601 66bd 6690 a13c a123 653e
00000180: 8c8e 503e 49aa 2ebe ff18 b63c 0c8f 1c3e
00000190: 2690 3f3e 1732 5d3e ab9a 30be ccdb 233e
000001a0: a381 81be 62ee 42be 7f59 dabd 2d6c 59be
000001b0: 4c0e 053e e074 b83e 0405 233d 4c23 62be
000001c0: 6e8e 66bd be2e 3dbe 3a58 88be 2e88 fc3d
000001d0: ea85 163d 6ba9 dabd 36e3 80bd d083 3b3e

running_var f4 [120]
8.0696685e-05 5.0616465e-05 2.1846474e-05 1.936513e-05 6.0436418e-05 1.19703445e-05 9.6099095e-05 2.1992406e-05
6.3987636e-06 8.4262165e-06 0.0001495136 8.981926e-05 4.9286602e-05 5.3014453e-05 4.007296e-05 0.00013888754
0.00014142702 9.205505e-05 1.002022e-05 0.00015278958 6.0934057e-05 6.535017e-05 5.873817e-05 5.314972e-07
0.00010145589 6.11884e-05 9.122791e-05 8.660357e-05 0.00021241207 0.0001300734 3.5116223e-05 7.4090756e-05
5.2406762e-05 0.00011106156 9.512269e-05 1.9109728e-05 6.243835e-05 5.688103e-05 7.950918e-06 3.5108395e-05
5.6460027e-05 3.568737e-05 4.8138274e-05 2.9264633e-05 0.00013858697 8.296002e-05 3.8170896e-05 2.2407987e-05
6.968068e-06 8.214463e-05 5.1543666e-05 7.5793425e-05 7.546484e-05 2.7156353e-05 2.7093925e-05 0.00011693995
0.00019115311 4.3020667e-05 3.7301408e-05 8.625981e-05 0.0001495313 5.678399e-05 5.8342877e-05 0.00013065871
5.648994e-05 7.175712e-05 7.978518e-06 0.0001045371 6.8895475e-05 4.0668416e-05 6.823056e-05 3.5192912e-05
1.7198352e-05 4.3745666e-05 4.8803948e-05 6.791205e-05 8.808092e-05 6.855062e-05 0.00015257194 0.00016862528
0.00014957342 1.634735e-05 7.051858e-05 7.529172e-05 4.390545e-05 8.8955974e-05 8.423294e-05 4.8761763e-06
1.8921492e-05 8.6259024e-05 0.00010106791 0.00021542124 7.1492155e-05 8.188434e-05 0.00018552762 3.430798e-05
4.763476e-05 5.0370203e-05 5.9905426e-05 8.91759e-06 1.2730113e-08 3.5487254e-05 0.00016051579 9.560103e-05
1.4387048e-05 6.326244e-05 5.4232067e-05 7.8994235e-05 4.5365276e-05 0.00015313305 0.000116649324 8.960222e-06
5.790059e-05 0.00016942428 4.1759937e-05 1.6451013e-05 7.2650386e-05 6.379198e-05 1.7340793e-05 0.00012024925
00000000: b43b a938 044d 5438 f242 b737 4d72 a237
00000010: 1c7d 7d38 3dd4 4837 cf88 c938 557c b837
00000020: f6b4 d636 535e 0d37 c0c6 1c39 595d bc38
00000030: 16b9 4e38 d65b 5e38 0314 2838 57a2 1139
00000040: 074c 1439 ae0d c138 841c 2837 2436 2039
00000050: 7293 7f38 9b0c 8938 a15d 7638 36ac 0e35
00000060: b7c4 d438 4652 8038 9c51 bf38 f09e b538
00000070: eeba 5e39 5064 0839 c249 1338 2c61 9b38
00000080: 55cf 5b38 b9e9 e838 9b7c c738 d44d a037
00000090: 55f1 8238 8a93 6e38 ef64 0537 5a41 1338
000000a0: 7ecf 6c38 06af 1538 14e8 4938 527d f537
000000b0: a851 1139 d2fa ad38 b019 2038 c9f8 bb37
000000c0: 40cf e936 1045 ac38 9730 5838 49f3 9e38
000000d0: e142 9e38 d3cd e337 c347 e337 a83d f538
000000e0: 4670 4839 1771 3438 1574 1c38 62e6 b438
000000f0: 81cb 1c39 582b 6e38 30b5 7438 6e01 0939
00000100: 9cef 6c38 4f7c 9638 79db 0537 ee3a db38
00000110: fa7b 9038 6193 2a38 0117 8f38 1a9c 1338
00000120: 2e45 9037 8d7b 3738 d7b2 4c38 016c 8e38
00000130: 15b8 b838 d5c2 8f38 b8fb 1f39 01d1 3039
00000140: cfd6 1c39 ab21 8937 60e3 9338 efe5 9d38
00000150: 1e27 3838 e08d ba38 37a6 b038 099e a336
00000160: 98b9 9e37 f6e5 b438 6cf4 d338 b3e2 6139
00000170: 0fee 9538 52b9 ab38 318a 4239 eae5 0f38
00000180: 6fcb 4738 9844 5338 f642 7b38 c29c 1537
00000190: a1b3 5a32 26d8 1438 2150 2839 6a7d c838
000001a0: e75f 7137 c4ab 8438 3d77 6338 b5a9 a538
000001b0: 9846 3e38 5792 2039 a1a1 f438 dc53 1637
000001c0: 49da 7238 7ca7 3139 6427 2f38 4800 8a37
000001d0: e15b 9838 0fc8 8538 1277 9137 532e fc38

weight f4 [120, 120]
-0.021885108 0.049926374 -0.013213201 0.013464849 0.05245434 0.031028718 -0.05874692 -0.05781334
0.013412398 -0.016646922 0.015734928 0.030213496 0.05843302 -0.06411637 0.046646778 0.05550616
-0.035737555 -0.028726809 -0.05897039 -0.07501584 -0.078967586 0.01840173 -0.05739099 -0.12217729
0.030612389 0.033981863 0.09342946 -0.10169378 -0.050877817 0.076381944 0.044857565 -0.0113258725
0.039996974 0.04976492 -0.035545703 -0.0041624815 0.067386925 -0.044506848 0.044764478 -0.07198873
0.09572965 -0.01666636 0.083894625 0.038247794 -0.06341815 -0.05209696 0.07043737 -0.04893974
-0.059379376 0.06764021 0.10226779 0.029292453 0.07470908 0.09123459 -0.08789188 -0.027640354
0.07693771 0.037588157 0.0061871433 -0.08729662 0.06714093 0.08441113 0.032216303 -0.041724462
-0.046835225 0.059550352 0.04858619 0.07794458 0.025942223 0.026131282 -0.02245405 0.069788404
0.014240411 0.03987009 -0.05126074 -0.015573523 -0.069566764 0.0062540504 -0.030216463 -0.08043287
0.051063374 0.004190701 -0.012239313 -0.0010168161 0.07434363 0.010114441 -0.00057551276 -0.10416228
-0.024677426 0.0074041616 -0.07686584 0.07314815 0.05311834 0.057505418 -0.0494473 -0.04489026
0.06423467 0.07766186 -0.07085012 0.058364503 -0.18928054 -0.03458679 -0.07178311 -0.08463169
-0.08241791 -0.029593015 -0.031841315 0.051531967 -0.053524066 0.05272709 -0.0023101128 0.08516573
-0.021170085 -0.0037813622 0.02048821 0.0537943 0.03091804 -0.012452505 0.08802424 0.037222758
0.044127822 0.021430463 -0.03009459 0.084955126 -0.022160836 0.07776401 -0.008132924 0.0369456
-0.029101823 0.0357991 0.038620148 -0.051137872 -0.06427022 -0.033881783 0.035326954 -0.10467666
-0.048700612 0.015397999 -0.063944116 -0.09985213 0.0434501 -0.020176167 0.04621099 -0.06101412
0.09795259 0.07803673 -0.0033193904 -0.03548564 -0.054395698 -0.07506934 0.08555515 -0.0023835273
-0.03720244 -0.025514018 0.015900763 0.04899523 0.04632096 -0.02944737 0.010002832 -0.013492209
0.08499175 0.09924467 0.002767475 0.020803714 0.06671796 0.069863565 -0.07807387 0.025256207
0.09214698 -0.031465415 -0.030380337 -0.087914 0.07525941 -0.062013943 0.07173351 0.08214415
0.0129156625 0.03975541 0.071548305 0.011469698 0.073616445 -0.028947452 0.049672488 -0.039843995
-0.072255954 0.011217151 0.04046181 -0.023419814 0.017398344 0.0928683 0.07365912 0.0916737
0.066247106 -0.046846665 0.086645514 -0.03238442 -0.006387184 -0.021546973 0.038199842 -0.07467703
-0.03390485 -0.005075633 0.07256913 0.052277524 0.032555517 -0.012914252 -0.017386235 -0.008321924
-0.016233848 0.0962916 -0.026480922 0.072121985 -0.018744366 -0.02770391 -0.08782067 -0.042987134
0.06060868 -0.042632047 -0.017730946 0.02203597 -0.23564656 0.06894952 -0.07115064 -0.10341027
0.08831833 0.053371064 -0.07350915 0.05913227 0.045329556 -0.06620347 0.0379618 0.030171847
-0.007231982 -0.009737172 -0.076824896 -0.07219889 0.032479163 -0.03963795 -0.047904216 0.05566084
-0.045634903 -0.0867232 -0.0398393 -0.08416642 0.06552977 0.06881809 -0.06959941 0.055057704
-0.014968918 -0.035769064 0.02966441 -0.018240841 -0.06911273 0.03927051 0.02313063 -0.06428172
00000000: 6648 b3bc 997f 4c3d 2f7c 58bc ac9b 5c3c
00000010: 5dda 563d f02f fe3c 9ca0 70bd aecd 6cbd
00000020: adbf 5b3c 205f 88bc 89e6 803c 4b82 f73c
00000030: 7657 6f3d 724f 83bd b110 3f3d 6d5a 633d
00000040: 8b61 12bd 7c54 ebbc f08a 71bd e8a1 99bd
00000050: c2b9 a1bd 3abf 963c d112 6bbd 1638 fabd
00000060: d5c6 fa3c 9130 0b3d f257 bf3d d444 d0bd
00000070: 4265 50bd 236e 9c3d 91bc 373d 2790 39bc
00000080: ded3 233d 4dd6 4b3d 5f98 11bd 6d65 88bb
00000090: 2802 8a3d d04c 36bd f55a 373d d46e 93bd
000000a0: e80d c43d e487 88bc f2d0 ab3d b8a9 1c3d
000000b0: 60e1 81bd 9f63 55bd 7841 903d 0975 48bd
000000c0: ca37 73bd f386 8a3d c671 d13d baf6 ef3c
000000d0: 1301 993d 33d9 ba3d a800 b4bd 066e e2bc
000000e0: 8591 9d3d 0af6 193d 85bd ca3b 92c8 b2bd
000000f0: 2f81 893d bedf ac3d 3ef5 033d 45e7 2abd
00000100: 4bd6 3fbd 12eb 733d 5002 473d 68a1 9f3d
00000110: c984 d43c 4511 d63c 8ef1 b7bc 39ed 8e3d
00000120: 9d50 693c d24e 233d c8f6 51bd 1728 7fbc
00000130: 0579 8ebd c7ee cc3b 8488 f7bc fdb9 a4bd
00000140: d427 513d 2652 893b 6687 48bc b046 85ba
00000150: 7941 983d 0ab7 253c 02de 16ba 0953 d5bd
00000160: 5028 cabc 9c9e f23b d66b 9dbd b3ce 953d
00000170: 9e92 593d cd8a 6b3d 4189 4abd d9de 37bd
00000180: 778d 833d 2e0d 9f3d de19 91bd 9e0f 6f3d
00000190: c2d2 41be e1aa 0dbd 0603 93bd 6153 adbd
000001a0: b9ca a8bd 0d6d f2bc 0a6c 02bd 2f13 533d
000001b0: 0d3c 5bbd 5cf8 573d 4365 17bb 5f6b ae3d
000001c0: e36c adbc bbd0 77bb e4d6 a73c 6957 5c3d
000001d0: d447 fd3c 9705 4cbc 0e46 b43d e476 183d
000001e0: 60bf 343d f08e af3c ee88 f6bc f4fc ad3d
000001f0: a48a b5bc bd42 9f3d f53f 05bc 4554 173d
00000200: f266 eebc 14a2 123d 2930 1e3d f275 51bd
00000210: 1ba0 83bd a0c7 0abd ffb2 103d b760 d6bd
00000220: 4b7a 47bd e447 7c3c 22f5 82bd 467f ccbd
00000230: bbf8 313d 7d48 a5bc bc47 3d3d f1e9 79bd
00000240: 5e9b c83d b9d1 9f3d 218a 59bb 6459 11bd
00000250: 06ce 5ebd f4bd 99bd 8a37 af3d f434 1cbb
00000260: 9661 18bd c602 d1bc 5142 823c 39af 483d
00000270: 0cbb 3d3d 9c3b f1bc ebe2 233c 6d0e 5dbc
00000280: 2810 ae3d ca40 cb3d 875e 353b 8d6c aa3c
00000290: 6da3 883d a114 8f3d 31e5 9fbd 1be6 ce3c
000002a0: 8eb7 bc3d e1e1 00bd 2fe0 f8bc 410c b4bd
000002b0: 9b21 9a3d 5502 7ebd 05e9 923d 313b a83d
000002c0: 379c 533c 92d6 223d eb87 923d 66eb 3b3c
000002d0: 38c4 963d 3523 edbc 6175 4b3d 7533 23bd
000002e0: eefa 93bd 24c8 373c 48bb 253d e9da bfbc
000002f0: f986 8e3c bc31 be3d 98da 963d 6cbf bb3d
00000300: 90ac 873d 4ae2 3fbd 3473 b13d 87a5 04bd
00000310: 954b d1bb 4783 b0bc 7077 1c3d 45f0 98bd
00000320: d0df 0abd 7f51 a6bb 209f 943d f520 563d
00000330: ef58 053d 4c96 53bc 946d 8ebc ae58 08bc
00000340: d9fc 84bc 8834 c53d 85ee d8bc b1b4 933d
00000350: c98d 99bc 4ff3 e2bc 53db b3bd 4713 30bd
00000360: cf40 783d f19e 2ebd 7d40 91bc c784 b43c
00000370: 554d 71be 6835 8d3d 6db7 91bd c3c8 d3bd
00000380: 3ee0 b43d 9e9b 5a3d f78b 96bd ae34 723d
00000390: 7cab 393d af95 87bd d57d 1b3d f32a f73c
000003a0: 43fa ecbb a988 1fbc 5f56 9dbd 03dd 93bd
000003b0: df08 053d 675b 22bd 3637 44bd 9ffc 633d
000003c0: aaeb 3abd ef9b b1bd 892e 23bd 725f acbd
000003d0: 7934 863d 80f0 8c3d 238a 8ebd 3084 613d
000003e0: 3140 75bc 9582 12bd c702 f33c d16d 95bc
000003f0: fa8a 8dbd 1dda 203d 727c bd3c 22a6 83bd

bias f4 [120]
0.0055720243 0.08054547 -0.043998092 -0.077588715 -0.088320985 -0.08910682 -0.06997656 0.02422023
-0.020681817 -0.03741931 -0.020659396 -0.056405693 -0.027937524 0.032822967 0.08388051 0.035704914
-0.0224819 -0.0847964 0.033428002 -0.06936792 -0.0326977 -0.06671081 -0.044680543 -0.0178836
0.02186212 -0.020256402 0.082251415 0.08097835 -0.08945797 0.01783565 0.013237 -0.021797687
0.0073996517 -0.05047725 0.034870725 -0.05301279 -0.046169553 -0.055833243 -0.04301089 0.059211954
0.051571336 0.05430292 0.03923861 -0.046447847 -0.06283121 -0.07004658 0.08623982 0.0151906
-0.026620189 -0.034163103 0.044495963 0.06534295 -0.016352514 0.06712577 0.0064807553 -0.070671126
-0.060135145 -0.030830665 0.054579582 -0.0375494 -0.0049886173 0.00036661496 0.040478814 0.041398972
0.030273143 0.04057121 0.056802485 -0.020934287 -0.055977963 -0.06393416 -0.0009845465 0.06931299
-0.06029411 -0.04194758 -0.079632744 -0.05003591 0.023290638 -0.025587318 0.04945041 -0.05710256
-0.04578708 -0.056360103 -0.0017674543 0.059851088 -0.026428215 0.015663134 -0.06406059 0.017887868
0.08569294 -0.012773765 0.078911975 0.006965215 0.05477125 -0.05674415 -0.022022037 0.028855134
0.06112149 -0.017159525 0.019198425 -0.040707882 -0.054518785 0.06837622 0.0351255 0.09035629
0.0010272282 -0.0031464568 -0.0012689383 0.025475206 -0.00409879 -0.025519725 0.06564623 -0.03395914
0.029599195 0.030587798 0.084556065 0.06716751 0.04858472 0.01679107 -0.0339887 -0.005214053
00000000: 8795 b63b 06f5 a43d 5837 34bd d5e6 9ebd
00000010: a2e1 b4bd a37d b6bd df4f 8fbd 8169 c63c
00000020: ea6c a9bc fe44 19bd e53d a9bc a809 67bd
00000030: 3cdd e4bc 6071 063d 8bc9 ab3d 513f 123d
00000040: f62b b8bc bca9 adbd cdeb 083d c510 8ebd
00000050: 06ee 05bd ad9f 88bd f202 37bd a180 92bc
00000060: 3018 b33c c1f0 a5bc 6e73 a83d fad7 a53d
00000070: bd35 b7bd 121c 923c 01e0 583c 1091 b2bc
00000080: c778 f23b 3cc1 4ebd 9bd4 0e3d f023 59bd
00000090: 491c 3dbd 66b1 64bd 302c 30bd 3c88 723d
000000a0: 773c 533d bd6c 5e3d aab8 203d 1940 3ebd
000000b0: a6ad 80bd 9574 8fbd 819e b03d ffe1 783c
000000c0: 9512 dabc 9cee 0bbd 6641 363d 86d2 853d
000000d0: b5f5 85bc 3c79 893d 845c d43b 06bc 90bd
000000e0: 4550 76bd 9790 fcbc d78e 5f3d 66cd 19bd
000000f0: 8e77 a3bb 3a36 c039 1dcd 253d f891 293d
00000100: 62ff f73c ff2d 263d b9a9 683d 627e abbc
00000110: 2649 65bd eaef 82bd e60b 81ba f8f3 8d3d
00000120: f5f6 76bd 3ad1 2bbd 7e16 a3bd 74f2 4cbd
00000130: 02cc be3c 7f9c d1bc 838c 4a3d 60e4 69bd
00000140: 3c8b 3bbd dad9 66bd eda9 e7ba 6a26 753d
00000150: fc7f d8bc f94f 803c 3332 83bd 9489 923c
00000160: c87f af3d 0e49 51bc 9a9c a13d 753c e43b
00000170: d157 603d 8e6c 68bd 8f67 b4bc 9a61 ec3c
00000180: 875a 7a3d 2292 8cbc 0446 9d3c 4fbd 26bd
00000190: 174f 5fbd d508 8c3d c2df 0f3d b80c b93d
000001a0: 0fa4 863a c934 4ebb 8152 a6ba 61b1 d03c
000001b0: 254f 86bb be0e d1bc 8871 863d bd18 0bbd
000001c0: 037a f23c 4393 fa3c bb2b ad3d 1f8f 893d
000001d0: c500 473d 6d8d 893c bc37 0bbd a6da aabb

weight f4 [120]
0.99121666 0.9848123 0.98341155 0.9946722 0.9958509 0.99909127 0.97580004 1.0092834
1.0111963 1.0354983 1.0046259 1.0109022 0.9990744 1.0219347 0.97122717 0.98529947
1.0030942 1.0148059 1.0013683 1.003202 1.0363051 1.0180855 1.0055292 0.9778411
1.0192868 1.0086938 1.0081729 0.9899778 1.006068 0.9757875 0.9950758 0.9598697
1.0452371 0.98973686 1.014912 0.98556185 1.0019006 0.99303186 0.98879385 1.0039055
0.97839844 1.0094332 0.9728903 1.0081213 1.0046331 1.0171698 0.97122276 0.98232794
0.997453 0.976874 1.002056 0.99305636 0.9622302 1.0090925 0.9880597 1.0288513
0.99356174 1.0222644 1.013027 0.9837731 1.0042104 0.9990592 1.0115391 0.9659775
1.0047437 1.0024575 1.0279042 1.0176637 1.021645 1.0267404 1.0031264 1.002807
1.0313905 1.0228305 0.9765544 0.951903 0.99363494 0.9725593 0.99174136 0.9731986
0.993177 0.9694596 1.0043555 0.99101686 1.0111086 0.9844327 1.0011895 0.9935541
1.0061845 0.9874059 1.0044463 0.99128217 0.98377556 1.0034888 0.9933761 1.000026
0.98836446 1.0259969 1.1297965 0.99503386 1.0252584 0.992213 0.9925057 0.9952195
0.9602784 0.9992513 1.004566 0.9876826 0.99875504 1.0039846 1.0080782 1.02569
0.99573225 0.9917018 1.0100242 0.99646455 0.9991252 0.99691576 1.002522 0.99679416
00000000: 60c0 7d3f a91c 7c3f dcc0 7b3f d6a2 7e3f
00000010: 16f0 7e3f 72c4 7f3f 08ce 793f 3330 813f
00000020: e16e 813f 358b 843f 9597 803f 3e65 813f
00000030: 57c3 7f3f c2ce 823f 58a2 783f 963c 7c3f
00000040: 6465 803f 29e5 813f d62c 803f ec68 803f
00000050: a5a5 843f a050 823f 2eb5 803f cb53 7a3f
00000060: fd77 823f e11c 813f cf0b 813f 2f6f 7d3f
00000070: d6c6 803f 36cd 793f 4abd 7e3f 05ba 753f
00000080: 54ca 853f 655f 7d3f a3e8 813f c84d 7c3f
00000090: 473e 803f 5637 7e3f 9821 7d3f fa7f 803f
000000a0: 5278 7a3f 1b35 813f 570f 793f 1e0a 813f
000000b0: d197 803f 9f32 823f 0ea2 783f d879 7b3f
000000c0: 1459 7f3f 6a14 7a3f 5f43 803f f138 7e3f
000000d0: b854 763f f129 813f 7bf1 7c3f 66b1 833f
000000e0: 105a 7e3f 8fd9 823f deaa 813f 8ed8 7b3f
000000f0: f789 803f 58c2 7f3f 1d7a 813f 4d4a 773f
00000100: 719b 803f 8750 803f 5d92 833f ce42 823f
00000110: 43c5 823f 3b6c 833f 7266 803f fb5b 803f
00000120: 9b04 843f 1cec 823f 78ff 793f eaaf 733f
00000130: dc5e 7e3f a5f9 783f c3e2 7d3f 8b23 793f
00000140: d940 7e3f 812e 783f b98e 803f 48b3 7d3f
00000150: 026c 813f c803 7c3f fa26 803f 9059 7e3f
00000160: a7ca 803f a2c6 7c3f b291 803f abc4 7d3f
00000170: b7d8 7b3f 5272 803f e54d 7e3f da00 803f
00000180: 7405 7d3f de53 833f 2c9d 903f 8aba 7e3f
00000190: ab3b 833f ac01 7e3f db14 7e3f b5c6 7e3f
000001a0: ced4 753f efce 7f3f 9e95 803f c4d8 7c3f
000001b0: 69ae 7f3f 9182 803f b508 813f cf49 833f
000001c0: 4fe8 7e3f 2be0 7d3f 7948 813f 4d18 7f3f
000001d0: abc6 7f3f df35 7f3f a452 803f e72d 7f3f

bias f4 [120]
-0.011219773 0.041618202 -0.03251705 0.007916019 -0.010505277 -0.040559646 -0.035375647 0.02465534
0.02572404 0.033774804 0.010475314 0.029062366 0.052461516 0.02621957 -0.0795025 -0.024870351
-0.012955573 0.041396447 -0.06136327 -0.11355995 0.054942496 0.012432718 0.059182454 -0.036548577
0.07655175 -0.035216995 -0.009764164 -0.010651085 -0.027776161 0.023490975 0.008941963 -0.07625708
0.05225064 -0.020302735 0.007843921 0.005297139 0.0025785055 -0.025243016 -0.022724755 -0.01049117
-0.06171746 -0.0066152713 -0.049858443 0.01600311 -0.03012852 0.02062559 0.00051459006 -0.020699598
-0.0075980844 -0.021213375 0.009249183 0.017774759 -0.04419685 0.05378993 -0.07060495 0.15070523
-0.019403355 0.04490621 0.013474492 -0.015501157 -0.053843804 -0.091861054 -0.012165955 -0.017949365
0.005139161 0.0021438217 0.0793942 0.053862464 0.023569945 0.011539824 -0.039875846 -0.002164834
0.024451513 0.063137904 -0.01951334 -0.14518774 0.020676205 -0.08263367 -0.015966803 0.0009299507
-0.11351517 -0.06341534 0.017185247 -0.016017763 0.021877676 -0.0112793725 0.009819887 -0.050800312
0.014957717 -0.045277555 0.013345126 -0.036163174 -0.034367666 0.0487555 -0.030497137 -0.13534632
-0.024356954 0.21831529 0.23451771 -0.013593129 0.082055666 -6.1305764e-06 0.004785265 -0.04791284
-0.043455552 0.003763045 0.010272728 -0.025814598 0.023837533 0.006614447 0.018594844 0.027405223
0.009554595 -0.010469327 0.032750677 -0.055017192 0.0013330053 0.008259235 -0.0022766318 -0.006614065
00000000: 24d3 37bc d977 2a3d 9930 05bd 31b2 013c
00000010: 531e 2cbc df21 26bd 0ee6 10bd fff9 c93c
00000020: 39bb d23c 7357 0a3d a7a0 2b3c 3314 ee3c
00000030: e3e1 563d 6cca d63c 35d2 a2bd e8bc cbbc
00000040: 9d43 54bc 528f 293d 0d58 7bbd 1e92 e8bd
00000050: 620b 613d 99b2 4b3c 4d69 723d f6b3 15bd
00000060: 2ac7 9c3d b23f 10bd dff9 1fbc e381 2ebc
00000070: d58a e3bc 2570 c03c 5081 123c ac2c 9cbd
00000080: c404 563d ec51 a6bc ca83 003c 9f93 ad3b
00000090: 25fc 283b 71ca cebc 4429 babc 28e3 2bbc
000000a0: 73cb 7cbd ebc4 d8bb 5e38 4cbd f418 833c
000000b0: 16d0 f6bc fff6 a83c 8ee5 063a 3492 a9bc
000000c0: 5af9 f8bb acc7 adbc e389 173c 5f9c 913c
000000d0: c207 35bd d452 5c3d 5499 90bd 7952 1a3e
000000e0: c9f3 9ebc 93ef 373d 1ec4 5c3c 91f8 7dbc
000000f0: 528b 5cbd a621 bcbd b753 47bc 8c0a 93bc
00000100: 6866 a83b 5c7f 0c3b 6d99 a23d e39e 5c3d
00000110: c215 c13c 8811 3d3c db54 23bd e3df 0dbb
00000120: 8a4e c83c 724e 813d 71da 9fbc 18ac 14be
00000130: 2561 a93c d73b a9bd d0cc 82bc efc7 733a
00000140: a47a e8bd e7df 81bd 13c8 8c3c af37 83bc
00000150: d038 b33c 1ecd 38bc 97e3 203c fd13 50bd
00000160: 3611 753c f574 39bd 84a5 5a3c d61f 14bd
00000170: 1cc5 0cbd d9b3 473d 22d5 f9bc 3a98 0abe
00000180: 3c88 c7bc 0b8e 5f3e 6925 703e b7b5 5ebc
00000190: cd0c a83d 40b5 cdb6 b6cd 9c3b 4140 44bd
000001a0: 73fe 31bd 6b9d 763b f24e 283c 2379 d3bc
000001b0: ee46 c33c 01be d83b 3754 983c eb80 e03c
000001c0: e08a 1c3c 8a87 2bbc 9325 063d b559 61bd
000001d0: 3cb8 ae3a be51 073c 8b33 15bb ccba d8bb

running_mean f4 [120]
0.13806738 0.18859354 0.0409716 -0.036545783 0.051449265 0.04998297 -0.07285393 -0.13634357
-0.044509374 -0.15830174 -0.075568624 -0.21769534 -0.19003306 0.0392143 0.15709226 0.0015214535
-0.14245127 -0.17181087 0.3908826 0.16758709 -0.14615554 -0.026535828 -0.08046113 0.0484484
-0.21882378 -0.0032261584 0.19885595 0.07804678 -0.1257906 -0.23994839 -0.13482991 0.22009991
-0.2150339 0.035064705 0.17218356 -0.058707964 -0.014771008 -0.004631191 -0.010524251 0.10070747
0.19837397 0.09923976 0.24048047 -0.04777977 -0.026187215 -0.14562146 0.18093172 0.3038553
-0.09759039 0.06479807 0.06397399 0.08698737 0.10974357 0.028016726 0.055554286 -0.06485664
0.0073648766 -0.14872271 -0.09578856 0.025765639 0.10249325 0.104603596 0.061984915 0.29020065
-0.13782643 0.012832576 0.07430655 -0.15022904 -0.09962364 -0.08936563 0.13157281 0.08790309
-0.09522208 -0.43397957 0.019278007 0.4869471 0.008678614 0.17539272 0.05698765 0.16014159
0.23658197 0.16431059 -0.051398527 0.09997848 -0.007794068 0.07645032 -0.07561326 0.1175678
-0.1673461 0.06811252 -0.009369473 0.17446277 0.052993003 -0.083618656 0.23863927 0.49724758
0.16886592 0.010525633 0.03775689 0.06695775 -0.29115662 0.16544412 -0.038629614 0.21781641
0.20207895 -0.15326492 -0.014097199 0.14865983 -0.06363621 0.056083914 -0.031550884 -0.092388175
0.1464928 0.072098255 -0.075224645 0.39732337 -0.007229816 0.13949892 -0.105278686 -0.027792573
00000000: 8961 0d3e aa1e 413e d6d1 273d 08b1 15bd
00000010: 77bc 523d f1ba 4c3d 7134 95bd a69d 0bbe
00000020: 764f 36bd da19 22be b9c3 9abd 87eb 5ebe
00000030: 0798 42be 2d9f 203d cbdc 203e 826b c73a
00000040: bfde 11be 30ef 2fbe c421 c83e f39b 2b3e
00000050: cca9 15be aa61 d9bc cec8 a4bd d471 463d
00000060: 5713 60be f56d 53bb e5a0 4b3e fdd6 9f3d
00000070: 40cf 00be 08b5 75be da10 0abe df61 613e
00000080: d931 5cbe 02a0 0f3d e350 303e c377 70bd
00000090: 1902 72bc 3fc1 97bb e86d 2cbc b83f ce3d
000000a0: 8c22 4b3e 373e cb3d 8340 763e b8b4 43bd
000000b0: 9286 d6bc cb1d 15be 2a46 393e ec92 9b3e
000000c0: 78dd c7bd dab4 843d cc04 833d 6f26 b23d
000000d0: 3dc1 e03d 5583 e53c e48c 633d 8fd3 84bd
000000e0: 1055 f13b c44a 18be cb2c c4bd 7612 d33c
000000f0: fbe7 d13d 693a d63d e5e3 7d3d 2e95 943e
00000100: 5f22 0dbe ba3f 523c 082e 983d a4d5 19be
00000110: 7b07 ccbd 5405 b7bd 06bb 063e 8906 b43d
00000120: cb03 c3bd 9232 debe e9ec 9d3c 2151 f93e
00000130: bf30 0e3c 269a 333e e26b 693d 28fc 233e
00000140: 8b42 723e 0941 283e 4387 52bd 84c1 cc3d
00000150: 6265 ffbb fc91 9c3d 20db 9abd 63c7 f03d
00000160: c75c 2bbe 947e 8b3d 6b82 19bc 5ea6 323e
00000170: 310f 593d 4240 abbd da5d 743e 3c97 fe3e
00000180: 30eb 2c3e b473 2c3c f8a6 1a3d 2521 893d
00000190: 7b12 95be 2f6a 293e 163a 1ebd 440b 5f3e
000001a0: c9ed 4e3e 7bf1 1cbe f0f7 66bc 483a 183e
000001b0: b453 82bd 3fb8 653d 803b 01bd 0336 bdbd
000001c0: 3502 163e 40a8 933d 610f 9abd f86d cb3e
000001d0: 18e8 ecbb ced8 0e3e 5a9c d7bd 40ad e3bc

running_var f4 [120]
0.027182257 0.07336261 0.021763166 0.02041137 0.024314089 0.017895779 0.04767702 0.056071285
0.012696818 0.024225824 0.046878286 0.039746467 0.027984342 0.0022352675 0.017032985 0.14799467
0.008654479 0.01038187 0.051272713 0.049706243 0.027457962 0.010403895 0.008176784 0.0076443614
0.082522474 0.021407118 0.10656046 0.06891061 0.017014729 0.048762504 0.025215557 0.02367994
0.06715848 0.058913045 0.09867399 0.046538252 0.03406194 0.066748224 0.025423514 0.028398272
0.009661415 0.031522747 0.07149035 0.016165243 0.0047380277 0.04294184 0.04647632 0.06228232
0.13899215 0.0483339 0.040263668 0.048616458 0.06182515 0.0075952956 0.026228648 0.0012977179
0.025618989 0.036326792 0.025144638 0.039179973 0.0066311946 0.026544986 0.02259831 0.07859573
0.02742773 0.0050228247 0.001838159 0.018799141 0.0068514147 0.026549123 0.04524867 0.029317254
0.0039848327 0.07326782 0.1392263 0.06967453 0.011295615 0.024865365 0.1703945 0.032100435
0.06789801 0.11816386 0.012868123 0.036642157 0.00502005 0.09992696 0.17657614 0.0025436708
0.045638595 0.015276717 0.03844816 0.024094723 0.054360237 0.0028801942 0.07228807 0.10255443
0.01160618 0.0008842183 0.00018248832 0.03238306 0.03320722 0.022207325 0.07734663 0.01468036
0.07734116 0.14505942 0.026173428 0.054996647 0.0266281 0.013675922 0.060096893 0.0038107845
0.06783782 0.022573447 0.062123578 0.052353565 0.016541399 0.14044334 0.039770663 0.046381354
00000000: 53ad de3c 233f 963d ab48 b23c bf35 a73c
00000010: 572e c73c 2b9a 923c fb48 433d 01ab 653d
00000020: 5106 503c 3c75 c63c 7203 403d 31cd 223d
00000030: 6b3f e53c 917d 123b c288 8b3c ea8b 173e
00000040: 84cb 0d3c b818 2a3c 5603 523d c698 4b3d
00000050: 85ef e03c 1975 2a3c ebf7 053c 8d7d fa3b
00000060: 8b01 a93d fb5d af3c 5f3c da3d 0221 8d3d
00000070: 7962 8b3c 31bb 473d db90 ce3c 6ffc c13c
00000080: 638a 893d ce4e 713d 9715 ca3d e59e 3e3d
00000090: 8884 0b3d 4bb3 883d f944 d03c 7ea3 e83c
000000a0: e94a 1e3c ff1d 013d 8869 923d f96c 843c
000000b0: 7541 9b3b c8e3 2f3d f45d 3e3d bf1b 7f3d
000000c0: f553 0e3e c4f9 453d 84eb 243d 0d22 473d
000000d0: 5e3c 7d3d f5e1 f83b 76dd d63c 3018 aa3a
000000e0: eade d13c 67cb 143d 21fc cd3c 2e7b 203d
000000f0: 7e4a d93b df74 d93c 1720 b93c ccf6 a03d
00000100: 1eb0 e03c 8296 a43b 62ee f03a a800 9a3c
00000110: d581 e03b 8c7d d93c ab56 393d bd2a f03c
00000120: 3393 823b 700d 963d 5791 0e3e 85b1 8e3d
00000130: 3e11 393c 73b2 cb3c e57b 2e3e bf7b 033d
00000140: 1d0e 8b3d e5ff f13d d2d4 523c 1616 163d
00000150: 3b7f a43b 82a6 cc3d 60d0 343e b7b3 263b
00000160: 89ef 3a3d 324b 7a3c d17b 1d3d 4c62 c53c
00000170: d7a8 5e3d a4c1 3c3b c50b 943d 0f08 d23d
00000180: d927 3e3c e3ca 673a 565a 3f39 19a4 043d
00000190: 4b04 083d 23ec b53c e967 9e3d e585 703c
000001a0: 0b65 9e3d 758a 143e a869 d63c 2a44 613d
000001b0: 2c23 da3c f910 603c 2928 763d 5bbe 793b
000001c0: 8eee 8a3d f3eb b83c 4b75 7e3d b170 563d
000001d0: d481 873c 61d0 0f3e 90e6 223d 60fa 3d3d

weight f4 [120, 120]
0.06223823 0.047683857 -0.060053006 -0.090661295 0.06109119 0.0291946 0.035955176 0.03209695
-0.0051118876 0.022940258 0.075684436 -0.032866146 0.04918801 0.07076432 0.051260445 0.013597858
0.08163715 0.100193486 0.035735734 -0.07747665 -0.009371748 0.03729023 0.042562097 0.08605039
-0.017973175 0.085193336 -0.034304664 0.02299813 -0.04712642 -0.0809643 -0.027103439 -0.03512886
0.030129977 -0.07157131 -0.07304238 -0.08278777 0.04900814 -0.04006515 0.061044745 0.051739022
-0.016949456 0.047613323 0.014375323 -0.016157938 -0.0022947898 0.01502822 0.02617616 -0.08844811
-0.037106477 -0.02422282 -0.032443404 -0.07487872 -0.030587353 0.098374955 -0.04811232 0.013610184
0.048105586 0.012077189 -0.0016778533 0.104387775 0.018434182 -0.01046389 -0.012265793 0.07756131
-0.014522974 0.016392253 -0.06585167 0.017339021 0.06297217 -0.029869152 0.013892607 -0.028155753
0.006780426 -0.0011160482 -0.06309341 0.06772515 -0.07049501 0.058825295 0.06405382 0.083362736
0.10115493 0.09250085 0.03461595 0.011006255 0.043537904 -0.04525593 -0.02188399 0.03676996
0.046903975 0.027506594 0.11774169 0.050297245 -0.068478346 0.056286305 -0.055593714 -0.047673248
0.07894183 -0.0864186 0.035383567 -0.041594192 0.0808903 0.08459399 -0.0550181 0.004249849
-0.02645054 0.0027448998 0.09162969 -0.075418845 -0.054503668 0.03458108 -0.01606174 0.01161798
-0.034548737 -0.023907777 0.0800252 0.07232777 0.046981312 0.032742742 0.04934915 0.04253174
0.048168596 -0.040712226 -0.035555553 -0.0065781926 0.03053156 -0.066689245 -0.031650066 -0.023188269
-0.017651288 0.11507904 -0.0031781967 0.021551576 0.08374623 0.055524208 0.06548125 0.088927194
-0.089083925 -0.03373834 0.10025755 -0.08032363 0.09352251 -0.05256289 -0.095039524 0.07111359
-0.033432502 0.057481084 -0.03354333 0.04516548 0.03764606 -0.09207127 0.092638426 -0.028419128
-0.096419096 0.08609718 -0.003002162 -0.06461644 -0.051002517 0.07024144 0.08116923 -0.02867312
0.047270346 -0.041568264 0.0027477255 -0.07330595 -0.053142153 -0.031905673 -0.08423072 0.089348316
-0.035113383 0.083820395 -0.074557714 0.08497553 -0.03669977 -0.0055150324 0.041471876 -0.06498742
0.007890059 0.061586883 -0.099080205 0.09523671 -0.031892736 0.028115205 -0.09054956 -0.03980373
0.05512707 -0.051323004 -0.056944974 -0.011715267 -0.092516474 0.07530832 -0.023925072 -0.015858725
-0.057310946 -0.028344227 0.052234143 0.009338022 -0.0005420535 0.057105873 0.03328271 0.0016671869
0.093506284 -0.059322447 0.06623445 -0.06631429 0.06767936 -0.07930257 0.07271327 0.013668221
0.06821227 0.024976375 0.040678464 0.04304952 0.03888414 -0.021756228 -0.058268603 0.0026264049
0.04794426 0.05136877 -0.049367897 -0.040977217 0.05960274 0.06608054 -0.046287846 -0.009129697
0.051634863 0.010669517 0.06640646 0.03702186 -0.028241314 0.0044934163 -0.023894692 0.07499886
0.010771328 -0.038650706 0.043572426 0.007905134 0.0025606435 0.014217878 0.056653988 0.00349202
0.06297782 -0.025588788 -0.03330487 -0.007401605 -0.019288437 -0.007913168 0.09885258 0.053624336
0.062389903 -0.10730935 0.0191036 -0.06302449 0.008213616 0.041213807 0.069867335 -0.03647394
00000000: 84ed 7e3d 2650 433d 24fa 75bd a1ac b9bd
00000010: c13a 7a3d 8429 ef3c bc45 133d 1778 033d
00000020: 9f81 a7bb 35ed bb3c 7100 9b3d a79e 06bd
00000030: 5e79 493d e2ec 903d 79f6 513d 8dc9 5e3c
00000040: 6131 a73d 3e32 cd3d a25f 123d 14ac 9ebd
00000050: f68b 19bc a4bd 183d 9855 2e3d 303b b03d
00000060: 7b3c 93bc d879 ae3d 0c83 0cbd 9366 bc3c
00000070: a207 41bd 9cd0 a5bd 0808 debc 48e3 0fbd
00000080: 24d3 f63c fb93 92bd 3e97 95bd a28c a9bd
00000090: c2bc 483d 5b1b 24bd 0e0a 7a3d 4cec 533d
000000a0: 96d9 8abc 3006 433d 7a86 6b3c a75d 84bc
000000b0: 2f64 16bb ec38 763c 636f d63c 4824 b5bd
000000c0: f6fc 17bd ef6e c6bc 60e3 04bd 045a 99bd
000000d0: 5492 fabc cf78 c93d 6d11 45bd 40fd 5e3c
000000e0: 5d0a 453d 67df 453c 6aeb dbba 42c9 d53d
000000f0: 4803 973c bc70 2bbc 77f6 48bc 77d8 9e3d
00000100: c5f1 6dbc 0c49 863c 3edd 86bd 900a 8e3c
00000110: 8ef7 803d 27b0 f4bc d19d 633c e5a6 e6bc
00000120: 562e de3b 5d48 92ba 1e37 81bd 7cb3 8a3d
00000130: b05f 90bd cbf2 703d a62e 833d 15ba aa3d
00000140: 512a cf3d 1671 bd3d 74c9 0d3d 9453 343c
00000150: cd54 323d 485e 39bd 0e46 b3bc 199c 163d
00000160: 621e 403d 8255 e13c 8e22 f13d 7c04 4e3d
00000170: 603e 8cbd 788c 663d 3cb6 63bd 0645 43bd
00000180: 41ac a13d 3cfc b0bd 5cee 103d ac5e 2abd
00000190: d0a9 a53d 9d3f ad3d a95a 61bd 5142 8b3b
000001a0: ceae d8bc c7e3 333b 59a8 bb3d 3275 9abd
000001b0: 3d3f 5fbd e4a4 0d3d e993 83bc 5759 3e3c
000001c0: fa82 0dbd 3eda c3bc 41e4 a33d 9520 943d
000001d0: 7a6f 403d 411d 063d 5622 4a3d c335 2e3d
000001e0: 6f4c 453d ddc1 26bd b3a2 11bd e18d d7bb
000001f0: 521d fa3c 5f94 88bd 80a3 01bd 53f5 bdbc
00000200: 6f99 90bc 8fae eb3d 4b49 50bb ee8c b03c
00000210: 2583 ab3d 5a6d 633d 091b 863d 761f b63d
00000220: a271 b6bd 3731 0abd d553 cd3d b780 a4bd
00000230: bb88 bf3d 2f4c 57bd 15a4 c2bd 00a4 913d
00000240: 85f0 08bd 4971 6b3d bb64 09bd 70ff 383d
00000250: c132 1a3d dd8f bcbd 37b9 bd3d 3bcf e8bc
00000260: 6077 c5bd b853 b03d ecbf 44bb a055 84bd
00000270: 04e8 50bd beda 8f3d 0e3c a63d e4e3 eabc
00000280: 8d9e 413d 7c43 2abd 2f13 343b 6e21 96bd
00000290: 96ab 59bd 86af 02bd 2881 acbd 40fc b63d
000002a0: 0dd3 0fbd 07aa ab3d b7b1 98bd a707 ae3d
000002b0: 7f52 16bd 72b7 b4bb 6ade 293d 2018 85bd
000002c0: 4e45 013c 8742 7c3d 90ea cabd 770b c33d
000002d0: f5a1 02bd dc51 e63c 0c72 b9bd 3c09 23bd
000002e0: eccc 613d 1238 52bd 223f 69bd 64f1 3fbc
000002f0: 4779 bdbd 403b 9a3d 83fe c3bc 28ea 81bc
00000300: e2be 6abd 2732 e8bc 78f3 553d 81fe 183c
00000310: 9818 0eba d9e7 693d 7353 083d 8285 da3a
00000320: 3980 bf3d 18fc 72bd eda5 873d c9cf 87bd
00000330: 7a9b 8a3d 6369 a2bd b2ea 943d adf0 5f3c
00000340: e0b2 8b3d 419b cc3c 769e 263d b254 303d
00000350: fa44 1f3d 1e3a b2bc 0fab 6ebd c31f 2c3b
00000360: 3361 443d 0f68 523d fe35 4abd bad7 27bd
00000370: 0122 743d 3c55 873d 5398 3dbd ba94 15bc
00000380: 147f 533d 33cf 2e3c 1c00 883d 3ca4 173d
00000390: 545a e7bc 823d 933b cdbe c3bc 0199 993d
000003a0: 397a 303c 3450 1ebd 0079 323d 8984 013c
000003b0: 78d0 273b 1af2 683c 030e 683d 60da 643b
000003c0: 84fa 803d 949f d1bc b06a 08bd 2a89 f2bb
000003d0: c902 9ebc 3ba6 01bc 3973 ca3d 31a5 5b3d
000003e0: 8e8c 7f3d 01c5 dbbd 277f 9c3c fc12 81bd
000003f0: 6792 063c cfcf 283d 9b16 8f3d b365 15bd
