neural_networks/HOVER_TO_HOVER_NOMINAL_retrained_sigmpoid_4bts.pt (torch, 133349 bytes, 10 tensors)

mean f4 [16]
000000 b6 8c ac 3e a8 8d bb bd 03 8b 0c bf 5f b8 b7 3e
       0.33701104 -0.09157878 -0.54899615 0.3588285
000010 75 50 28 be 1f 47 c5 bd 1b 5b 03 3c b4 e0 c9 bc
       -0.16436942 -0.09632706 0.008017327 -0.02464328
000020 89 64 a6 3c 20 f9 bc 3c 0c 5e 87 3d ca c2 af 3c
       0.02031161 0.02306801 0.06609735 0.021455187
000030 9e 03 ed 45 c1 94 ee 45 96 0e f2 45 1b 9d f1 45
       7584.452 7634.594 7745.823 7731.638

std f4 [16]
000000 ab fb c1 3f 2d 0b ca 3f 9b 48 6c 3f b5 03 aa 3f
       1.5154928 1.578466 0.9229829 1.3282381
000010 91 d4 c5 3f 84 fb 03 3f 3d 3e 8c 3e 8c 87 83 3e
       1.5455495 0.5155566 0.27391234 0.25689352
000020 d6 c0 9f 3f 90 9d a3 3f b3 de 8d 3f 5e b9 91 3f
       1.2480724 1.2782459 1.1083587 1.1384695
000030 68 55 12 44 96 36 1c 44 a6 16 08 44 bb 50 1c 44
       585.3345 624.8529 544.3539 625.2614

weight f4 [120, 16]
000000 1f 7d a3 be f6 ae ba be 2e 05 a2 3d e1 e8 d4 bd
       -0.31931397 -0.3646161 0.07911144 -0.103959806
000010 fd e4 2e 3e 88 5c a3 3d d3 a5 19 bd 60 48 07 bd
       0.1707954 0.07976633 -0.037511658 -0.033028007
000020 4b 74 72 3e 1a 76 15 3e f9 17 8b 3d 0c 06 ce 3c
       0.23677175 0.14595833 0.06791682 0.025149368
000030 61 16 26 3e fb 35 be bd ea 72 5f bd 5b 6e 69 bd
       0.16219474 -0.0928764 -0.05455295 -0.05699001
000040 99 53 bc 3c 26 72 2c 3e 87 2f df bd bc 41 22 be
       0.022989081 0.16840419 -0.10897737 -0.15845388
000050 48 fb 41 be 99 92 57 be de bd 7d be 92 c1 2e 3d
       -0.18943512 -0.21052016 -0.2477946 0.04266507
000060 4d 0e 15 3d 51 1d 47 3d 32 69 0b 3e f1 57 05 3e
       0.03639059 0.048611943 0.13614348 0.13021828
000070 b3 51 66 3e 02 c9 51 3e f0 bf e9 3d 8c b8 a9 3d
       0.22492103 0.20486835 0.11413562 0.08287153
000080 cc 2f 2a bd 5b d6 1c 3d e3 ba 0d be d8 7e 75 be
       -0.04154949 0.038290363 -0.13840823 -0.23974168
000090 7b 25 b2 3e ab 06 a0 bd fa 7b 0c 3e 0a 2d 4f 3e
       0.3479422 -0.07813772 0.13719168 0.20232025
0000a0 01 a7 da bd 45 2b 85 3e 8a 1c 70 3d 4c 82 e8 bc
       -0.10676385 0.26009575 0.058620967 -0.028382443
0000b0 b7 8f 14 3c 1d 6d 2c 3e 5c df 41 3e e9 43 cc bd
       0.009067467 0.16838498 0.18932861 -0.0997389
0000c0 88 69 83 3d be d8 ad 3d 17 65 44 be 7c 48 1a be
       0.06416613 0.08488606 -0.19179188 -0.15066713
0000d0 9b 13 4d 3e 87 33 34 3d 9a 4e 3f 3e 6a 40 0a be
       0.2002701 0.043994453 0.18682328 -0.13501135
0000e0 5d b8 22 be a9 54 99 be 1b 97 59 be 0b 96 71 3e
       -0.15890642 -0.29947403 -0.21249048 0.23592393
0000f0 8f b8 10 3e 85 1d a6 bd 3d 87 63 bd 57 a2 b9 3d
       0.14132904 -0.08111099 -0.055548895 0.09064167
000100 4f cc bb 3e 12 23 80 bd 26 a9 c9 3d 14 c2 0e 3e
       0.36679313 -0.06256689 0.09846716 0.13941222
000110 1d ce 52 be 79 8d e3 bd 9d bf 6e 3d 48 5d f6 bd
       -0.20586438 -0.11110968 0.058288205 -0.12029511
000120 73 e5 22 be 8b 20 18 bc 8f cb 7d be 2b 86 75 bc
       -0.1590784 -0.009285103 -0.24784683 -0.014985601
000130 77 69 08 3e 4c 78 98 be 1d e9 85 3e 1b 77 8c 3e
       0.13321482 -0.2977928 0.26154414 0.2743462
000140 dd 09 30 bd 3a 11 e4 be bc bf 6d 3d 97 4e 7f 3e
       -0.042978156 -0.44544393 0.05804418 0.24932323
000150 33 d0 96 bd ec ab 18 3e f2 e5 e3 3a 7b 03 9f bd
       -0.073639296 0.14909333 0.0017387255 -0.07764336
000160 13 8d 95 be b9 b3 8b be bb 3f 44 3e 9c 07 a0 bd
       -0.29209194 -0.27285555 0.19164936 -0.078139514
000170 b4 29 40 bd 22 7f 17 3e 18 32 e4 3d 68 0c f3 bb
       -0.04691477 0.14794591 0.11142367 -0.0074172504
000180 e0 d9 3d be 55 fa 64 3e dc e8 91 bd 34 f7 4b bd
       -0.18540144 0.22361119 -0.071244925 -0.0497963
000190 d5 46 10 3d dc 6f 57 3c 53 47 a5 bd 3e be 49 be
       0.0352238 0.013149228 -0.08070245 -0.19701478
0001a0 80 2c be be da d1 16 bd 00 db 1b 3e fc 56 31 bd
       -0.37143326 -0.036821224 0.1522026 -0.043295845
0001b0 ad 28 3e 3e c4 12 56 be 56 8b f8 3d 5b 1f 5a be
       0.18570204 -0.20905596 0.12135951 -0.21301024
0001c0 9d cf c2 bc ea b0 cc bd 17 1d 86 be 91 04 b2 3d
       -0.023780638 -0.09994681 -0.2619407 0.08692277
0001d0 30 e6 c7 3d 3c 47 45 bd b7 5d 6e 3e 39 6b df 3d
       0.09760702 -0.048163638 0.23277937 0.10909123
0001e0 36 8e db be 5f bc 3d 3d c9 d9 34 bd da fa c2 bd
       -0.42881936 0.046322223 -0.04415301 -0.095205024
0001f0 25 7d 9f 3e cb c9 31 be 7d e8 e0 bd 3b f4 cc bd
       0.31150165 -0.17362134 -0.109818436 -0.10007521
000200 46 97 8c 3e 87 66 06 3e 53 11 3e 3e 91 8a b0 3d
       0.27459162 0.13125049 0.18561296 0.086201794
000210 fa 29 dc 3d 42 30 d5 bc ee 34 ae bd e4 ca 54 be
       0.10750194 -0.026023988 -0.08506189 -0.20780522
000220 fd 8d a2 bc f5 04 d4 bd a5 81 47 3e c8 93 45 3e
       -0.019843096 -0.10352508 0.19483049 0.19294655
000230 14 ce 3f 3e bf a1 97 3d f1 ad 47 3d 48 a2 08 be
       0.18730956 0.074038975 0.048749868 -0.13343155
000240 55 4f 83 be 39 40 89 bd 25 af 70 3e 95 2b 98 3e
       -0.25646463 -0.067017026 0.23504312 0.2972075
000250 09 08 5f bd db 95 f3 3b 03 f5 10 bd 2f e8 26 3e
       -0.054451022 0.0074336356 -0.03538991 0.16299509
000260 92 74 42 3e 2b fd 61 3e 9c e6 96 be 64 ed 92 bd
       0.1898978 0.22069232 -0.29472816 -0.07174185
000270 06 49 8f 3c 49 11 66 be c7 1b 8f bd ad f0 fb bd
       0.017490875 -0.22467531 -0.0698772 -0.12301765
000280 07 5e 3a 3e a3 bc 50 3d b4 32 46 bd aa e1 85 3e
       0.18199931 0.050961148 -0.048388198 0.2614873
000290 4c e5 38 be 49 7d be 3c 19 20 52 3e d6 1f a2 3e
       -0.1805622 0.0232531 0.20520057 0.31664914
0002a0 02 b9 52 3e 0d 33 cb 3c 09 3e bc 3d f8 5a 2f bc
       0.20578387 0.024804616 0.0919152 -0.010702841
0002b0 c6 6c 0f be 69 c6 66 3e 7d 16 ac bd fd e2 d7 bc
       -0.14006338 0.22536625 -0.08402727 -0.026353354
0002c0 9d 66 50 be 02 05 a8 be e9 75 df 3a 3f cd dc 3d
       -0.20351644 -0.3281632 0.001704869 0.10781335
0002d0 06 43 8c 3e c2 76 21 be 9b 21 52 3d e7 bc b9 bd
       0.27394885 -0.15767959 0.05130158 -0.090692334
0002e0 d5 4a f2 bd dd 3c e7 be 6e 8d 0b 3e 43 c7 03 3e
       -0.11830679 -0.45163622 0.1362817 0.12868981
0002f0 fc f8 2d 3e 00 97 54 3d 1b db 9c bd ee 0e e0 3d
       0.16989511 0.051901817 -0.076589786 0.109403476
000300 a1 0a 54 3e 57 3c 23 be e8 66 6b 3e 7a b4 16 be
       0.2070718 -0.15940987 0.22988474 -0.14717284
000310 24 68 01 be e6 48 30 bd 81 3c 5f 3e 67 b1 d3 bd
       -0.12637383 -0.04303827 0.21800424 -0.10336571
000320 69 aa 2f be 2d 4d 9f 3d ef 25 63 3e 17 f9 a8 be
       -0.1715485 0.07778392 0.2218244 -0.3300254
000330 9a 10 0e be 73 05 86 bc c3 54 8d 3d 9f 77 a1 bd
       -0.1387352 -0.01636002 0.06900933 -0.07884144
000340 2c a2 5f 3e 86 1e 92 3e a7 1d bc 3e 95 72 63 be
       0.21839207 0.28538913 0.36741373 -0.22211678
000350 ba 03 d2 3d e2 9d 42 bd d1 7d e7 bd 19 71 27 3b
       0.10254617 -0.04751385 -0.113032945 0.002554959
000360 36 e9 68 3e 49 f5 3b bd 46 78 b1 bd 2a 65 15 3e
       0.22745213 -0.04588822 -0.086655185 0.14589372
000370 9e 1b ce bd 67 37 27 be 7e 6a b6 bd 30 92 91 3d
       -0.10063861 -0.16329728 -0.089070305 0.07107961
000380 be 05 52 bd e9 11 23 be 8a f5 8f 3e 30 ef 9c be
       -0.051275007 -0.15924801 0.2811702 -0.30651236
000390 4c 09 28 3e 58 5c 1b 3c b8 d8 b9 3e d4 f9 89 bd
       0.16409796 0.009482466 0.36298156 -0.06737104
0003a0 dc 6e 07 bd 28 06 4d bd 6e 22 6d be b7 66 83 3e
       -0.033064708 -0.0500547 -0.23157665 0.25664303
0003b0 8b 1f 3d be d5 a2 26 bd cc e6 4a be d9 13 d4 bd
       -0.18469064 -0.040682632 -0.19814605 -0.10355348
0003c0 b1 5c 9c 3d 76 5b f7 bd 14 7c 65 3d 82 a7 2e 3e
       0.07634867 -0.12077992 0.056026533 0.17056087
0003d0 27 9e 34 be 7c f5 41 3e 89 21 98 3d 7c 4d c3 3e
       -0.17638455 0.18941301 0.07428271 0.38145053
0003e0 81 cf fa bd 74 16 e3 3d 96 04 3f 3e 61 cd d2 ba
       -0.122466095 0.11088267 0.18654093 -0.0016082936
0003f0 c0 96 84 bd f7 6f 97 bc e3 41 bb bc 4c 37 59 3d
       -0.06474066 -0.018486006 -0.022858566 0.05303125

bias f4 [120]
000000 43 a8 05 be d3 8f b0 bd e3 15 1a be e5 1d f3 bd
       -0.13052468 -0.08621182 -0.15047412 -0.11870936
000010 40 7b e0 3d 3e 9a d1 b9 0e 7d 89 bd 2b e8 24 be
       0.10961008 -0.00039978506 -0.067133054 -0.1610419
000020 c5 f7 9b 3e 52 c6 10 be b8 d0 4c bd 85 b2 de bc
       0.3046247 -0.14138153 -0.050003737 -0.027184734
000030 af 88 a8 bd 79 10 3c 3e bc 9f 37 3d 03 87 92 3e
       -0.08229195 0.18365659 0.04483007 0.2861863
000040 af 84 bd 3d 02 30 29 3e bb f2 77 be 8d d1 54 bc
       0.09253823 0.1652222 -0.24213688 -0.012989414
000050 fb 18 0c 3e 10 04 47 be b9 36 95 bc 1b 54 a7 bd
       0.13681404 -0.19435143 -0.01821457 -0.08170339
000060 21 cc 95 3d d0 41 8c 3e 9a 3b e3 bd c4 37 73 bb
       0.07314325 0.2739396 -0.110953525 -0.0037112096
000070 06 9c cd 3d 29 6b 99 3e 4a bb 54 3e 37 22 5a be
       0.10039525 0.2996457 0.2077457 -0.21302114
000080 dd 2a ec bd 3f d8 e9 3a 42 b7 92 3d f6 5a 3b 3c
       -0.11531613 0.0017840936 0.0716386 0.011435261
000090 24 ae 30 3e da f2 0d 3e 9f c7 af 3e b6 4b 6f be
       0.1725393 0.13862172 0.34331986 -0.23368725
0000a0 67 39 56 3d 6f 53 e4 3d c2 e8 21 bb a3 ff 78 3e
       0.052300837 0.11148726 -0.0024705385 0.24316268
0000b0 4a 91 e2 bd 39 d6 81 3e fb 64 54 bd e6 9d e0 bd
       -0.11062868 0.2535875 -0.051854115 -0.10967617
0000c0 b7 50 8e 3e ae f5 4a be 3a 03 ba 3d d6 c7 ce 3d
       0.27795956 -0.19820282 0.09082647 0.100967094
0000d0 20 f3 aa 3c e5 73 47 3e 3b 5e 60 3e 66 49 75 bd
       0.020867884 0.19477804 0.21910946 -0.05988445
0000e0 96 9b 67 3e 9b ca 31 be eb 55 16 be cb d5 13 3c
       0.22617945 -0.17362444 -0.14681213 0.00902314
0000f0 c3 3a cf 3d b0 0a 98 3e ed 48 27 be 96 11 56 3e
       0.1011863 0.29695654 -0.16336413 0.20905146
000100 01 7e 00 bd f9 a2 17 be 4a 5f 22 3e 30 d9 72 3e
       -0.031370167 -0.14808263 0.15856662 0.23715663
000110 3d 02 0b 3e 1e 87 29 be d7 68 99 be d1 5d 11 be
       0.13575073 -0.1655545 -0.299628 -0.14195944
000120 ce 7f 0c 3e f2 eb 6f 3d 14 80 7b 3e 25 41 fc 3d
       0.13720629 0.058574624 0.24560577 0.12317113
000130 56 5c 0d 3e 97 d6 ea 3d 92 00 7e be c3 b2 7a be
       0.13804755 0.11466711 -0.24804905 -0.24482255
000140 5b 75 0a bd 87 2a 98 bc f0 2b 56 3e 8b 56 1b 3e
       -0.033803325 -0.018574966 0.20915198 0.15169732
000150 ba 18 95 3d 83 56 aa bc 8e 05 0a 3d 49 fe 39 be
       0.07280107 -0.020793205 0.033696704 -0.18163408
000160 69 98 c4 bd 81 a2 b8 3e e8 dd 90 be 07 20 66 3e
       -0.095993824 0.3606148 -0.282943 0.22473155
000170 22 82 39 3d ea 5f cf bd 44 d8 09 3e 56 3b 67 3e
       0.04529012 -0.10125716 0.13461405 0.22581229
000180 72 d3 d8 bd 23 6d 63 3e b8 01 18 3e eb 16 0d be
       -0.10587205 0.22209601 0.14844406 -0.13778274
000190 ff c2 4f be 95 1c 84 bd 6b 0c 84 3e dc ac 92 3e
       -0.20289229 -0.06450764 0.25790724 0.28647506
0001a0 b9 6f 99 bd fb a9 e3 3d e2 3d 64 be b3 9d 0e 3e
       -0.074920125 0.111164056 -0.22289231 0.13927345
0001b0 89 29 89 3e 6d d6 7c 3d 3e 0a 28 be 7e 6e e5 bd
       0.267895 0.06172793 -0.16410157 -0.11202715
0001c0 10 38 b7 bc 8d 40 1e be 3b 8a 65 3e 06 04 fd 3d
       -0.0223656 -0.15454312 0.22416012 0.12354283
0001d0 e7 6c 34 3e 3a ab 3d 3e d1 5b a6 bb 94 ba 83 be
       0.17619668 0.18522349 -0.0050768633 -0.25728285

weight f4 [120, 120]
000000 99 4f a1 bd 12 48 81 3d a7 f5 ae 3c bb 0c 8c 3d
       -0.0787651 0.063125744 0.02135737 0.06838366
000010 89 49 42 bd 69 c1 54 bd ee 62 19 3c 83 12 36 3d
       -0.04743341 -0.051942263 0.009361966 0.044451248
000020 ef 1b ed bc 45 7c 14 3d b5 d6 9b bd d3 4c 63 3c
       -0.028943984 0.036251325 -0.076093115 0.013873297
000030 ee 42 04 3e 32 e8 1a 3d e5 25 e1 3d 42 b3 91 bd
       0.12916157 0.037819095 0.10993556 -0.07114269
000040 a5 6e 04 bd 6b 63 1c bd d6 50 c3 3d 5e 5f 42 3b
       -0.03233208 -0.03818075 0.095369026 0.0029658894
000050 47 c5 99 3c b8 8d 2b bd 1e f2 6c 3d bb 4e 08 bd
       0.018770827 -0.0418832 0.05784809 -0.03327821
000060 15 25 78 bd 0a 89 b3 3c 86 ac cf bd 4d 8d 2d bc
       -0.06058224 0.021915931 -0.10140328 -0.010592771
000070 fc de b7 bd 94 ec 54 bd 69 4e 19 3d 2d 0c 73 3d
       -0.08978078 -0.05198343 0.037428293 0.059337784
000080 7e 08 f9 bc de 07 c5 3d c1 71 7c be b3 0a 55 3d
       -0.030399557 0.09620641 -0.24652769 0.052012157
000090 b9 c3 46 3d 50 b7 88 bd 59 0c 42 bc 94 3e 02 3e
       0.0485265 -0.06675589 -0.011843764 0.12719184
0000a0 e8 80 74 3d a5 44 8e bd 1a 65 13 3e ff ab 03 bd
       0.059693247 -0.06946687 0.14394036 -0.03214645
0000b0 bd 7a 07 3c 47 68 50 be 36 e4 d7 3d 7a b6 b8 3d
       0.008269009 -0.20352279 0.10541575 0.0901918
0000c0 2e ec ea bd 6a ac 22 bd 7d 6d e1 3c 9f b5 24 bd
       -0.11470829 -0.039715208 0.027518028 -0.04021227
0000d0 a4 45 ff 3b f6 fc 8c 3d aa d0 89 bc b3 55 e1 3c
       0.007790284 0.06884186 -0.016823132 0.027506685
0000e0 1c ba d2 3d 7c 4b b4 3d c8 39 92 bd f9 a4 9d bc
       0.10289404 0.0880346 -0.07139927 -0.019243704
0000f0 de 35 06 be 09 7a bf 3c 08 f1 c2 bd a2 ab a7 bd
       -0.13106486 0.02337362 -0.09518629 -0.08187033
000100 f9 42 e2 3d 30 6b 57 bc cf bd 1c 3d 2a cb e7 3c
       0.1104793 -0.013148114 0.038266953 0.028295118
000110 3e df cc bb 35 8e 0f 3c d2 6d 87 bc d3 c4 80 3c
       -0.0062521985 0.008761932 -0.016531859 0.015718853
000120 b6 c4 55 bd 2e b4 17 bd 76 4d 47 3d dd a2 c3 3d
       -0.05218955 -0.037037067 0.048657857 0.09552548
000130 06 7a 05 be a0 20 8a 3a 26 1f 1f 3d f0 d1 0b bd
       -0.1303483 0.0010538287 0.038848065 -0.03413576
000140 d9 ba a3 bc 8b 5c 12 be 44 9a 6f bc ce eb 8b bc
       -0.019986557 -0.14293115 -0.014624182 -0.017080214
000150 65 11 22 be d2 be 55 3d c5 80 2d bd a8 f9 0f 3d
       -0.15826948 0.052183934 -0.042359132 0.0351502
000160 c2 57 4a bb 23 4e 01 be d3 ec 05 bb 8b 2d 0f 3e
       -0.0030875062 -0.12627463 -0.0020435348 0.13982217
000170 21 fa 80 bc 6d cc 81 bd c6 3d 72 3d 60 13 e5 3d
       -0.01574427 -0.06337819 0.059140943 0.11185336
000180 cb bc f8 3c f3 64 38 be c1 c7 e4 bc ec 9d 8a bc
       0.030363461 -0.18007259 -0.027927281 -0.016921006
000190 37 d0 ad bb cd 9f ac 3d df ed 98 bd dc be 8f 3b
       -0.005304362 0.08428917 -0.07467245 0.004386766
0001a0 9d a7 a2 3d 62 af c8 bd c2 55 6b 3d b4 da ac 3b
       0.07942126 -0.097990766 0.057454832 0.005275095
0001b0 de ac 23 3d e8 5d 09 3c 8e a6 33 3d 15 50 03 3d
       0.03995978 0.008384205 0.04386001 0.032058794
0001c0 f4 5b 8b 3c 0b d8 f4 bc 5d 4a 2d bd ec d6 a6 bb
       0.01701162 -0.029888174 -0.042307246 -0.0050915387
0001d0 f7 62 11 bc 72 e5 d8 3c 74 e0 74 3d 5a d5 ec 3d
       -0.008873693 0.026476596 0.059784368 0.11564131
0001e0 d5 e7 08 bd f2 cf 36 bd c0 bf 2c 3d 86 6c 68 3b
       -0.033424217 -0.044631906 0.042175055 0.0035465076
0001f0 8e bd ef 3c 4f 1f b0 bb b0 8d 7d 3c 96 45 c9 3d
       0.029265191 -0.005374826 0.015475675 0.098277256
000200 af c8 73 3c 7b 61 d9 3d 74 14 e9 3c 11 d5 8b 3c
       0.01487939 0.10614296 0.028452136 0.017069371
000210 e1 93 0a 3d f3 dc 75 3c 1a de 34 bd 52 43 da 3c
       0.033832435 0.015006292 -0.044157125 0.026643429
000220 4b 64 f4 3d b4 4b 06 bd 00 bf 61 3c 2f 6c 36 3d
       0.11933192 -0.03278704 0.013778448 0.044536766
000230 78 b0 d5 3c 53 3f 27 bd fc 57 24 3c af b0 55 bd
       0.026085123 -0.040831875 0.010030743 -0.05217045
000240 39 f5 9b 3c 2e 04 eb 3c 2e 28 3e bc 0a b1 8b 3d
       0.01903783 0.028688516 -0.011606259 0.06820877
000250 4a 73 d8 3d db fa 75 3d c8 e0 26 bd 73 c0 99 bd
       0.10568865 0.060053688 -0.04074171 -0.0750741
000260 86 e9 3d bd c4 db 91 bd 00 ae 2c bd 5b a2 76 3c
       -0.046365283 -0.07121995 -0.042158127 0.015053357
000270 d4 05 d9 3c 4e d9 18 3c 6b fb 09 3e bf 50 da 3c
       0.026492037 0.009329153 0.13474815 0.02664983
000280 1f 4a 2e bc 55 fc 38 3d 73 dc 31 bd 42 f2 d8 bd
       -0.010637789 0.045162518 -0.043423127 -0.10593082
000290 51 3c 5b 3c 4d 19 f3 3d d8 2f a5 bc ff 0f ce 3d
       0.01338108 0.1187006 -0.020164415 0.10061645
0002a0 76 e1 04 bd 49 15 0f 3e 8f fa d5 ba a5 25 b6 3d
       -0.03244158 0.13972963 -0.0016325283 0.08893899
0002b0 20 8a ed 3d 11 32 1c bd 73 a1 43 bd b6 48 f8 bc
       0.11598611 -0.038133685 -0.04776139 -0.030308109
0002c0 4c 2f 8b 3d 74 91 16 bc 6d bd ce ba 8d af 99 3d
       0.067961305 -0.009189952 -0.0015773006 0.07504187
0002d0 ae b7 b4 3d 8d 79 92 bd 27 81 87 bb bf 63 b9 3c
       0.088240966 -0.0715209 -0.004135269 0.02263057
0002e0 2d bd fb bc e2 c6 13 3d bc b5 7e 3d 07 0c 76 bd
       -0.030729854 0.03607834 0.062185034 -0.060070064
0002f0 76 6c f9 3d 81 01 36 bd 60 a8 82 3d 51 e5 65 bd
       0.121788904 -0.044435028 0.06379771 -0.056126896
000300 69 8a 9e ba bf 34 88 3d e8 12 3a bd e2 ac aa 3d
       -0.0012095693 0.066506855 -0.045428187 0.08333756
000310 37 cd 2a bd ae a5 14 3d 94 18 cb 3d ca 22 9e 3c
       -0.041699614 0.036290817 0.09916797 0.019303698
000320 43 f6 8c 3d f4 8d 33 bd ef 79 8e bd 7b 8e bb 3d
       0.06882908 -0.04383655 -0.06956851 0.09158035
000330 7e ac 18 3e c3 d3 cb bc dc b8 a7 bd c9 70 3e bd
       0.1490955 -0.02488125 -0.08189556 -0.04649428
000340 47 3c f9 3d 9c 0a 87 3c 57 09 74 3d b5 ca 90 bc
       0.121697 0.016484551 0.05957922 -0.017674783
000350 be 24 d2 3c 57 08 08 3e 75 8b b9 3d 5f 8d a0 3d
       0.025652286 0.13284431 0.090598024 0.078394644
000360 21 ad a5 bb 35 e2 b1 3d 4f e3 3f bd cb 8f 60 3d
       -0.005056039 0.08685724 -0.046847638 0.05482463
000370 0d d3 9a 3c 11 d0 45 3d 56 f7 61 3d 29 b6 2d 3d
       0.018899465 0.04829413 0.05516752 0.04241005
000380 9c 85 ea 3d 5f fc 36 3c 52 e1 77 3d 2c 79 5a bd
       0.11451265 0.011168568 0.060517617 -0.053338215
000390 6e 38 53 bd 3c 34 92 3d 08 f2 72 3d 94 30 e0 3d
       -0.051567487 0.07138869 0.05931285 0.109467655
0003a0 9a de 80 3d 10 e6 01 be 03 26 22 bd 8f f3 47 3c
       0.06292458 -0.12685418 -0.039587032 0.012204065
0003b0 f9 f1 5d bc 09 fa c4 3c b0 54 a7 bd 52 27 7e bd
       -0.01354646 0.024045007 -0.0817045 -0.062049218
0003c0 7f b3 a9 bd 41 9f 35 bd f0 c8 37 bd 9c 89 21 bd
       -0.08286189 -0.04434133 -0.044869363 -0.039437875
0003d0 3d ad 8e 3d ab 11 0f be a6 4c 28 3d 7e 2e 87 3d
       0.06966636 -0.13971584 0.041088723 0.066006646
0003e0 a9 c8 16 3d 07 7b 05 be 70 e2 f0 bb 46 50 88 bc
       0.03681246 -0.13035212 -0.007351212 -0.01663984
0003f0 77 69 85 bc 48 6b 0c bd 50 c6 10 be 18 79 95 bd
       -0.016285641 -0.034282 -0.1413815 -0.072984874

bias f4 [120]
000000 1d 11 bd bd 12 86 f6 3d 46 af d9 bc ba 0c b7 ba
       -0.0923178 0.12037291 -0.026572835 -0.0013965585
000010 60 63 4c 3d 93 89 ac 3d 60 6e 78 3d e2 9c 8b 3c
       0.04989946 0.08424678 0.060652137 0.017042581
000020 3b 8d 6e 3b a9 7e cd bd 13 ef f2 3a 66 38 43 3d
       0.0036400098 -0.10033924 0.0018534384 0.047661208
000030 6b 84 52 3c 3b 20 ff 3d d5 67 32 3d d4 b8 49 bd
       0.012848954 0.12457319 0.043556053 -0.04924853
000040 1f 98 7e 3d 7c 24 cb 3d 2d 51 0d 3e e8 00 80 bd
       0.062156793 0.09919068 0.13800497 -0.06250173
000050 c5 24 10 3e 2b 6f 63 3c ae 41 4b 3d 2f a9 dd 3c
       0.14076526 0.013881485 0.049623184 0.027058212
000060 79 27 ec bc b6 62 b0 3b 06 fe 80 3d b5 53 f5 3d
       -0.028827416 0.005382861 0.06298451 0.119788565
000070 9c 62 2d bd da a8 62 3c 9b ad 4b bd 16 8e 73 bb
       -0.04233037 0.013834203 -0.04972611 -0.0037163547
000080 8f 4e 56 bd 9f b2 b7 bc 64 bc c4 3d 3e 5e 1b 3e
       -0.052321013 -0.02242404 0.09606245 0.1517267
000090 c4 e4 ff 3d c2 a0 2f bd 9a d0 e9 3d fe 70 98 3d
       0.124948055 -0.04287792 0.11416741 0.074434265
0000a0 b4 30 22 bb 59 a8 0d 3e d6 5b a4 3c 89 57 2e bc
       -0.0024748268 0.13833751 0.020063322 -0.010640987
0000b0 2b 20 fe 3c 54 e3 4e 3d 81 a7 da bd 84 0f 77 3d
       0.031021198 0.050509766 -0.1067648 0.06031753
0000c0 3e 03 ac bc 8f ac b8 3d f3 27 14 3d 0b 08 7c bb
       -0.02099764 0.09017288 0.03617091 -0.0038456942
0000d0 1c e0 38 bd 7c 87 95 3d fb ab d1 3d c6 2d 1a 3e
       -0.045135602 0.07301232 0.10237881 0.15056524
0000e0 33 e3 82 3d cf 6e 05 3e df 33 8d 3d d0 ac d7 bb
       0.06390991 0.13030551 0.06894659 -0.00658188
0000f0 8e cf 47 3c 2d 0c 48 3e 60 bc b3 3d 59 37 2a 3d
       0.012195481 0.19535895 0.08776164 0.04155669
000100 76 8e 88 bd 7f c5 3a bc b8 82 61 3d 54 6a b0 3c
       -0.06667797 -0.011399626 0.055056304 0.021535076
000110 88 4b 9a bd 25 5e a8 3c 6f 86 f4 3c 52 dc a9 3c
       -0.07533938 0.020552704 0.02984926 0.02073494
000120 c4 a8 5d bd f1 1e 31 bd a7 a7 94 bd 12 0a b7 3d
       -0.054116026 -0.0432424 -0.0725854 0.08937468
000130 00 84 08 bd 41 5c ed bc e7 81 69 3b d3 0e 7b bd
       -0.03332901 -0.028974654 0.0035630406 -0.061293434
000140 a2 c5 ea 3b 7f 5d 1d bd 3b fc db bd 6d 03 a9 bc
       0.007164673 -0.038419243 -0.107414685 -0.020631516
000150 e0 b9 b6 3d af cf a9 3d 94 97 fd 3d 77 30 47 3d
       0.089221716 0.082915656 0.12382427 0.048630204
000160 23 5c aa bc a5 8a b1 bb 3e d9 b3 3d be ce 3a bd
       -0.020795887 -0.005418139 0.0878167 -0.04560732
000170 f5 b0 cc 3c 23 7e 9a 3d 98 d6 9f 3d 0a 60 96 3d
       0.024986723 0.0754359 0.078046024 0.07342537
000180 e9 85 65 bd 06 e9 f7 3d 11 7d ef 3d aa cb a4 3d
       -0.05603591 0.121049926 0.116937764 0.08046658
000190 2f fa 34 3d 33 60 d1 3d ad a8 c2 bc e4 c1 b1 bc
       0.044183906 0.10223427 -0.023762072 -0.0216989
0001a0 79 a5 cc 3c cc f8 98 3d 17 67 c2 bb dd 8f 59 3c
       0.024981247 0.07469329 -0.0059326994 0.013278929
0001b0 32 ed 12 3e 53 c1 c2 3c f6 9b 90 3d 25 1d a5 3d
       0.14348295 0.023773825 0.07060997 0.080621995
0001c0 44 4d c0 3d 8a db d0 3c 68 a2 91 3c 4b 63 99 3d
       0.09389737 0.02549531 0.017777637 0.07489642
0001d0 52 bf 12 3d 68 44 6a bd b0 71 a0 3d 7b a0 8d 3b
       0.03582699 -0.057194144 0.07834184 0.0043221093

weight f4 [120, 120]
000000 ad 93 41 3e 79 c9 88 3c 9f 6e 7c be 18 2b 87 3d
       0.1890399 0.016697632 -0.24651574 0.06600016
000010 1c 18 0b bd ea 3f 06 bd 22 9b 62 bd 22 7b 10 3c
       -0.03395854 -0.032775797 -0.055323727 0.00881842
000020 a8 0a f0 bc 47 fc 51 3d e3 55 89 bd ea 47 44 bc
       -0.029301956 0.05126598 -0.06705835 -0.011980036
000030 b5 92 af 3d 6c fb 0a 3e ab a8 48 3d 41 11 70 bc
       0.08572904 0.13572472 0.04898898 -0.014652551
000040 22 86 a2 bc 58 1f b1 3d fe 5a fd 3c a4 f2 6f 3d
       -0.01983935 0.086485565 0.030927178 0.05858101
000050 1d cb e2 3c 50 8a 0d 3d c6 88 43 bd 0b d5 b2 3d
       0.027684743 0.034555733 -0.04773786 0.08732041
000060 9b 92 0c 3e d0 7a 7a 3d 32 35 1b bd b3 c9 0d b9
       0.137278 0.06115228 -0.037892528 -0.00013521947
000070 2c a3 c2 be 27 0b 55 3d 21 49 0a be 72 48 81 bc
       -0.38015115 0.05201259 -0.13504459 -0.015781615
000080 1d 91 15 be 82 2e ff 3c 25 57 c0 bc 4d b2 91 3d
       -0.14606138 0.031150106 -0.023479054 0.07114086
000090 93 86 17 3e 53 d6 07 3d 41 90 ca bc 76 eb d5 3d
       0.1479743 0.03316338 -0.024726989 0.10445301
0000a0 5b a0 04 3d 39 c8 cd 3d 52 5b 8c bd 41 52 31 3d
       0.03237949 0.10047955 -0.068533555 0.043291334
0000b0 3b cd 8e 3d df 61 92 bd 32 2e 9f bd ea ef 96 bc
       0.06972738 -0.07147574 -0.07772483 -0.018424947
0000c0 a9 50 fb bc 4c 2a d9 bd 95 9d 82 bd 30 ff 39 bd
       -0.03067811 -0.106037706 -0.06377713 -0.04540938
0000d0 f8 56 40 3e 22 97 2a 3d c8 0d 3d 3e a1 eb 28 bd
       0.18783176 0.041648038 0.18462288 -0.04124034
0000e0 15 a3 b1 bc 59 4a c2 3d 38 f3 3d bd 1b da a9 bc
       -0.021684209 0.09486837 -0.04637453 -0.020733884
0000f0 ee 25 d1 3d 6e 29 7d 3c f6 0f 27 bd 9f 65 91 bd
       0.10212313 0.015451772 -0.040786706 -0.07099461
000100 4b 59 aa 3c 81 92 ac bc 1d 6f ab bb 95 78 3c bd
       0.020794531 -0.021065952 -0.0052317516 -0.046013433
000110 3f e5 87 3d 94 8e 11 be 6b ee b3 bd aa ee 5a 3d
       0.06635522 -0.14214545 -0.08785709 0.053450264
000120 e1 64 d3 3d 0f a8 89 bb 2e 24 9e 3d ac 49 f5 3d
       0.103219755 -0.0042009423 0.077217445 0.119769424
000130 c2 80 84 bc ed 64 de bd e6 44 64 3c 8f dc 29 3c
       -0.016174678 -0.10859094 0.013932442 0.010367527
000140 17 7f 23 3d 68 15 45 bd f8 c1 9d bd 98 04 33 3c
       0.039916124 -0.048116118 -0.07703012 0.010926388
000150 50 3c c0 3d df f5 83 3d 3b df 00 3e 9a bc 1c bd
       0.09386504 0.064433806 0.12585156 -0.038265802
000160 57 5c d1 bd b8 16 0d be 46 80 fd 3d b3 02 dd bd
       -0.102226906 -0.13778198 0.12377982 -0.107915305
000170 6a 0f 60 3d 01 bc 43 bd ab a4 0b bb 21 b6 bf 3c
       0.0547022 -0.047786716 -0.0021307867 0.023402276
000180 01 14 3b 3d 8b 62 88 3d 85 10 8a 3d a9 6f 9f bd
       0.045673374 0.066594206 0.06741432 -0.07784969
000190 05 b1 81 bd 88 c6 7f 3d f1 e5 18 bd e3 d5 f2 3c
       -0.06332592 0.062445194 -0.037328664 0.029643005
0001a0 cc 1b 3f bd 46 68 32 bb 2c 94 52 bd ac a4 da bc
       -0.04665737 -0.0027222796 -0.05141084 -0.02668985
0001b0 14 7c 33 bd 53 3e d7 3d 3d ef 2c 3d ff 96 8e bd
       -0.043819502 0.10509934 0.042220343 -0.06962394
0001c0 fe c0 04 3b 7b 6c 51 3d a7 46 bd 3d 0a a7 e9 3d
       0.0020256634 0.051128846 0.092419915 0.11408813
0001d0 80 0e 04 ba 9a be 29 3d b9 30 70 3d 63 54 ea bd
       -0.0005037561 0.041441537 0.058640216 -0.11441877
0001e0 f1 cd 14 3e 3d bf f2 3c 62 b2 5a be bb 76 85 3c
       0.14531685 0.029632205 -0.2135711 0.016291967
0001f0 36 75 b5 3d 6d 45 09 3e c0 c4 14 3e c8 52 8c bd
       0.08860247 0.1340539 0.14528179 -0.06851727
000200 46 f8 57 3c 57 bd ba bd 52 de 30 bd f4 68 64 bd
       0.013181752 -0.09118145 -0.04318077 -0.055764154
000210 52 ac c5 3d b0 61 83 3d 66 52 3b 3b 7d ae c0 3c
       0.09652008 0.06415117 0.002858305 0.023520702
000220 b3 26 98 3a 2a dc 0d 3e 79 23 36 3c c2 ce 60 bd
       0.0011608213 0.13853517 0.011116856 -0.05488468
000230 18 dd 0e 3e ef 7e 11 3e fc b5 7d 3c d5 c7 90 3d
       0.13951528 0.14208578 0.015485283 0.07069365
000240 a7 6c 61 bb 93 76 2f bd f3 19 3a 3d 13 5f 78 3d
       -0.0034397037 -0.04283769 0.045434903 0.060637545
000250 5f b6 14 be ca 73 9d bc a8 a8 8a 3c 69 fb cf bc
       -0.14522694 -0.019220252 0.016926125 -0.025388436
000260 7e ff 2e 3d b5 29 3f 3d 50 2e e8 3d c9 be 02 3d
       0.042724125 0.046670634 0.113369584 0.03192023
000270 14 f9 0b be 56 1c bb 3d f9 aa 24 bc 4d 3d 05 3d
       -0.13669235 0.09136264 -0.010050529 0.032529164
000280 ce 20 26 bd 83 54 74 3c 86 c2 2c bc 59 e1 02 3d
       -0.04055863 0.014912727 -0.010544425 0.03195319
000290 f4 d9 d6 3c 88 b1 12 be 5f 72 2f bc f0 c7 01 3e
       0.026226975 -0.14325535 -0.010708421 0.12673926
0002a0 8e 51 8b bd 85 73 0b 3d 4b ec 8e 3d 8b fd 4b bd
       -0.06802665 0.034045715 0.06978663 -0.049802344
0002b0 2f 3d b4 bd 81 7d 01 3c c2 21 0b 3e 93 7f 0f 3e
       -0.08800732 0.007903458 0.13587096 0.1401351
0002c0 57 bc 28 bc e3 e7 f2 3b 1d 50 a3 bd d3 ec a1 bd
       -0.01029881 0.007412897 -0.07974265 -0.07906499
0002d0 af b1 df 3d 12 ed 27 3d ba 91 e1 3d 12 b6 e9 bd
       0.10922562 0.040997572 0.11014123 -0.1141168
0002e0 f1 cc 37 bd e8 26 c4 3c 0d fb 29 bd 33 d5 20 3e
       -0.04487318 0.023944333 -0.041499186 0.15706329
0002f0 9d 26 91 3c 61 91 9f 3c 08 5c b0 bd 1b e8 7d 3d
       0.017718608 0.019478502 -0.086113036 0.06198893
000300 14 ec 2d 3d 1d 3f a8 bc 32 0c d1 3d 21 b3 12 3d
       0.04246147 -0.020537907 0.10207404 0.035815362
000310 cc 15 d6 bd b2 17 b3 3d 11 3f 36 bd 3b 90 04 3e
       -0.10453376 0.08744754 -0.04449374 0.12945645
000320 b4 5f cc 3d 46 28 85 bd 71 99 39 3c 49 9f 17 bd
       0.099791914 -0.06501822 0.011328087 -0.03701714
000330 2c d0 8f 3d 3d 86 64 3d 6d d5 54 3d 43 48 0e be
       0.070221275 0.055792082 0.05196135 -0.13894753
000340 63 aa 3e be 08 a1 03 be fb e4 1a 3d 17 be 3c bd
       -0.18619685 -0.12854397 0.03781603 -0.04607972
000350 3f cc 7f bd 81 c2 86 bd d0 81 87 3d 50 0a 38 bd
       -0.062450644 -0.065800674 0.06616557 -0.04493171
000360 cf 64 15 bd 46 15 d1 3d b7 09 c0 39 ab ad e3 3d
       -0.03647309 0.10209136 0.00036628332 0.11117109
000370 8c f1 be 3d 0f 1e 83 3d 0c 9a 19 bd dd 4c 1b bd
       0.09323415 0.064022176 -0.037500426 -0.0379151
000380 25 24 b6 bd 56 9c 2d bc e4 15 42 3d df fe be bb
       -0.08893613 -0.010596355 0.047384158 -0.005828723
000390 7f ac 96 3d b7 0d 64 3c 72 3b 00 bd 51 fa 20 3d
       0.0735712 0.0139192855 -0.03130669 0.03930122
0003a0 93 c1 0f 3e 5a 20 b5 3d dc 41 52 bd 0a 8d c1 bd
       0.14038686 0.08844061 -0.05133234 -0.09450729
0003b0 4a 20 8a bd c4 d8 84 3d 92 ec 96 3d 6d e7 95 bd
       -0.0674444 0.06486657 0.07369341 -0.073195316
0003c0 d1 93 29 3e aa 7b a0 bd 52 07 a5 3d 73 ed 65 bd
       0.16560294 -0.07836087 0.08058037 -0.056134652
0003d0 91 3d dc bd 62 f7 2e bd 31 8f 8a bd 23 38 4f 3e
       -0.1075393 -0.04271639 -0.06765593 0.20236258
0003e0 3a d6 d0 bc 04 93 52 3e 8a a1 87 bd 54 4a 6e 3d
       -0.025492776 0.20563895 -0.06622608 0.058176354
0003f0 0f 26 f5 3d d7 cc cd 3d 54 ec 37 3c 91 14 20 3e
       0.1197015 0.10048836 0.011225779 0.15632845

bias f4 [120]
000000 8d a5 a7 3d 46 d3 1a 3b 38 e5 08 bc 0f 5f 16 3d
       0.08185873 0.0023624464 -0.008355431 0.03671175
000010 1e 8f 6c bc 7a 6e 91 bd cc ae 99 3c 11 e6 aa bd
       -0.014438419 -0.0710115 0.018760107 -0.08344663
000020 c5 76 12 3c 60 98 78 be 53 73 51 3d e0 3d 9e bd
       0.00893945 -0.24276876 0.051135372 -0.077266455
000030 af dd 99 3d f1 2b a2 bd a9 97 b5 bc 6e 58 19 3c
       0.07512986 -0.079185374 -0.022167044 0.009359462
000040 cb 03 14 bd 25 c5 37 be e9 74 13 bc 6d 7f b7 3d
       -0.03613643 -0.17946298 -0.0090000415 0.089598514
000050 73 69 03 3c f4 d9 b9 3d 14 b7 88 bc 8a c6 45 3d
       0.0080207465 0.090747744 -0.016688861 0.048285045
000060 9e 49 9b 3d b9 23 f5 bc e9 ba 20 3e a3 37 1d bd
       0.07582401 -0.02992426 0.156963 -0.038383137
000070 36 4b 05 3c 58 e2 f6 3c 16 4d 24 3e c5 62 f1 bd
       0.0081356075 0.030137226 0.16045031 -0.11786417
000080 38 28 8f bd e0 10 17 bd d4 7a ad 3c 60 ad e7 bc
       -0.06990093 -0.036881328 0.021176733 -0.028280914
000090 d1 de bd 3d f0 d8 05 3e e0 66 c4 bd 98 64 05 3e
       0.092710145 0.13071036 -0.09589934 0.13026655
0000a0 7a f6 79 bd 5d 98 06 3e 64 0b 07 3d dd 04 02 bc
       -0.061026074 0.1314406 0.032969847 -0.00793573
0000b0 b6 b3 da 3d 9b 50 1e 3d de eb 3c 3d 4c 30 29 3c
       0.106788084 0.03865109 0.046123378 0.010326456
0000c0 1b f5 46 3d c4 89 52 3c 59 a9 18 3e cf 29 96 bd
       0.048573595 0.012850229 0.14908351 -0.07332193
0000d0 a3 ed fd 3d 02 d7 05 bd 5e da 11 3e 3a 61 d9 3c
       0.12398841 -0.03267575 0.14243457 0.026535619
0000e0 22 42 58 3d 09 d9 9c 3d f2 30 f8 3c cb 25 21 3c
       0.052797444 0.07658584 0.030296776 0.009835671
0000f0 06 26 ba bd ec 93 80 3d cc a6 5a 3d 6e a0 b1 bd
       -0.09089284 0.06278214 0.053381726 -0.08673178
000100 54 5a ab bb 1c f5 0a 3d b1 a2 e1 3c 73 90 b9 bd
       -0.005229274 0.03392516 0.027543398 -0.090607546
000110 a3 43 cb 3d 2d 89 ba bc df 91 6e 3d 2a f2 9f bc
       0.0992501 -0.022770489 0.058244582 -0.019524653
000120 05 eb 20 3d c1 b0 81 bd 2e a9 17 3e eb 99 04 bd
       0.039286632 -0.06332541 0.1481063 -0.03237335
000130 16 5d e9 bd ea 72 b8 bd d9 ef 62 3d 4f 16 3a bd
       -0.11394708 -0.09006293 0.055404518 -0.04543143
000140 7d ae f6 3d 51 05 ff bc c1 d2 dc 3d c6 f1 5c bc
       0.12045 -0.031130465 0.107823856 -0.013485378
000150 3e a9 7c bd 02 ed 06 3e 88 dc 99 3d 1a e6 a4 3d
       -0.06168484 0.13176349 0.07512766 0.08051701
000160 49 4f 09 bb 33 98 4e bd a4 a3 bc 3d 57 27 08 3c
       -0.0020951799 -0.050438117 0.092108995 0.008310161
000170 ec 50 36 3c 85 93 05 39 5a 1a bd 3d 5d 21 61 3d
       0.011127692 0.00012738824 0.09233542 0.05496346
000180 f1 47 19 3d 2d a3 92 bc e5 ed 4b 3c 26 04 93 bb
       0.037422124 -0.017900074 0.012446855 -0.0044865785
000190 6f 31 91 3d 96 f1 78 3c 8b 46 37 bd 15 43 13 bd
       0.07089507 0.015194317 -0.04474501 -0.035952646
0001a0 62 59 bf 3d 2e 10 60 bc b2 b5 96 bc 2b e0 dd 3c
       0.0934322 -0.013675733 -0.018397186 0.02708443
0001b0 bf 50 a9 3d ff e8 aa 3d f9 d3 01 3e 7c 15 65 bb
       0.08267354 0.08345222 0.12678517 -0.0034955433
0001c0 78 a7 bc bc f2 57 c9 3d bf 60 b5 3d 7a f6 c7 bc
       -0.023029074 0.09831227 0.088563435 -0.024409521
0001d0 2a bd 29 be 14 9c e8 bc b4 1e 39 3d e4 75 81 3c
       -0.16576067 -0.028394736 0.045195296 0.015803285

weight f4 [4, 120]
000000 76 31 23 3e 4d 29 0c 3e d8 1f 59 3e 0e 23 b7 3e
       0.15936837 0.1368763 0.21203554 0.35768932
000010 da 6b b2 bd 0b 01 7a bd c5 49 e2 3a ee 50 9c 3d
       -0.08711977 -0.06103615 0.0017264417 0.076326236
000020 d5 6e 37 3d 82 25 9a be e5 f7 b7 bd 50 9f 0a be
       0.044783432 -0.3010674 -0.08982829 -0.13537335
000030 ef 1c 22 be 74 15 0f 3e cc 97 f3 3c f2 13 a6 bb
       -0.1583135 0.13973027 0.029735468 -0.0050682956
000040 7c ff bb 3c d4 20 5f 3e 30 81 e8 bd c0 51 ad bd
       0.022948973 0.21789867 -0.113527656 -0.08462858
000050 89 6c 6e be 20 d6 17 3e 6f 51 88 3d ba 87 00 3e
       -0.2328359 0.14827776 0.06656157 0.12551776
000060 9d ed 46 3e 10 77 cb bd a6 3a 03 3e d2 3b 5f bd
       0.1942658 -0.09934819 0.12815341 -0.05450041
000070 3f 2e c2 3e cf 1d 30 3d ce 20 b7 3d a6 96 87 be
       0.37925908 0.042997178 0.08941804 -0.26482123
000080 ca b1 b3 bd 38 4f 85 3c f1 d5 6c bd e6 1f 3e bd
       -0.08774145 0.016273126 -0.057821218 -0.04641714
000090 66 f9 6e bd 6f 56 f7 3d b3 48 e1 3d 4e 60 9a 3d
       -0.058343314 0.12077033 0.110001944 0.075379
0000a0 fe c5 0a be b5 a7 04 3e bb fd bf 3d 0d d6 2a be
       -0.1355209 0.129546 0.09374567 -0.16683216
0000b0 8f 13 af bc a1 40 8f bb 9d 63 55 3d ab de 74 be
       -0.021371631 -0.004371718 0.05209695 -0.23913066
0000c0 89 9a 10 be 76 1f c3 bd c3 e6 98 3d 7c 73 e9 bd
       -0.1412145 -0.09527485 0.07465889 -0.1139898
0000d0 68 5d 08 3e 83 d8 5d be 14 cf ad 3d 49 93 56 3d
       0.13316882 -0.21664624 0.08486763 0.052386556
0000e0 17 1e b3 3d a2 da b0 bd 03 04 b1 3d 08 6d bb 3d
       0.087459736 -0.08635451 0.08643343 0.091516554
0000f0 ff 16 f2 bd f1 80 f8 3d e2 eb 8a 3d 0c 3c 33 be
       -0.118207924 0.121339686 0.06783272 -0.17503375
000100 86 a3 8b bd 4a 33 cf 3c e0 d0 0c be 20 6f fe bd
       -0.06818299 0.025293011 -0.13751554 -0.12423539
000110 e3 6d 91 bd 65 d8 b2 bd b4 75 67 3e 57 58 1b be
       -0.07101037 -0.0873268 0.22603494 -0.15170418
000120 64 93 d4 bd 8b 42 d7 3e 45 da c2 3d 9e b9 f1 bd
       -0.10379675 0.42042956 0.09514288 -0.11802982
000130 18 27 0b bd b8 12 84 bd c4 d6 2a bd 42 7d 87 3d
       -0.03397283 -0.06448883 -0.041708723 0.06615688
000140 de 26 7d bd 64 68 09 3e 33 9b 23 3d 52 28 81 bd
       -0.061804645 0.13418728 0.03994293 -0.063065186
000150 ca 11 fc 3d 65 ae 98 3d 6c a8 18 3e fa 17 3f 3e
       0.123080805 0.07455138 0.14907998 0.1866149
000160 20 38 92 3d f7 26 2b be 99 6b 0b 3e 43 74 44 be
       0.07139611 -0.16714083 0.13615264 -0.19184975
000170 55 81 d3 3d 67 86 33 be fd 73 37 3d 0c 32 b3 3c
       0.103274025 -0.17531739 0.04478835 0.02187445
000180 72 2c 34 bc 1f 46 bb be 2d a7 80 3e 1d 5e 14 be
       -0.010996925 -0.36576936 0.25127545 -0.14489026
000190 25 c2 39 be b8 1a d5 3d 4a d2 1e bd c2 6d 73 3d
       -0.18140467 0.10405487 -0.038774766 0.059430845
0001a0 ac c6 be 3d ee 34 99 3c 95 dc 55 3d 29 90 53 3e
       0.093152374 0.018701997 0.052212317 0.20660461
0001b0 1f 72 09 3e 60 8a 90 bd 86 b6 c7 3d 1c 00 f8 bd
       0.1342244 -0.07057643 0.097516105 -0.12109396
0001c0 20 7d 3a 3d 96 b7 0f bd 2c 70 cd 3d 6a 0e 50 3e
       0.045529485 -0.03508719 0.10031161 0.20317999
0001d0 b4 68 2c be e9 9d 19 be a7 20 7a bd bc 3c b8 bd
       -0.16836816 -0.15001644 -0.061066296 -0.08995959
0001e0 34 da 56 3e 0f 29 f9 3d c0 b5 50 bd 5b 85 a2 be
       0.20981675 0.121660344 -0.05095458 -0.31742367
0001f0 52 ec a6 bb c2 fd 79 bd 63 c9 11 3e df f5 5e bd
       -0.0050940895 -0.061033018 0.14236979 -0.0544337
000200 f3 d3 72 bc 82 f9 bc bd 16 db 0e 3e 0f a0 2b bd
       -0.01482104 -0.09227277 0.13950762 -0.04190069
000210 87 41 92 3d e6 c8 92 bd 8d c6 bb bd b2 93 f5 bd
       0.071414046 -0.071672246 -0.0916873 -0.11991061
000220 ab 41 6e 3d 1c 16 94 be 30 7e 88 3e fd 44 09 be
       0.058168095 -0.28923118 0.26658773 -0.13405223
000230 37 c4 55 be 86 34 88 3e 73 00 9a bd 2e c3 48 be
       -0.20875631 0.26602572 -0.07519617 -0.19605705
000240 2f 26 c3 3c c4 4e 51 3b 72 06 d0 3d c5 be a5 bd
       0.023821918 0.0031937817 0.10157479 -0.08093027
000250 9e 80 23 3d 00 09 2b 3d d0 7d ad be 0f 37 66 3e
       0.03991758 0.04175663 -0.3388505 0.2248194
000260 f5 15 f3 bd ab aa 0d be ac 63 18 3e 3e fe 41 3d
       -0.11869422 -0.13834636 0.14881772 0.047361605
000270 f5 fb de 3d f6 26 e8 3c dc 4a 33 3d d6 4f ac 3d
       0.10887901 0.02833889 0.043772563 0.08413665
000280 a2 64 ed 3d 20 e5 ed bd 17 bf 37 bd 3d ff ce bd
       0.1159146 -0.11615968 -0.04485997 -0.101072766
000290 72 6b dd 3d da 4a 1c 3d 83 c5 04 3d 63 3a cf bd
       0.10811509 0.03815732 0.032414924 -0.10118558
0002a0 82 46 86 bd 75 7f ff bc 2e b0 2c 3e 8f f9 29 bd
       -0.06556417 -0.031188706 0.16864082 -0.041497763
0002b0 dc 61 89 3d 2c b6 89 bd 1d 18 da 3d 24 9e 7a be
       0.06708118 -0.067242 0.106491305 -0.24474388
0002c0 7d 9b bd bd 9a af 0a be 98 9d ed 3d 67 27 69 3d
       -0.09258173 -0.13543549 0.11602324 0.056922343
0002d0 98 cb eb bd 50 0c e7 bc 69 8b c8 bd 1f c2 48 3d
       -0.11513442 -0.028204113 -0.097922154 0.049013253
0002e0 7f 61 14 3e 2e dc e9 3b 06 eb 1c 3c 52 a5 da bd
       0.14490317 0.007136843 0.009577518 -0.106760636
0002f0 b7 6b 42 be 60 85 a7 3e 0f e3 06 3d 16 34 82 3d
       -0.18986402 0.32718945 0.032931384 0.06357591
000300 18 88 02 be 12 c0 a4 be 51 27 41 3e 4e 1d e2 3d
       -0.12747228 -0.32177788 0.18862654 0.11040746
000310 d0 87 c9 3d 80 49 ab 3d f3 e5 6f 3d 2f ae 22 3b
       0.09840357 0.083636284 0.058568906 0.002482306
000320 5c 4e 92 3d 01 e6 3b 3e a9 ad 55 3e f5 1d b8 3c
       0.07143852 0.18349458 0.20867027 0.022475222
000330 bb a1 8c bd 15 68 ff 3d 74 44 90 bd f8 69 bb 3d
       -0.06866785 0.12471024 -0.070443064 0.09151071
000340 a8 40 b3 3d d8 43 5e bd 5c e2 67 bd e3 a9 42 3d
       0.087525666 -0.05426392 -0.056612357 0.047525298
000350 8f 89 08 be c9 09 22 3d fd 29 2f be 16 dd 96 bd
       -0.13333724 0.039560113 -0.17105861 -0.073663875
000360 c9 2f dd bd c8 61 8e be 8d 0f d9 bc 85 01 ba bb
       -0.1080013 -0.27808976 -0.026496673 -0.0056764507
000370 c5 60 2e 3e 75 ce 9d bd a4 6e 9a bd 4c bd 33 bd
       0.17029102 -0.07705394 -0.07540634 -0.0438817
000380 1c dc ec bd ef 53 2d bd a8 ce 9d 3d 1a a9 32 be
       -0.1156542 -0.042316373 0.07705432 -0.1744732
000390 1f 9e 12 3e aa f7 41 3e 8b 12 1f 3e 51 32 41 3e
       0.14318131 0.18942133 0.15534417 0.1886685
0003a0 24 35 d1 3e a9 03 00 3e 38 96 03 3d 1d e3 09 3e
       0.40860856 0.12501396 0.03212568 0.13465543
0003b0 9f 76 a4 be 58 cf 97 3d ff 15 56 bd 07 60 86 bd
       -0.3212175 0.074125946 -0.05226707 -0.065612845
0003c0 8e b6 54 3d 27 9f 17 3e 4d 6f e7 bd a1 da bf be
       0.05193191 0.14806806 -0.11300526 -0.37471488
0003d0 f6 2f 48 bc 3d 63 a6 3c 52 9d 27 bd 2d 45 a7 3d
       -0.012218466 0.020310992 -0.040921517 0.08167491
0003e0 52 f2 4f 3e f4 ef 64 3e d9 71 ef bd 17 d1 e5 bd
       0.20307282 0.2235716 -0.116916366 -0.11221521
0003f0 57 9f eb 3d cd c0 6a 3d b2 f5 2e be 6d 05 05 be
       0.11505001 0.057312775 -0.17085913 -0.12990351

bias f4 [4]
000000 e4 38 9c 3d f8 ab f9 3c fc 69 69 3d 17 52 2b 3c
       0.076280385 0.030477509 0.05698584 0.010456583
