neural_networks/tmp_benchmark_quantized1.pt (torch, 130043 bytes, 8 tensors)

1.weight f4 [120, 16]
000000 38 3e 96 3b 77 b9 5e be 86 e5 cf 3d 57 2c 09 3e
       0.004585054 -0.21750437 0.101512 0.1339582
000010 9f 7a f6 bd 54 55 dc 3d 6c 00 1a be 72 62 63 3d
       -0.12035107 0.107584625 -0.15039223 0.055513807
000020 e8 37 74 bd ec 8c 70 bc ca 83 1d 3e 7a 2b 56 3d
       -0.05962363 -0.014682036 0.15382305 0.052287556
000030 99 64 56 3e bf 38 fe 3a 5b f5 1f be ea 84 64 3d
       0.20936812 0.0019395574 -0.1562094 0.05579082
000040 df 1e 73 bd 08 03 9c bd 3c 47 ec bd 7c 64 0a be
       -0.059355613 -0.07617766 -0.115370244 -0.13514894
000050 92 7e 5e 3d ff 35 9f 3b f8 e4 32 3e 15 85 06 be
       0.054319926 0.0048587318 0.17470157 -0.13136704
000060 79 3b 2e 3d 1d 0b a6 3d cf 86 bc 3a a5 8c b4 3d
       0.042537186 0.081075884 0.0014383438 0.08815888
000070 f1 c0 73 3e 60 2b 90 bd f8 f9 a9 3d 9e fb 8a 3c
       0.2380407 -0.07039523 0.08299631 0.016965684
000080 88 93 e0 bd 27 01 e0 3d d2 c3 b7 bc 8c 22 57 3d
       -0.10965639 0.1093772 -0.022432242 0.05252318
000090 37 10 87 3c 21 0f f5 3d 53 6a 2a 3e 88 e1 4a 3e
       0.016487224 0.11965776 0.16642122 0.19812596
0000a0 89 db bf bd f8 04 71 bd e4 a6 19 be f8 04 ac 3d
       -0.09368045 -0.05884263 -0.1500507 0.08399385
0000b0 a3 1b 0d be 60 7e 2c 3e 73 ea 4a 3e c8 a1 62 3e
       -0.13780074 0.16845083 0.19815998 0.22132027
0000c0 a2 ef 9d 3d 9a 86 71 be 2d 24 57 3e 37 83 27 3d
       0.07711722 -0.23586503 0.21009894 0.04089662
0000d0 f5 fd 52 3e c1 8f 06 be e9 a4 51 3e c0 03 3c bb
       0.2060469 -0.13140775 0.20473064 -0.0028688759
0000e0 b9 9c fc bd 03 22 46 3d 24 6a 9b bd 46 8c c0 bc
       -0.1233458 0.04837228 -0.07588604 -0.023504388
0000f0 9b 16 29 3e 76 b5 53 bd be f4 36 be df dc 5f 3d
       0.1651253 -0.051686727 -0.17866799 0.054654
000100 dd a1 10 be be ee 31 3e 98 f1 2e be 10 be d2 bd
       -0.14124246 0.17376229 -0.17084348 -0.10290158
000110 50 f6 6a be 78 91 27 3e d6 6a 9e 3b f7 95 17 3e
       -0.22945523 0.16364086 0.004834513 0.14803301
000120 cc e0 58 3d 53 c8 71 3e f1 06 be bd 96 22 df bd
       0.052948758 0.23611574 -0.09278668 -0.108952686
000130 ae 00 2a 3e 0f 70 07 be 96 3a c4 bd de a3 40 be
       0.16601822 -0.1322634 -0.09581487 -0.1881251
000140 b4 99 4b 3e 02 2b d3 3d 94 bf 27 be cb c0 01 3d
       0.19882852 0.103109375 -0.16381675 0.031678002
000150 6f 5b c6 bd 06 ea 5a be 55 52 b6 bd ec f8 f4 3d
       -0.09685408 -0.21378335 -0.08902422 0.119615406
000160 af 4f a2 bc 33 9f 14 be 3d 30 66 3e 02 2b 49 bc
       -0.019813387 -0.14513855 0.22479339 -0.01227832
000170 e3 fd e6 bd f6 74 19 3d 86 dd 91 3d e1 9a 72 3e
       -0.11278894 0.03746506 0.0712233 0.23691894
000180 26 bd 14 be 44 1c d9 bd 5c 2e 1e bd 3c 91 3a 3e
       -0.1452528 -0.10601094 -0.03861843 0.18219465
000190 be 9f 64 be cb a2 4c 3e af 11 81 bc d2 c6 fb 3d
       -0.22326562 0.19983976 -0.015755503 0.12293781
0001a0 74 b7 5a be d4 55 e3 bd e0 19 ff bd 79 6c f2 bd
       -0.21359044 -0.11100355 -0.12456107 -0.11837096
0001b0 3c e0 75 be 4f 39 ae 3d ff f4 26 3e 36 e1 f2 3d
       -0.2401132 0.085070245 0.16304396 0.11859362
0001c0 40 53 60 3d 9f 31 fa 3d 40 3c f5 bd e5 cc c2 bd
       0.054766893 0.12216496 -0.119743824 -0.09511737
0001d0 42 32 61 be b7 16 38 be 46 94 57 3c 01 a8 5a be
       -0.21991828 -0.17977415 0.01315791 -0.21353151
0001e0 15 f0 46 3c 77 ba 13 3e 6e 68 fc bd e2 1c 1e 3d
       0.012142201 0.144266 -0.12324606 0.038601764
0001f0 0a 4e 35 be 14 5d 23 be 84 3b 63 3e 28 df 99 bd
       -0.17705551 -0.15953475 0.22190672 -0.07513267
000200 32 23 1e be f7 12 80 bc ec c0 64 be 35 06 f5 3d
       -0.15443113 -0.015634043 -0.22339219 0.119640745
000210 1a 1f 8a bd 76 94 79 3e 92 ea 02 be 07 5f 27 bd
       -0.067442134 0.2437304 -0.12784794 -0.04086211
000220 10 ac e5 3d 8c 55 0b bc 2e 44 0e be 5e 40 58 bd
       0.11214459 -0.008504283 -0.13893196 -0.05279576
000230 43 6e 38 3e 6c 61 35 be e4 d1 80 bd d7 6c 07 3e
       0.18010812 -0.17712945 -0.062900335 0.13225113
000240 c2 3b 31 3e e1 6a d5 bd f3 17 7c 3e 9b 46 43 be
       0.17307952 -0.10420776 0.24618511 -0.19069903
000250 1b 45 63 be f2 58 4a bb 52 d7 5e be 42 c8 5b be
       -0.2219433 -0.003087577 -0.21761826 -0.21463111
000260 8a 9d 3c bd 70 f9 c0 bc 69 88 20 be ff a8 da 3d
       -0.04604868 -0.023556441 -0.15677036 0.10676765
000270 42 d0 4b be 58 83 2b bc 45 3f 53 3e e8 fc 2e bd
       -0.19903663 -0.0104683265 0.20629604 -0.04272166
000280 1b 48 e3 bd 43 6d f8 bd 7d d0 00 3e 07 2a 0a bd
       -0.110977374 -0.12130215 0.12579532 -0.033731487
000290 51 d2 95 bc a8 d0 74 bd 43 7c 3e 3e 67 e6 11 3e
       -0.018288763 -0.059769303 0.1860209 0.14248048
0002a0 ec f5 39 be de aa 76 3d a6 6c 8e 3d be 7f 1b 3e
       -0.18160218 0.060221545 0.06954317 0.15185449
0002b0 11 e7 3b 3d 8d 92 4c be 92 9e 4e 3e 3c 68 21 be
       0.04587466 -0.1997778 0.20177677 -0.15762419
0002c0 94 a0 7a 3d 3b 24 ed 3d 62 c5 6d 3e ef 2b b9 bc
       0.061188295 0.11579176 0.23219827 -0.022603957
0002d0 42 0a 9b bd 21 eb 04 be 08 a7 ad bc bd 12 6f be
       -0.07570316 -0.1298032 -0.02119781 -0.23346992
0002e0 67 63 b4 bc 28 20 29 3e 10 49 f5 3d 37 ce c1 3c
       -0.022020055 0.16516173 0.11976826 0.023657901
0002f0 5b 43 7d bd 2e 61 81 3d f5 90 56 bc 4d 28 6f bd
       -0.061831813 0.06317364 -0.013096084 -0.058388043
000300 b9 e4 4f 3e e7 e4 b9 bd 19 81 5f 3b ec 17 05 3e
       0.20302095 -0.09076863 0.0034104048 0.12997407
000310 cd 2e e5 bd c1 8f 03 be a1 e6 7d be 45 df 8c bd
       -0.11190567 -0.12847807 -0.24795009 -0.06878523
000320 5c da 61 be 31 be c2 3c 87 48 47 be bd e1 6e 3c
       -0.22055954 0.023772331 -0.1946126 0.014580187
000330 60 b6 e4 bd 3f 0b 59 3e 2a f6 10 3e 43 9c 9f 3d
       -0.11167598 0.21195696 0.14156404 0.077934764
000340 9b 1b 48 be 06 05 f1 bd 31 af 2a 3e 12 9a 1d bd
       -0.1954178 -0.11768536 0.16668393 -0.03847701
000350 ae 8b 43 3e 58 2f 56 3e 29 a4 1f be 1d a8 bb 3d
       0.19096252 0.20916498 -0.15589966 0.091629244
000360 f7 46 13 be ef 56 83 bd c2 a4 69 be 3f 3b 05 3d
       -0.1438254 -0.06413066 -0.22816756 0.032527205
000370 8a 6d f6 bd 4b f1 5e be 59 80 d9 bd 6d de 54 3e
       -0.12032612 -0.21771733 -0.106201835 0.20787974
000380 ca e4 50 be 0d 17 46 be bf 4d 49 be 56 5b 5f 3e
       -0.20399776 -0.1934473 -0.19658564 0.21812186
000390 37 fa 02 be 3b dc 20 3e 6c 68 2e bd 93 62 52 3e
       -0.12790762 0.15709011 -0.042580053 0.20545416
0003a0 39 c3 77 3e 58 08 9a 3d dd 58 60 3e 62 8d 5b 3e
       0.24195565 0.07521123 0.21908899 0.21440652
0003b0 2d 63 72 be 25 04 b3 3d 22 1b 47 3e 3e 4d 89 bd
       -0.23670645 0.08741025 0.19443944 -0.06704186
0003c0 75 8d 3b be f5 50 41 be 4a 2b 1c 3d 2f e9 6f 3e
       -0.1831568 -0.18878539 0.03812722 0.23428796
0003d0 c5 b8 3c 3e 42 cc 54 3e 0d 13 7a be d9 00 38 3d
       0.18429859 0.20781043 -0.2442133 0.044922683
0003e0 f5 4a 31 bd cf 91 21 bb d2 e9 94 3d 47 b0 98 3d
       -0.043284375 -0.002465356 0.0727116 0.07455497
0003f0 77 7c 45 3e 9f 9c 04 be a0 3b 1c 3d 43 0c 17 be
       0.19285761 -0.12950371 0.0381428 -0.14750771

1.bias f4 [120]
000000 e6 68 68 3e ff c2 21 be 4b 95 50 3c 2b 26 19 3d
       0.22696266 -0.15797041 0.012730907 0.037389915
000010 fe 53 bf bd 34 4e 10 be 1e 7f b5 3d e8 b9 73 be
       -0.09342192 -0.14092332 0.08862136 -0.23801386
000020 d7 4c 51 3e ad 47 b6 bd 31 0f 72 3e 9c 8c 57 3e
       0.20439468 -0.0890039 0.23638608 0.21049732
000030 56 16 17 bd d4 50 82 3d 28 fb c1 bc b9 2e 5e bd
       -0.036886536 0.06363073 -0.023679331 -0.054243777
000040 7f c1 63 be 27 1f 9f bd ce be 5c 3d e5 e5 2e 3e
       -0.22241782 -0.07769614 0.053892903 0.17079885
000050 0a 5f e3 3d b4 63 55 3e ec 97 3b 3e d9 71 59 be
       0.11102112 0.20838815 0.18319672 -0.21234836
000060 0b 10 4c be af 22 0d 3e 99 d8 69 be 59 ab 2c be
       -0.19927995 0.13782762 -0.22836532 -0.16862239
000070 db 23 be bd 3c 3d 89 3c 43 3c 22 bb 3f 3c a8 bd
       -0.09284183 0.016752832 -0.0024755157 -0.08214616
000080 f3 e0 92 3d 99 cf b5 3d 76 01 19 bc c3 d3 0a be
       0.07171812 0.08877487 -0.009338727 -0.13557343
000090 dc c2 6d 3e 25 0c 1a 3e e4 86 22 be 90 e4 71 3e
       0.23218864 0.15043695 -0.15871769 0.23622346
0000a0 7b d7 c7 bd af d3 16 3e 6d 96 01 3e c1 da 0b 3c
       -0.097578965 0.14729188 0.12655039 0.008536042
0000b0 6c d1 ce bd 29 6d 33 be 2f fb 84 bd 2f c4 fa 3d
       -0.10098538 -0.1752211 -0.06493222 0.1224445
0000c0 8a 3b 64 3e 03 38 13 be df 01 38 bd bb 26 39 bd
       0.22288337 -0.14376836 -0.04492366 -0.045202952
0000d0 27 c1 48 be ba 2b d4 bd 4f 2f b7 bd 10 2b 58 be
       -0.19604932 -0.10359903 -0.0894457 -0.21110177
0000e0 3f ef 89 3d 5a 53 bf 3d bc 61 6a bc 56 8e 2e be
       0.06735086 0.0934207 -0.014305528 -0.17046484
0000f0 e8 58 37 3e 33 f4 08 be e9 e1 6e 3e f5 18 73 be
       0.17905009 -0.13374405 0.23328365 -0.23739989
000100 30 5a 57 3e 4b 16 1f 3e 73 7f 20 3c 86 86 59 3e
       0.21030498 0.15535848 0.009796011 0.21242723
000110 01 1a 26 3e 51 05 e2 bd df 12 5d 3e 86 a4 93 bd
       0.16220857 -0.1103617 0.2158923 -0.07209115
000120 13 82 7c 3e e0 af 5d 3e f1 21 fe bd 97 44 06 be
       0.24658994 0.21649122 -0.124088176 -0.13112102
000130 ca 80 24 3c b0 5d 3c 3e a6 fc 3b be 9a cb 03 3e
       0.010040471 0.18395114 -0.18358096 0.12870637
000140 ab 5b 0e 3e 8b d3 bd bd 5e 07 0e 3d e0 00 28 3e
       0.13902156 -0.09268864 0.034674995 0.16406584
000150 2d 15 1a 3e a9 d0 91 bd 3f 10 3f 3e c1 92 00 3e
       0.1504714 -0.07119877 0.18658541 0.12555982
000160 46 e1 2d be f5 40 68 be 15 cb 41 be b3 dd d3 3d
       -0.16980466 -0.22681029 -0.18925126 0.1034502
000170 b8 1c 88 3c 6a 7f e6 bd 9e 6f 5a 3e 71 ec 23 3d
       0.016615257 -0.11254771 0.21331641 0.04002041
000180 c2 39 7a 3e 8a 2b 72 3e 9c 87 3e 3e 4e de ae ba
       0.24436095 0.23649421 0.18606418 -0.0013341398
000190 a7 bd 76 be d1 f6 43 3d 5b e9 0f be de b3 cd 3d
       -0.24095784 0.047842804 -0.14053862 0.100440726
0001a0 43 7b 07 3e 1b f2 40 be 02 fd 5d 3e 2e 2a 0e 3e
       0.13230614 -0.18842356 0.21678546 0.13883278
0001b0 56 b4 42 3e 01 9e 5f 3e 38 4e 15 be bd be f8 3d
       0.19014105 0.21837617 -0.1458062 0.121457554
0001c0 89 64 20 3e 9a 07 73 3e c5 e4 76 be 4a ac 07 be
       0.15663351 0.23733369 -0.24110706 -0.13249317
0001d0 e1 ea af 3d 9b 2b ac bd 32 32 7e 3c 5c 46 7d 3e
       0.085897215 -0.084067546 0.015514897 0.24733871

3.weight f4 [120, 120]
000000 1a 9b 69 bc a8 b6 5d 3d fb 4b 5f bd d9 79 00 bd
       -0.0142581705 0.054129273 -0.05451582 -0.031366203
000010 f4 28 f8 3b 39 bb d5 bb ff 26 f1 3c 7e 1f 89 bc
       0.0075732414 -0.006522563 0.02943754 -0.01673865
000020 3b 20 93 bd d3 81 93 bd 3d 1b f2 bb 5a 34 9e bd
       -0.07183882 -0.072024964 -0.007388501 -0.07724829
000030 e6 0e 88 bd 90 6e 80 3d 69 34 b6 bc b2 40 0d bc
       -0.06643467 0.06271088 -0.022241788 -0.008621382
000040 05 7a 77 bd 27 ce 6e bd 68 fc 8b bd fb 56 89 3c
       -0.0604191 -0.05830207 -0.06835252 0.016765108
000050 e7 17 e7 3c fb f3 49 bd 22 30 0e bd 07 ad f9 3c
       0.02820964 -0.049304944 -0.03471387 0.030478014
000060 6e ae 08 3d 1d 02 92 3b 77 4e cb 3c 80 17 26 3c
       0.033369474 0.0044558183 0.024817688 0.010137439
000070 ee 20 67 3d 0d 77 10 bd b3 8f 32 3d f9 a1 80 bd
       0.05642789 -0.035269786 0.043594074 -0.06280894
000080 bf f1 31 3d 16 24 5a 3d 30 f7 9f 3c 4a 69 d3 bd
       0.043443438 0.05325707 0.019527048 -0.10322817
000090 9e 50 8f bd fb e0 92 3d dc 79 c4 bd 7e bf 95 3d
       -0.069977984 0.07171818 -0.09593555 0.07311915
0000a0 0f c9 6d 3d b9 e5 6d 3d 73 06 7e bd ae 0f 0b bd
       0.058053073 0.05808041 -0.06201787 -0.0339505
0000b0 78 4a 14 3c b4 45 7a bc 29 d8 86 3d c2 4b ce bb
       0.009050958 -0.015275408 0.06584198 -0.006295652
0000c0 cb 1b 7b 3a 06 11 68 bd 63 22 78 3d 77 68 fe 3c
       0.00095790316 -0.05665686 0.06057967 0.031055672
0000d0 3c 53 9f 3d 73 e4 fe 3b 40 b8 7d bc ae 44 79 bd
       0.077795476 0.007778698 -0.015485823 -0.060856514
0000e0 7e 4b 17 bd cb 37 d6 3c 6e ed 9c ba c5 53 a2 bd
       -0.03693723 0.026149651 -0.0011972615 -0.07926134
0000f0 5d 5c 9e 3c 4c 8b 04 3d 9f b0 a3 3d 4e 1f 3b bd
       0.019331152 0.032359406 0.07992672 -0.04568415
000100 4f 82 57 bd bb 67 98 3d ff f5 34 bd 61 42 fc 3b
       -0.052614506 0.0744166 -0.044179913 0.0076983427
000110 14 05 2b 3c 48 f4 1c bc 0b ef 82 3d 21 16 ed bc
       0.010438222 -0.009579726 0.0639325 -0.028941216
000120 ce 4a 26 bd bc 80 a2 bc 03 f4 83 3d a3 3b 7a bd
       -0.040598683 -0.019836776 0.06443026 -0.06109203
000130 48 46 79 bd 1e 99 65 bc fc 7b 93 3d 78 11 69 bd
       -0.06085804 -0.014013557 0.072013825 -0.056901425
000140 be 92 0b bd 70 b3 4c bd 0a 43 27 bd 3b 15 01 3d
       -0.03407549 -0.049975812 -0.040835418 0.031514388
000150 d7 07 16 3c fe c1 d4 3c 85 5d 1e 3c 5c 40 4c ba
       0.009157143 0.025971409 0.0096658515 -0.0007791573
000160 7e 3c 50 3c ab ee a3 bd 54 70 b1 bd 1d b9 c4 bd
       0.012709735 -0.08004507 -0.08664003 -0.0960562
000170 0f b9 3f bd aa f0 0b 3c 1a 29 2b bc 41 f5 94 3d
       -0.046807345 0.0085412655 -0.010446811 0.07273341
000180 22 fd 02 3d 16 a7 c2 3b 5f 00 82 bc b9 fa 9a 3c
       0.031979688 0.0059403284 -0.015869318 0.018918382
000190 46 54 3a 3d 4f 5a 6b 3d 67 fa 50 bd 88 d6 38 3d
       0.045490526 0.05745917 -0.051020052 0.045126468
0001a0 1e ad 4d bc 4f 24 42 bd 5b a7 65 bd 7c 6e 69 3d
       -0.012553481 -0.047397908 -0.056067806 0.05699013
0001b0 51 39 76 ba 74 97 8f bd 1d a0 c0 bc 76 3e 07 3d
       -0.0009392696 -0.07011309 -0.023513848 0.03301855
0001c0 aa 15 22 bd 91 10 0d bd e0 d0 b6 bc 3b 1e 65 bc
       -0.03957144 -0.034439627 -0.022316396 -0.013984258
0001d0 67 b8 74 bd 7a 43 ab bd 51 56 38 bd 83 4d 69 bd
       -0.059746172 -0.083624795 -0.045004193 -0.056958687
0001e0 17 47 6e bd 9c 32 f2 3c 0e f0 91 bd 83 1d 00 bd
       -0.058173265 0.029565148 -0.07125865 -0.031278145
0001f0 81 26 69 3d 58 2b ca bc 6b 56 33 3d c2 cd a6 bd
       0.056921486 -0.024678871 0.043783586 -0.08144714
000200 94 c4 c3 3c 19 1c f1 bc 58 73 62 bd 31 7f db bc
       0.023897447 -0.029432343 -0.05528578 -0.026794048
000210 83 f5 4a bd e6 b7 65 bd 21 45 1c bd a2 27 2e 3d
       -0.049550544 -0.056083582 -0.038151864 0.042518266
000220 de 79 8c bd f1 ca b4 bd c1 8d 20 3d 6f 83 78 b9
       -0.06859182 -0.088277705 0.039197687 -0.00023700086
000230 24 c6 45 bc 8d db 95 bd 3c 8e 25 bb 6b 66 4f 3d
       -0.012071166 -0.073172666 -0.002526178 0.050634783
000240 e7 da 76 bd 5b 59 5c 3d 60 ea bb 3d f7 15 92 bd
       -0.060267355 0.053796154 0.09175563 -0.07133096
000250 dd 0d 81 3c 3e da ad bd ad af cb bd 53 13 0e 3d
       0.01575368 -0.08488892 -0.09945617 0.034686398
000260 a7 68 63 bd 3a e0 a1 bd 5a ef d9 3c 2f 88 a1 ba
       -0.055519726 -0.07904096 0.02660339 -0.0012323911
000270 d9 9b 0f bb a6 99 7c 3d eb 47 94 3d 62 f9 8b bd
       -0.002191296 0.061669968 0.0724028 -0.06834675
000280 99 08 c3 bc 3f 3c e7 3c 71 5d 40 bd 87 f4 a7 3d
       -0.02380781 0.02822697 -0.046964113 0.08200937
000290 cd 22 89 3c d6 87 a5 bb 5f c0 24 bd e5 cb ed bb
       0.016740227 -0.0050515933 -0.040222522 -0.007256972
0002a0 5d ed 95 bd d8 78 99 3d c0 b6 2b bd 59 d7 e1 bb
       -0.07320664 0.07493752 -0.04192233 -0.0068921265
0002b0 60 d1 01 3d de ed 8e bc a4 6f 89 3d 99 a0 8a 3d
       0.031693816 -0.017447408 0.06710747 0.06768913
0002c0 20 39 97 3d 92 93 6b bd 63 c5 09 bd 9b 64 a3 bd
       0.073839426 -0.05751378 -0.03363551 -0.07978173
0002d0 46 4a 42 3c 07 35 96 3d c5 75 5c 3d a0 93 bf 3d
       0.0118585285 0.07334333 0.05382325 0.09354329
0002e0 76 61 93 bd ad a9 08 bd 7f 14 ab bd 24 09 94 3d
       -0.071963236 -0.03336494 -0.08353519 0.07228306
0002f0 37 27 96 bd ef aa 87 bb 23 69 52 3d da 03 2d bc
       -0.073316984 -0.00414025 0.051369797 -0.01056
000300 78 40 aa bd 73 2d 32 bc 09 be 90 bd 5a 4c 5a bd
       -0.08313078 -0.010875094 -0.07067496 -0.05329547
000310 cc 63 87 bc 2e 96 45 3d 04 e9 f9 bc 4e 64 9e 3d
       -0.016527079 0.048238926 -0.030506618 0.07733975
000320 9c e7 76 3c ed e6 20 bd e5 9a 97 bc 03 ab 94 bd
       0.015069868 -0.039282728 -0.018506477 -0.072591804
000330 1d 7b d7 bc 3a c6 de 3c f6 d7 93 3d 24 68 34 3d
       -0.026303822 0.027194131 0.07218926 0.04404463
000340 95 b0 81 3c 3c 31 17 bd c4 26 90 3d 90 d6 89 bd
       0.015831271 -0.036912188 0.07038644 -0.06730378
000350 9c 8f 20 3d c4 68 5f 3d 69 a4 c3 bc 60 d9 ac 3d
       0.039199457 0.05454327 -0.023882108 0.084398985
000360 5f 89 5a 3d 31 77 c3 3c e6 69 3a 3d b7 97 2e 3c
       0.053353664 0.023860546 0.04551115 0.010656289
000370 1f 50 40 3d f5 aa 12 bc 12 08 6e bb 41 83 89 3d
       0.04695141 -0.008951892 -0.0036320728 0.06714488
000380 bb 40 4b 3d 24 65 05 3d a4 6a 19 bd 73 01 11 bd
       0.04962228 0.03256716 -0.037455216 -0.035401773
000390 b1 72 03 3c 18 49 54 bd ac 70 d1 bc ac c9 54 bd
       0.00802295 -0.05182752 -0.025566421 -0.05195014
0003a0 b8 3e a0 3d fb 15 b9 3c 67 75 73 3d 56 7b ae 3c
       0.07824463 0.022593489 0.059438135 0.021299046
0003b0 87 45 92 3d 23 69 a8 3d 8f 38 a7 3c 7b e1 40 3d
       0.071421675 0.08223178 0.020412711 0.047090035
0003c0 f8 67 cf bb 81 a2 0d 3d b6 7e 75 3c 3a 0d 92 3d
       -0.0063295327 0.034578804 0.0149838235 0.07131429
0003d0 cc 69 d6 3b 25 a0 93 bd c7 cd 82 3d 08 38 51 bd
       0.0065433737 -0.072082795 0.06386905 -0.051078826
0003e0 c6 71 b1 bc 84 bf 61 bb 24 d7 fc bc 59 cb 2c 3d
       -0.021660697 -0.0034446428 -0.030864306 0.042186115
0003f0 81 8c b0 bc 2a b3 96 3d 13 33 b8 3d b7 e9 47 3d
       -0.021551372 0.073583916 0.08994117 0.048806872

3.bias f4 [120]
000000 88 14 86 3d 50 de e7 bd 74 6c a8 3d 7a 20 27 bd
       0.06546885 -0.113216996 0.08223811 -0.040802456
000010 01 9e ab bd f1 8d 49 bd 23 1c 6d bc 5e c3 1f 3c
       -0.08379746 -0.04920763 -0.01447204 0.009751169
000020 81 d4 59 3d 51 a8 93 bd d6 23 ba bd 02 3b 5a 3d
       0.053181175 -0.07209838 -0.090888664 0.05327893
000030 2f a2 56 3d 09 e3 b3 bd b8 1e 92 bd 44 f7 99 3d
       0.052400764 -0.08783538 -0.071347654 0.07517865
000040 11 cc a5 3d 8a d3 5b 3d 6e 16 5c 3d e8 31 11 bd
       0.08095563 0.053668536 0.053732328 -0.035447985
000050 a6 77 86 bd 9f cb 51 3d 0d d7 8d bd ca df c1 bc
       -0.0656579 0.05121958 -0.06925783 -0.023666281
000060 87 ac 95 3d 85 fb 58 3d cd 27 b0 bd bb 77 cd bc
       0.073082976 0.052974243 -0.086013414 -0.025081506
000070 27 54 f7 3c d3 37 d0 3b 67 13 c4 bc 4f 6e 9b bd
       0.030191494 0.006354311 -0.023935033 -0.07589399
000080 48 e8 9a 3c 68 1f 78 3d 21 ae 0e 3d d4 3d 46 bd
       0.018909588 0.060576826 0.03483403 -0.048398808
000090 23 f9 9e 3d c7 b5 52 3d fb 0b 34 3c 20 6f a6 bd
       0.07762363 0.051442888 0.0109891845 -0.08126664
0000a0 a9 4a 9f bd cf 45 9a bd 65 93 56 bd 84 4b 90 3c
       -0.07777912 -0.07532846 -0.05238666 0.017614134
0000b0 fa 55 a6 3d 45 d6 69 3d c3 61 87 3c 1f 07 6a 3d
       0.081218675 0.05708911 0.016526109 0.057135697
0000c0 89 49 b0 bd a0 63 96 3d 23 04 53 bc 1f 7b 73 3d
       -0.08607776 0.07343221 -0.012879404 0.05944359
0000d0 bd dc 7f bd ce d0 b3 3d 20 6b 83 3d 07 d4 89 bd
       -0.06246637 0.08780061 0.06416917 -0.06729894
0000e0 90 99 aa 3d 14 45 85 bd 1e cf aa bd 98 fb 53 3d
       0.08330071 -0.06507316 -0.08340286 0.05175361
0000f0 3b 29 8a 3d 46 48 ea bc 1d d8 61 3d 31 e7 bd bc
       0.06746145 -0.028598916 0.055137742 -0.02318153
000100 e4 3a 11 3d 70 ef 09 3d 88 5c a4 3d 79 d9 67 bd
       0.035456553 0.03367561 0.080254614 -0.056603882
000110 19 06 85 3d ce 86 f7 3c 62 68 08 bd 2c c1 e0 3c
       0.06495304 0.030215647 -0.033302672 0.027435862
000120 89 db b4 3d 47 6f d8 bc c3 a3 bf bd ed 81 8f 3d
       0.088309355 -0.026420249 -0.09357407 0.07007203
000130 4c b2 63 3d b0 b0 05 3d 71 ea d2 bc e3 f5 c1 3d
       0.05558996 0.032639205 -0.025746556 0.09470727
000140 0d 69 cd bc 79 66 77 3d 05 d7 bc 3c 30 d3 35 3d
       -0.025074506 0.06040046 0.023051748 0.044390857
000150 3e 9c 2b bd 5e 47 eb 3c 35 65 9e 3d 6d d8 98 3d
       -0.04189705 0.028720554 0.077341475 0.07463155
000160 9f 3a 3a bd 4c ce b4 bd 57 3d cf 3b 04 04 37 3d
       -0.04546606 -0.088284105 0.006324451 0.044681564
000170 82 1b a7 bd e3 cc 33 3c cd 83 ca 3c 92 5e 0f 3d
       -0.081595436 0.010974142 0.02472105 0.0350023
000180 7e 62 6b bc 54 fc d4 3b 37 7c ab 3b f5 78 4f bd
       -0.014366744 0.0064998064 0.0052333134 -0.050652463
000190 7c 44 9f bd 5a 89 89 3d 61 bc 1f 3d 9d 18 c4 bc
       -0.07776734 0.06715651 0.03899801 -0.023937518
0001a0 37 36 b9 bd 80 7f 11 3d 5b e0 81 3d cb 69 14 38
       -0.09043544 0.035521984 0.063416205 3.5384477e-05
0001b0 1d 74 4f bd 4f 51 9a bd fb ae 8e 3d f9 01 ad 3d
       -0.050647844 -0.0753504 0.069669686 0.08447642
0001c0 6b ca 21 3d 86 b9 9a bd 18 03 36 3c d3 d1 94 3d
       0.03949968 -0.07554917 0.011109136 0.07266583
0001d0 59 d9 5f bd b6 42 97 3d 23 0c 93 bd 57 56 b8 bd
       -0.05465064 0.07385771 -0.07180049 -0.09000843

5.weight f4 [120, 120]
000000 33 e4 24 3d 27 b0 22 bd e9 b7 78 bd 19 07 21 bd
       0.04025669 -0.039718773 -0.060722265 -0.03931341
000010 c9 1f 84 3c 7d 70 6d 3d 1a 6e bf 3d 1d 25 a4 bd
       0.016128438 0.057968605 0.09347172 -0.08014891
000020 dd b5 c1 3c 9b d3 60 bd c6 b7 b6 3c 62 da e4 3c
       0.02364629 -0.054889303 0.022304427 0.027936164
000030 7c df 12 3d b4 c4 57 bd 8b d4 dd bc 24 39 a9 ba
       0.035857663 -0.052677825 -0.027078887 -0.0012910706
000040 7e cc e8 bc 6c ff 20 3d 1c 90 18 3d 4d 92 cc bd
       -0.028417822 0.03930609 0.03724681 -0.09988842
000050 9a 54 39 3d 02 d3 11 bd 69 92 f0 3b 00 0c 69 bc
       0.045246698 -0.035601623 0.007341672 -0.014224052
000060 51 53 7c 3d c7 b7 33 3c 5e 82 87 bd e9 75 4f 3c
       0.061602894 0.010969109 -0.066166624 0.012662389
000070 5e 30 55 bc ad 3b 7a 3d 7c d2 48 bd 9f a7 63 3d
       -0.01301202 0.061092068 -0.04902886 0.055579778
000080 9b fb 1b bd 37 8a de 3c ee 6c d8 bc 90 38 4b 3d
       -0.038081747 0.027165515 -0.02641913 0.04961449
000090 7e 76 40 bd be ef 37 3d d0 67 3e bc fa 9f 8d bd
       -0.046988003 0.04490637 -0.0116214305 -0.06915279
0000a0 43 d2 1a 3d 48 2a c6 3c 02 c8 b4 bd 77 18 43 3d
       0.037798177 0.024190083 -0.08827211 0.047630753
0000b0 9e f8 e8 3c 51 2f 99 3d ac c9 81 bd 14 26 e0 ba
       0.028438862 0.07479728 -0.06337294 -0.0017101192
0000c0 bd 73 d8 bc 64 6e 28 bc 8b 0c 76 3c c7 41 84 bd
       -0.026422376 -0.010280225 0.015017639 -0.064578585
0000d0 8a 56 a6 3d ec 73 36 3d f9 1e 6f 3d e7 3d bc bc
       0.08121975 0.044544145 0.058379147 -0.022978736
0000e0 b9 37 98 3c c3 c8 e3 3c e3 b7 6f bc 99 e8 bd bd
       0.018581258 0.027805692 -0.014631244 -0.0927288
0000f0 9e ab f6 bc a3 e0 5f 3d a7 4e 73 bd 06 29 1a 3c
       -0.03011113 0.05465759 -0.05940118 0.009409195
000100 90 ad 95 3d fd 46 87 bb 57 33 84 3d 5a 0e 09 3c
       0.07308495 -0.0041283355 0.06455105 0.008365238
000110 75 a2 20 3d 66 bd 2e 3a 20 59 a2 bc a3 40 51 bd
       0.03921743 0.0006665796 -0.019817889 -0.051087033
000120 6f c5 a3 bd 90 10 a8 bc 6a 8b 6c bd 2a 7e 20 bd
       -0.07996642 -0.02051571 -0.057750143 -0.03918282
000130 dd 58 6f bd f3 65 ab 3d aa 69 0d bb 8b e3 06 3d
       -0.058434356 0.08369055 -0.0021577873 0.032931846
000140 da b4 39 3c 88 64 9d bd cd 7e fe bc 7e e5 a6 bd
       0.011334622 -0.076851904 -0.031066323 -0.08149241
000150 cc 9c 2f 3d a4 ec 87 bc 34 28 61 bc e4 cf 7d bc
       0.042874143 -0.016592331 -0.013742495 -0.0154914595
000160 42 03 6e bd 79 85 53 3c 66 2c 30 bd 6c df 12 bd
       -0.058108576 0.01291024 -0.04301109 -0.035857603
000170 63 d1 b9 bd 0d be 77 bd c2 80 68 3d 23 36 37 3d
       -0.090731405 -0.06048398 0.056763418 0.044729363
000180 52 d1 79 bd 42 63 4a bd 96 ed 9f 3d dc df e4 bc
       -0.06099064 -0.049411066 0.07808988 -0.027938776
000190 12 bc a6 bd 51 01 88 bd be 42 d9 bc dd 0a dd 3c
       -0.0814134 -0.06640876 -0.026521083 0.02698272
0001a0 07 ad a4 3d 00 f9 c4 bd 00 0f 4b bd 91 11 87 bd
       0.08040815 -0.096178055 -0.049574852 -0.065951474
0001b0 7f af 87 3d d8 e1 53 bd 56 eb e3 bc d3 e4 97 3c
       0.0662527 -0.051729053 -0.027822178 0.01854173
0001c0 92 d2 0e 3c 36 45 f5 3c 89 58 3b bd 2d c0 93 bb
       0.008717196 0.029940229 -0.04573873 -0.004508993
0001d0 4e 53 ca bd 37 9e ad bd 0e 3d d7 3b c3 32 4f 3d
       -0.0987917 -0.08477443 0.0065685576 0.05058552
0001e0 79 9d df bc d6 a7 b6 3c 89 86 57 b9 c0 95 b0 bd
       -0.027296769 0.022296827 -0.00020554116 -0.086223125
0001f0 fe ba a0 3d 9e 3c 46 3c 29 f6 a2 bc 37 f8 08 bd
       0.07848166 0.012099413 -0.019892769 -0.03343984
000200 f5 96 38 bd 79 47 8e 3d 66 97 56 bd 41 a6 a0 3d
       -0.04506584 0.06947226 -0.05239048 0.078442104
000210 11 a4 97 bd e0 ee 9b bd 93 42 4f bd 47 e5 76 bd
       -0.0740434 -0.07613921 -0.0506006 -0.06027725
000220 ad 2d 30 3d 83 54 84 bb a6 fd 73 3d ab 45 0b bd
       0.04301231 -0.004038395 0.05956807 -0.034001987
000230 94 eb 51 bd 7b 67 da 3b 70 7d 4b 3d 82 59 d7 3c
       -0.051250055 0.006665168 0.049680173 0.026287798
000240 ba 52 b0 bd 4c e5 0d bc bf 4a 5f bc 7e 01 be 3d
       -0.08609529 -0.008660626 -0.013628661 0.09277628
000250 9a 2c 8f bb d3 d6 e6 bb 7b 9d 0d bd dd 7c 94 3c
       -0.0043693306 -0.007044652 -0.034574013 0.018125946
000260 44 68 b5 bc 07 3b 73 bd ca 35 57 3d fb bf 1a bd
       -0.022144444 -0.059382465 0.05254153 -0.037780743
000270 b3 57 49 bd e7 ec aa bd 7b 24 aa bd ce 9c 86 3d
       -0.049155902 -0.08345967 -0.08307739 0.06572877
000280 60 15 b2 bd 80 3e 29 bc 92 12 98 bd 90 df d0 bd
       -0.08695483 -0.010329843 -0.07425417 -0.10198891
000290 e2 c6 6a 3d 83 6e 9a bd 82 ab 50 bd 66 ef b4 bd
       0.057318576 -0.0754061 -0.050944813 -0.08834724
0002a0 db 54 36 3d 91 4a 74 bd bd 52 85 bd c5 fe a5 3d
       0.04451452 -0.059641425 -0.06509922 0.08105234
0002b0 2a 01 93 bd b5 a9 2e 3c 04 e1 fb 3c 5b 4a 08 bd
       -0.071779564 0.0106605785 0.030746944 -0.033274036
0002c0 a6 a5 95 3c 88 14 06 3d 7a 77 a6 bd 2d a4 9d 3d
       0.018267464 0.032734424 -0.08128257 0.0769733
0002d0 0b a1 73 3d 84 e0 b3 bd fa 59 3f bd 83 6a ab bc
       0.059479754 -0.08783057 -0.046716668 -0.020924812
0002e0 7d 46 b2 3d 2c 8f 14 3d 8a 0b 54 bd 3c 7c 60 3d
       0.08704851 0.03626935 -0.051768817 0.05480598
0002f0 cc 0c 46 bc 7c 53 c2 bd a3 8b 07 bd 79 3b 45 bd
       -0.012088012 -0.0948858 -0.033092152 -0.04815242
000300 b4 5e 3a 3d 66 ad a0 3d a7 f2 a4 3c 86 50 35 3d
       0.045500472 0.07845573 0.020135237 0.044266246
000310 83 d9 c7 ba d8 3f 17 38 22 7c 9b 3d 86 03 66 3d
       -0.0015247319 3.6060665e-05 0.07592036 0.056155704
000320 09 06 af 3d 50 3d 35 3d 79 ab 85 3d 8c 5d 90 3d
       0.08546073 0.044247925 0.065268464 0.07049093
000330 3e 7d 1e bd 42 bf 25 3d d6 17 4f 3b da 73 bf bd
       -0.03869366 0.0404656 0.00315999 -0.09348269
000340 f7 ff 50 bd fc 11 46 3d af d7 07 bc 4d 55 27 3d
       -0.051025357 0.048356995 -0.008291169 0.040852834
000350 14 11 fd bc 24 05 9b bd d3 2c d1 bc 82 34 af bb
       -0.030891933 -0.0756934 -0.02553407 -0.0053468356
000360 0b c9 50 bd 35 27 a2 3d 58 b7 0e bd d1 97 23 3d
       -0.05097298 0.079176344 -0.03484282 0.039939705
000370 e0 27 e0 3c 41 ed c4 bd f7 4c 85 bc 0e 62 81 bd
       0.027362764 -0.09615565 -0.016272051 -0.063175306
000380 a1 4f 0d 3d 4d 2b 0a bd c7 32 ad 3d 7e 22 b7 bc
       0.03449977 -0.0337327 0.08456951 -0.022355314
000390 7d 7c 5b 3d 52 0f 48 3d 4b 90 46 bd 9d 75 96 3c
       0.05358552 0.048842736 -0.048477452 0.01836663
0003a0 cb bb 04 3d 39 46 33 3d 6b 4b 6a bd df c9 7b bc
       0.032405656 0.04376814 -0.05720083 -0.015367954
0003b0 22 e3 31 3d 6b de db 3c 19 ec 55 3d 9b 47 32 bc
       0.0434295 0.026839456 0.052227113 -0.01088133
0003c0 10 8f 7b 3c 02 46 76 3d b3 5d 82 3d c3 4e 0f bd
       0.015353933 0.06012536 0.06365528 -0.034987222
0003d0 6c ed b4 bd da a3 54 3d ac fd 84 bd f0 d7 c6 bc
       -0.08834347 0.051914074 -0.064936966 -0.024272889
0003e0 e8 f6 05 bd d3 10 e8 3c ab 37 de bb 6a d7 b0 bc
       -0.03270617 0.028328335 -0.0067815385 -0.021587092
0003f0 0a 94 fb bc 98 ba a3 bd b0 15 9c 3d 2c 6b 5c bc
       -0.030710239 -0.07994574 0.07621324 -0.013453286

5.bias f4 [120]
000000 f9 e9 83 bd 0e 3a 20 bd 06 67 6b 3d 0c 92 69 3c
       -0.06441111 -0.039117865 0.057471298 0.014256012
000010 83 43 fa 3b 3e a2 32 3b 51 7e 71 3d f1 5c 02 3d
       0.0076374426 0.0027257348 0.058958355 0.031826917
000020 3d 3e 2b 3c f1 23 b1 bd 43 dc 2d 3c 68 93 a5 bd
       0.0104518505 -0.086494334 0.0106115965 -0.08084756
000030 4d d1 45 bd fa 05 09 bc 8c f3 16 bd f8 8a 80 bd
       -0.048295308 -0.008363241 -0.03685336 -0.06276506
000040 8f 98 62 3d 78 4c 9f 37 d9 9e 90 3d 98 95 a3 3c
       0.055321272 1.8989886e-05 0.07061548 0.019968793
000050 27 97 e0 39 5d b6 2e 3d 37 9a 03 3c bf 41 4c bc
       0.00042837227 0.042654384 0.008032373 -0.012466847
000060 3d 19 ae 3d d4 19 b6 bc 1a db 9d 3d 6c af a7 3c
       0.085009076 -0.022229113 0.07707806 0.02046939
000070 11 0d f0 3c cd d2 d1 bb cd f2 2a 3b e5 e8 7b bd
       0.029303106 -0.0064033032 0.0026084662 -0.061501402
000080 92 3e a8 3c 80 65 ec bc e6 f6 54 3d 5a ec 0a 3c
       0.020537648 -0.028856993 0.051993273 0.008479202
000090 d6 6f 1a bd 61 27 64 bd e5 e4 d9 bd 39 fe c5 3d
       -0.03770431 -0.055701617 -0.10639361 0.0966763
0000a0 81 22 fd bc 37 78 cd bd bb 43 87 3c 28 2b 0c 3c
       -0.030900242 -0.10032695 0.016511789 0.008555211
0000b0 b6 af a9 bd a4 17 e3 3c 38 e4 6f bb 28 07 ba 3c
       -0.08285467 0.027721234 -0.0036604535 0.02270849
0000c0 9b 00 97 bd cf 9c 8f bc a6 cd 51 3d 3f e2 40 b9
       -0.07373162 -0.017530827 0.051221512 -0.0001839483
0000d0 ff 18 9c 3d fc d2 5f 3d fe 94 b9 3c 9d 89 d8 bd
       0.07621955 0.05464457 0.022654053 -0.10573123
0000e0 0d ae 8c bd 5f f2 24 3c 59 ed 56 bc 09 c4 23 bc
       -0.06869135 0.010067551 -0.0131181115 -0.009995469
0000f0 d8 a8 05 bc ff 43 98 bc e6 5b b0 bd 36 c8 80 3d
       -0.008157931 -0.01858711 -0.08611278 0.06288187
000100 62 0b 8f 3d 03 b8 8b bd 4d 70 7d bd af 77 a3 bc
       0.06984593 -0.06822207 -0.061874676 -0.01995453
000110 13 cb ac 3d b4 8a ce 3c f5 1c 21 bd 7c 68 93 3d
       0.08437171 0.025212623 -0.039334256 0.07197663
000120 a8 7f e8 bc 05 a9 53 bd 80 86 35 3d 28 d7 f1 3b
       -0.028381184 -0.05167486 0.044317722 0.007380385
000130 8c 52 ae 3d 05 0c 14 bd 27 6a 90 3d 13 30 a0 3d
       0.08511838 -0.036144275 0.07051497 0.078216694
000140 f1 ae a0 3d a0 20 9f 3c f4 77 27 3d 6d b7 e3 3d
       0.078458674 0.019424736 0.04088588 0.1111897
000150 fd 17 02 bd bb 14 05 3d 9b 43 74 3c 77 07 d9 3c
       -0.03176116 0.032490473 0.0149086965 0.026492817
000160 59 b0 9f bd 98 4e 6e 3c 8a 05 a2 bd 8e 88 d4 bb
       -0.077973075 0.014545105 -0.07911213 -0.006486005
000170 62 02 ee bb 8c 91 57 3c c1 6c a3 bd 74 db 5e bd
       -0.0072634676 0.01315726 -0.079797275 -0.054408506
000180 5e bb 4f 3d 0a 0a 7c bd 6e 36 35 bd 63 70 64 3a
       0.050715797 -0.06153301 -0.04424136 0.00087142567
000190 02 54 82 3d 3d 93 c3 bd 44 19 a7 bc 4c 29 72 3c
       0.063636795 -0.09549568 -0.02039779 0.014780354
0001a0 c8 e7 28 bd 4a 67 81 3d 5a 05 d3 bc 17 9f 37 3b
       -0.04123667 0.06318529 -0.025759388 0.002801841
0001b0 f0 f4 76 bd f4 59 5c bc c1 87 41 3d ca 3d aa 3d
       -0.060292184 -0.013449181 0.047248606 0.083125666
0001c0 d7 33 2c 3b d8 80 d9 3c d7 01 7e 3b 73 78 42 bc
       0.0026276016 0.026550695 0.003875842 -0.011869538
0001d0 21 ef 61 bc 0c a9 ee bb 23 7b 17 bd 8d b8 20 bd
       -0.013789923 -0.0072833356 -0.036982667 -0.0392385

7.weight f4 [4, 120]
000000 5c 44 79 bd 0b e8 f7 3c 64 25 00 3c 89 fc cd 3c
       -0.06085621 0.030262014 0.007821415 0.025144832
000010 8e 9f 8e 3d 8a ea d1 bc b9 8c 0e bd df fa d0 bc
       0.069640264 -0.025624532 -0.034802172 -0.02551025
000020 44 59 d5 bb dd 43 aa 3d 7a 59 a4 bc a3 b9 0f bd
       -0.0065108854 0.08313725 -0.020062197 -0.035089146
000030 d2 d2 65 bc f9 07 82 bd 81 8c 3e 3d be 48 74 3d
       -0.014027314 -0.06349177 0.046520714 0.059639685
000040 04 f1 06 3c 20 10 bf bc 86 c8 11 3d 17 e9 49 3d
       0.008236174 -0.023323119 0.035591625 0.049294557
000050 79 c6 6f bc 56 b2 7f bb b8 60 ef 3b 15 3c 00 bd
       -0.014634722 -0.0039016209 0.007305231 -0.0313073
000060 7e 11 1c 3d 41 77 30 3d 36 0f 43 bc 60 da e1 3c
       0.03810262 0.04308248 -0.011905482 0.02756995
000070 b6 ef 3e 3d 61 6c 8f bd d4 ca f7 3c cf 2a 74 bd
       0.046615325 -0.070030935 0.030248083 -0.059611138
000080 5e 85 99 3c 4b 33 18 3d 1e 90 32 3c c8 5d 68 3d
       0.018740352 0.03715829 0.010898618 0.05673006
000090 a4 60 1f bd d9 4c 6a 3d f1 70 99 bd c7 9d bf bb
       -0.038910523 0.057202194 -0.07492245 -0.005847666
0000a0 6c 6c 95 3d 7b b5 31 3d 2e 37 83 3d e0 44 0e bd
       0.072960705 0.043385964 0.06407009 -0.034733653
0000b0 db 29 d8 bc d1 17 fe bc 96 09 8f 3c 7a 6e 49 3c
       -0.026387146 -0.031017216 0.017460626 0.012294406
0000c0 81 0b 7c bc 01 81 4e bd aa 7e f6 bc 58 14 c3 3c
       -0.015383602 -0.050415996 -0.030089695 0.023813412
0000d0 c8 b4 b3 3b ab 1e cf bb be 01 99 bc c2 79 b7 bc
       0.0054841973 -0.0063207946 -0.018677589 -0.022396926
0000e0 92 de 03 bc ba 3b e1 bc f5 af a2 bd 44 84 84 bd
       -0.00804867 -0.0274943 -0.079437174 -0.0647054
0000f0 cd ae c3 ba d1 62 2e bd 79 d7 8c bc 07 53 1c 3c
       -0.0014929414 -0.042574707 -0.01719259 0.00954128
000100 cf 89 05 3c d7 b8 86 3c 0a 2f 77 3d 74 7a 73 bd
       0.008150532 0.01644556 0.060347594 -0.059442952
000110 89 30 08 bd 36 c2 30 bd f1 26 15 3d f9 c6 21 3d
       -0.03324941 -0.043153964 0.03641409 0.039496396
000120 49 76 68 3d b5 7b a8 3b ea ed 45 3d 11 b4 12 3d
       0.05675343 0.0051417 0.048322596 0.035816256
000130 3a 01 72 bc 01 51 62 bb b6 ab cf bb dd a5 bd bc
       -0.0147708 -0.0034533145 -0.006337608 -0.023150379
000140 ce 8b ec bb 32 48 ff 3b 1a f1 26 3b 3d 63 03 3d
       -0.0072188145 0.007790589 0.0025473298 0.032077063
000150 9a 99 3c bd 0d d5 e9 bc e8 fa 1b bd 1b b3 47 3d
       -0.046044923 -0.028543973 -0.03808108 0.048754793
000160 c8 31 39 bd 03 a9 7f bd a1 15 67 3d 7b 74 1e bd
       -0.04521349 -0.06241704 0.05641711 -0.038685303
000170 7d d1 12 bd 7c ad 26 bd 29 c7 63 3d 40 ae 34 3c
       -0.035844315 -0.04069279 0.055609856 0.011027873
000180 f7 bf e2 3c 73 b8 ed 3c 57 41 a5 bb 8e 65 42 bd
       0.027679427 0.029018616 -0.0050431895 -0.04746013
000190 9e 19 95 3c 37 2e da bc 8f 4c 0b 3d d6 78 c1 3c
       0.018200692 -0.026633365 0.03400856 0.02361719
0001a0 c8 7e d8 3c 33 8b 9e 3d 10 68 a6 bd 95 82 2f 3d
       0.026427642 0.07741394 -0.08125317 0.042849142
0001b0 b8 50 23 bd ab 65 85 3d 27 34 74 bc 9c 17 81 3d
       -0.0398719 0.06513532 -0.014905012 0.06303331
0001c0 5d 79 6f bd 16 42 35 bd f7 af 98 bd e4 ad 18 3d
       -0.05846535 -0.044252478 -0.07455438 0.03727521
0001d0 12 5d 80 bc 1d f7 02 bc df a6 c3 bc 82 a7 ec bc
       -0.01566938 -0.007993487 -0.023883281 -0.028888468
0001e0 1c 47 89 3c 16 8b 92 3d f0 fd 3b bd cb b6 e6 3c
       0.01675754 0.07155435 -0.04589647 0.028163334
0001f0 9b fa ba 3c 00 5e 94 bc b2 41 5c 3d c5 28 79 3d
       0.022824576 -0.018111229 0.05377359 0.060829896
000200 52 4f 82 bc e1 18 05 3d ce fb 59 3d 07 8b 39 3d
       -0.015906963 0.03249443 0.053218655 0.045298602
000210 8c 69 b9 3b b5 2c 1f 3d 5e 83 85 bc b2 c3 0b bd
       0.005658334 0.038860995 -0.016297992 -0.034122176
000220 7d e0 34 3d 2b 25 d5 39 a4 b1 a6 bd ef c4 ee 3c
       0.0441594 0.00040654218 -0.08139351 0.02914664
000230 6a 16 af 3c ec 9c 45 3d b7 8b 02 3d 84 63 68 3d
       0.021372993 0.048245355 0.031871524 0.05673553
000240 d2 7f 84 bd 5b c5 82 bd 33 c1 7f 3d a4 96 0a bd
       -0.06469692 -0.06385299 0.06244011 -0.03383507
000250 1a 8c d0 3b 7b 8e 7a 3d c0 50 5d bd e9 99 a2 bd
       0.0063643577 0.061171036 -0.054032087 -0.07939512
000260 19 a0 e3 3b 07 61 a9 bc 32 e7 43 3d df 0d 50 bc
       0.0069465754 -0.020676149 0.047827907 -0.01269862
000270 52 66 72 bd 43 2f 10 bd b1 bc 2f 3c 04 1d 64 bd
       -0.05917961 -0.035201322 0.01072614 -0.055691734
000280 c4 c5 86 bc 57 2d 8b bc 95 dc a2 bd b9 2c 88 bd
       -0.016451724 -0.016989393 -0.07952229 -0.06649155
000290 9d 0f 33 3d 3a a6 0e 3d de 4a e1 bc ad 5d 18 bd
       0.04371606 0.034826495 -0.02750152 -0.03719871
0002a0 55 05 24 3d 9b 21 c1 3c 98 94 07 bb 9f c5 46 3c
       0.040044148 0.023575595 -0.0020687934 0.0121320775
0002b0 79 c2 5d 3d c7 7a b7 bc 3e 10 81 bc e4 01 41 3a
       0.05414054 -0.022397412 -0.015754815 0.00073626474
0002c0 49 c0 d5 3c 1f af 33 3d fc ea 72 3d 8a 63 5f 3d
       0.026092665 0.04386818 0.05930613 0.054538287
0002d0 3d 36 c9 bc 9b 3f fd bc 30 06 a5 3c 0e b7 01 bd
       -0.024561996 -0.030914119 0.020144552 -0.031668715
0002e0 38 ba 53 bb 80 23 57 3d 98 8e 55 bd 5f 35 b4 bc
       -0.003230704 0.05252409 -0.05213794 -0.021998106
0002f0 1e 76 7e 3d 88 8e 8d bc a8 b4 6d bd 40 b9 34 bd
       0.062124364 -0.017279878 -0.058033615 -0.04412198
000300 e7 7d 94 bc 69 c6 cb bc 47 7a 22 3d 65 33 15 bd
       -0.018126441 -0.024874883 0.039667394 -0.036425967
000310 a4 32 8b bd e9 9b 53 3d a9 66 51 3c dd 93 98 3c
       -0.06796768 0.05166236 0.012780824 0.018625194
000320 8b 6a 06 3d 48 7c 77 bd 07 5d 44 3d d1 db 67 bd
       0.03281645 -0.06042126 0.04794028 -0.056606118
000330 8f 2f 45 bc 12 8c 90 3c d4 31 7a bc a0 b6 a0 bc
       -0.012035265 0.017644916 -0.015270669 -0.019618332
000340 4f 4c c4 3c 4f 8a 6a 3d 6c 97 14 3d 0c 1f c1 bc
       0.023962168 0.057260808 0.03627722 -0.023574375
000350 f1 2a 42 bd 78 bf e8 3c 31 99 52 bd 51 a2 54 3d
       -0.047404233 0.028411612 -0.051415626 0.05191261
000360 4f 77 20 bd 47 7d 2f bd 86 3d 17 bc 5b 89 fe bc
       -0.03917628 -0.042844083 -0.009230977 -0.031071356
000370 6f 92 26 3d 5e 6e f2 bc d0 2a a0 bc e5 6b 38 bc
       0.040666994 -0.029593643 -0.019551665 -0.011256193
000380 02 78 fb ba 29 8d e0 bb 73 29 03 bc 45 02 ee bc
       -0.0019185545 -0.006852765 -0.008005488 -0.029053817
000390 94 5c 16 bd 27 72 49 bd 34 7a d4 3b 50 ff 27 3d
       -0.036709383 -0.04918113 0.0064842943 0.04101497
0003a0 04 e0 a0 3d 62 93 e3 3c ef 2c 4c 3d 61 1b b1 3d
       0.078552276 0.027780239 0.04984754 0.086478
0003b0 52 74 56 3d 0b 6a 44 3d 27 13 e4 3c 41 3c 20 3d
       0.052357025 0.047952693 0.027841164 0.039119963
0003c0 ef 30 92 3d c3 76 0d bd 97 4b 11 3c e8 b9 ca bc
       0.071382396 -0.034537088 0.00886812 -0.02474685
0003d0 ba c4 88 3c 1e 1f 5c 3d c9 e7 9e 3b 51 60 26 3d
       0.016695369 0.053740613 0.0048494083 0.0406192
0003e0 28 77 64 bd e0 08 92 3d a4 f0 3f 3c 70 8e 55 3c
       -0.0557777 0.07130599 0.011715088 0.013034448
0003f0 88 dd bc bc 4d 17 5d bd 2f b5 58 bd 1f 19 a4 3c
       -0.023054853 -0.0539773 -0.052907165 0.02003151

7.bias f4 [4]
000000 6b d5 2b bc a9 b6 af 3c ae fd 21 bd 07 e4 a7 bc
       -0.0104878945 0.021449404 -0.03954857 -0.020494474
