neural_networks/tmp_benchmark.pt (torch, 132645 bytes, 10 tensors)

mean f4 [16]
0	0x3b87a4ee	0.004139534
1	0xba54ac88	-0.00081128674
2	0xba007e77	-0.0004901657
3	0xb8aa6245	-8.124536e-05
4	0xb94ffda2	-0.00019835544
5	0xb81c43e5	-3.725653e-05
6	0xba4f60f7	-0.0007910872
7	0x39c5aa93	0.00037701856
8	0xbab6e7c6	-0.0013954572
9	0x38d0e637	9.961094e-05
10	0x3a1d1453	0.0005992103
11	0x3ac70d09	0.001518638
12	0x45ac5db4	5515.713
13	0x45ac6544	5516.658
14	0x45ac5196	5514.198
15	0x45ac4f77	5513.933

std f4 [16]
0	0x3e5a2405	0.21302803
1	0x3e765cdf	0.24058865
2	0x3e032535	0.12807162
3	0x3caeb77a	0.021327723
4	0x3cce8a7e	0.025212523
5	0x3cb26ec7	0.021781338
6	0x3d08b9d2	0.033380337
7	0x3cf762e0	0.030198514
8	0x3e06cf16	0.13164935
9	0x3d43a1bc	0.047761664
10	0x3d46cd83	0.048535835
11	0x3d45daf5	0.048304517
12	0x433930cf	185.19066
13	0x433ad928	186.84827
14	0x4326d015	166.81282
15	0x43246903	164.4102

weight f4 [120, 16]
0	0x3dc5eb1e	0.09663986
1	0x3e45c586	0.1931363
2	0x3e74a0f4	0.23889524
3	0x3d2bcfe4	0.041946307
4	0x3d9f8f9c	0.07791063
5	0xbccefd4c	-0.025267266
6	0xbe40918b	-0.1880552
7	0x3dc876d3	0.09788289
8	0xbde92b5f	-0.113852255
9	0xbe1fea9a	-0.15616837
10	0x3e110418	0.14161718
11	0xbe419c9a	-0.18907395
12	0xbe61477e	-0.21999928
13	0x3e0b45fc	0.13600916
14	0xbdce474d	-0.10072193
15	0xbe1b98b1	-0.15194966
16	0x3e7565d5	0.23964627
17	0x3e140cdf	0.14458035
18	0x3e1c7e1f	0.15282486
19	0x3d939b6d	0.072073795
20	0x3e5c85be	0.21535394
21	0xbe422eb2	-0.18963125
22	0xbdc00232	-0.09375419
23	0xbe5e886e	-0.21731731
24	0xbd46cd6d	-0.048535753
25	0x3d811502	0.06302835
26	0x3b695765	0.003560507
27	0x3e6e0a23	0.23246054
28	0x3bdedc0f	0.0068011354
29	0x3e0fe41c	0.1405186
30	0xbcbf9837	-0.023388011
31	0x3d7fabb6	0.062419616
32	0x3dc6f939	0.09715504
33	0x3e07b54b	0.13252752
34	0xbe0b68fe	-0.1361427
35	0x3d2900e4	0.041260615
36	0x3e01e823	0.1268621
37	0x3e707607	0.23482524
38	0x3e1df019	0.15423621
39	0x3df81ad4	0.12114492
40	0xbe26fc96	-0.16307291
41	0x3ba0b291	0.0049040993
42	0xbe51b2aa	-0.20478311
43	0xbdae6631	-0.08515585
44	0xbe39320a	-0.18085495
45	0x3d55bc59	0.052181575
46	0xbe816e01	-0.2527924
47	0xbd77e62e	-0.06052225
48	0x3b4dda41	0.0031410607
49	0xbc834615	-0.016024629
50	0x3dc84bd4	0.09780088
51	0x3ddca3f3	0.10773458
52	0x3bc08064	0.0058746804
53	0x3e0754d2	0.1321595
54	0xbe31b8ba	-0.17355624
55	0x3e735bc9	0.23765482
56	0x3e565137	0.20929419
57	0xbd00500f	-0.03132635
58	0xbce25cae	-0.027632084
59	0xbe07d0fd	-0.13263316
60	0xbe5fb7e1	-0.21847488
61	0x3e0b352e	0.13594505
62	0x3d17fc8e	0.03710609
63	0x3dd68ce0	0.104760885
64	0xbd50d4a7	-0.05098405
65	0xbe31f13a	-0.17377177
66	0x3dc9949f	0.098428
67	0xbcc258f0	-0.02372405
68	0x3e073549	0.1320392
69	0xbc9ac342	-0.018891934
70	0x3c616eea	0.013759354
71	0x3e63dd68	0.22252429
72	0x3df102eb	0.11768135
73	0x3cf4601b	0.029830983
74	0x3b83e69d	0.004025294
75	0x3bb18207	0.005417112
76	0x3da58556	0.080820724
77	0xbe4a70d8	-0.19769609
78	0xbd9a600c	-0.07537851
79	0x3e28ee29	0.16497101
80	0x3e55d856	0.20883307
81	0xbe47a80b	-0.19497697
82	0xbe79dd4c	-0.24400824
83	0x3d33b1cf	0.043870743
84	0xbdb69c73	-0.08916559
85	0x3d719938	0.05898401
86	0xbd0dc891	-0.034615103
87	0xbe4c1ce3	-0.19932894
88	0xbd22af8c	-0.039718196
89	0xbd5e9bb5	-0.054347713
90	0x3e2cc091	0.16870333
91	0x3e414e49	0.1887752
92	0xbe6dd698	-0.23226392
93	0xbe8430f9	-0.25818613
94	0x3c38349f	0.011243015
95	0x3dc2de6c	0.0951508
96	0xbdec373e	-0.11533974
97	0x3e658ebe	0.22417733
98	0xbe32acdb	-0.17448752
99	0x3e25bded	0.16185732
100	0xbdd9d29f	-0.10635876
101	0xbda0a3a8	-0.07843715
102	0x3e5ccfca	0.2156364
103	0x3c67b63f	0.014142572
104	0x3e459e8e	0.19298765
105	0xbe2dc5fe	-0.1697006
106	0xbe5d619d	-0.21619268
107	0xbd15d0f8	-0.03657624
108	0x3e523919	0.20529594
109	0x3e3dcadf	0.1853442
110	0x3e327a3b	0.1742944
111	0x3d64631b	0.055758577
112	0xbda8925c	-0.08231041
113	0x3decae2c	0.11556658
114	0xbe3d863a	-0.18508235
115	0xbe1e68bc	-0.1546964
116	0xbcad6828	-0.02116783
117	0xbe3afc6e	-0.18260357
118	0x3cc78087	0.024353279
119	0x3b2505a0	0.0025180355
120	0x3e078ad6	0.13236555
121	0xbd98fd3b	-0.07470175
122	0xbd606abc	-0.05478929
123	0xbe3e4a31	-0.1858299
124	0x3dfb4023	0.122680925
125	0xbd02c82f	-0.03192919
126	0x3d95025c	0.07275841
127	0x3e4c4991	0.19949938
128	0x3e5d61cc	0.21619338
129	0xbd9d6969	-0.07686121
130	0xbe0b71c1	-0.13617612
131	0xbc10ffda	-0.008850062
132	0xbe70adc7	-0.23503791
133	0x3e1d297c	0.15347856
134	0x3df42787	0.11921602
135	0x3e40ac54	0.18815738
136	0xbdb5b445	-0.08872274
137	0xbdb7bfac	-0.089721054
138	0xbe769e78	-0.24083889
139	0xbe67027c	-0.22559541
140	0xbdac5f39	-0.084166
141	0xbc4b536c	-0.012410026
142	0x3e35d736	0.17757878
143	0xbe39732f	-0.18110345
144	0xbe1fc4eb	-0.15602462
145	0xbde4edd2	-0.11178173
146	0xbe016c15	-0.12638886
147	0xbe61826c	-0.22022408
148	0xbc5f46a2	-0.01362768
149	0xbc875eec	-0.016524754
150	0x3dadd0ef	0.084871165
151	0xbe1242e3	-0.14283328
152	0x3da19c73	0.078911684
153	0x3de5ecc3	0.11226799
154	0x3e35e4d8	0.17763078
155	0x3d2edf14	0.042693213
156	0xbe39c5d3	-0.1814187
157	0xbd7566ac	-0.05991237
158	0xbd7c59bc	-0.061609015
159	0xbdfb36fd	-0.122663476
160	0x3dc94733	0.09828033
161	0xbdfb2ac6	-0.12264018
162	0x3e36cdcd	0.17851944
163	0x3dc892b3	0.09793606
164	0x3e39edb4	0.18157083
165	0x3e436184	0.19080168
166	0xbdb4240f	-0.0879594
167	0xbe036fc1	-0.128356
168	0xbe1ab07a	-0.15106383
169	0x3dcdcf47	0.10049301
170	0xbd5b2b83	-0.053508293
171	0x3da9d674	0.08292857
172	0xbe15144b	-0.14558522
173	0x3e0cf43f	0.13765047
174	0x3d3bfb13	0.04589374
175	0xbcc39fea	-0.023879964
176	0x3dd60db1	0.1045183
177	0xbc65fc7f	-0.014037251
178	0xbdd98f53	-0.1062304
179	0xbbc55215	-0.006021748
180	0xbdd287c7	-0.10279804
181	0x3e41c76b	0.18923728
182	0xbe3aaabf	-0.18229197
183	0xbcdb3afb	-0.026761523
184	0xbe5ca17a	-0.21545973
185	0x3e6ce038	0.23132408
186	0xbdc3b36c	-0.095557064
187	0x3dac8acd	0.08424912
188	0xbe358939	-0.17728128
189	0xbe567d96	-0.20946345
190	0xbd90504c	-0.070465654
191	0x3de23759	0.11045713
192	0x3e43a7fd	0.19107051
193	0xbe68c8e6	-0.22732887
194	0xbe2c2d0d	-0.1681406
195	0xbe29a87b	-0.16568176
196	0xbe432209	-0.19055952
197	0xbcb32d90	-0.021872312
198	0x3da97c44	0.08275655
199	0xbe006e2d	-0.12542029
200	0xbe36ced6	-0.17852339
201	0x3e01f718	0.12691915
202	0x3d5e57fc	0.054283127
203	0xbe0794f3	-0.13240413
204	0xbdcd0b40	-0.100119114
205	0xbc430a06	-0.011904245
206	0x3df765ef	0.12079989
207	0xbd36d83d	-0.044639815
208	0x3e23c571	0.15993287
209	0xbe442510	-0.19154763
210	0xbc337c0b	-0.010954867
211	0x3e3ff378	0.1874522
212	0xbc135067	-0.008991337
213	0x3e5dcdb8	0.21660507
214	0x3d60d5e8	0.054891497
215	0xbbff796c	-0.007796457
216	0xbe223afe	-0.15842816
217	0x3e229176	0.15875801
218	0xbd6ea4f4	-0.05826278
219	0xbe20447b	-0.15651123
220	0xbe1adee4	-0.15124089
221	0xbd15e19c	-0.03659211
222	0xbe6ba101	-0.23010637
223	0x3d0bda47	0.034143712
224	0x3e3c3ff1	0.18383767
225	0x3dd66bf1	0.10469807
226	0x3e03d1cf	0.12873004
227	0x3e1fad67	0.15593491
228	0xbdbfdb94	-0.09368053
229	0xbe5e1a98	-0.21689832
230	0xbe38b4c9	-0.18037714
231	0x3e0369e0	0.12833357
232	0x3e53eed8	0.2069658
233	0x3ca91a67	0.020642472
234	0xbe1bd856	-0.15219244
235	0xbd06da83	-0.032923233
236	0xbe5ba77e	-0.21450612
237	0xbdc80e23	-0.09768321
238	0xbde05d86	-0.10955338
239	0x3e4f2d85	0.20232208
240	0x3ca45eb2	0.020064685
241	0xbe4b8638	-0.19875419
242	0x3cdbcc15	0.026830712
243	0x3e1d7252	0.15375641
244	0xbd42a359	-0.04751906
245	0x3e22c8f8	0.15896976
246	0x3e5e33f2	0.21699503
247	0x3da19d96	0.07891385
248	0x3df1d9fb	0.118091546
249	0xbdbe51ee	-0.092929706
250	0x3bfe500f	0.0077610086
251	0xbe61ebfb	-0.22062676
252	0x3e4bac16	0.19889864
253	0xbe612697	-0.21987377
254	0x3c977a93	0.018491065
255	0xbdcc44d5	-0.09974066

bias f4 [120]
0	0x3d8b76a7	0.068097405
1	0x3e7cfa86	0.24704942
2	0xbe537ffc	-0.20654291
3	0x3da7aa70	0.08186805
4	0xbc4079cf	-0.011747791
5	0xbe890a95	-0.26765886
6	0x3e7a169f	0.24422692
7	0x3d2c4929	0.04206196
8	0xbe1b6322	-0.15174535
9	0xbe6b77a5	-0.2299486
10	0x3d1cc8a7	0.038277294
11	0x3d6bd022	0.057571538
12	0xbe7e6374	-0.24842626
13	0xbdb469fa	-0.08809276
14	0x3d987643	0.07444432
15	0x3db515d7	0.08842056
16	0xbdbddabe	-0.092702374
17	0x3ca28110	0.019836932
18	0x3e57992f	0.21054529
19	0xbe40cd98	-0.18828428
20	0x3e407602	0.18795016
21	0xbcc67a1f	-0.024228154
22	0xbe431f08	-0.19054806
23	0xbe6cccb9	-0.2312497
24	0x3c626da4	0.013820086
25	0xbd9b663b	-0.07587858
26	0x3d9412b9	0.072301336
27	0x3e358a2d	0.17728491
28	0x3d0baf24	0.034102574
29	0x3d9b2cb0	0.07576883
30	0xbd9205a2	-0.071299806
31	0xbe5ef941	-0.2177477
32	0xbd8d618e	-0.06903373
33	0xbd578c40	-0.052623987
34	0x3e59e7e6	0.21279868
35	0xbe57de6e	-0.21080944
36	0x3d936dc6	0.07198672
37	0x3e252a84	0.161295
38	0xbe165971	-0.14682557
39	0xbe43f0c3	-0.19134812
40	0xbe7495df	-0.23885296
41	0x3dc3a32e	0.095526084
42	0x3e64399e	0.22287604
43	0xbe6a3d1c	-0.22874874
44	0xbcb90f2b	-0.02259024
45	0x3e2f54e2	0.17122224
46	0xbd882858	-0.0664832
47	0x3d6a646c	0.057224676
48	0xbc886434	-0.016649343
49	0xbe58412b	-0.2111861
50	0x3e39ad03	0.18132405
51	0xbdf85bed	-0.121269085
52	0x3e27009c	0.16308826
53	0xbe07941c	-0.13240093
54	0xbe0e8173	-0.13916568
55	0x3c2af841	0.010435165
56	0xbdf62965	-0.12019614
57	0xbe22966e	-0.15877697
58	0x3e2f9d62	0.1714988
59	0x3d8a8a0c	0.067646116
60	0xbe5eb5e0	-0.21749067
61	0x3e331ce6	0.17491493
62	0x3dbba7ff	0.09162902
63	0xbb849d07	-0.0040470394
64	0xbe79776b	-0.2436196
65	0x3e12b350	0.14326215
66	0xbe23f94a	-0.16013065
67	0xbe5835f0	-0.21114326
68	0xbd40b306	-0.04704573
69	0x3e4c56c2	0.1995497
70	0x3df23f58	0.11828488
71	0x3c3d944e	0.011571003
72	0xbcfb26dd	-0.03065818
73	0x3e483590	0.19551682
74	0x3e49cb27	0.19706403
75	0xbdd928d3	-0.1060349
76	0x3e067e31	0.13134076
77	0xbe1e1cb6	-0.1544064
78	0xbe16282c	-0.14663762
79	0x3dd30c90	0.103051305
80	0x3e4ad0a4	0.19806153
81	0xbd5747af	-0.052558597
82	0xbe186cd9	-0.14885272
83	0xbdc402d7	-0.09570854
84	0x3e36f839	0.17868127
85	0x3da55cde	0.08074354
86	0x3d759873	0.05995984
87	0x3cc86521	0.024462285
88	0x3dc0bba5	0.0941079
89	0x3bfd85c2	0.0077368924
90	0x3e77bd70	0.24193358
91	0x3d5dc833	0.054146003
92	0x3da74aaf	0.08168542
93	0xbe172140	-0.14758778
94	0x3dfa9720	0.12235856
95	0x3e5eb3e9	0.21748318
96	0x3cca83a3	0.024720972
97	0x3e0192a5	0.12653597
98	0x3d07fba8	0.033198982
99	0x3e20ef5a	0.15716305
100	0x3e6e6fb8	0.23284805
101	0xbe28193e	-0.16415879
102	0xbe865875	-0.26239362
103	0x3b7a1524	0.0038159573
104	0xbde3502a	-0.110992745
105	0x3c7a1bb4	0.015265394
106	0xbe08af59	-0.1334814
107	0x3e3d4945	0.18484981
108	0x3ddeeb9d	0.108847834
109	0x3dc6c7ea	0.09706099
110	0x3d259e2a	0.04043404
111	0x3d6187ba	0.05506108
112	0x3e71c81a	0.23611489
113	0xbe23c380	-0.15992546
114	0xbd6dd394	-0.058063105
115	0x3d3342b7	0.043764796
116	0x3e4fbfeb	0.20288055
117	0xbe2fa8ac	-0.17154187
118	0x3bdf352a	0.0068117576
119	0x3e7697e8	0.24081385

weight f4 [120, 120]
0	0x3d3d839c	0.04626809
1	0xbd29459e	-0.041326158
2	0xbca3077f	-0.019901035
3	0xbd510dad	-0.051038433
4	0x3c178aa2	0.009249361
5	0xbc95c13e	-0.018280622
6	0xbd7400a2	-0.059570916
7	0xbd0ba46a	-0.034092344
8	0x3801a925	3.0913525e-05
9	0xbd6b87d5	-0.057502586
10	0x39d0dd6d	0.00039837827
11	0x3c043e51	0.008071498
12	0xbbe3817a	-0.006942925
13	0xbcf2983c	-0.029613607
14	0x3d7fde62	0.06246794
15	0x3d50628d	0.050875235
16	0x3c523ba5	0.012831603
17	0x3d778a56	0.06043466
18	0x3d699495	0.057026464
19	0x3d4a8292	0.049440928
20	0xbd851dd8	-0.06499833
21	0x3d44ac20	0.048015714
22	0xbd535ab2	-0.051600166
23	0x3dc084bc	0.09400317
24	0xbd8ce6b4	-0.06879941
25	0x3d4ce881	0.05002642
26	0xbd8a75a3	-0.06760719
27	0xbd881a01	-0.06645585
28	0xbda7b489	-0.08188731
29	0x3d99c8ca	0.075090006
30	0x3d87541c	0.066078395
31	0xbd38bf7c	-0.04510449
32	0xbd875f21	-0.06609941
33	0x3d61f23f	0.055162665
34	0xbbd203c3	-0.00640914
35	0xbd54f6c3	-0.051993143
36	0xbbecf72a	-0.0072316127
37	0xbd24c073	-0.040222596
38	0xbcaf90be	-0.021431323
39	0xbd7c0c6c	-0.061535284
40	0xbd0e1454	-0.034687355
41	0x3da3673a	0.07978673
42	0xbcc141d6	-0.023590963
43	0xbd820644	-0.06348851
44	0x3da5dbfa	0.08098598
45	0x3d9607d2	0.0732571
46	0x3d2fc261	0.042909984
47	0xbd126308	-0.035738975
48	0x3d33e320	0.043917775
49	0xbc34d257	-0.011036477
50	0x3cbe8a76	0.023259383
51	0xbcbd903a	-0.023140062
52	0x3d030bfe	0.03199386
53	0x3cdeab71	0.027181359
54	0xbd83e8e8	-0.06440908
55	0x3d15b33d	0.036547888
56	0xbd1f35bb	-0.0388696
57	0xbd7669d3	-0.060159516
58	0xbd6486c3	-0.05579258
59	0x3cd42f97	0.025901599
60	0x3d812f80	0.06307888
61	0x3c0c1072	0.008548843
62	0x3d917e14	0.071041256
63	0x3dada68f	0.08479034
64	0x3d5621ea	0.052278437
65	0xbd788474	-0.060673192
66	0xbcd184dc	-0.025576048
67	0x3cacc807	0.021091474
68	0x3cdd4d82	0.027014498
69	0xbd1bd3b1	-0.03804368
70	0xbcc0e1b0	-0.023545116
71	0x3db41481	0.08792973
72	0x3d969490	0.07352555
73	0x3d6f843f	0.05847573
74	0x3cd9042d	0.026491249
75	0xbdc8fe6a	-0.09814151
76	0x3d5188ff	0.05115604
77	0xbd834aed	-0.06410775
78	0xbd262369	-0.040561114
79	0xbd099b25	-0.033595223
80	0x3da6a122	0.081362024
81	0xbd7d68b8	-0.061867446
82	0x3c9db0ac	0.019249283
83	0x3bef2ef8	0.0072993003
84	0x3d80a3be	0.06281231
85	0x3cbdc4b4	0.023165084
86	0xbd858ca5	-0.065209664
87	0xbcc67f35	-0.024230579
88	0x3c7cd8b5	0.015432526
89	0x3da367d0	0.07978785
90	0xbd85376d	-0.06504712
91	0x3d890d4d	0.0669199
92	0xbcc32758	-0.023822471
93	0x3a7d2fb1	0.00096582907
94	0xbd926250	-0.07147658
95	0x3cf84775	0.03030751
96	0x3ceb2259	0.028702902
97	0x3cb54bd0	0.022130877
98	0xba83d5c1	-0.001005821
99	0x3dbfc70b	0.09364136
100	0x3d3ab300	0.045580864
101	0x3ddfcea9	0.10928089
102	0xbcb82320	-0.022477686
103	0x3d9a84cf	0.075448625
104	0xbd9e86d3	-0.077405594
105	0xbcd91bf7	-0.026502592
106	0x3d0f5b69	0.034999285
107	0x3cde95fa	0.027171124
108	0xbd75d86a	-0.06002084
109	0x3d216b93	0.03940923
110	0x3cf8841d	0.030336434
111	0x3da69b59	0.08135099
112	0x3cdb6dac	0.026785694
113	0xbd476eee	-0.048689775
114	0x3d15ee8d	0.036604453
115	0x3d8dfb31	0.069326766
116	0xbd459068	-0.04823342
117	0xbd00d5e0	-0.031453967
118	0x3d1b478e	0.037910037
119	0xbd1e0d5d	-0.038586963
120	0xbd9ca0d6	-0.076478645
121	0x3d509d66	0.050931357
122	0x3d474127	0.04864612
123	0xbd060b63	-0.032725703
124	0x3d9865fb	0.07441326
125	0xbc9d8279	-0.019227253
126	0xbc23e1f4	-0.010002602
127	0xbd777d83	-0.06042243
128	0x3d16911f	0.036759492
129	0xbd1fd79f	-0.03902399
130	0x3bd83927	0.00659861
131	0xbc4d6dc4	-0.012538377
132	0x3d68fa8d	0.05687957
133	0xbcb3ad6e	-0.021933284
134	0x3bbfa081	0.005847991
135	0x3b0c4487	0.002140315
136	0x3d878a30	0.06618154
137	0xbc8b1ad7	-0.016980572
138	0x3da0fca1	0.07860685
139	0x3bca36fc	0.0061711054
140	0x3d4af190	0.04954678
141	0xbacc4db8	-0.0015587127
142	0x3c45b2e4	0.012066577
143	0x3da5992a	0.08085854
144	0xbd165f70	-0.03671211
145	0xbdb7dcc5	-0.08977655
146	0x39c99a42	0.0003845264
147	0xbd8e5479	-0.06949706
148	0xbc4cbcfb	-0.012496228
149	0xbd78701c	-0.06065379
150	0xbdbc64e2	-0.09198929
151	0xbc2ca60a	-0.010537634
152	0xbd93d6b8	-0.07218689
153	0xbdb72ffb	-0.089446984
154	0xbd92b6d3	-0.07163777
155	0x3d0c2651	0.03421623
156	0xbda8570c	-0.08219728
157	0xbd5f75de	-0.054555766
158	0xbd7f2cfb	-0.062298756
159	0xbdc5c944	-0.09657529
160	0xbd4d6409	-0.05014423
161	0x3d340082	0.043945797
162	0xbd366960	-0.044534087
163	0xbd44158b	-0.047872107
164	0x3d733689	0.05937818
165	0x3d4deb15	0.05027302
166	0xbbac1394	-0.0052513573
167	0xbda11960	-0.07866168
168	0xbbe2ebff	-0.0069251056
169	0x3b66061a	0.0035098852
170	0xbcead32c	-0.028665148
171	0x3bf84d4d	0.0075775743
172	0xbd1292d0	-0.035784543
173	0x3b0aec39	0.0021197929
174	0x3cf017a4	0.029308148
175	0x3c26624f	0.0101552745
176	0x3bab5016	0.005228053
177	0xbd829145	-0.06375364
178	0xbd037d75	-0.032102067
179	0xbc0a99a6	-0.008459484
180	0xbbcb9b8b	-0.0062136105
181	0x3db2b2fc	0.08725545
182	0x3d8b5cf7	0.06804841
183	0x3cf5d8fd	0.030010695
184	0x3da8efa7	0.08248835
185	0xbccc8b77	-0.024968846
186	0x3cbcd3f1	0.02305028
187	0xbd115b4b	-0.035487454
188	0x3acfcc84	0.0015853797
189	0xbd032ce8	-0.032025248
190	0xbd4b3355	-0.0496095
191	0x3cd57b9a	0.026059914
192	0x3d45f952	0.048333474
193	0xbd4203ac	-0.047366783
194	0x3dabe6dc	0.08393642
195	0x3d548858	0.05188784
196	0x3d58bbba	0.052913405
197	0xbd96cc93	-0.07363238
198	0xbcac74e8	-0.021051839
199	0xbce1cac7	-0.027562512
200	0x3d9ca975	0.07649509
201	0xbd15e701	-0.036597256
202	0xbd5bf788	-0.05370286
203	0xbda5c2a4	-0.080937654
204	0xbd338cbd	-0.04383539
205	0x3cbbb588	0.02291371
206	0x3c1142de	0.00886604
207	0xbcc1c245	-0.023652205
208	0xbd2767fe	-0.04087066
209	0xbd81aff5	-0.06332389
210	0xbc704520	-0.014664918
211	0x3ca055ae	0.019572105
212	0x3ce41c80	0.027845621
213	0xbdaef4fa	-0.08542819
214	0x3c1803b4	0.009278227
215	0x3da79291	0.08182252
216	0x3d237efc	0.039916024
217	0xbd9fa34f	-0.077948205
218	0xbc83065b	-0.015994241
219	0xbd28515e	-0.041093223
220	0xbd6363a0	-0.05551493
221	0x3d9e4e10	0.07729733
222	0x3d81e675	0.06342784
223	0x3cc7c18c	0.024384283
224	0x3d2d9d2e	0.042386226
225	0x3d110daf	0.03541344
226	0x3d412269	0.047151957
227	0xbc9cdd17	-0.019148393
228	0xbd96fd14	-0.073724896
229	0x3d44ccc2	0.048046835
230	0xbcfa2d51	-0.030539187
231	0xbd8a3df8	-0.06750101
232	0x3c87da06	0.016583454
233	0xbd8c604f	-0.06854307
234	0xbc75fea3	-0.015014323
235	0xbcf6bf26	-0.030120444
236	0x3d461cb1	0.048367206
237	0xbaf24fac	-0.0018486879
238	0xbd842ec2	-0.06454231
239	0xbda478df	-0.08030867
240	0xbdad9ab2	-0.084767714
241	0xbc372195	-0.01117744
242	0xbd9af981	-0.0756712
243	0x3d95cd87	0.07314592
244	0xbdb17dbb	-0.08666559
245	0x3cc68966	0.024235439
246	0xbdac282f	-0.08406102
247	0x3b482d66	0.0030544638
248	0xbd17a139	-0.03701899
249	0x3d7b281c	0.06131755
250	0xba3fb349	-0.00073127873
251	0x3b10595a	0.0022025914
252	0xbd5b8e16	-0.0536023
253	0xbd97f4d1	-0.07419742
254	0x3d080ec6	0.033217214
255	0xbd0e2e36	-0.03471204

bias f4 [120]
0	0xbdbdfbcd	-0.09276543
1	0x3d9cb0e0	0.07650924
2	0xbd2b7030	-0.041855037
3	0xbcebd668	-0.02878876
4	0x3cd28852	0.025699768
5	0xbdbb584c	-0.09147701
6	0x3ccd9272	0.025094245
7	0x3c4c1723	0.012456688
8	0xbd8faa46	-0.07014899
9	0xbd308225	-0.043092865
10	0x3dad9c8b	0.08477124
11	0xbd12d0b3	-0.035843562
12	0x3da0974a	0.07841356
13	0x3ce086a6	0.027407955
14	0x3d7f42da	0.062319614
15	0xbd7fdf7b	-0.062468987
16	0x3ce4ac2a	0.027914125
17	0xbd64cd3c	-0.05585979
18	0x3da4aced	0.080407955
19	0xbd093b3f	-0.033503767
20	0x3d257375	0.04039331
21	0x3da7bc99	0.08190269
22	0x3da9de2b	0.08294328
23	0xbc84518b	-0.016152164
24	0x3ca59a9e	0.020215329
25	0x3d9a0dc8	0.0752216
26	0x3d4c2e3a	0.049848773
27	0xbd19c097	-0.037537184
28	0x3d8a3e66	0.06750183
29	0x3da13967	0.07872277
30	0xbd1a763e	-0.03771042
31	0x3dbeef15	0.09322945
32	0x3d828256	0.06372516
33	0xbd1ec44b	-0.03876142
34	0x3d98f52e	0.07468639
35	0xbc90c25b	-0.0176708
36	0x3db6528e	0.08902465
37	0xbc7ff785	-0.015622978
38	0xbda08e50	-0.07839644
39	0xbd8a9f95	-0.06768719
40	0x3d77da83	0.060511123
41	0xbcc9009b	-0.024536422
42	0x3d79e148	0.06100586
43	0xbd106d1e	-0.035260312
44	0x3d56e76a	0.052466787
45	0x3d96b582	0.073588386
46	0xbd6f8d0a	-0.058484115
47	0xbd559ad4	-0.05214961
48	0x3b209c2b	0.0024507146
49	0xbd37049b	-0.044682126
50	0xbd7b4afa	-0.0613508
51	0xbd9435ca	-0.07236822
52	0xbdd8a74a	-0.10578783
53	0xbc60f414	-0.013730068
54	0xbd29daca	-0.04146842
55	0xbd065688	-0.032797366
56	0x3b0d4fd9	0.0021562485
57	0xbdb107a6	-0.08644037
58	0x3d52f0bf	0.051499125
59	0xbd17e793	-0.03708608
60	0x3db449fb	0.08803173
61	0xbdac2654	-0.08405748
62	0x3c7df13d	0.01549941
63	0x3d08eb05	0.033427257
64	0xbbdb135b	-0.006685657
65	0x3cdd4762	0.027011577
66	0xbd020c41	-0.031749967
67	0xbd9e1f8a	-0.07720859
68	0x3d191a96	0.03737887
69	0x3da96783	0.082716964
70	0xbd90030d	-0.07031832
71	0xbcfcd4e4	-0.030863233
72	0x3bbbddd8	0.005733233
73	0xbd2bc8a2	-0.041939385
74	0x3dbfcdff	0.093654625
75	0x3d27518b	0.04084925
76	0x3c2a7488	0.01040376
77	0x3d238629	0.039922867
78	0x3d8aaf7d	0.06771753
79	0x3d909a38	0.07060665
80	0x3d0ead0a	0.03483299
81	0x3db1057a	0.08643623
82	0xbd6b4c57	-0.05744585
83	0x3d9c6a86	0.07637505
84	0xbd4df209	-0.05027965
85	0xbda2d065	-0.07949904
86	0xbd0369de	-0.032083385
87	0xbc0e672f	-0.008691593
88	0xbda87b7a	-0.08226676
89	0xbd8aed72	-0.0678357
90	0xbda2d70f	-0.079511754
91	0x3c354545	0.011063878
92	0xbd9235f9	-0.07139201
93	0x3bba097e	0.005677401
94	0xbd57a383	-0.05264617
95	0xbd2d6520	-0.04233277
96	0xba167f4f	-0.00057410164
97	0xbd623377	-0.055224862
98	0x3d871709	0.065961905
99	0xbdab0b80	-0.08351803
100	0xbde170fb	-0.110078774
101	0xbd9541fa	-0.07287975
102	0x3c4075a0	0.011746794
103	0xbc2ab72b	-0.010419647
104	0xbd8b47fa	-0.06800838
105	0x3caa7846	0.020809304
106	0xbc8b7948	-0.017025605
107	0xbdb673ca	-0.08908804
108	0x3c7559f9	0.014975064
109	0x3d9788ac	0.07399115
110	0x3da13027	0.078705125
111	0x3c2f8343	0.010712448
112	0xbbfa4b34	-0.0076383594
113	0xbdc0fcc8	-0.09423214
114	0xbd1e054a	-0.038579263
115	0xbcff171a	-0.031138945
116	0xbddab832	-0.10679664
117	0xbd0b5389	-0.034015212
118	0xbd83f983	-0.06444075
119	0x3c55002c	0.013000529

weight f4 [120, 120]
0	0xbd38ee14	-0.045148924
1	0x3d8adf50	0.06780875
2	0xbc33088b	-0.01092733
3	0xbd4662c4	-0.048434034
4	0x3d25b87d	0.040459145
5	0xbce3f87a	-0.027828444
6	0x3bb89cc3	0.005633922
7	0x3d5979d1	0.05309469
8	0xbd8e439c	-0.06946489
9	0x3d5c27f2	0.053749032
10	0x3d9021fb	0.07037731
11	0x3d615501	0.055012707
12	0x3d83c3c9	0.064338274
13	0xbc92cb0b	-0.017919084
14	0xbdb16824	-0.086624414
15	0xbd637d61	-0.055539493
16	0x3d9515b8	0.07279533
17	0x3db04299	0.086064525
18	0xbc8021d5	-0.015641132
19	0x3b5dec11	0.003386263
20	0xbcf1e787	-0.029529346
21	0xbd9ebac7	-0.07750469
22	0xbd8f96d3	-0.07011189
23	0xbd045b4b	-0.032313626
24	0x3994dbe0	0.0002839258
25	0x3dcd3340	0.10019541
26	0x3aaac79b	0.0013029458
27	0x3d6a7598	0.057241052
28	0x3d9ca421	0.076484926
29	0x3c25d948	0.010122605
30	0xbb00ae64	-0.0019635195
31	0x3c7ed10f	0.015552773
32	0xbd79cc5c	-0.060985908
33	0x3d408b52	0.047007866
34	0x3c531211	0.012882725
35	0x3daa91ad	0.08328567
36	0x3db77510	0.08957875
37	0x3d177099	0.036972616
38	0xbd6a7d74	-0.057248548
39	0x3dc501ef	0.096195094
40	0xbd2dc415	-0.042423327
41	0x3da28b1b	0.079366885
42	0xbd9d12e3	-0.07669618
43	0x3d6148e3	0.05500115
44	0xbc95b0a7	-0.018272711
45	0xbd86898a	-0.06569202
46	0xbd144f19	-0.036208246
47	0xbd8c4c49	-0.06850488
48	0x3c3e6d50	0.011622742
49	0xbd4f1e84	-0.05056621
50	0x3cabc5ee	0.020968404
51	0x3dbfd31c	0.09366438
52	0x3afa8af1	0.0019114894
53	0xbd191b79	-0.037379716
54	0xbd8065a1	-0.06269384
55	0x3cf0ce6c	0.029395305
56	0x3d3c105c	0.04591404
57	0x3c62adf2	0.013835417
58	0x3cc8a673	0.024493432
59	0xbd4a5f3f	-0.04940724
60	0x3d5c8601	0.053838734
61	0x3cf08768	0.029361442
62	0xbd4f4ad6	-0.05060848
63	0x3d334396	0.043765627
64	0x3d848324	0.064703256
65	0x3d00f848	0.03148678
66	0xbbdff736	-0.0068348898
67	0xbc9e8d22	-0.019354407
68	0x3d9d8221	0.07690836
69	0x3daad18d	0.0834075
70	0x3ce3fa02	0.027829174
71	0xbd2d7af4	-0.042353585
72	0xbd9cbbc6	-0.076530024
73	0xbd4dc62c	-0.05023782
74	0x3ce812ca	0.028329272
75	0xbd334c6a	-0.043774046
76	0x3dbe81b2	0.09302081
77	0x3d3d0592	0.04614789
78	0xbd4674c9	-0.04845122
79	0x3cf01a41	0.029309394
80	0x3d18df30	0.037322223
81	0x3d482c3b	0.048870306
82	0x3d9a504a	0.07534845
83	0x3bc81ee1	0.0061071967
84	0xbca31316	-0.019906562
85	0x3d1335a2	0.03593982
86	0xbd4bb063	-0.049728762
87	0x3d981366	0.07425575
88	0xba0980cf	-0.0005245329
89	0x3dc2393d	0.094835736
90	0xbc82089e	-0.01587325
91	0xbc072295	-0.008247991
92	0xbd566fc8	-0.052352697
93	0x3c643f78	0.013931148
94	0x3ae1b398	0.0017219661
95	0xbd2a9f87	-0.041656043
96	0x3d8a7fb7	0.06762641
97	0xbd9df3e5	-0.07712535
98	0xbd1d3a5f	-0.038385745
99	0xbd9d4cac	-0.076806396
100	0x3d78600e	0.06063848
101	0xbca1d732	-0.019755933
102	0x3d7a2fef	0.06108087
103	0xbd9e078e	-0.07716285
104	0x3d2eee4e	0.042707734
105	0x3d059cde	0.032620303
106	0x3d02a585	0.031896133
107	0x3bde4187	0.006782714
108	0x3d704c7d	0.058666695
109	0xbd886643	-0.0666013
110	0x3dbf1c09	0.09331519
111	0x3d1cfb9f	0.038325902
112	0xbc924fa0	-0.017860234
113	0xbc0693a5	-0.008213912
114	0x3d796d8f	0.0608955
115	0xbd405252	-0.046953507
116	0xbd491975	-0.049096543
117	0xba6f20c8	-0.0009122011
118	0x3db1a0de	0.08673261
119	0xbd142a4d	-0.036173154
120	0x3d880541	0.06641627
121	0xbd2e488e	-0.042549662
122	0xbd9b9090	-0.075959325
123	0x3c0756ed	0.008260471
124	0x3b13979e	0.002252079
125	0x3d8cfd8e	0.06884299
126	0x3cc59b89	0.024122017
127	0x3d232a53	0.039835285
128	0xbcf7d986	-0.03025509
129	0x3d4ea404	0.050449386
130	0xbcb6f963	-0.022335714
131	0x3c86819d	0.016419226
132	0x3db96b59	0.09053678
133	0xbcd71c56	-0.026258629
134	0xbd2109e6	-0.03931608
135	0x3d3fdc09	0.0468407
136	0xbd820944	-0.063494235
137	0xbd40ece1	-0.047100905
138	0x3d90bcf4	0.0706729
139	0x3d5ef921	0.054436807
140	0xbd8676d1	-0.06565631
141	0xbb895063	-0.004190491
142	0xb821804c	-3.8504877e-05
143	0xbd34ecbc	-0.04417108
144	0xbcc98f25	-0.02460439
145	0x3ceb5c26	0.028730463
146	0xbd2d7bc6	-0.042354368
147	0xbd383735	-0.044974525
148	0xbd372437	-0.04471227
149	0xbdab93d3	-0.083778046
150	0xbd49ca49	-0.04926518
151	0x3db54ef9	0.088529535
152	0xbd100277	-0.0351586
153	0xbd631daf	-0.05544823
154	0xbd396890	-0.045265734
155	0xbdac890d	-0.08424578
156	0xbd1c8c1e	-0.038219564
157	0xbd6dac83	-0.058025848
158	0x3d2802ef	0.041018423
159	0xbcb932dc	-0.02260726
160	0x3be1a3a8	0.0068859644
161	0xbd04521c	-0.032304868
162	0xbca2461b	-0.01980882
163	0x3c680629	0.014161625
164	0x3d5bb231	0.053636733
165	0xbd0b0082	-0.03393603
166	0x3db00cc5	0.085961856
167	0x3d5302ba	0.051516272
168	0x3d825aac	0.063649505
169	0x3d5af5df	0.053457137
170	0xbcaa8f67	-0.020820333
171	0xbd24bb2c	-0.040217564
172	0xbc99b915	-0.018765012
173	0x3d35b50c	0.044362113
174	0x3d53180b	0.0515366
175	0x3cac17cb	0.02100744
176	0xbd98f164	-0.074679166
177	0x3d0432ea	0.032275118
178	0x3d80f087	0.06295877
179	0xbd2f1071	-0.04274029
180	0xbce0a415	-0.02742199
181	0x3c8589b0	0.016301006
182	0x3d048187	0.03235009
183	0x3d8c8d33	0.06862869
184	0xbcb244bf	-0.021761296
185	0xbd44724a	-0.047960557
186	0x3d5c9973	0.053857278
187	0xbd1f33f5	-0.03886791
188	0xbd8962a9	-0.06708271
189	0x3c438700	0.011934042
190	0xbd621eab	-0.05520503
191	0xbc2185c4	-0.009858552
192	0xbdb15fa4	-0.0866082
193	0x3da7f502	0.082010284
194	0x3c916518	0.0177484
195	0x3d1447b2	0.036201186
196	0x3c7d96f6	0.015477886
197	0x3ce33f07	0.027740015
198	0x3d5cf4f3	0.05394454
199	0x3dbd43f7	0.09241479
200	0xbd271b30	-0.040797412
201	0x3d8410b5	0.06448499
202	0xbd36f3ef	-0.044666227
203	0x3cebffd9	0.028808521
204	0x3c39e385	0.011345749
205	0xbd1072a4	-0.03526558
206	0xbd885450	-0.06656706
207	0xbceaf2f8	-0.02868031
208	0xbd1e320c	-0.038621947
209	0xbd54c3cd	-0.051944543
210	0xbd8ae943	-0.067827724
211	0xbc06bb1b	-0.00822332
212	0xbdaf0f31	-0.085478194
213	0xbd1ed433	-0.038776588
214	0x3c5e1616	0.01355507
215	0xbd99543d	-0.0748677
216	0x3cdd1b20	0.026990473
217	0xbd0b5f55	-0.034026463
218	0xbd6daa57	-0.058023777
219	0xbb46fe9a	-0.0030364157
220	0xbd9807aa	-0.07423337
221	0x3d5cd5b8	0.053914756
222	0x3d56c79a	0.05243645
223	0x3d827aa4	0.06371048
224	0x3d435367	0.04768696
225	0x3d99f124	0.07516697
226	0xbd4667c6	-0.04843881
227	0xbd7330d1	-0.059372727
228	0x3c8dd672	0.01731417
229	0x3dae1e3c	0.085018605
230	0xbd3cb1b7	-0.04606792
231	0x3daead66	0.08529167
232	0xbd91d087	-0.071198516
233	0x3da68242	0.081303135
234	0x3cb56271	0.022141667
235	0x3c6d7c50	0.01449497
236	0x3d73146d	0.05934565
237	0xbd4eead7	-0.05051693
238	0x3d06bfde	0.032897823
239	0x3d533000	0.05155945
240	0x3c67db04	0.0141513385
241	0x3d9236ad	0.07139335
242	0x3dae8478	0.0852136
243	0x3c1b258b	0.0094694
244	0x3d24679a	0.040137865
245	0x3d10e7a0	0.035377145
246	0x3c5f0368	0.013611652
247	0xbd1fdf52	-0.039031334
248	0xb8a129b6	-7.6848475e-05
249	0xbcd5ea9c	-0.026112847
250	0xbd146b82	-0.03623534
251	0x3cc8387b	0.024440994
252	0x3d921762	0.07133366
253	0x3cb2b8c3	0.021816617
254	0xbd3d71b2	-0.046251006
255	0xbcb9c830	-0.022678465

bias f4 [120]
0	0x3dc90433	0.09815254
1	0x3d6eab8f	0.05826908
2	0x3d288f81	0.04115248
3	0xbd7fd183	-0.062455665
4	0xbca6973c	-0.020335786
5	0xbd45caef	-0.048289236
6	0x3cda0496	0.026613515
7	0x3d52a097	0.05142268
8	0xbc423ebe	-0.011855779
9	0x3d9c50dc	0.0763261
10	0x3d616588	0.05502847
11	0xbdf9cf22	-0.121977106
12	0xbcd39f2f	-0.02583274
13	0xbc5dda08	-0.013540752
14	0xbd936f52	-0.07198967
15	0xbd9b51f1	-0.075839885
16	0xbd5e5dda	-0.054288723
17	0xbd355504	-0.04427053
18	0xbdb2ff3a	-0.08740087
19	0x3c348172	0.01101719
20	0xbdb258c8	-0.0870834
21	0xbc039b0c	-0.0080325715
22	0x3d113876	0.035454236
23	0xbb7ba1ab	-0.0038395922
24	0xbd6b5dfb	-0.057462674
25	0x3d910ee8	0.07082921
26	0x3c51d1b3	0.012806344
27	0xbd57d14f	-0.052689847
28	0x3c90184b	0.017589709
29	0xbd51cbc3	-0.051219713
30	0x3d087a68	0.03331986
31	0x3d861ef3	0.06548872
32	0x3d08c869	0.03339425
33	0x3d0884ea	0.03332988
34	0x3cd88d8b	0.02643468
35	0x3d411ed8	0.047148556
36	0x3d1bfa18	0.038080305
37	0xbc9ff764	-0.019527145
38	0xbccbfaf1	-0.024899932
39	0xbd43d731	-0.047812644
40	0x3d89ad22	0.067224756
41	0x3b447336	0.0029975898
42	0xbe0ad39b	-0.13557284
43	0xbd9f7120	-0.07785249
44	0x3be4ca42	0.006982119
45	0xbc92392e	-0.017849531
46	0x3b81f284	0.0039656777
47	0xbbab778e	-0.005232758
48	0xbcd08d79	-0.025458084
49	0xbd912f6d	-0.07089124
50	0xbcd7af08	-0.026328579
51	0xbde66d5d	-0.11251328
52	0x3d1fcb51	0.039012257
53	0xbbf8ad8b	-0.0075890473
54	0xbd4365b1	-0.047704402
55	0x3c388184	0.011261348
56	0xbda44328	-0.080206215
57	0x3d88dd50	0.06682837
58	0x3be0a3fd	0.0068554864
59	0x3d9b24bc	0.07575366
60	0x3d1b1397	0.03786048
61	0x3a9d02d9	0.0011978998
62	0x3cd3e93c	0.02586805
63	0xbd64fb01	-0.05590344
64	0xbd821722	-0.063520685
65	0xbcb8609a	-0.022507
66	0x3d6e314c	0.058152482
67	0x3d9c1b10	0.07622349
68	0xbc638384	-0.013886336
69	0xbd07d3b0	-0.033160865
70	0x3d0b9427	0.034076836
71	0xbda88d31	-0.08230055
72	0x3c5c092b	0.01342992
73	0xbda3910a	-0.079866484
74	0x3da25424	0.07926205
75	0xbd8513f7	-0.064979486
76	0xbdeb5c18	-0.11492175
77	0x3ca4a418	0.020097777
78	0xbd98c986	-0.074603125
79	0xbd9dcf46	-0.0770555
80	0xbdb768fc	-0.08955571
81	0x3cea7cee	0.028624024
82	0x3d66153f	0.056172606
83	0x3d1664ba	0.036717154
84	0xbd1ad144	-0.037797228
85	0x3d8ae5ba	0.06782098
86	0xbd2cea7c	-0.04221581
87	0x3db9c7e1	0.09071327
88	0x3d5f7890	0.054558337
89	0x3c1be73f	0.009515583
90	0x3d5837ff	0.052787777
91	0xbad30f54	-0.0016102591
92	0x3d98feda	0.07470484
93	0xbdcdf5c7	-0.10056644
94	0x3cc0172b	0.023448547
95	0xbd711a1a	-0.058862783
96	0x3d27828c	0.040895984
97	0x3d5aeab9	0.053446505
98	0x3dc1adfa	0.094570115
99	0x3d707796	0.058707796
100	0x3d1c95ef	0.038228925
101	0x3b07e5d9	0.0020736365
102	0x3d122b31	0.03568572
103	0xbd63295a	-0.055459358
104	0xbdabca12	-0.08388151
105	0x3cbaf511	0.022821935
106	0x3d1cbf63	0.038268458
107	0xbb9e961b	-0.0048396713
108	0x3d949303	0.07254603
109	0x3d1aafd1	0.037765328
110	0x3d1696d1	0.036764923
111	0xbd4c79f0	-0.049920976
112	0x3d806727	0.06269675
113	0xbcd5b98d	-0.026089454
114	0x3c931280	0.017953157
115	0x3d02a89a	0.031899072
116	0xbd1fe1cd	-0.0390337
117	0x3c226708	0.00991226
118	0x3d8e1746	0.06938033
119	0x3d2b173d	0.04177021

weight f4 [4, 120]
0	0xbc0f5261	-0.008747668
1	0xbdb19390	-0.086707234
2	0xbc40e53b	-0.011773403
3	0x3d0da45e	0.03458058
4	0xbc6f6c46	-0.014613217
5	0x3d6ea9a1	0.05826724
6	0xbb3f58f6	-0.0029197312
7	0xbc9e4350	-0.019319206
8	0xbbfa3351	-0.007635512
9	0xbd3d65de	-0.046239726
10	0x3d55b312	0.052172728
11	0x3d585835	0.052818496
12	0xbc0a8488	-0.0084544495
13	0x3d485f92	0.048919268
14	0xbd3549c2	-0.044259794
15	0x3c9d6d04	0.019217022
16	0x3c6112ad	0.013737363
17	0xbc6e7936	-0.014555266
18	0x3c3f4472	0.0116740335
19	0xbd27957b	-0.04091404
20	0x3b190615	0.0023349572
21	0x3d0a9307	0.033831622
22	0xbd76d43b	-0.060260992
23	0x3b2954b7	0.0025837847
24	0x3d36c88f	0.04462486
25	0x3d12cd23	0.035840165
26	0xbdb92cda	-0.09041758
27	0xbcb1bdfc	-0.021697037
28	0xbd4b454b	-0.04962663
29	0xbcc68db5	-0.024237493
30	0x3da8253e	0.082102284
31	0xbd0ba013	-0.034088206
32	0xbd58fb3e	-0.05297398
33	0x3ca26578	0.019823775
34	0xbc86585f	-0.01639956
35	0xbce159c2	-0.02750862
36	0x3bf23a90	0.007392235
37	0x3d37c2af	0.0448634
38	0x3b71ae19	0.0036877452
39	0xbd3fec1d	-0.046856035
40	0xbd42a883	-0.047523987
41	0xbcbc1714	-0.022960223
42	0x3bd4c78b	0.006493514
43	0x3cd1ea94	0.02562455
44	0x3b60f772	0.0034327176
45	0x3cc6aff2	0.02425382
46	0x3a4efe95	0.0007896212
47	0x3d24aa64	0.04020156
48	0xbda1a3c5	-0.07892565
49	0xbd2882ef	-0.041140493
50	0x3d713ed7	0.05889782
51	0x3d53ae5c	0.051679954
52	0x3c8f83b1	0.01751885
53	0x3d8d434a	0.068976
54	0xbd1380e3	-0.036011588
55	0xbd3a87ae	-0.04553955
56	0xbd0038d3	-0.03130419
57	0x3d48b488	0.049000293
58	0x3d38d364	0.045123473
59	0xbc4f0249	-0.012634822
60	0xbd974929	-0.07387001
61	0xbd4d34d7	-0.05009922
62	0xbd33c41a	-0.04388819
63	0xbca765a3	-0.020434206
64	0x3c9dbee5	0.019256065
65	0xbc6a0363	-0.014283034
66	0x3c95192a	0.018200476
67	0xbce0c78c	-0.027438901
68	0xbcd6dd03	-0.026228433
69	0xbd003559	-0.031300876
70	0x3d010bb3	0.031505298
71	0xbc7a707f	-0.01528561
72	0xbd090685	-0.033453483
73	0x3cc91314	0.02454523
74	0x3d065275	0.03279348
75	0xbc4dd788	-0.012563594
76	0x3d79fdc6	0.061033033
77	0xbb90d395	-0.004419754
78	0x3ae9b62f	0.0017830784
79	0xbd4953ab	-0.049152058
80	0x3d53fc42	0.051754244
81	0xba3dad65	-0.00072356156
82	0x3d217d17	0.039425936
83	0xbd24f766	-0.040275
84	0x3d36bf36	0.044615947
85	0x3d24c990	0.040231287
86	0x3d5fc891	0.054634634
87	0xbcdd8893	-0.027042663
88	0xbd43080d	-0.0476151
89	0xbcbb7262	-0.02288169
90	0xbd999142	-0.07498409
91	0x3cf0efba	0.029411186
92	0x3cc90f7b	0.024543514
93	0x3c1efb79	0.00970351
94	0xbd883eaa	-0.06652577
95	0x3d3da164	0.046296492
96	0x3d364925	0.04450335
97	0x3a8710c2	0.0010304677
98	0xbd00eb05	-0.031474132
99	0xbd6a37f8	-0.057182282
100	0xbd67a619	-0.056554887
101	0x3d197dd3	0.03747351
102	0xbc864af5	-0.016393164
103	0x3d6f3929	0.05840412
104	0x3d782bf0	0.060588777
105	0x3bd06925	0.0063601905
106	0x3cce1e5e	0.025160965
107	0x3d837b29	0.06419975
108	0x3cd8cfd1	0.026466282
109	0xbd5d960d	-0.054098178
110	0xbd06ad7a	-0.032880284
111	0x3d5090c2	0.0509193
112	0xbce54b54	-0.02799002
113	0x3d0f4af8	0.034983605
114	0xbb5f6719	-0.003408855
115	0x39d7c115	0.00041151853
116	0xbd76ba04	-0.060235992
117	0x3d1a420d	0.037660647
118	0x3cc69ce9	0.024244742
119	0x3bb7058f	0.0055853794
120	0x3d38610e	0.045014434
121	0x3cd9f7bf	0.026607392
122	0xbda02f06	-0.07821469
123	0x3d08bf11	0.03338534
124	0xbb0b3cff	-0.0021246073
125	0x3c5a3c11	0.013319985
126	0x3d2e3d22	0.04253877
127	0xbd77ee87	-0.06053021
128	0x3d432414	0.04764183
129	0xbd4c56d6	-0.0498875
130	0x3d09c08c	0.033630893
131	0x3d4a6556	0.049413048
132	0xbba5466c	-0.0050437953
133	0xbd91b4c5	-0.07114557
134	0x3d6fc61f	0.058538552
135	0xbd998add	-0.07497189
136	0xbb9ee909	-0.0048495573
137	0x3d48a19c	0.048982248
138	0x3d8315ea	0.06400664
139	0x3d0a36b5	0.03374358
140	0x3d516c3a	0.051128604
141	0x3d3743fb	0.044742566
142	0xbd4ea1c0	-0.050447226
143	0xbcb865aa	-0.022509415
144	0x3c7378f8	0.014860384
145	0x3d69d715	0.057089884
146	0x3c5e06a1	0.013551385
147	0xbd15436f	-0.036441263
148	0xbd73c06c	-0.05950968
149	0xbd7f6bf9	-0.06235883
150	0x3db02e0f	0.08602535
151	0xbd36720d	-0.04454236
152	0xbc3f899a	-0.011690522
153	0xbdbe7223	-0.092991136
154	0x3cce50f2	0.025185082
155	0x3ba1769e	0.0049274703
156	0x3d67951b	0.056538682
157	0x3d11c2fc	0.035586342
158	0xbd3b130a	-0.045672454
159	0xbb65b002	-0.0035047536
160	0xbd43cf20	-0.04780495
161	0xbc8d50cb	-0.01725044
162	0x3cbcc411	0.02304271
163	0xbd81b25c	-0.063328475
164	0xbd516512	-0.05112178
165	0x3d6b67a6	0.057471894
166	0xbc65ce2d	-0.014026207
167	0xbd60cb26	-0.054881237
168	0x3d3859ee	0.04500764
169	0x3c15f8ed	0.009153587
170	0xbbd30713	-0.0064400523
171	0x3c7aea2a	0.015314618
172	0xbc963da7	-0.018339945
173	0xbd3f478f	-0.046699103
174	0xbd37e477	-0.044895615
175	0xbd3a2fab	-0.045455616
176	0xbc7949e1	-0.015215368
177	0xbd063e17	-0.032774057
178	0x3d789fda	0.06069932
179	0xbad28ebb	-0.0016064266
180	0x3d81ecd2	0.06343998
181	0x3d21a4b7	0.039463725
182	0xbc1e587a	-0.009664649
183	0x3cfa279f	0.030536471
184	0xbd2515da	-0.040304042
185	0x3d973440	0.07383013
186	0x3c577fbc	0.013153013
187	0x3d332758	0.043738693
188	0xbcc671e9	-0.024224238
189	0x3cf90df3	0.03040216
190	0xbd2238ee	-0.039605074
191	0xbd0a4a8b	-0.033762496
192	0xbd1b34cb	-0.037892144
193	0xbd1d494e	-0.038399987
194	0xbd252bf2	-0.040325113
195	0x3d4a17a1	0.04933894
196	0x3ccf861f	0.025332509
197	0xbd50e4c7	-0.05099943
198	0xbd30d2b5	-0.043169696
199	0x3d0953f8	0.033527344
200	0x3d858c50	0.06520903
201	0xbd95dae6	-0.07317142
202	0x3d9bf167	0.07614403
203	0x3d1d494d	0.038399983
204	0x3c3bc1d0	0.011459783
205	0x3d194228	0.037416607
206	0x3d99f8a8	0.075181305
207	0xbc920bba	-0.017827857
208	0xbd4932bb	-0.049120646
209	0xbd58519f	-0.052812215
210	0xbd00a410	-0.031406462
211	0xbd633aa1	-0.055475835
212	0x3d1b3696	0.037893854
213	0x3d2ac649	0.041693006
214	0x3d0de857	0.034645405
215	0xbbed37b3	-0.007239306
216	0xbc40f5bf	-0.01177734
217	0x3c42fc57	0.011900983
218	0xbc02e857	-0.007989964
219	0x3d2b303e	0.041794054
220	0x3c77321e	0.015087632
221	0x3a618a8d	0.00086037145
222	0x3b30f7ee	0.0027003246
223	0x3c6709aa	0.014101425
224	0xbd5f6ef7	-0.054549184
225	0x3c6c2424	0.0144129135
226	0x3c4da9a3	0.012552652
227	0xbd8e8354	-0.069586426
228	0xbd457416	-0.04820641
229	0x3d357946	0.04430511
230	0x3d6544f6	0.05597397
231	0xbb1ee4c5	-0.0024245244
232	0x3c986a2c	0.018605314
233	0xbd1b7e41	-0.037962202
234	0xbd7b0544	-0.06128432
235	0xbd0b5c29	-0.034023438
236	0x3d8ee968	0.069781125
237	0xbc8e6c11	-0.017385514
238	0x3cb4b06b	0.022056779
239	0xba8efcbd	-0.0010909062
240	0xbcb2b250	-0.021813542
241	0x3d1c1d61	0.038113955
242	0x3d59d75d	0.053183902
243	0xbc377889	-0.011198171
244	0x3d3cc306	0.046084426
245	0x3c7d3750	0.015455082
246	0xbb8fbbc0	-0.004386395
247	0x3d8f1715	0.069868244
248	0xbd6dcff2	-0.05805964
249	0xbcaf2193	-0.021378314
250	0xbd90697d	-0.0705137
251	0xbd0e5732	-0.034751125
252	0x3d18c447	0.03729656
253	0xbc82945c	-0.015939884
254	0x3ce642be	0.028107997
255	0x3d80812b	0.06274637

bias f4 [4]
0	0x3d48cd6b	0.049024027
1	0x3c1fbbde	0.009749381
2	0x3ba6fc06	0.0050959615
3	0x3d5b6525	0.053563256
