neural_networks/tmp_benchmark_quantized_int4.pt (torch, 272619 bytes, 26 tensors)

mean f4 [16]
00000000: eea4 873b 88ac 54ba 777e 00ba 4562 aab8
00000010: a2fd 4fb9 e543 1cb8 f760 4fba 93aa c539
00000020: c6e7 b6ba 37e6 d038 5314 1d3a 090d c73a
00000030: b45d ac45 4465 ac45 9651 ac45 774f ac45
0.004139534 -0.00081128674 -0.0004901657 -8.124536e-05 -0.00019835544 -3.725653e-05 -0.0007910872 0.00037701856
-0.0013954572 9.961094e-05 0.0005992103 0.001518638 5515.713 5516.658 5514.198 5513.933

std f4 [16]
00000000: 0524 5a3e df5c 763e 3525 033e 7ab7 ae3c
00000010: 7e8a ce3c c76e b23c d2b9 083d e062 f73c
00000020: 16cf 063e bca1 433d 83cd 463d f5da 453d
00000030: cf30 3943 28d9 3a43 15d0 2643 0369 2443
0.21302803 0.24058865 0.12807162 0.021327723 0.025212523 0.021781338 0.033380337 0.030198514
0.13164935 0.047761664 0.048535835 0.048304517 185.19066 186.84827 166.81282 164.4102

weight f4 [120, 16]
00000000: 0c0e f4bb 03a0 f23d 076b 2f3e a3fc 04be
00000010: 06a5 49be 2fd8 6f3e bc68 3b3c fc8b 303e
00000020: 6cc0 233e 7c07 f43d 6557 273d 51b1 23be
00000030: 55b7 373e df3b 633e 71b7 1ebe 630d 6c3e
00000040: 7052 023e 287c e0bd eed4 70be 5c0a 01be
00000050: 70a3 4dbe 3141 30be 92d9 0a3e 31c2 473e
00000060: 48ae 20be ef0d e4bd 875c 0ebe 50e9 3e3e
00000070: 14cb 65be 5f15 9a3d 8583 e3bd 2755 64bb
00000080: b0ba eebd 6129 c0bd 8a3d 10bd 842e 16bd
00000090: bf81 16be e670 0dbe 1f01 753e 7119 d7bb
000000a0: 0d43 4c3e f5e7 e2bd d1c4 76bd 9fff 15bd
000000b0: 79ca b83d 02ac 0f3e d7be 923c ebcd ba3d
000000c0: 2bca cbbd f952 2c3e 1973 bdbd ed24 343e
000000d0: 9ed9 0dbe 68bb 2b3e 4a8d 463e d441 9a3d
000000e0: b77a ff3d 489c e03d f7ef 57be f9ff b53d
000000f0: 4b09 1bbe ba3e febc 171a 56bd 3ad3 3a3e
00000100: c8a4 7cbc 4a8d e5bd 8108 4c3e de0f 63be
00000110: 5941 51be c77a ba3d 3705 9bbd 3dec 4d3e
00000120: eec4 233e 02fc ed3d 855e 4e3e 4726 3fbe
00000130: b7fa 2fbe 03cc ccbd c79b c23d d678 d7bd
00000140: ebc6 443e 9525 753e 1fa4 2dbe b08f 5bbe
00000150: 909d d53d 106b 033e 6882 6c3e de24 613b
00000160: 9c14 4f3e 096c 80bd 04f0 d0bd c355 953d
00000170: 1630 5bbd b2f9 b63d 2888 53be bf78 f2bd
00000180: aa01 293e 939f 8abc 81c5 dc3d 6af3 0fbe
00000190: c338 49be b0f4 053e 2bd5 0dbe bb36 733e
000001a0: 61d7 6bbc 78c0 363e dcd0 35be dfda ed3d
000001b0: 2f73 5abe f804 1c3e ad20 3a3d c291 6f3d
000001c0: 03d6 2b3e f0f4 2bbe 5caf 253e 10a2 763d
000001d0: 688e 53be baa9 4b3e 1d8a 02be 8bc4 5ebe
000001e0: 841f a63d 3435 ee3d 44f2 e2bc 6599 4e3d
000001f0: 71b9 5ebe f7ba 143e ee55 82be b4a0 15bd
00000200: 7ee3 87be 592c 003e b484 5dbe de2a 17be
00000210: df00 56be 28cd a73d 85e4 31be 675c d6bd
00000220: 4918 21be 4d0b 543e d5c3 4ebe 1b51 5cbe
00000230: df90 143d 4801 4cbe 202d 81be 5de0 053e
00000240: 04d1 6ebd 7f68 5e3e 56c0 23be beb0 b5bd
00000250: 45f3 0dbe 3d26 063e 6cf4 823d d356 f03d
00000260: 0ab0 a63d 521e 863c 30be 6d3e 08ed bdbd
00000270: ba2e 5abd 2ebb e5bd 1461 053e 05c0 193e
00000280: 85a7 963c 2e5c 01bd 8c43 46be 8dc7 d6bd
00000290: 9ccf ca3d 9976 af3d d06f 14be b378 3b3e
000002a0: 5b18 9d3d 9bfa 143d 8393 c0bd 8ae4 74be
000002b0: 2de6 233c 429a 6a3c 2158 613c ea61 483e
000002c0: 9ec0 4f3d 9fff 3e3e d953 e0bd 22ad 89bc
000002d0: df40 8a3d 7a3d 8f3d 5988 d0bc c239 9cbd
000002e0: 68ae 4d3c c6dc 583e 190d 6e3e c0f5 d5bc
000002f0: fbca 283e 2aa9 74be 0364 633e 468d 04bd
00000300: 5f9b 66be b021 c9bd 2084 febd d785 dbbc
00000310: f5b3 6abe 4d80 e0bd fddf 913d eac0 ea3d
00000320: 9c28 773d 464d ccbd be25 19be 8fd5 113e
00000330: 2562 1f3e 037f 2fbe 222b efbc 2214 3dbe
00000340: 359a a6bb b302 a6bc 1e98 ebbd 8969 0f3e
00000350: b954 02be 409d 243b c3df a1bc e268 32be
00000360: 66bd f33d b43d 223e efd4 c53d d0a9 5b3b
00000370: 2cfb 553e e308 d23d e795 c53d 524c 14be
00000380: 8436 c7bc ab92 283e de52 d2bd 8339 653d
00000390: 619e 2c3e 1c96 4a3e 5d32 4f3d ad98 e73d
000003a0: 4635 cd3d 8eed 00be bd55 acbd 94ab 423d
000003b0: d532 2d3e f992 edbd 7e2c 2d3e d927 d6bc
000003c0: 9dfd 11be a1d8 8a3d b97c 14be 887b 49be
000003d0: ea18 663e 6277 35be 4d0e bcbd 699f 083a
000003e0: 6dee 6c3e 7850 0ebe e6a5 02ba 1c63 5d3d
000003f0: 72f5 13be 6d7c 6f3e 7058 58be 65c0 4d3e
-0.0074479636 0.11846926 0.17130671 -0.12986998 -0.19691858 0.23422311 0.011438545 0.172409
0.15991372 0.1191549 0.04085483 -0.1598561 0.1794103 0.22190808 -0.15499665 0.23051982
0.1272676 -0.10961181 -0.23518726 -0.12601608 -0.20081878 -0.17212369 0.13559559 0.19507672
-0.15691483 -0.1113547 -0.13902484 0.18643689 -0.2244075 0.075236075 -0.1110907 -0.0034840794
-0.116567016 -0.093828924 -0.03521494 -0.036665455 -0.14697932 -0.13812599 0.23926209 -0.006564312
0.19947453 -0.110793985 -0.060246293 -0.036620732 0.090229936 0.1403046 0.017913265 0.09121307
-0.0995067 0.16828527 -0.09250469 0.17592211 -0.13852546 0.16770709 0.19389835 0.07532087
0.12474578 0.10967308 -0.21087633 0.088867135 -0.15140264 -0.03103577 -0.052270975 0.18244639
-0.015420146 -0.112085894 0.19925119 -0.22174022 -0.20435084 0.09105449 -0.07569354 0.20109649
0.15993091 0.11620332 0.20153244 -0.18666945 -0.17185484 -0.0999985 0.095023684 -0.105210945
0.19216506 0.23940118 -0.16957138 -0.21441531 0.10430443 0.1283381 0.23096621 0.003435425
0.20222706 -0.06270606 -0.10202029 0.072917484 -0.053512655 0.08934344 -0.20657408 -0.11839437
0.16504541 -0.016921794 0.107798584 -0.14057699 -0.19650559 0.13081622 -0.13850848 0.23751347
-0.014394612 0.17846859 -0.17755455 0.11614012 -0.21333002 0.1523627 0.04544132 0.058488615
0.16780858 -0.16792655 0.16180176 0.06021315 -0.20659792 0.19888964 -0.12747999 -0.21754663
0.0811148 0.116312414 -0.027703412 0.050439257 -0.21750428 0.14524446 -0.25456184 -0.03653021
-0.2654075 0.12516917 -0.21632653 -0.14762446 -0.2089877 0.08193427 -0.1737233 -0.10466843
-0.1573192 0.20707436 -0.20191891 -0.21515314 0.036270972 -0.19922364 -0.2522974 0.13073869
-0.0583048 0.2171955 -0.15991339 -0.088716015 -0.13862331 0.13100524 0.06394276 0.117353104
0.081390455 0.01637188 0.23217082 -0.09273726 -0.05326722 -0.11217342 0.13025314 0.15014656
0.018390426 -0.03158205 -0.19361705 -0.1048728 0.099028796 0.085675426 -0.14495778 0.18307762
0.07670661 0.03637181 -0.09403136 -0.23915306 0.010003609 0.0143190045 0.013753922 0.19568601
0.050720803 0.18652199 -0.10953493 -0.016806189 0.067506544 0.069941476 -0.02545564 -0.07628204
0.012553789 0.21177968 0.23247184 -0.02611816 0.16483681 -0.23892656 0.2220612 -0.03236129
-0.22520207 -0.098208785 -0.124275446 -0.026797218 -0.2292021 -0.109619714 0.071228005 0.11462577
0.060341462 -0.09975676 -0.14955804 0.14241622 0.15564783 -0.17138295 -0.029195372 -0.18464711
-0.005084301 -0.020264959 -0.115036234 0.14005102 -0.12727632 0.0025118142 -0.019760018 -0.17422822
0.11901359 0.1584385 0.096597545 0.0033517964 0.20896596 0.10255601 0.09647732 -0.14482239
-0.024317987 0.164622 -0.10269712 0.05596305 0.16857292 0.19783825 0.05058514 0.113084175
0.10019927 -0.1259062 -0.08414791 0.04752691 0.16913922 -0.116002984 0.16911504 -0.026142048
-0.14256902 0.067796 -0.14500703 -0.1967603 0.22470441 -0.17721322 -0.09182415 0.0005211742
0.23137827 -0.13897884 -0.0004983827 0.054049596 -0.14449099 0.23387308 -0.21127486 0.20092924

bias f4 [120]
00000000: 2da5 853d 0784 00be 79df 713e 586f fa3d
00000010: 4ba5 00be 55d3 1abd 3abb 433e 55c1 80bd
00000020: 2a26 653c eead 98bc 8e73 02be 5ac1 67be
00000030: c10a 1c3e 903a 32be 1b42 213e fe4c 62be
00000040: a640 a23d 4f3a 83be 79ca 733e 3a85 2a3e
00000050: 7fd7 17be fdaf 21be 43d9 12be 0f46 67b9
00000060: 8fc4 303c e875 703c 033d 1b3e 2679 01be
00000070: db6e 103e 879d a43d 61ec 933d 5f05 c1bd
00000080: 56a1 9cbd d53c d6bd 5894 cfbd 9f1e b73d
00000090: 7a98 56bd e265 15bd 6b99 563d 7785 adbd
000000a0: d0e6 9dbd 4c28 81bd b46b d6bd 0b77 1cbe
000000b0: f0f9 d33d 70f0 803e 5912 87bd c0d8 2dbe
000000c0: cbcd f8bb 477b bf3d d9f0 f83c 1592 3b3e
000000d0: 8949 793e dbc4 22be 936f 403e b75c 803d
000000e0: 7fac 5f3e 56bc ef3d 8bdb 38bd 4236 67bd
000000f0: f2cb 53be 2d04 5cbe 7ddc 5c3e dbc1 69be
00000100: a4cf 2b3e 67f9 ce3d b6f3 d0bd e1ae ce3d
00000110: c426 4b3e 537c d13d 36e6 26be 4516 15bc
00000120: 541a 0e3d 4629 72be d1bf 803d e205 463e
00000130: 76c6 3c3e 3c6c 4bbe 050a b8ba 6693 8ebd
00000140: 9d92 413e c51e 833c e95a 8e3d 1c5d 1a3d
00000150: 7f64 c4bd 581f f3bd 3b32 443e 80d1 8b3d
00000160: 8bd5 293e 00a3 2a3e c897 4ebe 8944 2d3e
00000170: fe62 60be 4078 27bd d863 533d 1d14 283e
00000180: 0349 b1bc 7f46 9abd fb17 69be 776d 5b3d
00000190: d768 7c3e ab6e 58be cf15 7f3d 3af1 43be
000001a0: 8000 6b3d 833c dcbd 2037 54be d259 943d
000001b0: 580a 5f3e e13b 07be 9639 4ebe f0d4 063e
000001c0: cff5 513e d074 53bc 8106 553e ba30 2bbe
000001d0: a3ff 313c 8af4 5cbe ff18 fc3b dca4 4c3d
0.065256454 -0.12550364 0.23620404 0.122282684 -0.12563054 -0.0377992 0.1911439 -0.06286875
0.01398615 -0.018637624 -0.12739393 -0.22632352 0.15238477 -0.17405152 0.15747873 -0.22099683
0.07922487 -0.25630423 0.23807706 0.16652384 -0.14828299 -0.1578979 -0.14340691 -0.00022055976
0.010789051 0.014676549 0.15159993 -0.1264387 0.14104788 0.080378585 0.0722282 -0.094248526
-0.0764796 -0.104608215 -0.10135716 0.089413874 -0.052391507 -0.036474116 0.052392405 -0.08472722
-0.077100396 -0.06306514 -0.104697615 -0.15279786 0.10350406 0.2518344 -0.065952964 -0.16977215
-0.007592892 0.09349685 0.030388283 0.18317445 0.24344458 -0.15895407 0.18792562 0.06267684
0.21843146 0.11705844 -0.045131247 -0.05644823 -0.20683268 -0.21485968 0.21568485 -0.22827856
0.16778427 0.101061635 -0.10202734 0.10091949 0.19839007 0.10228791 -0.16298756 -0.009099548
0.034693077 -0.23648557 0.06286586 0.19338182 0.18435082 -0.19865507 -0.0014041072 -0.06961708
0.18903585 0.016005883 0.069509335 0.037686452 -0.095894806 -0.11871213 0.19159786 0.06827068
0.16585366 0.16663742 -0.20175087 0.16920675 -0.21912763 -0.040886164 0.05160889 0.16413923
-0.02164126 -0.07532977 -0.22763054 0.05357119 0.24649368 -0.21135966 0.062276658 -0.1913499
0.057373524 -0.10753729 -0.20724154 0.07243694 0.2178129 -0.13206436 -0.20139155 0.13167167
0.20503925 -0.012906268 0.20803262 -0.16717806 0.010864171 -0.21577659 0.0076934095 0.04996191

weight f4 [120, 120]
00000000: cb9c 95bb 2c47 0abd b629 fc3c ff6d 89bc
00000010: 711d 883d e3a7 54bc 8145 a13d 9ca6 883c
00000020: eae6 963d 1835 663c 6ed3 db3b c7ad 60bc
00000030: f88e 82bd a7ee 5b3d 59ec 3abd c105 be3d
00000040: 2b3e 6b3c b1fc 17bd 995f 58bd 7887 81bc
00000050: f668 523d 2b71 17bd bae6 a2bd 9643 e3b9
00000060: 8d73 98bc d66b 22bd 60df 67bd 1063 9a3d
00000070: b741 2b3c a031 68bd c19e 8fbc 0831 d83c
00000080: a2f3 fa3c 8462 50bd 37ee c6bc 0520 4d3d
00000090: 2857 a73b 03ba 963c fb9d 843c 608d 9a39
000000a0: 4665 ad3b 95f4 983d 23a5 9fbd da1b c83c
000000b0: 5bed 343c b326 c2bd 6964 883d d0df e7bc
000000c0: 42da 11bd 192c 653d 4fef 13bd aa3d 1fbd
000000d0: f582 003d 7a53 723d 0fe7 4b3d d06f 8f3d
000000e0: 7cae 863d 46be a0bc 7cb6 a43d 78ed 9abd
000000f0: f8f6 edbc 6aaf a9bd e1d6 563d 679c 9bbc
00000100: a77f 013d 442b 4fbd 6387 4abd eed6 52bd
00000110: b566 963c de0f 973c 5416 593d 8409 85bd
00000120: 50ae 3cbc c361 a9bd 150b 81bd 5ba1 a03d
00000130: 193e 34bd b906 c2bd 701a aebd fedb 683c
00000140: 42b9 753d 32e8 86bd 649b 993d 3e16 78bd
00000150: bd7c 9f3c da69 00bd f6a8 80bc 3826 abbd
00000160: fc45 743d 0ea0 0f3d 0a2d 613d 224c 253d
00000170: d159 603c 961d 903d 21bd f3bb 26c4 cf3c
00000180: 6d40 b9bd 1460 ce3c 86d4 0b3d 4f7b 59bd
00000190: f377 8b3d a602 993c 2f3c 16bd 7c22 7e3c
000001a0: 3de7 b3bc 68cc 863d d109 00bd 2ff7 033d
000001b0: b3d0 48bd d7b2 a1bd 56ec 59bc 9f36 86bd
000001c0: 6ee5 363d cb17 763d a9c2 a8bc 3362 e73b
000001d0: b9f5 a1bd fa7c 243a 4a5f f2bc 438f 85bc
000001e0: e2ad 203d 5bb3 9f3d e2aa 25bc d66f 613d
000001f0: 62d2 8abd a49a 9cbd c5bb 5fbd e299 70bd
00000200: 3e0a 33bc 820b b03d 476b 16bc b312 0b3d
00000210: 7069 6abc 7f4a bb3c c429 923d 6be8 b7bd
00000220: 75c2 dcba 9e4d 623d 4654 073d f357 8fbd
00000230: bacd 53bd 7c16 2e3c 136d 613d d549 9dbd
00000240: 961e 86bc 5d12 9f3d a175 7fbd 25cb 1e3d
00000250: 8635 3cbd 7b7b 5a3d 75ed 953d 87b9 b53b
00000260: 1273 8b3d f2ed 21bc a240 75bc 5a1c 633c
00000270: 926c 59bc 4742 4d3d 803c 2f3d f9f8 a1bd
00000280: c2c8 92bd 85ef 80bd 0cf2 98bd 08d1 f3bb
00000290: 9ccd 373d 014f aabb 3e34 91bd c8e2 363d
000002a0: 1eca a9bd 9c30 41bd d173 243d 6223 3ebd
000002b0: 427a 2f3d 3175 46bc dda3 bebc fcaa e73c
000002c0: b876 9fbc df6b 04bd 5c3e 50bd 8b98 a63d
000002d0: 4e6e a8bd 0017 ba3d e01e b5bd e4c5 2ebd
000002e0: fcb2 8abd 7f10 57bd b421 673d 5e6f c43c
000002f0: b2a2 3c3d e499 503d f56b b23c 8654 2f3d
00000300: 3029 07bd 333a 043c c78b 0dbd 9ec4 a53d
00000310: 0871 debc 41b3 133d 3565 a8bd d56c 3cbd
00000320: 57d5 35bd 2ce5 8ebb 090e 333d f463 b43d
00000330: 7088 84bc a9eb 76bd c050 e7bc 7883 0bbd
00000340: a1c0 9fbd 396c 79bd 9a2e a1bd f56a 743c
00000350: fb4d f3bc 14ea 6ebd 6d97 28bd ad5b 113d
00000360: e085 c9bc 33c0 bdbd 438e ca3c fb71 33bd
00000370: b96b 393c 4f0a b6bd a551 fbbb 24db 8b3d
00000380: 048c 073d 2cf7 93bc f4b0 813c ff5a 10bd
00000390: 37cd 6c3d 6933 4abd 7ad5 a03b dee1 ba3c
000003a0: d737 903b 2f06 8ebd d7fc 99bc 39fe 643b
000003b0: 5305 c6bc 6db5 99bd 74ae 313d c9f4 9e3d
000003c0: d34a 0ebd d98b 19bd b1f3 b4bc 3c67 33bd
000003d0: 96d3 723d 7aef 9fbd 392d a9bd dafb 88bd
000003e0: 72ec 933d ec7f 113d 1a84 0aba 7f88 353d
000003f0: 2720 bbbd 3d35 95bd d545 71ba 6a76 4fbd
-0.0045658103 -0.03375928 0.030781608 -0.016776083 0.066462405 -0.01297948 0.07874585 0.016681008
0.07368262 0.0140507445 0.006708554 -0.013713307 -0.063749254 0.053694393 -0.045635555 0.09278441
0.014358084 -0.03710622 -0.052825544 -0.015811667 0.05136963 -0.03697316 -0.07954164 -0.0004334717
-0.018609786 -0.03965362 -0.05660951 0.07538426 0.010452679 -0.05668795 -0.017531754 0.026390567
0.030633751 -0.0508752 -0.024283512 0.050079364 0.0051068254 0.018399244 0.016188612 0.00029478502
0.0052916138 0.07468525 -0.07795169 0.024427343 0.011042918 -0.094800375 0.06659777 -0.028304964
-0.035608537 0.055950258 -0.036116894 -0.038877167 0.03137489 0.05916164 0.0497809 0.070037484
0.06576249 -0.01962198 0.08042619 -0.07564825 -0.029048428 -0.08285411 0.05245102 -0.018995477
0.03161588 -0.05057837 -0.04944552 -0.051474504 0.018359521 0.018440183 0.05299981 -0.064959556
-0.011516169 -0.082706 -0.06300942 0.07843276 -0.044004533 -0.094739385 -0.08501136 0.0142126065
0.05999113 -0.065872565 0.075003415 -0.060568087 0.01946866 -0.031350948 -0.015705567 -0.08356899
0.059637055 0.03506475 0.054974593 0.04035581 0.013693289 0.07036893 -0.0074383174 0.025362086
-0.09045491 0.025192298 0.034138225 -0.053096112 0.06809988 0.01867802 -0.03667849 0.015511151
-0.021960849 0.06581956 -0.03125936 0.032218155 -0.049027156 -0.07895439 -0.013300976 -0.06553387
0.044652395 0.060081284 -0.020600634 0.007061267 -0.07908196 0.00062747265 -0.029586453 -0.016303664
0.039228328 0.07797881 -0.010111542 0.055038296 -0.067784086 -0.07646683 -0.05462243 -0.058740504
-0.010927735 0.08595945 -0.00918085 0.03395338 -0.014307365 0.022862671 0.071368724 -0.08979877
-0.0016842621 0.055249803 0.033039354 -0.06999197 -0.051709868 0.010625478 0.055035662 -0.07680098
-0.016372006 0.077671744 -0.06236804 0.038767952 -0.04594948 0.053340416 0.07320682 0.005545798
0.06809057 -0.009883391 -0.014969023 0.01386174 -0.013270514 0.050112035 0.042782307 -0.07908816
-0.07167198 -0.06295685 -0.07468042 -0.00744069 0.04487382 -0.0051974063 -0.070900425 0.04464987
-0.08290504 -0.0471655 0.040149514 -0.046420462 0.042841204 -0.012112902 -0.023271495 0.028279774
-0.01946579 -0.032329436 -0.05084072 0.08134564 -0.08224164 0.09086418 -0.088437796 -0.042669192
-0.0677242 -0.052505966 0.056428626 0.023978885 0.046053596 0.05092801 0.021779994 0.042805217
-0.032998264 0.008070516 -0.03455713 0.080941424 -0.027153507 0.03605962 -0.08222429 -0.046002228
-0.04439291 -0.0043608155 0.043714557 0.08808127 -0.01617834 -0.060283337 -0.028236747 -0.034060925
-0.07800413 -0.060894225 -0.07870217 0.014918079 -0.02970027 -0.058328703 -0.041160036 0.03548782
-0.02459997 -0.09265175 0.024726039 -0.043809872 0.011317187 -0.08888685 -0.007669645 0.06828907
0.033092514 -0.018062197 0.015831448 -0.03524303 0.057812896 -0.049365435 0.004908261 0.02281278
0.004401188 -0.06934773 -0.018797321 0.0034941568 -0.02417246 -0.07505307 0.043379262 0.07761533
-0.034739327 -0.037486885 -0.022088857 -0.043799624 0.059283815 -0.078093484 -0.08260579 -0.06688662
0.07222833 0.035522386 -0.0005283967 0.044319626 -0.09136992 -0.07285545 -0.0009203826 -0.050650038

bias f4 [120]
00000000: fca6 2fbd 6e7f 97bd ae94 80bd 245a ef3c
00000010: b4a2 a1bd b71b 27bd 5030 45bd a993 b53d
00000020: 232c a8bd 52aa 763c 7ac7 abbd 7a5b c0bc
00000030: 7d42 48bd 9e45 42bc cf3b 513d 51ef aebd
00000040: c5e4 0cbd ff81 243d 4995 2dbd 41a4 ca3c
00000050: 7e19 a4bd 5a5d 1d3d 338d bfbd c88e a93d
00000060: eb92 953d 87ee 8dbd 097f 9a3d 2d60 673d
00000070: d733 8b3d 63ff 88bd 19e6 30bd a485 2f3d
00000080: 1188 93bc c694 273d 20c6 05bd a7c3 633d
00000090: 05da 0cbd 4986 473c 4347 18bc 19f7 bdbd
000000a0: c210 373c c39c 823c a274 383d e383 5dbc
000000b0: ebe9 ac3b 7e1e 7c3d d929 d6bd 1989 d5bc
000000c0: 4c89 603c 0064 343d d0b5 973d cbdb 98bd
000000d0: b69d 9b3d e3ea 523d 09a8 85bb 7b29 7c3c
000000e0: e2fd abbc e388 03ba dfe9 973c 2bd2 583d
000000f0: b758 e9bd 362c 4a3d d5c3 063d ca3d 93bd
00000100: 0956 073d 92bb b2bd 7336 dfbc 5a30 5d3d
00000110: 5654 1e3d 5321 adbd bd3e 843c b614 d5bc
00000120: e1b8 423d 372c 1dbb 4eb7 3a3c 31f6 88bc
00000130: 7929 513c 58b2 3abc e8fe b83d 4c4a d9bc
00000140: 4555 21bd 2d12 c63c 3d88 6bbd b224 f4bb
00000150: c10a cebd 82da a53d cd0e 0abe c845 863d
00000160: 8ee5 d23c 3174 5ebd 127c 8b3c e210 b23c
00000170: b728 1fbc 4690 8abd eac0 b03d 20e7 eebc
00000180: ef2c 343d 96db 9e3d 68eb c33b 18af 013d
00000190: ceea 8f3d 9f4e 11bd e262 ebbc 3e7e 01bd
000001a0: c5f6 3d3d 0227 0c3d 6a81 10bd 686f 843d
000001b0: 63c7 683c e3fe 08bd d789 c3bd 0aec ea3c
000001c0: 3e2e d4bd 0687 d8bc 5e91 a63d ca54 afbd
000001d0: 87a2 69bc e285 b4bd 8ea6 9abd 7dc7 373d
-0.042883858 -0.07397352 -0.062783584 0.029217787 -0.07892361 -0.040797915 -0.048141778 0.088660546
-0.082115434 0.015055256 -0.083876565 -0.02348112 -0.048891533 -0.011857418 0.05108243 -0.0854174
-0.03439786 0.040163036 -0.042378698 0.024736525 -0.08012675 0.038419105 -0.093531035 0.082791865
0.07303413 -0.06930261 0.07543761 0.056488205 0.06796997 -0.06689336 -0.04318819 0.04285206
-0.018009217 0.040913366 -0.03265965 0.05560651 -0.034387607 0.012178012 -0.009294334 -0.09275646
0.011173429 0.01594389 0.045033105 -0.013520214 0.0052769086 0.061552517 -0.104572006 -0.02606635
0.013704609 0.04404068 0.07407725 -0.07463797 0.0759844 0.051493537 -0.0040788692 0.015390749
-0.020995084 -0.0005017651 0.018544136 0.052934807 -0.11393874 0.04935857 0.032901604 -0.0718952
0.033041034 -0.087271824 -0.027247643 0.05400119 0.038654648 -0.08453622 0.016143197 -0.026010852
0.047539596 -0.0023982653 0.011396242 -0.016718956 0.0127662355 -0.0113950595 0.090329945 -0.026524685
-0.03938796 0.024178589 -0.057502974 -0.0074506635 -0.10060645 0.08098318 -0.13482209 0.065562785
0.025744226 -0.054310028 0.017026935 0.021736566 -0.009714297 -0.06765799 0.086305454 -0.029162943
0.043988165 0.077567264 0.0059789903 0.031661123 0.07027207 -0.03547537 -0.028733674 -0.031614535
0.046377916 0.03421689 -0.03527967 0.064665616 0.014207694 -0.033446204 -0.09547775 0.028677005
-0.103603825 -0.026431572 0.08133195 -0.08561094 -0.014259941 -0.088145986 -0.07551299 0.04486798

weight f4 [120, 120]
00000000: ff4c 4abb a734 3c3c 62dd 8c3c 7623 91bd
00000010: ca0d 9a3d cb25 bb3c 594c 9f3c c34e 953d
00000020: 2fee 8c3c e98e 08bd 4037 313d d48c 84bc
00000030: c9f8 a5bc b349 083d d09e 853d 9b95 b63d
00000040: f3a6 a03d dc04 583d dff3 8a3d 1c33 a03b
00000050: 029e 65bd fa2b 773d 50b3 84bd 4a70 71bc
00000060: cff2 bdba 36a7 d83c 8fc4 753d 576a 943b
00000070: fc13 67bc 15ce 293b 78a6 683c d8c6 20bd
00000080: 9481 7d3d 2b4c 863b d040 a53b 4e12 87bc
00000090: 11c6 8abd a608 2dbd f7dc 503d 6104 ff3b
000000a0: 5960 bb3d 178e 463d 1be4 523d b433 763d
000000b0: c04b 78bd 5daa a3bd e608 4f3d a717 a73d
000000c0: 232b 18bc 360a 5cbd bcc1 f739 5f00 1ebc
000000d0: 220f d2bc e060 3f3d fd42 5c3d 8e8a 443d
000000e0: d098 9f3d 3c9d 203d d92d bfbd b812 82bc
000000f0: d3ed 983d 3602 233c 1383 763d eedd 59bd
00000100: bb29 b0bc ff99 55bc 42b0 823c 947c 04bd
00000110: e3a0 0abd 8fd5 7bbd 492f 38bd d3d0 40bd
00000120: 5491 c53c 4a0a ff3c 7e8a b83d 00fa bf3c
00000130: d1fe 52bd f1cf 2fbd e238 b2bc 20e5 dcbb
00000140: d540 30bc a56f f13c 05da f93b 7323 2f3d
00000150: 3355 823c 50e0 0f3c 958d 2a3d 2ef3 90bc
00000160: 7cdc 7cbb a6f1 893d fbcb 05bc 3445 efbc
00000170: 5570 8d3d 4780 193c eb62 d23c 44e4 933d
00000180: 3c33 18bd f80b d7bc dc61 e93c ae62 8c3d
00000190: 004e 3a3d 074e 17bd e2cc 5a3d 23cc 6dbc
000001a0: e228 01bd 1fcc 19bd cb1c c03d 7866 453d
000001b0: 7ec2 eabc 772e 61bd 0fd5 71bd ecc5 453d
000001c0: 2ded 113b 2480 a1bd 0214 22bd ac7a ae3a
000001d0: a712 fc3c 8f63 47bd 5032 9f3c 7732 373d
000001e0: 3448 833d 6123 66bd f3aa c33c 3c14 bb3c
000001f0: 4c62 963d 6ea8 44bd 9461 2a3d 7f9a d03b
00000200: 4f4f 6d3d b689 f5bc aecd 3d3d 12a8 f83c
00000210: cce3 15bd 5c3a a9bc cc17 81bd bdd6 2d3c
00000220: c519 4f3d 62c8 b7bd 5dc9 033d 0c29 973c
00000230: 1b4e 31bd 91c5 91bd 2f1e 3d3d 5470 833d
00000240: b0bf 46bd 0192 b03c 24f4 aa3d c243 023d
00000250: a4f7 903d d058 d7bb 7553 fa3c d7fb 4c3d
00000260: d25b 173d 6bf2 433d 487c 01bc 3501 08bd
00000270: 11dc 7fbd 9790 ad3d 2e84 053d 952a d0bc
00000280: ac15 683c 02ee 90bd 7492 dabc 35e5 733c
00000290: dcee 863c 3303 53bd 667d a5bd 08f6 cebc
000002a0: d677 a43b e498 a0bd e7d2 283d 8e44 263d
000002b0: 0cef 323d de86 0c3c 218b 4f3d 6a10 bcbc
000002c0: 9dac 70bb bf0a 223d 4181 983b f284 2fbb
000002d0: a56c e0ba b589 17bc 5540 7c3d 0761 903d
000002e0: bfb5 093c 108a 60bd e221 913d 16c0 96bc
000002f0: c4cf 89bd f478 d2bc 08c3 913d f2c1 a23a
00000300: 32f4 5a3d 60d5 5dbd 8964 583d 4f53 81bc
00000310: 8fc7 87bd bdc6 963c 5435 9e3d da40 563d
00000320: 2422 e53c 60fc a33d 0bb0 51bd fa9e 633d
00000330: 8105 42bd 4221 b2bd 21b2 903d 0a88 6ebd
00000340: 4c2d 773d 2a72 4f3d cdea b9bd 309f db3b
00000350: 479c 91bb 1742 8bbd caeb 22bd 1a8d 693d
00000360: c9ee 733c b92a 133d 3bb7 f039 e564 143d
00000370: e6e9 5f3c 4e5a 193c e219 45bd 4c15 cd3c
00000380: a2db e83a a4fe d1bc 65ea 8c3d 65e2 ae3d
00000390: 3ae1 41bd 156c 5ebd 6625 413d da60 903d
000003a0: 73a4 64bc 89e6 993d 5f64 88bd aebf 8fbd
000003b0: 2de1 833d 5891 58bd 1dec 46bc df58 823c
000003c0: 4999 63bd e7f4 99bb 0806 8dbd b2d5 76bd
000003d0: af8f 953d f817 c53c 9bcc 2b3d 796b 5abc
000003e0: 7b5e aabd e2ee 7c3d 8562 773c b66e a3bd
000003f0: faad 1e3b aa20 b9bd f97e 7f3d 0c6a 46bd
-0.0030868647 0.011487163 0.017195407 -0.07086842 0.07522161 0.02284517 0.019445585 0.07290413
0.017203419 -0.033339415 0.04326558 -0.016180433 -0.020260232 0.03327341 0.06524432 0.08915254
0.07844343 0.05273901 0.06784796 0.004888905 -0.05605889 0.060344674 -0.06479514 -0.014736244
-0.0014491918 0.02644692 0.060001906 0.0045292783 -0.014103886 0.0025910188 0.0141998455 -0.039252132
0.061891153 0.0040984354 0.0050431266 -0.01648822 -0.067760594 -0.042244576 0.05099198 0.0077825044
0.09149236 0.04847535 0.05148707 0.0601079 -0.060619116 -0.079914786 0.050545596 0.08158808
-0.009287628 -0.053720675 0.00047255855 -0.009643643 -0.025641982 0.046723247 0.053774823 0.0479837
0.077928185 0.03921245 -0.093349166 -0.015878066 0.07467236 0.009949258 0.060183596 -0.053190164
-0.021504274 -0.013037204 0.015953187 -0.03234537 -0.03384484 -0.061482962 -0.04496697 -0.04707415
0.02411715 0.031132836 0.0901079 0.023434639 -0.051512543 -0.042922918 -0.02175564 -0.006741181
-0.010757645 0.029472182 0.007624867 0.042758416 0.015909767 0.008781508 0.04163893 -0.017694082
-0.0038583567 0.06735544 -0.0081663085 -0.029207803 0.06906191 0.009368963 0.025681933 0.072212726
-0.037158236 -0.026250824 0.028489046 0.06854759 0.045484543 -0.036939647 0.053418048 -0.014514002
-0.03153313 -0.03754818 0.09380492 0.048193425 -0.028657194 -0.054975953 -0.05904108 0.048284456
0.0022266612 -0.07885769 -0.039569862 0.0013311706 0.030770613 -0.04867893 0.01943317 0.04472586
0.06410256 -0.056186084 0.023885226 0.022836797 0.073429674 -0.04801219 0.041596964 0.0063660736
0.057936963 -0.029972892 0.04633873 0.03035358 -0.036594197 -0.02065771 -0.06303367 0.01061028
0.050561685 -0.08973767 0.032174457 0.01845219 -0.043287378 -0.07117761 0.046171363 0.06417909
-0.04852265 0.021553995 0.083473474 0.0318029 0.07078484 -0.0065718666 0.030557374 0.05004486
0.0369528 0.04783861 -0.007903166 -0.033204276 -0.06246573 0.08474844 0.03259676 -0.02541093
0.014165323 -0.070766464 -0.026681162 0.01488619 0.016471319 -0.051516723 -0.080805585 -0.025263801
0.0050191684 -0.078416616 0.041216757 0.040592723 0.043685004 0.008577077 0.050669793 -0.022957046
-0.003672398 0.03956103 0.00465408 -0.0026782122 -0.0017122222 -0.0092491405 0.06158479 0.070497565
0.008405148 -0.054819167 0.07086541 -0.01840214 -0.06729081 -0.02569244 0.071172774 0.0012417419
0.05345554 -0.05415857 0.052830253 -0.015786795 -0.0662986 0.018405313 0.07725015 0.05230794
0.027970381 0.08007121 -0.05119328 0.055571534 -0.04736853 -0.0869775 0.070652254 -0.058235206
0.060345933 0.050645985 -0.09077988 0.0067023262 -0.0044436785 -0.06799715 -0.039775647 0.05701933
0.014888474 0.035929415 0.00045912885 0.036229033 0.013666606 0.009359909 -0.048120387 0.02503457
0.0017765651 -0.025634117 0.06880645 0.08539275 -0.047333933 -0.054302294 0.047154807 0.07049723
-0.013955223 0.07514674 -0.06659769 -0.07018982 0.06439433 -0.052872986 -0.012141255 0.015911518
-0.055566106 -0.004698384 -0.06885916 -0.06026239 0.07302796 0.02405928 0.041943174 -0.013331288
-0.08318802 0.061751254 0.0150991725 -0.07980101 0.0024212585 -0.09039433 0.06237695 -0.048440978

bias f4 [120]
00000000: 0113 903d 3040 cd3d ee95 3b3d 1871 97bc
00000010: e9a8 203d 4997 5cbd 07da e63b 8db9 19bd
00000020: 88b4 06bd 7d48 4f3d 5ad4 553d 98f0 b2bc
00000030: 2040 d9bd 0b5b 6eb9 b787 94bd 532e 563d
00000040: 7a04 82bd 0c5b 7dbd 5b98 c0bd f1f4 913d
00000050: f11e 943c 364c 55bd efd4 9b3d 7d4c a3bd
00000060: caec 17bd 743d 48bd 90b4 c13c 72d3 513d
00000070: 6fb2 fabd 6bc4 f73c 2b88 e6bc dbcb 9cbd
00000080: a6d9 e93c 79a8 51bb 8615 8d3d 1015 60bb
00000090: bfbf 40bd d669 32bd e185 15bd 0714 723c
000000a0: 4de3 9bbb c583 fdbc 7c24 83bd 21de 8d3d
000000b0: 1880 713d 663e 8dbd a612 43bd fac9 a13d
000000c0: 9d29 70bd 36d0 443d 0917 0c3a 541b 763d
000000d0: ad02 54bd c5b4 ef3c 0037 c73b 79cb dbbd
000000e0: 6324 0d3d ee04 7b3d 2f9c 9c3d 2bd8 87bd
000000f0: 275b 86bd 460e 98bc ac57 0bbd ec27 5a3d
00000100: 8e99 9bbc bda9 a3bd e22b 5a3b cbe3 003e
00000110: 6268 d63c 0e18 c63c 7940 8c3b 0cd2 883d
00000120: f7c2 873c b3cb 863d a5b1 4d3c de6c 183c
00000130: 080a 593d 6ef8 9a3d c994 6f3d 1d63 a8bd
00000140: c62d 18bc 67f6 913c 40c6 7abd 2e75 263d
00000150: 8717 d93d 6937 06bd 55ec cfbd c10b 00bd
00000160: 7e47 df3d f41f 08bd c84a d63c 512f b13b
00000170: ca09 143c 5ef6 ccba b3de 0f3d fadb 2b3d
00000180: 6477 833c 62b3 e0bc c95d 2abd 723e 853d
00000190: db85 afbd 17fe 24bd 01fa 20bc 1052 d8bb
000001a0: 2333 41bd e706 8f3d 69ab 6b3d 819f 9bbc
000001b0: bd5a f2bd 1564 c8bd 3134 d3bb 2dfb 9cbd
000001c0: b437 473d ce0b b7bd 4e24 4a3d 43ba beba
000001d0: d825 ac3c f583 ca3a 1d8b 933d fe64 9f3d
0.07034875 0.100220084 0.04579728 -0.018486544 0.039223585 -0.053855214 0.007045034 -0.03753047
-0.03288701 0.05060624 0.052204467 -0.02184324 -0.10607934 -0.00022731365 -0.07252448 0.052290272
-0.0634851 -0.061854407 -0.094040595 0.07126797 0.01808116 -0.052074634 0.07608973 -0.07973573
-0.037091054 -0.04888673 0.02364567 0.05122704 -0.12241065 0.030245027 -0.028141102 -0.0765607
0.028546166 -0.0031991287 0.06888871 -0.0034192242 -0.047057863 -0.043557964 -0.03650463 0.014775283
-0.004757321 -0.030946622 -0.06403443 0.06927133 0.05896005 -0.06896667 -0.047625206 0.07899852
-0.058633436 0.048050128 0.00053440087 0.060084656 -0.051760364 0.029261002 0.0060795546 -0.10732169
0.03445853 0.061284 0.07646977 -0.06633028 -0.06560355 -0.018561494 -0.034019157 0.05326073
-0.018994119 -0.079913594 0.0033290316 0.12586896 0.02617282 0.024181392 0.0042801467 0.06680688
0.016572459 0.06581821 0.012554561 0.0093033 0.052988082 0.075669155 0.058491502 -0.08222029
-0.009288257 0.01781769 -0.061224222 0.040639095 0.106001906 -0.032767687 -0.10152499 -0.03126121
0.10902308 -0.033233598 0.026158705 0.005407252 0.009035537 -0.0015637388 0.035124492 0.041957833
0.01604814 -0.027429286 -0.041593347 0.06506051 -0.08570453 -0.04028138 -0.009825231 -0.0066015795
-0.04716791 0.069837384 0.057536516 -0.018996956 -0.11833713 -0.09784714 -0.0064454307 -0.076650955
0.048637107 -0.089377984 0.04935103 -0.001455136 0.021014139 0.0015450703 0.07204268 0.077829346

weight f4 [4, 120]
00000000: 6a08 db3c c223 8ebc 2466 ecbc 37e2 603d
00000010: 4be7 4d3d 9ff8 833b f3d2 3abc 1026 d8bc
00000020: 92aa f9bc 6e18 bfbc 9484 2ebc 1577 60bc
00000030: 6089 8b3b 1ab1 693b 5b0b 7fbc 2f00 713d
00000040: afc1 4cbc 308a bf3c 2637 83bd 163c 063d
00000050: b17c 1f3d 3699 463c 5be0 f03c 23d1 3bbd
00000060: 0d85 7c3d 307e a73b 47b9 50bc 621a bb3c
00000070: b15f 96bd a6d4 46bd 72d1 90bc 70b9 4ebd
00000080: bbe1 583c 193c 55bd c104 6fbd 467a 09bd
00000090: 2b10 6d3d 1140 0f3d 41d4 6b3d ac74 733d
000000a0: 53d3 4e3d 5d0a d53c 196e 4ebd 38d6 30bc
000000b0: fbde e93b 4474 d9bc ccba 82bc 472f 09bd
000000c0: 7259 5dbc 094b b3ba 53fb 273d 8091 933c
000000d0: 44e0 b13b 1001 bd3b cd3d 21bc 714e 3bbc
000000e0: 4097 8ebd 4b30 71bc 7aae 623d 8249 583d
000000f0: 65ff dcbc 19eb 593d 90c9 f9bc 9a41 803d
00000100: 1fde 013c 4821 ffbc b35d 0ebc c793 afba
00000110: 94d8 20bd fd05 6fbd d0d7 8fbd 9ae8 8fbd
00000120: 11ef 5d3d f46d 6fbc a703 d5bc e718 95bc
00000130: e1c9 533d ccd6 6e3d 4909 8ebd 2ff6 52bc
00000140: 5163 513d 95ae a53d 82d3 2ebd 26bd 7dbd
00000150: e0d9 063d 1e42 01bc c920 66bd c95a f1bc
00000160: dacf ff3c 884b 82bd 966e 28bc 2f1b 423d
00000170: 78fa c7bc 7c9f ef3a 39ee 1b3b 7360 863d
00000180: 61ec 6b3d 358c c5bc cd5d 8cbd 3841 913d
00000190: 266c b53c 3085 413d 06d7 4b3d 7d30 5cbd
000001a0: 0d53 22bd dd25 733b c0bf 5a3d 390b 30bd
000001b0: 4472 41bd ca1d c53c c348 f03c b1b0 5a3d
000001c0: cc06 473d 39f0 45bd 6127 92bb 6702 84bc
000001d0: 6fbe 76bd 6b97 0cbc 8881 dcbc 17e3 163d
000001e0: 7ce5 993c 7dd6 00bb facb c13c 1077 e03c
000001f0: 33a7 93bc d5c9 e439 25b1 23bd 46e0 a4bb
00000200: 8099 1e3d 3d5b 4e3d 1fde a4bd 589f bd3b
00000210: 45d2 4e3c 8b92 0cbd 1c1d 4ebb 2315 0fbc
00000220: 3c93 c03c cf72 cf3c 5d6c 0b3d 100b 493b
00000230: 9c2d 023d 454c 5b3b 9043 99bb 1caf bb3b
00000240: 6928 913d 59cb 8eba 3f87 22bc 8a54 cdbb
00000250: 0aab dabc 0538 803d 9a37 d9bc b745 6bbd
00000260: 3e46 bbbc f90b 123d 1d4f 58bd 34c7 cabc
00000270: 6fa9 2a3d d2a4 3b3d 1e9b e5bc fc20 693d
00000280: 4f96 1fbd 465f ac3c baed 363c ec5a 5ebd
00000290: fbd8 72bd e34e 6dbd 3f2b 1d3a 3ec7 133a
000002a0: 8737 403d 4dac 7bbc 33e3 113d 1d80 ffbc
000002b0: 78dc 5b3d 5fe1 37bc d3da e5bc 4ec7 493d
000002c0: b01d 193d f0fa 2ebd 83f2 b13b 5fc6 803d
000002d0: ff67 aabc c8b4 bb3d 4e19 a63c 65a4 a5bc
000002e0: 3426 1abd 0c60 843c b737 60bd 4db9 9abb
000002f0: 19a2 a9bc c7e5 7fbc e60b 963d 6a7f 19bd
00000300: 9b17 72bc 01de 6abc 58e8 13bd af0c 023d
00000310: 20d2 b23c ce01 26bd df82 61bd 5334 f13c
00000320: 0aa9 a83c b65e 93bd 5715 46bc 4e30 60bd
00000330: 833e 953b 789e 84bd 820f 183b 8879 723d
00000340: 2b0d 4c3b 05ff 1abd ac40 53bb 2541 a5bd
00000350: e19a 94bd 076d 173c 112c f7bc 1fe5 85bd
00000360: 528b f8bc 71cb 82bd b0a6 25bc 9ffe 94bc
00000370: e4d2 4d3d a957 f0bc ea45 b33c ffa7 c7bc
00000380: 44f3 39bb 8542 b4bb 102a 24bd 4659 1abd
00000390: df08 60b9 321b c23c 859a 78bd 6728 883c
000003a0: 90d3 dbbc 7eec afbc 4843 34bc 0506 e83c
000003b0: a393 02bd af02 1e3d 4a87 553d dd2a febc
000003c0: 753c 983d 24d9 21bd d59f 8f3c a23b ea3c
000003d0: f404 433d aa3c 1a3d 5085 a33d ebe5 6abd
000003e0: e81f 20bb 8cb9 c93b 5f6f 5fbc 8f15 a5bc
000003f0: 5a6a 2ebd da94 403d 3ee3 20bd 517b 0a3d
0.02673741 -0.017351035 -0.028857298 0.054903235 0.050269406 0.0040274407 -0.011402833 -0.026385337
-0.030476842 -0.023327079 -0.010651726 -0.013700266 0.0042583197 0.003565854 -0.015566672 0.058838066
-0.01249735 0.023381323 -0.06407003 0.032772146 0.038937274 0.012121489 0.029403856 -0.045853745
0.061650325 0.0051114783 -0.012739486 0.022839729 -0.073424704 -0.04854264 -0.017677996 -0.050469816
0.013237412 -0.052059267 -0.058354143 -0.033563875 0.057876747 0.034973208 0.057575468 0.05943744
0.050494503 0.026005918 -0.050397966 -0.010793261 0.007137177 -0.026544698 -0.015958212 -0.033492353
-0.013510095 -0.0013678978 0.041011166 0.018013716 0.005428346 0.005767949 -0.009841395 -0.011432276
-0.069624424 -0.014720987 0.055342175 0.052804478 -0.02697725 0.053202722 -0.03049162 0.062625125
0.007926493 -0.0311438 -0.008689332 -0.0013395482 -0.039269045 -0.05835532 -0.07023585 -0.07026787
0.05418307 -0.014613617 -0.026002718 -0.01820035 0.0517062 0.058310315 -0.06935365 -0.012876078
0.051120106 0.080899395 -0.04268218 -0.061947964 0.032922626 -0.007889299 -0.05618361 -0.029462235
0.031227041 -0.06362063 -0.010280272 0.047389206 -0.024411425 0.0018281783 0.0023793115 0.06561365
0.057598475 -0.024114707 -0.068538286 0.070925176 0.022146296 0.047246158 0.04976561 -0.05375718
-0.039629985 0.0037101426 0.053405523 -0.042979453 -0.047228113 0.024062056 0.02933157 0.053391162
0.048590466 -0.048324797 -0.0044602607 -0.016114427 -0.060240205 -0.008581023 -0.026917234 0.036837664
0.018786184 -0.0019659095 0.023656834 0.027400523 -0.018024063 0.00043637925 -0.03996386 -0.0050316183
0.038720608 0.05037998 -0.08050179 0.0057868175 0.012623374 -0.03431944 -0.0031450456 -0.008733067
0.023507707 0.0253233 0.03403889 0.003067676 0.031781778 0.0033462208 -0.0046772435 0.005727662
0.07087786 -0.0010894343 -0.0099199405 -0.0062661814 -0.026692886 0.06260685 -0.02651577 -0.057439532
-0.022860643 0.03565595 -0.052809823 -0.02475319 0.04166549 0.04581148 -0.028028067 0.056916222
-0.038961705 0.021041524 0.011165077 -0.05428593 -0.05928896 -0.05793656 0.0005995519 0.00056372944
0.046927955 -0.015360904 0.035617065 -0.031189019 0.053677052 -0.011223166 -0.028058445 0.049262337
0.037381828 -0.04271978 0.005430521 0.06287836 -0.020801542 0.09165341 0.020275738 -0.020219991
-0.03763409 0.01615908 -0.054740634 -0.0047217966 -0.020707177 -0.015618748 0.07326488 -0.037475027
-0.014776136 -0.014335156 -0.036110252 0.031750377 0.021828711 -0.040529065 -0.05505645 0.029443895
0.020588417 -0.07195799 -0.012090049 -0.054733567 0.004554571 -0.06475538 0.0023202603 0.059197932
0.0031135778 -0.03784086 -0.0032234592 -0.08069066 -0.07256103 0.009242303 -0.03017238 -0.06537842
-0.03033987 -0.063864596 -0.010110542 -0.018187819 0.05024995 -0.029338675 0.021883924 -0.024372099
-0.0028373757 -0.005501094 -0.040079176 -0.037682794 -0.0002136561 0.023694608 -0.060694236 0.016620828
-0.02683428 -0.021475073 -0.011002369 0.028323183 -0.03187908 0.038576778 0.052130975 -0.031026298
0.07433406 -0.039513722 0.017532269 0.028592888 0.047612146 0.03765551 0.07984412 -0.057348173
-0.002443308 0.006156152 -0.013637393 -0.020151882 -0.042581894 0.047016956 -0.039279215 0.03380901

bias f4 [4]
00000000: 2152 54bd 27f7 aa3b 873e d0bc 147a 50bd
-0.051836137 0.005217451 -0.02542044 -0.050897673

weight f4 [120, 16]
00000000: 00fa 763e 7cb3 363e d0e0 a03c 448f 59be
00000010: d86a f0bd a87b 2dbd 7650 343e 5080 903d
00000020: 003a 243e c00f c2bd 88fe 733e 0889 50be
00000030: 3c11 88bd 28d9 b13d 1413 8c3d 040c 393e
00000040: 9811 1abe 587f 4d3e e88f 37bd fcc3 1cbe
00000050: a815 96bd 7804 da3d e617 66be 6c78 bbbd
00000060: 8863 66be 7829 0bbd c09e 09bc 5629 703e
00000070: a808 0f3d 6021 05bc b009 f9bd dca0 2abe
00000080: f0d1 fcbd d2fb 39be d8ee 163d 10be e3bd
00000090: 20f0 a3bc 0a12 1fbe c6ed 6b3e b0ee 4fbe
000000a0: 00ac bb3b 383d ce3d b2b2 3abe b80e 8c3d
000000b0: d265 26be 32ee 4abe a69e 1c3e 921b 0dbe
000000c0: 841f 403e 00d1 66bb 34b4 ca3d 2624 00be
000000d0: ea4b 6f3e 38e1 99bd fcd9 c9bd c019 90bc
000000e0: 0012 f13c 0823 c8bd f4ae 1d3e 58dc 33bd
000000f0: e89b d9bd 0095 a7bd a09b 023d 98fd 243d
00000100: b481 b0bd 508d cbbc 66c8 123e 481f 563e
00000110: a8d3 08be 187f 573d 12a3 26be dc89 69be
00000120: ec5b e0bd fcd1 263e 9063 1cbe e491 20be
00000130: 4a6c 37be f099 b53d 704d cc3d 3c86 7fbe
00000140: ec90 bc3d 70d7 89bd 98dc 1bbe be32 2ebe
00000150: 94f4 123e 0010 fdba 582b 583e f4e4 373e
00000160: 9c1b 00be 08d4 6bbd 2889 dbbd dcb8 ac3d
00000170: f6a8 0cbe 0253 26be 7cd0 94bd 7098 f43c
00000180: 2a8b 323e 020f 45be 30dd 3fbe e405 b23d
00000190: d2bf 493e 60a5 443c 00b1 373b e07c 093c
000001a0: befe 40be a4a9 f93d fcbc 643e 160f 0a3e
000001b0: aef1 6cbe c4d4 223e 183b e23d 661b 76be
000001c0: e01a 17bd b0fd 483e 7ea5 6e3e 488e 1a3e
000001d0: 189b 373e 00a8 cb39 9834 fc3d b039 66be
000001e0: 80bd 32bc fc31 0a3e 80bc 553b 7030 913c
000001f0: 1055 de3d 9cb6 34be 4e81 08be 08fe f13d
00000200: ecff f43d 00a0 9e3b 28fd 073d 60c5 c6bc
00000210: f497 e2bd 0420 67be 00d4 7cbd 56a5 19be
00000220: e237 58be b22f 59be 4041 d03c dae1 3bbe
00000230: a253 623e 3e0c 3ebe 0833 46be a872 74bd
00000240: 3275 0ebe c467 173e c85b 9a3d 1875 583d
00000250: 2016 e1bd 688d e0bd 421b 443e f844 3bbe
00000260: 208a c83d 72d5 653e c4d9 8a3d 90be c33c
00000270: ac12 8a3d 0e6a 123e 186f ebbd 2c9f 81bd
00000280: 80bb 6abe 40e3 553d 0025 e43b e2d7 46be
00000290: b8ed 63be 6ca4 fa3d 661e 773e 485b 073e
000002a0: 96f6 48be 04dd edbd 0c3b d33d 8a09 70be
000002b0: 8065 3bbd a482 cc3d 6c65 3e3e 5894 353d
000002c0: 5035 0fbe 58fa dabd e0c3 703c 6023 fabc
000002d0: 3061 803d 587c 603e 1262 153e 5819 f53d
000002e0: 3087 5ebd 00a9 ec3c a8ee 06be e64a 673e
000002f0: 369a 1cbe 80e2 ea3d 5c82 b63d 44e6 c83d
00000300: 82da 05be e4e0 843d 784e 12bd 1a8f 173e
00000310: fc31 43be c085 253c f8e7 743e 4a2e 41be
00000320: 0841 f13d e04e f53d 7e1b 75be b0ab 153e
00000330: 4858 c8bd 88cd 3b3d 1898 783e 0ab3 66be
00000340: 40ff 723c 80b7 77bb 0cf7 b8bd a20b 7abe
00000350: 8065 01bc 9006 4f3d 5826 fe3d 70ca 50be
00000360: c0f1 aabb 1003 053d 58af bfbd 282d 023d
00000370: eea9 7a3e a4a8 34be 8687 463e 0043 4f3c
00000380: 546c 19be 78b6 f23d fce8 dabd 000b 24bc
00000390: 0aef 12be 30d1 e9bd 3ea6 6a3e d005 16bd
000003a0: ae82 133e 888e 563d 40ec 733d 0062 95bc
000003b0: b0bc b33c 3096 bb3d 4670 49be 68a8 5cbd
000003c0: 44ba 373e 4a8d 673e 78ef 90bd 348f 04be
000003d0: 1835 9abd 4892 383e 923f 223e 1055 cc3d
000003e0: 3052 f8bd 8c98 e83d 4870 58bd d0f2 833d
000003f0: a08d 52bd 4c71 87bd b8a9 d43d 4273 453e
0.24118805 0.17841905 0.019638449 -0.21246058 -0.11739129 -0.042354256 0.17608818 0.07055724
0.1603775 -0.0947566 0.23827565 -0.20364773 -0.06643912 0.086839974 0.06839576 0.1807099
-0.15045774 0.20068109 -0.044814974 -0.15309137 -0.07328349 0.106453836 -0.22470054 -0.09153828
-0.22498906 -0.033975095 -0.008399665 0.23453268 0.034920365 -0.008125633 -0.12160051 -0.16662925
-0.1234473 -0.18162468 0.036848873 -0.11120236 -0.020011961 -0.15534225 0.23039922 -0.20305896
0.005727291 0.1007027 -0.1823223 0.06838745 -0.16249779 -0.19817427 0.15294895 -0.13780048
0.18762022 -0.0035219789 0.09897652 -0.1251379 0.23368803 -0.0751366 -0.0985603 -0.017590404
0.029427528 -0.09772307 0.1539877 -0.043911308 -0.1062544 -0.08182716 0.031886697 0.04028091
-0.08618489 -0.024847656 0.14334258 0.2091037 -0.1336199 0.05261144 -0.16273144 -0.22806495
-0.10955033 0.1629104 -0.15272355 -0.15680653 -0.17912403 0.08867252 0.099757075 -0.2495355
0.09207329 -0.067305446 -0.15220869 -0.17011544 0.14351112 -0.0019307137 0.21110284 0.17958432
-0.12510532 -0.057575256 -0.1071952 0.08433697 -0.13736328 -0.16242602 -0.07266328 0.029857844
0.174359 -0.19244006 -0.1873672 0.0869253 0.1970208 0.012002319 0.0028029084 0.008391589
-0.18847176 0.121905595 0.22337717 0.13482317 -0.23139068 0.15901476 0.110464275 -0.24033889
-0.036890864 0.19628024 0.23305318 0.15093338 0.17930257 0.00038844347 0.12314719 -0.22482944
-0.010909438 0.1349563 0.0032613575 0.017723292 0.10856068 -0.17647785 -0.13330576 0.11816031
0.11962876 0.004840851 0.033200413 -0.024264038 -0.11064139 -0.22570807 -0.061725616 -0.15004477
-0.21115068 -0.212096 0.025421739 -0.18347874 0.22102216 -0.18559358 -0.19355404 -0.059679657
-0.13911894 0.14785677 0.07537037 0.052846044 -0.10990548 -0.10964471 0.19151023 -0.18288028
0.0979197 0.22444704 0.06779817 0.023894578 0.06741843 0.14298269 -0.11495799 -0.06329188
-0.22923088 0.052218676 0.0069624186 -0.1941829 -0.22258651 0.12238392 0.2413269 0.13218415
-0.19625315 -0.11614421 0.10313997 -0.23441139 -0.045751095 0.09985855 0.18593377 0.044330925
-0.13985181 -0.106922805 0.014695138 -0.030534446 0.06268537 0.21922433 0.14588192 0.119677246
-0.054328144 0.02888918 -0.13176978 0.22587165 -0.15293202 0.11468983 0.08911583 0.09809545
-0.13071635 0.06488207 -0.035719365 0.14800683 -0.19062036 0.010102689 0.23916614 -0.18865314
0.11779982 0.11977935 -0.23936269 0.14616275 -0.09782463 0.045850307 0.24276769 -0.22529235
0.014831364 -0.0037798584 -0.090314955 -0.244185 -0.007897735 0.050543368 0.12409657 -0.20389724
-0.005216807 0.032473624 -0.09359616 0.031781346 0.24478886 -0.17642456 0.19387636 0.012650251
-0.1498273 0.118512094 -0.106889695 -0.010012388 -0.14348999 -0.114168525 0.22914979 -0.036626637
0.14405319 0.052382022 0.059551477 -0.018235207 0.02194056 0.09159505 -0.19671735 -0.053871542
0.17942148 0.22612491 -0.07076925 -0.12945253 -0.07529658 0.18024552 0.15844563 0.09977162
-0.12125051 0.11357221 -0.052841455 0.06442797 -0.051404595 -0.066134065 0.10383934 0.19282249

weight f4 [120]
00000000: 0000 803f 0000 803f 0000 803f 0000 803f
00000010: 0000 803f 0000 803f 0000 803f 0000 803f
00000020: 0000 803f 0000 803f 0000 803f 0000 803f
00000030: 0000 803f 0000 803f 0000 803f 0000 803f
00000040: 0000 803f 0000 803f 0000 803f 0000 803f
00000050: 0000 803f 0000 803f 0000 803f 0000 803f
00000060: 0000 803f 0000 803f 0000 803f 0000 803f
00000070: 0000 803f 0000 803f 0000 803f 0000 803f
00000080: 0000 803f 0000 803f 0000 803f 0000 803f
00000090: 0000 803f 0000 803f 0000 803f 0000 803f
000000a0: 0000 803f 0000 803f 0000 803f 0000 803f
000000b0: 0000 803f 0000 803f 0000 803f 0000 803f
000000c0: 0000 803f 0000 803f 0000 803f 0000 803f
000000d0: 0000 803f 0000 803f 0000 803f 0000 803f
000000e0: 0000 803f 0000 803f 0000 803f 0000 803f
000000f0: 0000 803f 0000 803f 0000 803f 0000 803f
00000100: 0000 803f 0000 803f 0000 803f 0000 803f
00000110: 0000 803f 0000 803f 0000 803f 0000 803f
00000120: 0000 803f 0000 803f 0000 803f 0000 803f
00000130: 0000 803f 0000 803f 0000 803f 0000 803f
00000140: 0000 803f 0000 803f 0000 803f 0000 803f
00000150: 0000 803f 0000 803f 0000 803f 0000 803f
00000160: 0000 803f 0000 803f 0000 803f 0000 803f
00000170: 0000 803f 0000 803f 0000 803f 0000 803f
00000180: 0000 803f 0000 803f 0000 803f 0000 803f
00000190: 0000 803f 0000 803f 0000 803f 0000 803f
000001a0: 0000 803f 0000 803f 0000 803f 0000 803f
000001b0: 0000 803f 0000 803f 0000 803f 0000 803f
000001c0: 0000 803f 0000 803f 0000 803f 0000 803f
000001d0: 0000 803f 0000 803f 0000 803f 0000 803f
1.0 1.0 1.0 1.0 1.0 1.0 1.0 1.0
1.0 1.0 1.0 1.0 1.0 1.0 1.0 1.0
1.0 1.0 1.0 1.0 1.0 1.0 1.0 1.0
1.0 1.0 1.0 1.0 1.0 1.0 1.0 1.0
1.0 1.0 1.0 1.0 1.0 1.0 1.0 1.0
1.0 1.0 1.0 1.0 1.0 1.0 1.0 1.0
1.0 1.0 1.0 1.0 1.0 1.0 1.0 1.0
1.0 1.0 1.0 1.0 1.0 1.0 1.0 1.0
1.0 1.0 1.0 1.0 1.0 1.0 1.0 1.0
1.0 1.0 1.0 1.0 1.0 1.0 1.0 1.0
1.0 1.0 1.0 1.0 1.0 1.0 1.0 1.0
1.0 1.0 1.0 1.0 1.0 1.0 1.0 1.0
1.0 1.0 1.0 1.0 1.0 1.0 1.0 1.0
1.0 1.0 1.0 1.0 1.0 1.0 1.0 1.0
1.0 1.0 1.0 1.0 1.0 1.0 1.0 1.0

bias f4 [120]
00000000: 0000 0000 0000 0000 0000 0000 0000 0000
00000010: 0000 0000 0000 0000 0000 0000 0000 0000
00000020: 0000 0000 0000 0000 0000 0000 0000 0000
00000030: 0000 0000 0000 0000 0000 0000 0000 0000
00000040: 0000 0000 0000 0000 0000 0000 0000 0000
00000050: 0000 0000 0000 0000 0000 0000 0000 0000
00000060: 0000 0000 0000 0000 0000 0000 0000 0000
00000070: 0000 0000 0000 0000 0000 0000 0000 0000
00000080: 0000 0000 0000 0000 0000 0000 0000 0000
00000090: 0000 0000 0000 0000 0000 0000 0000 0000
000000a0: 0000 0000 0000 0000 0000 0000 0000 0000
000000b0: 0000 0000 0000 0000 0000 0000 0000 0000
000000c0: 0000 0000 0000 0000 0000 0000 0000 0000
000000d0: 0000 0000 0000 0000 0000 0000 0000 0000
000000e0: 0000 0000 0000 0000 0000 0000 0000 0000
000000f0: 0000 0000 0000 0000 0000 0000 0000 0000
00000100: 0000 0000 0000 0000 0000 0000 0000 0000
00000110: 0000 0000 0000 0000 0000 0000 0000 0000
00000120: 0000 0000 0000 0000 0000 0000 0000 0000
00000130: 0000 0000 0000 0000 0000 0000 0000 0000
00000140: 0000 0000 0000 0000 0000 0000 0000 0000
00000150: 0000 0000 0000 0000 0000 0000 0000 0000
00000160: 0000 0000 0000 0000 0000 0000 0000 0000
00000170: 0000 0000 0000 0000 0000 0000 0000 0000
00000180: 0000 0000 0000 0000 0000 0000 0000 0000
00000190: 0000 0000 0000 0000 0000 0000 0000 0000
000001a0: 0000 0000 0000 0000 0000 0000 0000 0000
000001b0: 0000 0000 0000 0000 0000 0000 0000 0000
000001c0: 0000 0000 0000 0000 0000 0000 0000 0000
000001d0: 0000 0000 0000 0000 0000 0000 0000 0000
0.0 0.0 0.0 0.0 0.0 0.0 0.0 0.0
0.0 0.0 0.0 0.0 0.0 0.0 0.0 0.0
0.0 0.0 0.0 0.0 0.0 0.0 0.0 0.0
0.0 0.0 0.0 0.0 0.0 0.0 0.0 0.0
0.0 0.0 0.0 0.0 0.0 0.0 0.0 0.0
0.0 0.0 0.0 0.0 0.0 0.0 0.0 0.0
0.0 0.0 0.0 0.0 0.0 0.0 0.0 0.0
0.0 0.0 0.0 0.0 0.0 0.0 0.0 0.0
0.0 0.0 0.0 0.0 0.0 0.0 0.0 0.0
0.0 0.0 0.0 0.0 0.0 0.0 0.0 0.0
0.0 0.0 0.0 0.0 0.0 0.0 0.0 0.0
0.0 0.0 0.0 0.0 0.0 0.0 0.0 0.0
0.0 0.0 0.0 0.0 0.0 0.0 0.0 0.0
0.0 0.0 0.0 0.0 0.0 0.0 0.0 0.0
0.0 0.0 0.0 0.0 0.0 0.0 0.0 0.0

running_mean f4 [120]
00000000: 0000 0000 0000 0000 0000 0000 0000 0000
00000010: 0000 0000 0000 0000 0000 0000 0000 0000
00000020: 0000 0000 0000 0000 0000 0000 0000 0000
00000030: 0000 0000 0000 0000 0000 0000 0000 0000
00000040: 0000 0000 0000 0000 0000 0000 0000 0000
00000050: 0000 0000 0000 0000 0000 0000 0000 0000
00000060: 0000 0000 0000 0000 0000 0000 0000 0000
00000070: 0000 0000 0000 0000 0000 0000 0000 0000
00000080: 0000 0000 0000 0000 0000 0000 0000 0000
00000090: 0000 0000 0000 0000 0000 0000 0000 0000
000000a0: 0000 0000 0000 0000 0000 0000 0000 0000
000000b0: 0000 0000 0000 0000 0000 0000 0000 0000
000000c0: 0000 0000 0000 0000 0000 0000 0000 0000
000000d0: 0000 0000 0000 0000 0000 0000 0000 0000
000000e0: 0000 0000 0000 0000 0000 0000 0000 0000
000000f0: 0000 0000 0000 0000 0000 0000 0000 0000
00000100: 0000 0000 0000 0000 0000 0000 0000 0000
00000110: 0000 0000 0000 0000 0000 0000 0000 0000
00000120: 0000 0000 0000 0000 0000 0000 0000 0000
00000130: 0000 0000 0000 0000 0000 0000 0000 0000
00000140: 0000 0000 0000 0000 0000 0000 0000 0000
00000150: 0000 0000 0000 0000 0000 0000 0000 0000
00000160: 0000 0000 0000 0000 0000 0000 0000 0000
00000170: 0000 0000 0000 0000 0000 0000 0000 0000
00000180: 0000 0000 0000 0000 0000 0000 0000 0000
00000190: 0000 0000 0000 0000 0000 0000 0000 0000
000001a0: 0000 0000 0000 0000 0000 0000 0000 0000
000001b0: 0000 0000 0000 0000 0000 0000 0000 0000
000001c0: 0000 0000 0000 0000 0000 0000 0000 0000
000001d0: 0000 0000 0000 0000 0000 0000 0000 0000
0.0 0.0 0.0 0.0 0.0 0.0 0.0 0.0
0.0 0.0 0.0 0.0 0.0 0.0 0.0 0.0
0.0 0.0 0.0 0.0 0.0 0.0 0.0 0.0
0.0 0.0 0.0 0.0 0.0 0.0 0.0 0.0
0.0 0.0 0.0 0.0 0.0 0.0 0.0 0.0
0.0 0.0 0.0 0.0 0.0 0.0 0.0 0.0
0.0 0.0 0.0 0.0 0.0 0.0 0.0 0.0
0.0 0.0 0.0 0.0 0.0 0.0 0.0 0.0
0.0 0.0 0.0 0.0 0.0 0.0 0.0 0.0
0.0 0.0 0.0 0.0 0.0 0.0 0.0 0.0
0.0 0.0 0.0 0.0 0.0 0.0 0.0 0.0
0.0 0.0 0.0 0.0 0.0 0.0 0.0 0.0
0.0 0.0 0.0 0.0 0.0 0.0 0.0 0.0
0.0 0.0 0.0 0.0 0.0 0.0 0.0 0.0
0.0 0.0 0.0 0.0 0.0 0.0 0.0 0.0

running_var f4 [120]
00000000: 0000 803f 0000 803f 0000 803f 0000 803f
00000010: 0000 803f 0000 803f 0000 803f 0000 803f
00000020: 0000 803f 0000 803f 0000 803f 0000 803f
00000030: 0000 803f 0000 803f 0000 803f 0000 803f
00000040: 0000 803f 0000 803f 0000 803f 0000 803f
00000050: 0000 803f 0000 803f 0000 803f 0000 803f
00000060: 0000 803f 0000 803f 0000 803f 0000 803f
00000070: 0000 803f 0000 803f 0000 803f 0000 803f
00000080: 0000 803f 0000 803f 0000 803f 0000 803f
00000090: 0000 803f 0000 803f 0000 803f 0000 803f
000000a0: 0000 803f 0000 803f 0000 803f 0000 803f
000000b0: 0000 803f 0000 803f 0000 803f 0000 803f
000000c0: 0000 803f 0000 803f 0000 803f 0000 803f
000000d0: 0000 803f 0000 803f 0000 803f 0000 803f
000000e0: 0000 803f 0000 803f 0000 803f 0000 803f
000000f0: 0000 803f 0000 803f 0000 803f 0000 803f
00000100: 0000 803f 0000 803f 0000 803f 0000 803f
00000110: 0000 803f 0000 803f 0000 803f 0000 803f
00000120: 0000 803f 0000 803f 0000 803f 0000 803f
00000130: 0000 803f 0000 803f 0000 803f 0000 803f
00000140: 0000 803f 0000 803f 0000 803f 0000 803f
00000150: 0000 803f 0000 803f 0000 803f 0000 803f
00000160: 0000 803f 0000 803f 0000 803f 0000 803f
00000170: 0000 803f 0000 803f 0000 803f 0000 803f
00000180: 0000 803f 0000 803f 0000 803f 0000 803f
00000190: 0000 803f 0000 803f 0000 803f 0000 803f
000001a0: 0000 803f 0000 803f 0000 803f 0000 803f
000001b0: 0000 803f 0000 803f 0000 803f 0000 803f
000001c0: 0000 803f 0000 803f 0000 803f 0000 803f
000001d0: 0000 803f 0000 803f 0000 803f 0000 803f
1.0 1.0 1.0 1.0 1.0 1.0 1.0 1.0
1.0 1.0 1.0 1.0 1.0 1.0 1.0 1.0
1.0 1.0 1.0 1.0 1.0 1.0 1.0 1.0
1.0 1.0 1.0 1.0 1.0 1.0 1.0 1.0
1.0 1.0 1.0 1.0 1.0 1.0 1.0 1.0
1.0 1.0 1.0 1.0 1.0 1.0 1.0 1.0
1.0 1.0 1.0 1.0 1.0 1.0 1.0 1.0
1.0 1.0 1.0 1.0 1.0 1.0 1.0 1.0
1.0 1.0 1.0 1.0 1.0 1.0 1.0 1.0
1.0 1.0 1.0 1.0 1.0 1.0 1.0 1.0
1.0 1.0 1.0 1.0 1.0 1.0 1.0 1.0
1.0 1.0 1.0 1.0 1.0 1.0 1.0 1.0
1.0 1.0 1.0 1.0 1.0 1.0 1.0 1.0
1.0 1.0 1.0 1.0 1.0 1.0 1.0 1.0
1.0 1.0 1.0 1.0 1.0 1.0 1.0 1.0
