neural_networks/tmp_benchmark_quantized1.pt (torch, 141009 bytes, 24 tensors)

1.weight f4 [120, 16]
0	0xbe8b6858	-0.27228045
1	0x3e60e222	0.21961263
2	0x3e8d9010	0.27648973
3	0xbcf081da	-0.029358793
4	0xbe49fa2c	-0.19724339
5	0xbe07a050	-0.13244748
6	0xbd2696e9	-0.040671263
7	0xbce3cd23	-0.027807778
8	0x3da67fad	0.08129821
9	0x3d6feb38	0.05857393
10	0xbe21fae7	-0.15818368
11	0xbe6a926b	-0.22907417
12	0xbe14d897	-0.14535747
13	0x3c936394	0.017991818
14	0x3e634f9d	0.22198339
15	0x3d4f08a4	0.05054535
16	0x3e9a8a15	0.30183473
17	0xbe17a8a9	-0.14810432
18	0xbdafba4d	-0.08580456
19	0x3de75fd3	0.11297574
20	0x3e90b58e	0.28263515
21	0xbd62694a	-0.055276193
22	0x3e590f35	0.21197207
23	0x3e2cf33e	0.16889665
24	0x3df289fb	0.11842724
25	0xbe2477ea	-0.16061369
26	0x3d8e7505	0.069559135
27	0xbe31f65e	-0.17379138
28	0x3e2bc865	0.16775663
29	0xbd50a369	-0.05093709
30	0xbe5b477c	-0.21413988
31	0xbc299316	-0.010350009
32	0xbd8e2d8a	-0.0694228
33	0xbc716930	-0.014734551
34	0xbe2b06f5	-0.16701873
35	0x3dca2306	0.098699614
36	0x3e03de7c	0.1287784
37	0xbd020c70	-0.031750143
38	0xbca4f430	-0.020135969
39	0xbdab7773	-0.083723925
40	0xbe717977	-0.23581491
41	0x3d74a0c1	0.05972362
42	0xbe052922	-0.13003972
43	0xbd2359c5	-0.039880533
44	0x3ba5674f	0.0050477157
45	0x3e1998e7	0.14999734
46	0xbd334f58	-0.04377684
47	0xbe004d22	-0.12529424
48	0x3e3bbd5c	0.18333954
49	0x3c8c2126	0.01710565
50	0xbe081486	-0.13289079
51	0x3db01a57	0.08598774
52	0xbe68cfcc	-0.22735518
53	0xbd55afa7	-0.05216947
54	0x3e28db40	0.16489887
55	0x3e1f92f7	0.15583406
56	0xbcbdacbc	-0.023153655
57	0xbe4c31e2	-0.19940904
58	0xbd7b536d	-0.061358858
59	0xbd7886cb	-0.060675424
60	0x3e04901c	0.12945598
61	0xbe6bfb48	-0.23045075
62	0xbdbd1ffd	-0.09234617
63	0x3e5acfe0	0.2136836
64	0x3e30f5ed	0.17281313
65	0xbe8fcf96	-0.28088063
66	0x3df7a01b	0.120910846
67	0x3e641498	0.22273481
68	0x3e49674a	0.19668308
69	0x3e29b478	0.1657275
70	0xbe89150a	-0.26773864
71	0x3e875b53	0.26436862
72	0x3e137082	0.14398387
73	0xbe843d1f	-0.25827882
74	0xbd1e01a6	-0.03857579
75	0x3d8a68c9	0.067582674
76	0xbdeed5b0	-0.116618514
77	0xbc3a7c20	-0.011382133
78	0xbdffa209	-0.12482078
79	0x3db3195e	0.08745073
80	0x3c840083	0.016113525
81	0xbe76f39f	-0.24116372
82	0x38dde6c2	0.00010581083
83	0xbe5b12ea	-0.21393934
84	0x3d8c6d95	0.068568386
85	0xbcc6fcca	-0.024290461
86	0x3dcbf0b4	0.0995802
87	0x3cf0c375	0.029390076
88	0x3e6282c9	0.22120203
89	0x3d725a34	0.059168056
90	0xbe0245d9	-0.12721957
91	0x3e4514ff	0.1924629
92	0xbd41e147	-0.04733398
93	0x3e4ad594	0.19808036
94	0x3e6f64bd	0.23378272
95	0x3df0c17c	0.11755654
96	0x3de57580	0.11204052
97	0x3c69aa5f	0.014261811
98	0x3e688581	0.22707178
99	0x3e499ddb	0.19689123
100	0x3de578e8	0.11204702
101	0xbcfa2d5a	-0.030539203
102	0x3d9feb42	0.07808544
103	0x3d3a007e	0.045410626
104	0x3e1c1cbd	0.15245338
105	0xbe113d72	-0.14183596
106	0xbcbf1bdc	-0.023328714
107	0xbc1cb9f7	-0.009565822
108	0xbe04c118	-0.12964284
109	0xbe413570	-0.18868041
110	0xbe1baafd	-0.15201946
111	0xbdf6fd11	-0.12059987
112	0x3e568107	0.20947658
113	0xbe477454	-0.1947797
114	0x3e4dba1c	0.20090526
115	0xbcf506be	-0.029910441
116	0xbc724476	-0.01478683
117	0x3e2d79ce	0.16940996
118	0xbe2512c4	-0.1612044
119	0x3e54b3f0	0.20771766
120	0x3d9ace75	0.0755891
121	0xbe7d80eb	-0.2475621
122	0x3ccbc3b9	0.024873601
123	0xbd866bf9	-0.06563563
124	0x3e777fb2	0.24169806
125	0xbc956852	-0.01823822
126	0x3df32a99	0.11873359
127	0xbd9e88f2	-0.07740964
128	0x3e176cac	0.14787549
129	0xbde22aeb	-0.11043342
130	0x3e70cb97	0.23515163
131	0x3e1dd35b	0.15412657
132	0x3e2be645	0.1678706
133	0x3daaae23	0.08333995
134	0xbdb4c927	-0.08827429
135	0x3c4113a8	0.011784472
136	0xbe4642d9	-0.19361438
137	0x3e031af6	0.12803254
138	0x3e6c8fd7	0.23101746
139	0x3e73b6f0	0.23800254
140	0xbd130da3	-0.035901677
141	0xbc238dd2	-0.009982543
142	0xbdf3074a	-0.11866625
143	0x3d0ea245	0.03482272
144	0x3e5f82d7	0.21827255
145	0x3e4879f3	0.1957777
146	0x3e11f20a	0.14252487
147	0xbe58e258	-0.21180093
148	0xbd652fea	-0.055953898
149	0xbd939de0	-0.07207847
150	0xbc9cf44d	-0.01915946
151	0x3e0d7ea3	0.1381784
152	0xbdcca264	-0.09991911
153	0xbd337200	-0.04380989
154	0x3e01f41f	0.12690781
155	0xbca9e7a0	-0.02074033
156	0x3dbb9f7b	0.09161278
157	0x3d969321	0.07352281
158	0x3df3c8b8	0.119035184
159	0xbe181b57	-0.1485418
160	0x3e21041a	0.15724221
161	0x3d7a765b	0.06114803
162	0xbd2a48c9	-0.04157332
163	0xbe8426a0	-0.2581072
164	0x3d9049af	0.07045304
165	0x3e2e48c3	0.17019944
166	0xbe1a00eb	-0.15039413
167	0xbcb1e491	-0.021715434
168	0xbe577874	-0.21042043
169	0x3e03ac77	0.12858759
170	0x3e084062	0.1330581
171	0xbd4e60b5	-0.050385196
172	0x3e1f595b	0.1556143
173	0xbe13702a	-0.14398256
174	0xbcca1606	-0.024668705
175	0x3e81d338	0.2535646
176	0xbe1e2577	-0.15443979
177	0x3ea0cc24	0.31405747
178	0x3c5e39b6	0.013563564
179	0x3ddbb321	0.107275255
180	0x3d074770	0.033027112
181	0xbe2549ea	-0.16141477
182	0xbe4952b6	-0.19660458
183	0x3e3dfaec	0.1855275
184	0x3dcbe770	0.099562526
185	0x3d202f11	0.039107386
186	0x3e36c36d	0.17847987
187	0xbe5f98b1	-0.21835591
188	0xbc3ab6b9	-0.011396104
189	0x3ca9e10e	0.020737197
190	0x3c42ee32	0.0118976105
191	0xbafbc39b	-0.0019208075
192	0xbd178391	-0.036990706
193	0xbe0d6e5f	-0.13811634
194	0xbda7a1d2	-0.08185162
195	0x3d2986ed	0.04138844
196	0xbb1e7aa7	-0.0024181993
197	0x3da43311	0.08017553
198	0x3e1921a8	0.14954245
199	0xbdfface3	-0.124841474
200	0xbe214281	-0.15748025
201	0x3d876094	0.06610218
202	0xbd9ab841	-0.07554675
203	0x3dac20d9	0.08404703
204	0xbdb9991c	-0.090624064
205	0xbdb434a9	-0.08799107
206	0x3e5269df	0.20548199
207	0xbd84c06e	-0.064820156
208	0x3cadba2f	0.021206943
209	0x3eb4e2a9	0.35329178
210	0x3b2338e4	0.0024905736
211	0x3ca7d6d3	0.020488178
212	0x3e524220	0.20533037
213	0xbe0d8983	-0.13821988
214	0x3d0ba2a7	0.034090664
215	0x3d2d44f7	0.042302098
216	0x3c8a9576	0.016916972
217	0x3df1e4c2	0.1181121
218	0x3cdc0f1b	0.026862672
219	0x3da4064e	0.08009015
220	0x3e0645ec	0.1311261
221	0x3e155ea1	0.1458688
222	0xbd1b74c2	-0.037953146
223	0xbccd3396	-0.025049012
224	0xbcfe75d9	-0.031062054
225	0xbd62bad9	-0.055353973
226	0xbd43669b	-0.047705274
227	0xbe23c4da	-0.15993062
228	0xbda79011	-0.08181775
229	0xbbd3bdf3	-0.0064618527
230	0xbdbb58c1	-0.09147788
231	0xbe213892	-0.15744236
232	0xbd235a12	-0.03988082
233	0xbe57d3cf	-0.21076892
234	0xbe035dc1	-0.12828733
235	0xbe82fa1b	-0.2558144
236	0xbdf77a85	-0.120839156
237	0x3e149673	0.14510517
238	0x3e054bb1	0.13017155
239	0xbe5b8e6b	-0.21441047
240	0x3e2e0f57	0.16998039
241	0xbe1638cb	-0.14670102
242	0x3e76d014	0.24102813
243	0x3e5328a6	0.20620975
244	0x3dfcef08	0.12350279
245	0xbbcd9825	-0.0062742406
246	0xbe186a4f	-0.14884304
247	0xbe207a65	-0.1567169
248	0xbc9b2573	-0.018938756
249	0xbbd32967	-0.0064441445
250	0x3d3abdd3	0.045591187
251	0x3e60bcd7	0.21947037
252	0x3e5e8f18	0.21734273
253	0xbe897b01	-0.26851657
254	0xbe3dabe8	-0.18522608
255	0xbdb9827f	-0.09058093

1.bias f4 [120]
0	0x3e03355a	0.12813321
1	0xbe73bcf9	-0.23802556
2	0x3e50c6f2	0.20388392
3	0x3e5e86b8	0.21731079
4	0x3da5fd5d	0.08104966
5	0xbde487cb	-0.11158713
6	0xbe5f3e03	-0.21801
7	0xbe4560a4	-0.19275147
8	0x3d437029	0.047714386
9	0x3e129d4f	0.14317821
10	0xbd4fccf3	-0.050732564
11	0x3d54094f	0.05176669
12	0xbe297ef4	-0.16552335
13	0xbe653152	-0.22382095
14	0xbe7de4cd	-0.24794312
15	0x3e57156c	0.21004266
16	0x3e076c4b	0.13224904
17	0x3da5ea40	0.0810132
18	0xbbb7cd61	-0.0056092
19	0x3b2e281d	0.0026574202
20	0xbddb97ae	-0.1072229
21	0xbdb978b6	-0.09056227
22	0x3e4fcd7a	0.20293227
23	0xbe3f2f47	-0.18670379
24	0xbe60aa68	-0.21940005
25	0xbe4f4b76	-0.2024363
26	0xbe1ab241	-0.15107061
27	0xbe556374	-0.2083872
28	0x3e5910ba	0.21197787
29	0x3e5bd2c3	0.21467118
30	0x3c78c2bc	0.015183147
31	0xbe3706d6	-0.17873701
32	0x3d926fd3	0.07150235
33	0xbe50a2db	-0.20374624
34	0x3e57c297	0.21070324
35	0xbe57e181	-0.21082117
36	0x3c5cc89e	0.013475565
37	0x3ddac849	0.106827326
38	0xbe7aaa57	-0.24479042
39	0xbe15513b	-0.14581768
40	0x3e4773ee	0.19477817
41	0xbdd5d739	-0.10441441
42	0x3e1630e3	0.14667086
43	0x3d997642	0.07493259
44	0xbe3c924a	-0.1841518
45	0xbe610a19	-0.21976508
46	0xbde67df9	-0.11254496
47	0x3e640601	0.22267915
48	0x3be0336e	0.0068420684
49	0xbd50c45f	-0.050968524
50	0xbdcf49d3	-0.10121503
51	0x3e04d82f	0.12973092
52	0x3dacc859	0.08436651
53	0x3c9b1aed	0.018933738
54	0xbd320189	-0.043458495
55	0x3e0d2407	0.13783275
56	0x3e451b53	0.19248705
57	0x3e1ed192	0.15509632
58	0x3dcf9160	0.1013515
59	0x3da8ecfc	0.08248326
60	0xbe63eb02	-0.22257617
61	0xbd1a3170	-0.037644804
62	0x3e61fcc3	0.22069077
63	0x3e6e655b	0.23280852
64	0xbe69959a	-0.22810975
65	0x3e2a0666	0.16604003
66	0xbdd95ec4	-0.10613778
67	0xbe74056c	-0.23830193
68	0x3e273ecd	0.1633255
69	0x3e2ee55e	0.17079684
70	0x3e357e05	0.17723854
71	0xbe3451cd	-0.1760933
72	0xbe4f9199	-0.20270385
73	0x3c9518a3	0.018200224
74	0x3d2d3ce5	0.0422944
75	0x3cee5a80	0.029095888
76	0x3e3eda45	0.1863795
77	0x3ddeea3a	0.10884519
78	0x3d4c3a82	0.049860485
79	0xbe7c5f88	-0.24645817
80	0x3e074ce8	0.13212931
81	0xbe724d00	-0.23662186
82	0x3e1d2863	0.15347438
83	0x3e7113a4	0.23542649
84	0x3d8839fa	0.06651683
85	0xbc9b9892	-0.01899365
86	0x3e3336d9	0.17501391
87	0xbda0f8f6	-0.078599855
88	0x3e0f341b	0.1398472
89	0xbca0a054	-0.0196077
90	0x3df05427	0.11734801
91	0xbe1354e5	-0.14387853
92	0x3e72106a	0.23639074
93	0xbe73f34c	-0.23823279
94	0xbe284be5	-0.16435201
95	0xbe3e93ef	-0.1861112
96	0x3e54ffc9	0.208007
97	0xbd16d26f	-0.03682178
98	0x3d8b6421	0.068062074
99	0xbe2e0761	-0.16995002
100	0xbe71c098	-0.23608625
101	0x3dcbc697	0.099499874
102	0x3e454b17	0.19266926
103	0x3e4345a8	0.1906954
104	0x3e1c59c7	0.15268622
105	0xbe348261	-0.1762786
106	0xbe2660c1	-0.16247846
107	0xbe7c7538	-0.2465409
108	0x3e659ea1	0.22423793
109	0x3dd95137	0.106111936
110	0x3e289305	0.16462334
111	0xbda8eb52	-0.08248009
112	0x3d9ae1d1	0.07562602
113	0x3dd7ebae	0.10542999
114	0xbe72c499	-0.23707809
115	0x3d14b862	0.036308654
116	0x3e6a76b7	0.22896849
117	0xbd47b6e9	-0.04875842
118	0xbe4c97e2	-0.19979814
119	0xbe185f2b	-0.14880054

2.weight f4 [120]
0	0x3f7be3aa	0.9839426
1	0x3f800208	1.000062
2	0x3f7e6f31	0.99388415
3	0x3f7429f2	0.95376503
4	0x3f8091cc	1.0044494
5	0x3f816959	1.0110275
6	0x3f80abee	1.0052469
7	0x3f7f42e6	0.99711454
8	0x3f7ed508	0.9954381
9	0x3f8223e9	1.0167209
10	0x3f7861aa	0.97024024
11	0x3f84ae26	1.0365646
12	0x3f7f24ce	0.99665534
13	0x3f8608ff	1.0471495
14	0x3f8262cb	1.0186399
15	0x3f7be914	0.98402524
16	0x3f7c72d3	0.9861271
17	0x3f7ae54c	0.9800613
18	0x3f804ccb	1.0023435
19	0x3f6f6f3e	0.9352912
20	0x3f83a256	1.0283916
21	0x3f792a1e	0.9732989
22	0x3f78f714	0.9725201
23	0x3f7af41c	0.9802873
24	0x3f87259d	1.0558354
25	0x3f80cf89	1.0063335
26	0x3f7f83fc	0.9981077
27	0x3f7b3aab	0.98136395
28	0x3f84b22d	1.0366875
29	0x3f8211a1	1.016163
30	0x3f835b3c	1.0262218
31	0x3f854e19	1.0414459
32	0x3f763804	0.96179223
33	0x3f847454	1.0348
34	0x3f7fa9a8	0.9986825
35	0x3f87c94d	1.0608307
36	0x3f8142f3	1.0098556
37	0x3f8150d6	1.0102794
38	0x3f81b080	1.0131989
39	0x3f84f4cd	1.0387207
40	0x3f838628	1.0275316
41	0x3f7d7003	0.9899904
42	0x3f7d3549	0.9890943
43	0x3f812e7a	1.0092309
44	0x3f791f8d	0.9731377
45	0x3f7cc8c7	0.9874386
46	0x3f7b2837	0.9810824
47	0x3f7a1ae3	0.97697276
48	0x3f83bd88	1.0292215
49	0x3f809037	1.0044011
50	0x3f8500be	1.0390851
51	0x3f7f25ac	0.9966686
52	0x3f803efe	1.0019224
53	0x3f808d10	1.0043049
54	0x3f820945	1.0159079
55	0x3f774d02	0.9660188
56	0x3f7c9401	0.98663336
57	0x3f7e5a8c	0.99356914
58	0x3f7b05fe	0.9805602
59	0x3f6f6004	0.93505883
60	0x3f822cfc	1.0169978
61	0x3f7eee6f	0.9958257
62	0x3f801967	1.0007752
63	0x3f7ecb3d	0.99528867
64	0x3f825947	1.0183495
65	0x3f831792	1.0241568
66	0x3f8023e7	1.0010957
67	0x3f7a9315	0.9788068
68	0x3f80d780	1.0065765
69	0x3f7d2405	0.98883086
70	0x3f8055ac	1.0026145
71	0x3f7e09e8	0.99233866
72	0x3f793b65	0.97356254
73	0x3f7cf625	0.98813087
74	0x3f7089a4	0.9396002
75	0x3f7a575d	0.97789556
76	0x3f79d782	0.97594464
77	0x3f7b2a88	0.9811177
78	0x3f83f0ff	1.0307921
79	0x3f81ae48	1.0131311
80	0x3f7b527b	0.9817273
81	0x3f82fac0	1.0232773
82	0x3f76d087	0.9641194
83	0x3f7ca93b	0.98695725
84	0x3f844e0e	1.033632
85	0x3f794278	0.9736705
86	0x3f865526	1.0494735
87	0x3f74a3de	0.9556254
88	0x3f7ea4c3	0.99470156
89	0x3f807a15	1.0037256
90	0x3f7bf63b	0.9842259
91	0x3f7ec9f8	0.9952693
92	0x3f8077d8	1.0036573
93	0x3f76fa5e	0.9647578
94	0x3f8068a9	1.003194
95	0x3f7c17bd	0.9847372
96	0x3f794684	0.97373223
97	0x3f7e74b4	0.99396825
98	0x3f81c535	1.0138308
99	0x3f8011f7	1.0005482
100	0x3f7d2a65	0.98892814
101	0x3f7e662b	0.99374646
102	0x3f816388	1.01085
103	0x3f762901	0.96156317
104	0x3f7c7830	0.9862089
105	0x3f7a714f	0.97829145
106	0x3f7ec8ed	0.9952534
107	0x3f80919b	1.0044435
108	0x3f83f716	1.030978
109	0x3f7e06d8	0.9922919
110	0x3f7cfe2c	0.98825336
111	0x3f7ee9e0	0.99575615
112	0x3f82bae2	1.0213282
113	0x3f77f5ad	0.96859246
114	0x3f79cb82	0.97576153
115	0x3f7c82cb	0.98637074
116	0x3f7ff731	0.9998656
117	0x3f82d7c9	1.0222102
118	0x3f7e734a	0.9939467
119	0x3f80540f	1.0025653

2.bias f4 [120]
0	0x3d99e2ea	0.075139835
1	0x3c747a91	0.0149218
2	0x3a374e6b	0.0006992581
3	0xbd3d1d30	-0.046170413
4	0xbb98fe8d	-0.0046690167
5	0x3d574295	0.052553732
6	0x3d7019e5	0.058618445
7	0x3c45fb14	0.0120837875
8	0x3bc14d76	0.0058991266
9	0x3b86e7b6	0.0041169776
10	0x3dbb0b2a	0.09132989
11	0xbbc85d90	-0.006114669
12	0x3d934ffd	0.07192991
13	0x3c9c881a	0.019107867
14	0x3c8800e0	0.01660198
15	0x3d05f3b6	0.032703124
16	0x3ce9a460	0.028520763
17	0x3cdba507	0.02681209
18	0x3d0a8a45	0.03382327
19	0xbc192211	-0.009346501
20	0x3d38c18e	0.045106463
21	0x3d4057f0	0.046958864
22	0x3d5366c8	0.05161169
23	0x3d01b84c	0.0316699
24	0x3cfac521	0.030611577
25	0x3cabc4ca	0.02096786
26	0x3cfaed8a	0.030630846
27	0x3dc96da6	0.09835367
28	0x3d6b748b	0.05748419
29	0x3be98bcd	0.0071272613
30	0x3e0a0948	0.13480103
31	0xbd3064be	-0.043064825
32	0x3d6020d4	0.054718807
33	0x3d93e505	0.072214164
34	0x3d8388dd	0.06422589
35	0x3dc1fd9f	0.094722025
36	0x3c0acbad	0.008471412
37	0x3c685672	0.014180766
38	0x3d71f7ee	0.059074335
39	0x3d4e3db7	0.050351825
40	0x3ca1a4cf	0.019731907
41	0x3d6fe09f	0.058563825
42	0xbbab64d2	-0.0052305246
43	0x3c0770b0	0.008266613
44	0xbd4a54f9	-0.049397442
45	0x3da243f0	0.07923114
46	0xbcc8d21f	-0.024514256
47	0x3cfa17dc	0.030528955
48	0x3da8cb85	0.08241943
49	0x3dfbfc15	0.1230394
50	0xbbd22228	-0.006412763
51	0x3dbab773	0.091170214
52	0x3d392fd6	0.045211636
53	0x3ca327ed	0.019916499
54	0x3d38e90f	0.045144137
55	0x3da4ac39	0.08040661
56	0x3b7e9ac1	0.0038849565
57	0xbcb6e559	-0.022326158
58	0x3d6ae2f6	0.057345353
59	0x3b4d74fe	0.003135025
60	0x3d9b29a9	0.075763054
61	0x3d655d97	0.055997457
62	0x3d300d79	0.0429816
63	0x3d1ad3a5	0.037799496
64	0xbb829200	-0.0039846897
65	0x3df11e35	0.1177334
66	0x3dd0fe9c	0.10204813
67	0xbc8fa052	-0.017532501
68	0x3d1db994	0.03850706
69	0x3b311b8e	0.002702448
70	0x3c3d9451	0.011571006
71	0xbc918c0c	-0.017766975
72	0x3cc8f7bd	0.024532193
73	0x3d1eaf3c	0.038741335
74	0x3b2309ab	0.0024877589
75	0x3d5b89ab	0.053598087
76	0x3d810792	0.06300272
77	0x3dc1acc0	0.094567776
78	0x3e00c93e	0.12576768
79	0xbb455b57	-0.0030114257
80	0x3de923ea	0.11383803
81	0x3d6eea9a	0.058329202
82	0xbd11dd42	-0.0356114
83	0x3d8e082c	0.069351524
84	0x3d3b931a	0.045794584
85	0x3d0a7469	0.033802424
86	0x3da964ca	0.08271177
87	0x3ccfcc45	0.025365958
88	0x3d0357c1	0.03206611
89	0x3dfeadf1	0.124355204
90	0x3d25a38c	0.040439174
91	0x3dc0ffa7	0.09423762
92	0x3d65f358	0.056140274
93	0x3db3dc59	0.08782262
94	0x3dd1bd07	0.10241132
95	0x3d9e2b21	0.0772307
96	0x3da37e63	0.07983091
97	0x3cac8904	0.021061428
98	0x3c8fa8c4	0.017536528
99	0x3c8c539a	0.017129708
100	0x3d895f18	0.06707591
101	0x3d19b1fa	0.037523247
102	0x3c9ad3b1	0.01889977
103	0x3d8d110e	0.068880185
104	0x3d933569	0.071879216
105	0x3cce312d	0.025169933
106	0x3da0c144	0.078493625
107	0xbbd01efc	-0.00635135
108	0x3c409cbd	0.011756119
109	0x3d42f12d	0.047593284
110	0x3ca9ef2a	0.020743925
111	0x3c9124f3	0.017717814
112	0x3c978a60	0.0184986
113	0x3d1d6ee5	0.038435835
114	0x3d33a2f6	0.043856584
115	0x3d2f7bc3	0.042842638
116	0xbda4e55d	-0.0805156
117	0x3c442da9	0.011973777
118	0x3d99d471	0.07511223
119	0xbd1b6bf5	-0.037944753

2.running_mean f4 [120]
0	0x3df3fb99	0.11913223
1	0xbe6f7bb7	-0.23387037
2	0x3e7b0d51	0.24516799
3	0x3e26cc4b	0.16288869
4	0x3c9fcc50	0.019506603
5	0xbdc6b8cb	-0.09703215
6	0xbe963839	-0.2933977
7	0xbe3f65b7	-0.18691145
8	0xbd2705c1	-0.04077697
9	0x3e35cd3b	0.1775407
10	0xbbe6a657	-0.007038872
11	0x3dbd233e	0.092352375
12	0xbe6bd0ba	-0.23028842
13	0xbe26f4b4	-0.16304284
14	0xbe4e4f36	-0.20147404
15	0x3e1c17b7	0.15243421
16	0x3e561c88	0.20909321
17	0x3e488289	0.19581045
18	0xbcd88d03	-0.026434427
19	0xbb1282f9	-0.0022355898
20	0xbd67ae84	-0.056562915
21	0xbe077d3e	-0.1323137
22	0x3e4d5a3d	0.20053954
23	0xbe8f19b3	-0.27949294
24	0xbe365c4a	-0.17808643
25	0xbeb34e2c	-0.35020578
26	0xbe21cc0d	-0.15800495
27	0xbe3648a6	-0.1780115
28	0x3e97d16c	0.29651964
29	0x3e33b7d6	0.17550597
30	0x3c8750fc	0.016518109
31	0xbea3ea7e	-0.3201484
32	0x3e0cfebe	0.13769051
33	0xbe700081	-0.23437692
34	0x3e6934c8	0.2277404
35	0xbe604c32	-0.21904066
36	0x3da7d347	0.08194595
37	0x3e6b4564	0.22975689
38	0xbe89709e	-0.26843733
39	0xbdbdabf7	-0.09261315
40	0x3d9d8b3e	0.07692574
41	0xbddc4355	-0.1075503
42	0x3e1a0175	0.15039618
43	0x3d83568a	0.064129904
44	0xbe0868bb	-0.13321202
45	0xbe93e26b	-0.2888368
46	0xbd8f3c9a	-0.06993981
47	0x3e1c0927	0.15237866
48	0x3c9c22d9	0.019059585
49	0xbdc60f43	-0.0967088
50	0xbdf6ca5d	-0.120503165
51	0x3dc00279	0.093754716
52	0x3ddf1306	0.108923
53	0x3d8314bc	0.06400439
54	0x3cb69697	0.022288604
55	0x3dff4f95	0.12466351
56	0x3e5df4e3	0.21675448
57	0x3e07c6b1	0.13259389
58	0x3e2741e8	0.16333735
59	0x3da172af	0.07883202
60	0xbe527c8a	-0.2055532
61	0xbca1f484	-0.019769914
62	0x3e5f8d0d	0.2183115
63	0x3e58ec24	0.2118383
64	0xbe35e7bf	-0.17764185
65	0x3e4cb95a	0.19992581
66	0xbd874b82	-0.06606199
67	0xbe17b047	-0.14813338
68	0x3e40fd61	0.18846656
69	0x3df5323a	0.119724706
70	0x3e5d3fff	0.21606444
71	0xbe2dd0e8	-0.16974223
72	0xbe35f99e	-0.17771003
73	0xbcf89348	-0.030343667
74	0xba945788	-0.001131759
75	0x3a364b9e	0.0006954017
76	0x3dd13a62	0.10216214
77	0x3de2f9c8	0.11082798
78	0x3dabcfff	0.083892815
79	0xbe089302	-0.13337329
80	0x3da31f0c	0.07964906
81	0xbe34781d	-0.17623945
82	0x3e6cf4fa	0.23140326
83	0x3ea16757	0.31524155
84	0x3d69b6d2	0.057059117
85	0xbc2083db	-0.009797062
86	0x3e315a9d	0.17319722
87	0xbdac1a61	-0.08403469
88	0x3d5b66a2	0.053564675
89	0xbd85a77a	-0.06526084
90	0x3e0c013b	0.13672344
91	0xbdaed06f	-0.08535849
92	0x3e8ee53c	0.27909267
93	0xbeb97045	-0.36218467
94	0xbe3f6f47	-0.18694793
95	0xbe73342e	-0.23750374
96	0x3e5d0733	0.21584778
97	0x3ca8f66e	0.02062532
98	0x3de43d3b	0.11144491
99	0xbdb05364	-0.086096555
100	0xbe73dd47	-0.2381488
101	0x3d6b5966	0.057458304
102	0x3e142a35	0.14469226
103	0x3e8c58cb	0.27411494
104	0x3e0a58e3	0.1351047
105	0xbddb9d94	-0.10723415
106	0xbe45d8e1	-0.19321014
107	0xbe76ff1e	-0.24120757
108	0x3e05bee7	0.13061105
109	0x3d85201d	0.06500266
110	0x3e37f8a7	0.17965947
111	0xbcb51731	-0.022105785
112	0x3d84b9b4	0.064807326
113	0x3dbba940	0.09163141
114	0xbe8bcddc	-0.27305496
115	0x3bb85173	0.005624944
116	0x3e8183d1	0.2529588
117	0xbdd1a58b	-0.10236653
118	0xbe51cdca	-0.20488659
119	0xbe3b7f26	-0.18310222

2.running_var f4 [120]
0	0x3e80054d	0.25004044
1	0x3eae52d0	0.34047556
2	0x3e0a4091	0.13501193
3	0x3e573eaa	0.21019998
4	0x3f160e8d	0.5861595
5	0x3e770e26	0.24126491
6	0x3edd02a1	0.43166068
7	0x3ebbc22c	0.3667158
8	0x3efdd637	0.49577495
9	0x3d913fe6	0.07092266
10	0x3e4531b1	0.19257237
11	0x3e969fd1	0.29418805
12	0x3df95547	0.121744685
13	0x3ec07e1b	0.3759621
14	0x3e894288	0.26808572
15	0x3ee4b32c	0.44667947
16	0x3eae824d	0.34083787
17	0x3ebba26d	0.3664736
18	0x3ed5b443	0.4173909
19	0x3ea65279	0.32484797
20	0x3e7e0178	0.24805248
21	0x3ea68046	0.3251974
22	0x3e6746a7	0.22585545
23	0x3e931dfd	0.28733817
24	0x3e832e07	0.25621054
25	0x3f033be5	0.51263267
26	0x3ec082ab	0.37599692
27	0x3e1e748f	0.15474151
28	0x3f157fae	0.5839795
29	0x3e506fd0	0.20355153
30	0x3e4c9081	0.19976999
31	0x3ebd78cf	0.37006232
32	0x3e9ecf63	0.31017599
33	0x3e655f23	0.22399573
34	0x3e241ed3	0.16027384
35	0x3dc8e502	0.09809305
36	0x3f0c3966	0.54775083
37	0x3f29a95e	0.6627406
38	0x3e329ce1	0.17442657
39	0x3ed896c7	0.42302534
40	0x3eb723a3	0.35769376
41	0x3ebb8919	0.36628035
42	0x3dbf89fe	0.09352492
43	0x3ed762df	0.4206762
44	0x3f07ca8d	0.5304344
45	0x3e9b6b25	0.30355182
46	0x3e96fb3c	0.29488552
47	0x3ed10208	0.40821862
48	0x3e89a363	0.26882467
49	0x3e8ec633	0.2788559
50	0x3e9f3b77	0.31100056
51	0x3e844242	0.258318
52	0x3f0b88ce	0.5450562
53	0x3ecc0e07	0.39854452
54	0x3eef35c4	0.46720707
55	0x3e935430	0.28775167
56	0x3e530c5c	0.20610183
57	0x3ea71f35	0.32640997
58	0x3ea25b25	0.31710163
59	0x3eeef524	0.46671402
60	0x3e98d8a7	0.29852793
61	0x3ed90687	0.42387792
62	0x3e9b56fc	0.303398
63	0x3e725a21	0.23667194
64	0x3e3650c5	0.17804249
65	0x3db33802	0.08750917
66	0x3e74ad85	0.23894317
67	0x3f01d8a2	0.5072118
68	0x3f19999c	0.60000014
69	0x3f09de10	0.53854465
70	0x3ef4a5a9	0.4778264
71	0x3e47ea45	0.1952296
72	0x3ec02785	0.3753015
73	0x3e8f4b98	0.2798736
74	0x3e77356a	0.2414147
75	0x3e23bd61	0.15990211
76	0x3eb29e76	0.3488652
77	0x3e147f84	0.14501768
78	0x3eb6a277	0.35670826
79	0x3f2a003e	0.6640662
80	0x3ec01097	0.37512657
81	0x3dfe1487	0.12406259
82	0x3eb70a2c	0.35749948
83	0x3ea7fca6	0.32809943
84	0x3e444ae9	0.19169201
85	0x3e98b522	0.29825693
86	0x3e256dac	0.16155118
87	0x3e3dd1b9	0.18537034
88	0x3e7b8090	0.24560761
89	0x3eb785ac	0.3584417
90	0x3e9a67da	0.30157357
91	0x3ed3dc26	0.41378897
92	0x3e23d208	0.1599809
93	0x3f006286	0.50150335
94	0x3e6a6769	0.2289101
95	0x3e5afc78	0.21385372
96	0x3dc7f0da	0.09762736
97	0x3edc08d1	0.42975476
98	0x3e4e7c77	0.20164667
99	0x3e980933	0.29694518
100	0x3ef8d716	0.48601598
101	0x3e68e3e3	0.22743182
102	0x3e9c65ae	0.30546325
103	0x3edd3c2d	0.43209973
104	0x3e59a886	0.21255693
105	0x3efde315	0.49587312
106	0x3df6ce2b	0.12051042
107	0x3de50e08	0.11184317
108	0x3e748eba	0.23882571
109	0x3ed0a9d0	0.40754557
110	0x3ead23ce	0.3381638
111	0x3ea68791	0.32525304
112	0x3e10f951	0.14157607
113	0x3eeadfa7	0.45873758
114	0x3ee8d65f	0.45476052
115	0x3f0f846d	0.5606144
116	0x3e4b281f	0.19839524
117	0x3e5ef6ba	0.21773806
118	0x3d9add01	0.075616844
119	0x3e641a55	0.2227567

4.weight f4 [120, 120]
0	0x3d2b4515	0.04181393
1	0x3d8570b0	0.06515634
2	0xbd804cf4	-0.06264678
3	0x3d3568d5	0.04428943
4	0xbd8976c4	-0.06712106
5	0xbc8a4281	-0.016877415
6	0xbd14328a	-0.03618101
7	0xbb536547	-0.003225641
8	0x3d30b29a	0.043139078
9	0xbd456ae5	-0.048197646
10	0xbd84b204	-0.06479266
11	0xbce77fa3	-0.028259104
12	0x3d1d05a9	0.038335476
13	0xbd40e30c	-0.04709153
14	0x3dbeedd7	0.09322708
15	0x3c1b6186	0.009483701
16	0x3aca7193	0.0015445225
17	0x3d5955d7	0.05306038
18	0x3d1c70de	0.038193576
19	0x3d150f01	0.036391262
20	0xbd8b697c	-0.06807229
21	0xbc036c5f	-0.008021443
22	0xbd8bd7bd	-0.06828258
23	0xbc07d61d	-0.008290795
24	0x3c37e732	0.011224555
25	0xbc8121a3	-0.01576311
26	0x3c7c0912	0.015383022
27	0x3d99a6ce	0.075025186
28	0xbdaf22be	-0.085515484
29	0x3c7b2eb6	0.015330961
30	0x3d65f8a0	0.05614531
31	0x3aa4eb93	0.0012582414
32	0x3db0fbf5	0.08641807
33	0xbbcbf326	-0.006224054
34	0x3d882040	0.06646776
35	0xb921b9f9	-0.00015423437
36	0xbc59e02b	-0.013298075
37	0x3d95be36	0.073116705
38	0xbcb76684	-0.02238775
39	0x3d320006	0.043457054
40	0x3cea49b9	0.028599607
41	0x3d359a22	0.044336446
42	0xbb91308b	-0.0044308356
43	0xbcab90e6	-0.020943116
44	0xba8ad4e8	-0.0010592015
45	0x3d9d1e63	0.076718114
46	0xbd4ad762	-0.04952181
47	0xbc6bbf25	-0.014388834
48	0xbc077708	-0.008268125
49	0x3cef4321	0.029206814
50	0x3bf805ce	0.0075690513
51	0x3db3d3af	0.0878061
52	0xbda262c3	-0.079289936
53	0xbde45248	-0.111485064
54	0xbc99de59	-0.018782781
55	0x3cc7d207	0.024392141
56	0x3d22a87d	0.039711464
57	0xbcd17e71	-0.025572987
58	0x3db6a036	0.089172766
59	0xbd3d7b94	-0.04626043
60	0xbd229875	-0.039696176
61	0x3d80fd76	0.06298344
62	0xbd78ea53	-0.060770344
63	0xbdbd9e4c	-0.09258708
64	0x3d8b0de7	0.06789761
65	0x3c207d26	0.009795463
66	0x3cc15918	0.023602054
67	0xbd8da906	-0.06917004
68	0xbdaeed46	-0.0854135
69	0x3d35287b	0.04422806
70	0x3d885cbb	0.06658312
71	0xbc4a460e	-0.012345804
72	0xbd2e573e	-0.04256367
73	0x3d0cfe00	0.03442192
74	0xbcef0430	-0.029176801
75	0x3d80abef	0.06282794
76	0x3ab7cfd9	0.0014023735
77	0x3d922e71	0.07137764
78	0x3d8d7a3c	0.0690808
79	0xbd0cfbdb	-0.034419876
80	0xbd6f204a	-0.058380403
81	0xbdea98a3	-0.114548944
82	0xbd34e01c	-0.04415904
83	0x3c3fd118	0.011707567
84	0xbd7534cb	-0.0598648
85	0xbd2e82ba	-0.04260514
86	0x3d0989ac	0.03357856
87	0xbcbd0e07	-0.023077978
88	0x3d892dbb	0.066981755
89	0xbdc35898	-0.09538382
90	0x3d926498	0.07148093
91	0x3d0fb2d3	0.03508265
92	0xbd3475a6	-0.04405751
93	0x3dc091c1	0.094028
94	0x3cd432bd	0.0259031
95	0x3d6eaa4f	0.058267888
96	0x3dab9a1d	0.08379004
97	0xbd07de90	-0.033171237
98	0xbd4466eb	-0.047949713
99	0xbd065702	-0.03279782
100	0xbd98abbb	-0.0745463
101	0xbcbb5e62	-0.022872154
102	0x3d4a0892	0.04932458
103	0x3d6c0a5c	0.057627067
104	0x3c0c5887	0.008566028
105	0x3d5b55dd	0.053548682
106	0x3ccb21fc	0.024796478
107	0x3bdfca1c	0.0068295132
108	0xbb9637fa	-0.0045843096
109	0xbd749a84	-0.05971767
110	0x3d988471	0.07447136
111	0x3b946c39	0.0045295027
112	0xbc83233e	-0.016008016
113	0xbcd8379c	-0.026393704
114	0xbc6cf9eb	-0.014463882
115	0xbcbb9c29	-0.022901611
116	0x3d6417df	0.055686828
117	0xbd4e44d4	-0.05035861
118	0xbb50f0dc	-0.0031881845
119	0xbd605eef	-0.054778036
120	0xbd809f03	-0.06280329
121	0x3df372c1	0.11887122
122	0x3cfab6b9	0.030604707
123	0x3ce1ab1c	0.027547412
124	0x3d364498	0.04449901
125	0xbcb2f83f	-0.021846889
126	0x3c2cf572	0.010556566
127	0xbbff9927	-0.0078002396
128	0x3d20a85c	0.03922306
129	0x3c95b61d	0.018275315
130	0xba1d0eb1	-0.0005991264
131	0xbc039f86	-0.008033639
132	0x3d0cad35	0.03434487
133	0x3db4f60a	0.08835991
134	0xbdbd3828	-0.092392266
135	0x3d1b3b3f	0.0378983
136	0x3cbb81f4	0.022889115
137	0x3c6c515b	0.0144236935
138	0xbd8ea4f6	-0.069650576
139	0x3d13609b	0.035980802
140	0x3d10dae1	0.03536499
141	0x3c899a00	0.016797066
142	0xbd5d9fd9	-0.05410752
143	0xbd34aa0a	-0.044107474
144	0x3c5e82c8	0.013580985
145	0x3cd062e3	0.025437778
146	0x3da1e5eb	0.079051815
147	0x3de097f2	0.10966481
148	0x3c9d01b5	0.019165853
149	0xbb9e6390	-0.004833646
150	0xbda3d946	-0.08000426
151	0xbdb48219	-0.08813877
152	0x3be52bda	0.006993753
153	0xbd022606	-0.031774543
154	0x3d5ae884	0.0534444
155	0x3ddec129	0.10876686
156	0x3d113396	0.035449587
157	0x3d5bb155	0.053635914
158	0xbcc5438e	-0.024080064
159	0x3dc2770d	0.094953634
160	0x3d339f3a	0.043853022
161	0x3dcda65d	0.10041497
162	0xbd3ace48	-0.04560688
163	0x3dc72080	0.09722996
164	0x3d0171d6	0.031602703
165	0x3d4f78b6	0.05065223
166	0x3c406b09	0.011744269
167	0x3d8b64b8	0.0680632
168	0x3d20e28d	0.039278556
169	0x3cf6e31f	0.030137597
170	0x3cd3d032	0.025856111
171	0x3d06c1d7	0.032899704
172	0x3c8c68c5	0.017139802
173	0x3d15207a	0.036407925
174	0x3cd1fcf7	0.025633318
175	0xbc9c5e81	-0.019088032
176	0x3d1c44f4	0.038151696
177	0x3d9db0a9	0.07699711
178	0xbda19465	-0.07889632
179	0xbd646b02	-0.055766113
180	0xbd8a2cd4	-0.067468315
181	0x3b9c0be4	0.0047621597
182	0x3a831b4c	0.0010002642
183	0x3c956e31	0.01824102
184	0xbce588d7	-0.028019352
185	0x3bfad092	0.007654258
186	0xbd2c42d5	-0.042055923
187	0xbb5e005b	-0.0033874724
188	0xbd7378ee	-0.0594415
189	0xbd4dd0e2	-0.050248034
190	0xbcf35444	-0.029703267
191	0x3be294f5	0.0069147297
192	0x3d9a70ef	0.075410716
193	0xbda3a289	-0.079899855
194	0x3d8b7782	0.06809904
195	0xbbca4a8a	-0.0061734365
196	0x3d3e76e4	0.0465001
197	0xbc9203b1	-0.017824026
198	0x3db13f27	0.086546235
199	0xbc066541	-0.008202852
200	0x3c51cb9c	0.012804892
201	0xbbf5861d	-0.007492794
202	0xbdc595ef	-0.09647738
203	0x3d6e9b92	0.058253832
204	0x3d106648	0.035253793
205	0x3cdb363a	0.026759256
206	0xbcc5f1ef	-0.024163214
207	0xbc9e4281	-0.01931882
208	0xbc2ac917	-0.01042392
209	0x3d7f4bec	0.062328264
210	0x3d43188f	0.047630843
211	0xbd5427a4	-0.051795617
212	0xbcf06f04	-0.029349811
213	0xbd06e7e6	-0.032936
214	0x3b1f33d8	0.0024292376
215	0x3d42edca	0.047590055
216	0x3d4761db	0.048677307
217	0x3d4f84fa	0.050663926
218	0xbd55f63b	-0.052236777
219	0x3b4eebe3	0.0031573705
220	0x3db9890d	0.090593435
221	0x3cd52f18	0.026023433
222	0x3dd70a24	0.10499981
223	0x3d5a12ae	0.05324047
224	0xbd4a1b30	-0.049342334
225	0x3d7145af	0.058904346
226	0x3db3bbe5	0.087760724
227	0xbdc5f88a	-0.09666546
228	0x3cb8a64b	0.022540232
229	0xbd22e04b	-0.039764684
230	0xbd731114	-0.05934246
231	0xbba386f5	-0.0049904534
232	0x3d3c8248	0.046022683
233	0x3ddc6947	0.107622676
234	0x3d269653	0.040670704
235	0xbd07ed65	-0.03318538
236	0xbd3924cb	-0.045201104
237	0x3c721f1e	0.014777927
238	0x3c887ba5	0.01666052
239	0x3d3206ae	0.0434634
240	0xbd83a040	-0.0642705
241	0xbd87c10d	-0.066286184
242	0x3de42c6c	0.11141285
243	0xbd63fa53	-0.05565865
244	0xbdab003c	-0.08349654
245	0x3d118c41	0.035534147
246	0x3c3130dd	0.010814873
247	0xbd7d01d7	-0.061769333
248	0xbd460985	-0.048348922
249	0xbd298279	-0.041384194
250	0x3d2a7f59	0.041625354
251	0xbd9b106e	-0.07571493
252	0x3d6c1f9a	0.057647325
253	0x3d2d9fd6	0.04238876
254	0xbc650d15	-0.01398017
255	0x3c894c14	0.01675991

4.bias f4 [120]
0	0x3d1bd999	0.038049314
1	0xbd00abd1	-0.031413857
2	0x3ce227e9	0.027606921
3	0x3d8480ef	0.06469905
4	0x3da712ff	0.0815792
5	0xbc4464ae	-0.0119868945
6	0xbc1932dc	-0.009350505
7	0x3bbb0f97	0.0057086456
8	0x3c9d0aea	0.019170243
9	0x3c9711c0	0.018441081
10	0xbdabab34	-0.08382264
11	0xbc8b85cc	-0.017031573
12	0xbdac9897	-0.08427542
13	0xbdb3a15e	-0.08771013
14	0x3beb8ad8	0.0071881823
15	0x3d6c0001	0.05761719
16	0xbd82df84	-0.063902885
17	0x3d80fa46	0.06297736
18	0xbce1ea69	-0.027577596
19	0xbd7757fc	-0.060386643
20	0x3c266e5b	0.010158147
21	0xbd6c04a2	-0.057621606
22	0xbd98a70a	-0.07453735
23	0xbd71f2d5	-0.059069473
24	0x3cc1ebd3	0.02367202
25	0x3ad9a364	0.001660448
26	0xbd06287e	-0.03275346
27	0x3b9bed4e	0.0047585135
28	0x3c8fc1fb	0.017548552
29	0x3c8a55be	0.016886588
30	0xbc775b12	-0.015097396
31	0xbd46dd8d	-0.04855113
32	0xbd6cef87	-0.05784562
33	0x3db96485	0.09052376
34	0x3d9461dd	0.072452284
35	0x3c29ecfb	0.010371442
36	0xbd3b6a9b	-0.045755964
37	0xbdb0ab70	-0.08626449
38	0x3d85858a	0.06519611
39	0x3cd0bae7	0.025479747
40	0x3d31cccf	0.04340821
41	0x3be95a5b	0.007121367
42	0x3cf3a523	0.02974183
43	0x3d6902ec	0.056887552
44	0x3c7eea29	0.015558758
45	0xbcdee060	-0.0272066
46	0x3cfd3673	0.030909752
47	0x3ca5d221	0.020241799
48	0xbcb9f8a6	-0.022701573
49	0x3d0b7891	0.034050528
50	0xbb5207aa	-0.0032048025
51	0x3d8fbb78	0.07018179
52	0xbd45a5df	-0.04825389
53	0xbd800464	-0.062508374
54	0x3ce7ba1a	0.028286982
55	0xbaa387a1	-0.0012476334
56	0x3d4536e0	0.048148036
57	0x3c6847a0	0.014177233
58	0xbac257b8	-0.0014827168
59	0x3c4e9f8f	0.012611284
60	0x3cb6b677	0.022303803
61	0x3b972019	0.0046119806
62	0x3d23b023	0.0399629
63	0xbc90dcd6	-0.017683428
64	0x3c263f91	0.010146991
65	0xbd4af699	-0.04955158
66	0xbd9668b5	-0.0734419
67	0x3d824a06	0.06361775
68	0xbd65e066	-0.056122206
69	0xbd8fcf69	-0.07021982
70	0xbc9a7cfb	-0.018858423
71	0x3d9521f5	0.072818674
72	0xbd6c34db	-0.057667594
73	0x3d813275	0.06308452
74	0x3d66e958	0.056374878
75	0x3db04b31	0.086080916
76	0x3c4dd973	0.012564051
77	0xbccc6041	-0.024948241
78	0xbc27e466	-0.0102473255
79	0x3c7b28c0	0.01532954
80	0xbd41cd7d	-0.04731511
81	0xbd9707bc	-0.07374522
82	0xbd48a77f	-0.04898786
83	0xbc606e47	-0.013698167
84	0xbd868336	-0.06567995
85	0x3cc74e3a	0.024329294
86	0xbd11ae3d	-0.035566557
87	0x3da0faec	0.078603595
88	0x3b850ae5	0.0040601366
89	0x3d91cbf4	0.07118979
90	0x3da8f911	0.08250631
91	0xbc280282	-0.010254504
92	0x3d377bdb	0.044795852
93	0x3d33a984	0.043862835
94	0xbd3a67a2	-0.04550899
95	0x3d6ad97e	0.057336323
96	0xbdba4dc8	-0.09096867
97	0x3cb0c430	0.021577924
98	0x3d99a96e	0.07503019
99	0xbd96682b	-0.07344087
100	0xbd91390c	-0.07090959
101	0x3ccaeb89	0.024770515
102	0x3d311b5c	0.043238983
103	0xbda32f1b	-0.07967969
104	0xbcb77d43	-0.022398597
105	0xbdae7cd2	-0.08519901
106	0x3da447df	0.08021521
107	0xbd0ceb00	-0.0344038
108	0x3b6a8c47	0.0035789178
109	0xbcd31697	-0.025767608
110	0x3cd02d26	0.025412153
111	0xbd8535d0	-0.065044045
112	0x3d6b5819	0.057457063
113	0x3db2be78	0.08727735
114	0x3c2a12b6	0.010380438
115	0xbd492b8a	-0.049113788
116	0xbd7fdaff	-0.06246471
117	0x3b660fb4	0.0035104575
118	0x3ce0aab7	0.027425153
119	0xbdb026cd	-0.08601151

5.weight f4 [120]
0	0x3f7aef86	0.98021734
1	0x3f80aa54	1.005198
2	0x3f75a918	0.9596114
3	0x3f834b5c	1.0257373
4	0x3f7fec84	0.9997027
5	0x3f7e6e2f	0.99386877
6	0x3f7d4340	0.9893074
7	0x3f7d4d84	0.98946404
8	0x3f84ba74	1.0369401
9	0x3f7d6628	0.98984003
10	0x3f7902f4	0.9727013
11	0x3f7e2122	0.99269307
12	0x3f7635a8	0.9617562
13	0x3f859f77	1.043929
14	0x3f7e8f02	0.9943696
15	0x3f76169a	0.9612824
16	0x3f811565	1.0084654
17	0x3f7f888a	0.9981772
18	0x3f811cb1	1.0086881
19	0x3f7ad9df	0.97988695
20	0x3f819299	1.0122863
21	0x3f80d910	1.0066242
22	0x3f7f65b7	0.9976458
23	0x3f8037ae	1.0016992
24	0x3f86725e	1.0503652
25	0x3f827e27	1.0194749
26	0x3f708c46	0.9396404
27	0x3f8498ce	1.0359132
28	0x3f7e7489	0.9939657
29	0x3f790f3d	0.97288877
30	0x3f7c442b	0.98541516
31	0x3f842bbd	1.0325848
32	0x3f69ce1f	0.9133014
33	0x3f85b250	1.0445042
34	0x3f825ed9	1.0185195
35	0x3f861c17	1.0477322
36	0x3f803a1f	1.0017737
37	0x3f771d7f	0.9652938
38	0x3f7c3b19	0.98527676
39	0x3f7a2b4f	0.97722334
40	0x3f7b3c6f	0.9813909
41	0x3f791231	0.9729338
42	0x3f7d2bc2	0.98894894
43	0x3f864fd5	1.0493113
44	0x3f811dc2	1.0087206
45	0x3f81dbb2	1.0145171
46	0x3f773a86	0.96573675
47	0x3f7e6679	0.9937511
48	0x3f73d215	0.95242435
49	0x3f813895	1.0095392
50	0x3f79751f	0.9744434
51	0x3f814c95	1.0101496
52	0x3f7f20d3	0.9965946
53	0x3f7f231f	0.99662966
54	0x3f6c0ed8	0.9221015
55	0x3f81979a	1.012439
56	0x3f78cc2b	0.97186536
57	0x3f818244	1.0117879
58	0x3f805f53	1.0029091
59	0x3f863d85	1.0487524
60	0x3f80595c	1.002727
61	0x3f8041fb	1.0020136
62	0x3f819cf3	1.0126022
63	0x3f80b12d	1.005407
64	0x3f86af2a	1.0522206
65	0x3f808c98	1.0042906
66	0x3f84cc4f	1.037485
67	0x3f81cc81	1.0140535
68	0x3f7b2217	0.9809889
69	0x3f8162b9	1.0108253
70	0x3f7b2821	0.98108107
71	0x3f79b465	0.97540885
72	0x3f848151	1.0351964
73	0x3f809b5b	1.0047411
74	0x3f81b0d5	1.013209
75	0x3f807903	1.003693
76	0x3f82aa99	1.0208312
77	0x3f824482	1.0177157
78	0x3f83c73a	1.0295174
79	0x3f89fc98	1.078021
80	0x3f7df716	0.9920515
81	0x3f81410f	1.0097979
82	0x3f803e32	1.001898
83	0x3f7da35a	0.9907738
84	0x3f781208	0.96902514
85	0x3f7fd971	0.99941164
86	0x3f7a0580	0.9766464
87	0x3f8164fb	1.0108942
88	0x3f7c786f	0.9862127
89	0x3f7a8bee	0.97869766
90	0x3f80b7c9	1.0056087
91	0x3f837559	1.0270187
92	0x3f8695e9	1.0514499
93	0x3f811f71	1.008772
94	0x3f83cda2	1.0297129
95	0x3f7bfcfc	0.984329
96	0x3f7a0628	0.97665644
97	0x3f84f658	1.0387678
98	0x3f84c92d	1.0373894
99	0x3f7d060f	0.9883737
100	0x3f7f1334	0.99638677
101	0x3f7aef31	0.9802123
102	0x3f7d2938	0.9889102
103	0x3f7fc8fc	0.9991605
104	0x3f70ac0f	0.9401254
105	0x3f7c5641	0.98569113
106	0x3f76f4a1	0.96467024
107	0x3f7c4374	0.98540425
108	0x3f7af1fb	0.9802548
109	0x3f790539	0.97273594
110	0x3f8ba205	1.090882
111	0x3f80e2ff	1.0069274
112	0x3f776d35	0.9665101
113	0x3f7f9997	0.99843735
114	0x3f88ec35	1.0697085
115	0x3f7da345	0.99077255
116	0x3f7ad54e	0.9798173
117	0x3f82e1f2	1.0225203
118	0x3f80aeec	1.0053382
119	0x3f7ebe95	0.99509555

5.bias f4 [120]
0	0x3d5cef38	0.053939074
1	0x3cafb75f	0.021449743
2	0xbc28e894	-0.010309357
3	0xbcd2f309	-0.025750654
4	0xbd9a2540	-0.07526636
5	0xbd54f068	-0.05198708
6	0xbd23e4d4	-0.04001315
7	0x3d36be56	0.044615112
8	0x3cea63c7	0.02861203
9	0xba2d95fe	-0.0006621777
10	0x3c8e20e8	0.017349675
11	0xbd4cf3ee	-0.050037317
12	0x3ce01c66	0.027357291
13	0xbd5a8b1b	-0.053355318
14	0xbd23870d	-0.039923716
15	0x3c39cba5	0.011340057
16	0x3d62b948	0.05535248
17	0xbd1c2ae4	-0.03812684
18	0x3c39315f	0.011303275
19	0xbd3e3836	-0.046440326
20	0xbce3a757	-0.027789755
21	0xbc8de7c2	-0.017322425
22	0xbc519525	-0.0127919065
23	0x3c65a469	0.014016249
24	0xbd35859b	-0.04431687
25	0x3ca4b740	0.020106912
26	0x3db57b22	0.08861376
27	0xbd0b2235	-0.03396817
28	0x3d4fb2fc	0.050707802
29	0xbbac6cf6	-0.0052620126
30	0x3d4e957f	0.05043554
31	0x3d7760d5	0.06039508
32	0xbda29d66	-0.079401776
33	0x3c8b9dc9	0.017043011
34	0x3d220779	0.039557908
35	0xbceb6664	-0.028735347
36	0x3ce90ea6	0.028449368
37	0x3ce0be91	0.02743462
38	0x3d036f7e	0.03208875
39	0x3c50cc33	0.012743997
40	0x3d28efe1	0.04124439
41	0xbd04eadc	-0.03245054
42	0xbd65aade	-0.056071155
43	0xbd4eb655	-0.050466854
44	0x3ce25994	0.027630605
45	0x3ccd82ed	0.025086844
46	0x3d0e4918	0.034737676
47	0xbcef84ee	-0.02923819
48	0xbc1694a0	-0.009190708
49	0xbc0b9d8b	-0.008521448
50	0x3cf4f06d	0.0298998
51	0xbcc26517	-0.023729844
52	0x3da29d59	0.07940168
53	0xb9c936e9	-0.0003837862
54	0xbc918368	-0.017762855
55	0x3d3a442e	0.045475177
56	0x3d93148b	0.07181653
57	0xbb9cd8c6	-0.0047865836
58	0x3db2e784	0.08735564
59	0xbd205f61	-0.03915346
60	0x3cca4c1a	0.024694491
61	0xbc5da102	-0.013527157
62	0x3d00705d	0.031357158
63	0x3d66a7f2	0.05631251
64	0x3dbb618d	0.09149466
65	0xbd065826	-0.03279891
66	0x3d2e6250	0.042574227
67	0x3c807c82	0.01568437
68	0x3c97a017	0.018508954
69	0x3cec376e	0.028835025
70	0xbd3b9214	-0.045793608
71	0xbd87a4d4	-0.06623235
72	0xbcc6d547	-0.02427162
73	0xbbe226af	-0.006901584
74	0xbd90dc16	-0.07073228
75	0xbc6e03b8	-0.014527254
76	0x3c9b974e	0.018993046
77	0x3da96eba	0.082730725
78	0x3c7dbfff	0.01548767
79	0x3d159d87	0.036527183
80	0x3d7e83c2	0.062137373
81	0xbd805d83	-0.06267836
82	0xbd4aa67e	-0.049475186
83	0x3d27d207	0.040971782
84	0x3cdcea38	0.026967153
85	0xbd622240	-0.055208445
86	0xba938bfc	-0.0011256929
87	0x3d5b2e08	0.053510696
88	0x3981a283	0.00024725878
89	0x3d6373d8	0.0555304
90	0x3d1a334a	0.03764657
91	0xbc07aa3f	-0.008280336
92	0x3cafe2fe	0.021470543
93	0xbc7ab95d	-0.015302983
94	0x3a9b0d6e	0.0011829564
95	0xbd566c71	-0.05234951
96	0x3a9beca9	0.0011896092
97	0x3d2aebe1	0.041728858
98	0x3d69208b	0.0569158
99	0x3ca65767	0.020305349
100	0x3c703393	0.014660734
101	0xbc05fa25	-0.008177315
102	0x3d427ffe	0.047485344
103	0xbd4b363c	-0.04961227
104	0xbd1ea8c1	-0.038735155
105	0x3b7a4a1e	0.003819115
106	0x3c13fdd8	0.009032689
107	0xbcb63b9d	-0.022245223
108	0x3c45baeb	0.0120684905
109	0x3d096ece	0.033552937
110	0x3d92eea1	0.07174421
111	0x3ce758bb	0.028240552
112	0x3d8d861c	0.06910345
113	0x3d6af74f	0.057364758
114	0xbd0ebfbb	-0.034850817
115	0x3da7288b	0.0816203
116	0x3d2d21ed	0.042268682
117	0x3d17e79d	0.037086118
118	0x3ce2126c	0.027596675
119	0x3c993494	0.018701829

5.running_mean f4 [120]
0	0x3e1b10db	0.15143149
1	0x3f16f621	0.5896931
2	0x3d282b21	0.041056756
3	0xbf262a81	-0.64908606
4	0x3e951e91	0.29124883
5	0xbcab26db	-0.020892551
6	0x3daf4cd4	0.08559576
7	0x3e976053	0.29565677
8	0xbea56c69	-0.32309273
9	0x3b67cf2e	0.0035371291
10	0xbe1c88a6	-0.15286502
11	0xbe0bf189	-0.13666357
12	0xbed4329f	-0.4144487
13	0xbf6eac95	-0.9323209
14	0xbe5ca427	-0.21546994
15	0x3eaf63f6	0.34255952
16	0x3e4d57c9	0.20053019
17	0xbeadcb42	-0.33944136
18	0xbe30cd9c	-0.17265934
19	0x3e29c4a6	0.16578922
20	0xbc6c616a	-0.014427522
21	0xbd952a47	-0.072834544
22	0xbcf3f375	-0.029779175
23	0x3c8b39ce	0.016995337
24	0xbea47a20	-0.32124424
25	0xbe483a3c	-0.19553465
26	0xbd471c76	-0.048611127
27	0x3f1077fc	0.5643308
28	0x3eabcab8	0.335531
29	0xbc37adc1	-0.01121086
30	0x3d1344e6	0.03595438
31	0xbe918657	-0.28422806
32	0x3f08979b	0.5335633
33	0xbe975323	-0.29555616
34	0x3eb3b801	0.3510132
35	0xbe68800f	-0.227051
36	0xbe482df7	-0.19548784
37	0x3e73b4a7	0.23799382
38	0x3e06a48e	0.1314871
39	0x3ec3e89d	0.38263407
40	0x3ef1b536	0.47208565
41	0xbe836595	-0.25663438
42	0x3ef9663c	0.4871081
43	0xbeca445c	-0.3950528
44	0x3effa5b4	0.4993111
45	0x3e93b3b2	0.28848034
46	0x3ec1f5ac	0.37882745
47	0xbdf5c30c	-0.12000093
48	0x3eb2f59f	0.3495302
49	0x3eed2b27	0.46321985
50	0x3dea6dbb	0.11446711
51	0xbeb5126e	-0.35365623
52	0x3e8e5d12	0.27805382
53	0x3f011017	0.50415176
54	0x3eece1b6	0.46265954
55	0xbe3aa3b4	-0.1822651
56	0xbe023492	-0.12715366
57	0xbe53980f	-0.20663475
58	0xbd4dac0e	-0.050212912
59	0xbf2bbb17	-0.6708235
60	0xbea6ef30	-0.3260436
61	0xbe8946fc	-0.2681197
62	0xbe88cc48	-0.26718354
63	0x3da7fb37	0.08202212
64	0xbdf7bcce	-0.120965585
65	0xbe6aa3a4	-0.22913986
66	0x3dd500b2	0.10400523
67	0xbef1973a	-0.4718569
68	0x3efa8f30	0.48937368
69	0x3f29940e	0.6624154
70	0x3e98a21a	0.29811174
71	0x3e78e84f	0.24307369
72	0xbf1a2e3f	-0.60226816
73	0xbe8d9918	-0.27655864
74	0x3f1dcd26	0.61641157
75	0xbe880b66	-0.26571196
76	0x3d9b128f	0.07571899
77	0x3e14000d	0.14453144
78	0x3e8441b4	0.25831378
79	0xbefc5e06	-0.49290484
80	0xbecfbe88	-0.4057505
81	0xbe57851e	-0.21046874
82	0xbe0ee708	-0.13955319
83	0x3e7209b6	0.23636517
84	0xbe227a5f	-0.15866993
85	0xbebc17f6	-0.3673703
86	0x3e83f531	0.25773004
87	0xbebe9b84	-0.37228024
88	0xbaf8b55c	-0.0018974948
89	0xbe3ef5e2	-0.18648484
90	0xbf2ed602	-0.682953
91	0xbebdb56d	-0.3705248
92	0xbe9d0cae	-0.30673736
93	0xbe7bd5d6	-0.2459329
94	0xbed80b9e	-0.42196363
95	0xbf0b8c63	-0.5451109
96	0x3e4ee4b9	0.20204438
97	0x3e441ff3	0.19152813
98	0xbebee76d	-0.3728594
99	0x3e8914d0	0.2677369
100	0xba5a366e	-0.00083241507
101	0xbe08baea	-0.13352552
102	0xbe3f0fb7	-0.18658338
103	0x3d61568e	0.055014186
104	0x3ecf78fc	0.4052199
105	0x3e986c9b	0.2977036
106	0x3e9310dd	0.28723803
107	0xbf5e22e2	-0.86771977
108	0x3ee89490	0.45425844
109	0xbdddb1bc	-0.10824916
110	0xbf6c981a	-0.9241959
111	0xbe10fc7a	-0.14158812
112	0xbddab31e	-0.10678695
113	0x3e7dac39	0.24772729
114	0xbe3fbb4e	-0.18723795
115	0xbe49f0c5	-0.19720753
116	0x3ce9c7ac	0.028537594
117	0xbdfb92f9	-0.12283892
118	0xbe817479	-0.25284174
119	0xbe5d71a6	-0.21625385

5.running_var f4 [120]
0	0x3e039843	0.12851052
1	0x3e5ab4de	0.21358058
2	0x3da3080f	0.079605214
3	0x3e49783f	0.19674776
4	0x3dda5e0a	0.10662468
5	0x3e58bef2	0.2116659
6	0x3de12e02	0.109951034
7	0x3de23f75	0.1104726
8	0x3e04b546	0.12959775
9	0x3dc6d84b	0.09709223
10	0x3dac321d	0.08407996
11	0x3d9dd8cc	0.07707366
12	0x3e071f71	0.13195588
13	0x3dd717a0	0.10502553
14	0x3dedd796	0.116133854
15	0x3e1b3605	0.15157326
16	0x3e25ee00	0.16204071
17	0x3dd4d340	0.10391855
18	0x3eccb540	0.39982033
19	0x3db55de4	0.08855799
20	0x3db10528	0.086435616
21	0x3dfa6849	0.12226922
22	0x3e2e4100	0.17016983
23	0x3e0b32ea	0.13593641
24	0x3e4d4810	0.20047021
25	0x3db0fea4	0.08642319
26	0x3de56c27	0.11202269
27	0x3e0db79f	0.13839577
28	0x3e78051d	0.242207
29	0x3e826b87	0.25472662
30	0x3e486e31	0.19573285
31	0x3e5344b5	0.20631678
32	0x3ddb526b	0.10709079
33	0x3e5cac4d	0.21550103
34	0x3df8a132	0.121401206
35	0x3e2a61e3	0.16638903
36	0x3e325e70	0.17418838
37	0x3e1c7bd6	0.15281615
38	0x3e4bf4bc	0.19917578
39	0x3dcbdd04	0.09954265
40	0x3e672eb2	0.22576407
41	0x3e1ac8da	0.15115681
42	0x3e4024b3	0.18764
43	0x3e202f37	0.15643011
44	0x3e50bf10	0.20385385
45	0x3e17dca7	0.14830266
46	0x3deaf9e3	0.11473443
47	0x3db5cee6	0.08877353
48	0x3e214630	0.1574943
49	0x3e139126	0.14410838
50	0x3dd0cd2e	0.10195385
51	0x3dbc3e76	0.09191601
52	0x3dc29df7	0.09502786
53	0x3e17cd43	0.14824395
54	0x3db8ba9b	0.09019967
55	0x3ea64d97	0.3248107
56	0x3e676815	0.22598298
57	0x3e034474	0.12819082
58	0x3e1cde4c	0.15319175
59	0x3e00a973	0.1256464
60	0x3db1c748	0.08680588
61	0x3ddf95d4	0.10917249
62	0x3e56e391	0.20985247
63	0x3e61da1b	0.22055857
64	0x3e414ad5	0.18876202
65	0x3e22160d	0.15828724
66	0x3e11a838	0.14224327
67	0x3dd2b690	0.10288727
68	0x3e22102e	0.15826485
69	0x3e27c656	0.16384253
70	0x3e28fd17	0.16502796
71	0x3d87c726	0.066297814
72	0x3e19adb1	0.15007664
73	0x3d9e4f9f	0.0773003
74	0x3e1466e8	0.1449238
75	0x3e1a62cc	0.1507675
76	0x3e10a111	0.14123942
77	0x3e442dbc	0.19158071
78	0x3e1ec625	0.15505274
79	0x3e1869fb	0.14884178
80	0x3e18c2f0	0.14918113
81	0x3dc2ffbb	0.09521433
82	0x3dcdf8f0	0.10057247
83	0x3e33a912	0.17544964
84	0x3e57ce12	0.21074703
85	0x3d9f8b16	0.077902004
86	0x3df6fabb	0.12059542
87	0x3e18a17f	0.14905356
88	0x3de4250d	0.111398794
89	0x3e03d19e	0.12872931
90	0x3e6ea87d	0.2330646
91	0x3e014b25	0.12626322
92	0x3e092352	0.1339238
93	0x3dfe7be6	0.124259755
94	0x3e176a89	0.14786734
95	0x3de983d2	0.11402096
96	0x3dc11f67	0.09429818
97	0x3e42ca46	0.19022474
98	0x3e3a98c2	0.18222335
99	0x3dead7a0	0.114669085
100	0x3d896c5a	0.067101195
101	0x3e4501ba	0.1923894
102	0x3e438fb5	0.19097789
103	0x3e1a1e38	0.1505059
104	0x3db8ad8c	0.090174764
105	0x3dc9d975	0.0985593
106	0x3dc071b1	0.09396685
107	0x3ea6326b	0.3246034
108	0x3e2556dc	0.16146415
109	0x3e501e34	0.20324022
110	0x3dfb89a8	0.12282115
111	0x3e195c66	0.14976653
112	0x3e70e943	0.23526482
113	0x3e34845a	0.17628613
114	0x3d333869	0.04375497
115	0x3e70fad7	0.23533188
116	0x3e41018e	0.1884825
117	0x3df3f1b7	0.11911338
118	0x3e6f3244	0.23359019
119	0x3e16ca47	0.147256
